raw_np/ResNet18_parametrized_hardtanh/activations/layer3.block2.act2_epoch_60.npz (npz, 303111 bytes, 2 tensors)

activations f4 [8, 256, 8, 8]
00000000: 5e4b ab3e 330e 133f b322 2f3f 785e 03be
00000010: 8f19 963d aa6d e03e 0016 353a af3b 50bf
00000020: e622 06bf af3b 50bf af3b 50bf af3b 50bf
00000030: af3b 50bf 7834 2bbe af3b 50bf af3b 50bf
00000040: e9aa d6be af3b 50bf 4f13 0abf af3b 50bf
00000050: af3b 50bf 0019 f7bc af3b 50bf e101 4fbf
00000060: cc71 4d3e f108 e5be 3c91 83be 8d2d 21bf
00000070: af3b 50bf 3c0a 2cbf 80df 003c 9854 323f
00000080: 86b2 d2be af3b 50bf af3b 50bf af3b 50bf
00000090: af3b 50bf af3b 50bf af3b 50bf b257 c6be
000000a0: af3b 50bf af3b 50bf af3b 50bf af3b 50bf
000000b0: af3b 50bf af3b 50bf af3b 50bf af3b 50bf
000000c0: af3b 50bf af3b 50bf af3b 50bf af3b 50bf
000000d0: 59c4 24bf af3b 50bf af3b 50bf 3ede d6bd
000000e0: af3b 50bf 7ced b03e 2853 fcbd 8817 4cbe
000000f0: 0690 c2be af3b 50bf b394 00bf 95ac 123e
00000100: 64ea 3abd af3b 50bf 02cc 1cbf 740a 08be
00000110: abd1 3d3f d573 883f a2a3 823e ea3a 2abf
00000120: e858 71bc af3b 50bf af3b 50bf 0820 093e
00000130: 441a f03e de33 973e d26c 1c3f 6a51 4b3e
00000140: b998 6d3f af3b 50bf 6018 fabc b022 86bd
00000150: 1ef8 c8be a7c3 f53e d573 883f d573 883f
00000160: d573 883f ddd8 32bf 586d c53e 74ff 3e3e
00000170: 7819 83bd 58df 59be d573 883f 2082 8a3c
00000180: a9f7 443f f105 20bf fead 253f b0b5 b5be
00000190: af3b 50bf 925b c3be 5a25 043f 689c 27bf
000001a0: af3b 50bf 104c 1bbf 431a 7c3f d573 883f
000001b0: ba1b 373f a669 723f 20a0 70be 0010 f53c
000001c0: d623 dfbe 6824 94be 63d1 873f d573 883f
000001d0: 4fc7 373f c4b2 c2be 70a1 4dbd 6c08 5f3e
000001e0: a008 593e 1ab5 133f f2fe 31bf 7046 6ebd
000001f0: c0ca f2bd 1d12 06bf c0ed fabd 5a7b eabe
00000200: 42c7 6d3f 84dd 4f3e d862 853d be39 e73e
00000210: d573 883f d573 883f d573 883f 54d9 093d
00000220: 22fe d43e cc31 4b3e dce7 09be d573 883f
00000230: 5d5a 633f d573 883f d573 883f d573 883f
00000240: 1c20 e7be f609 dcbe af3b 50bf af3b 50bf
00000250: af3b 50bf ead9 8bbe 8e2c 0f3f 62a6 e73e
00000260: 718b 3fbe 3825 90be af3b 50bf af3b 50bf
00000270: af3b 50bf af3b 50bf af3b 50bf af3b 50bf
00000280: 28e4 4bbf 2d0c 2cbf af3b 50bf af3b 50bf
00000290: af3b 50bf af3b 50bf af3b 50bf af3b 50bf
000002a0: af3b 50bf af3b 50bf af3b 50bf af3b 50bf
000002b0: af3b 50bf af3b 50bf 20cb 61be 00ef c8be
000002c0: 7f99 00bf af3b 50bf d549 09bf f02e cd3d
000002d0: 3802 c8bd 545d 773e 101a 2b3d d00d 9fbe
000002e0: 767d c2be 9097 52be 2c68 533f d573 883f
000002f0: 636c 593f a86e e63e ee47 6e3e 00f6 2f3e
00000300: e5ba 38bf af3b 50bf af3b 50bf aadb 243e
00000310: d573 883f 75d1 253f b96a 43bf 3b34 f93e
00000320: 7fcb 023f af3b 50bf 1659 29bf 1093 cd3e
00000330: d573 883f d573 883f d573 883f 1e3e bb3e
00000340: d573 883f d573 883f b9c4 85be d573 883f
00000350: d573 883f d573 883f d573 883f d573 883f
00000360: 4ddf 483f 1ba0 4d3f 9873 c2be d878 0e3f
00000370: 742a 423e d573 883f e697 553f d573 883f
00000380: af3b 50bf af3b 50bf c0a5 e33c 1ad8 ff3e
00000390: 9245 ec3e d573 883f 8f3d 173f d573 883f
000003a0: af3b 50bf 4815 1cbe aa7a b43e 55e3 debe
000003b0: cb4c 32bf 7466 dfbe af3b 50bf af3b 50bf
000003c0: 7bf2 e1be 938e 35bf 2105 623f 4dce 743f
000003d0: c5cf ef3e af3b 50bf 6089 213e 80b4 143d
000003e0: 70e6 ef3e 1011 7ebd 5865 1a3f bb12 403f
000003f0: e633 60be 5efb 43bf 102c 2fbf c0ac d33e
0.33455938 0.5744354 0.6841232 -0.12829006 0.07329094 0.43833667 0.00069078803 -0.8134107
-0.52397 -0.8134107 -0.8134107 -0.8134107 -0.8134107 -0.16719234 -0.8134107 -0.8134107
-0.4192727 -0.8134107 -0.5393571 -0.8134107 -0.8134107 -0.030163288 -0.8134107 -0.8086224
0.20062941 -0.44733384 -0.25696743 -0.6296013 -0.8134107 -0.67203116 0.007865787 0.6966033
-0.41151828 -0.8134107 -0.8134107 -0.8134107 -0.8134107 -0.8134107 -0.8134107 -0.3873878
-0.8134107 -0.8134107 -0.8134107 -0.8134107 -0.8134107 -0.8134107 -0.8134107 -0.8134107
-0.8134107 -0.8134107 -0.8134107 -0.8134107 -0.643621 -0.8134107 -0.8134107 -0.10491608
-0.8134107 0.34556186 -0.12320548 -0.19930851 -0.38000506 -0.8134107 -0.50226897 0.14323647
-0.04563369 -0.8134107 -0.6124879 -0.13285238 0.7414805 1.0660349 0.25515467 -0.66496146
-0.01473067 -0.8134107 -0.8134107 0.13391125 0.4689504 0.2953176 0.61103547 0.19855276
0.9281116 -0.8134107 -0.030529201 -0.06549585 -0.39251798 0.48000833 1.0660349 1.0660349
1.0660349 -0.6986216 0.38559985 0.18652135 -0.06401342 -0.21276605 1.0660349 0.016907752
0.769404 -0.62509066 0.64718616 -0.3549018 -0.8134107 -0.381558 0.51619494 -0.6547303
-0.8134107 -0.6066294 0.9847757 1.0660349 0.7152668 0.94692457 -0.23498583 0.029914856
-0.43582028 -0.28934026 1.0610775 1.0660349 0.71788496 -0.38027012 -0.050202787 0.21780556
0.21194696 0.57698214 -0.6952964 -0.058172643 -0.11855078 -0.5237139 -0.122523785 -0.45797235
0.9288217 0.20299345 0.065129936 0.4516124 1.0660349 1.0660349 1.0660349 0.033654526
0.41600138 0.19843215 -0.13467354 1.0660349 0.8880976 1.0660349 1.0660349 1.0660349
-0.45141685 -0.4297635 -0.8134107 -0.8134107 -0.8134107 -0.27314693 0.5592736 0.45244128
-0.18705536 -0.28153396 -0.8134107 -0.8134107 -0.8134107 -0.8134107 -0.8134107 -0.8134107
-0.79645014 -0.6720608 -0.8134107 -0.8134107 -0.8134107 -0.8134107 -0.8134107 -0.8134107
-0.8134107 -0.8134107 -0.8134107 -0.8134107 -0.8134107 -0.8134107 -0.22050142 -0.39244843
-0.50234216 -0.8134107 -0.53628284 0.10018718 -0.09766048 0.24156696 0.041772902 -0.31065226
-0.37986344 -0.20565629 0.8258083 1.0660349 0.8493101 0.450063 0.23269626 0.17183685
-0.7216018 -0.8134107 -0.8134107 0.1609942 1.0660349 0.6477273 -0.7633472 0.4867266
0.5109176 -0.8134107 -0.6615156 0.40151262 1.0660349 1.0660349 1.0660349 0.3657083
1.0660349 1.0660349 -0.2612665 1.0660349 1.0660349 1.0660349 1.0660349 1.0660349
0.7846573 0.80322427 -0.37978816 0.5565314 0.18961507 1.0660349 0.83434904 1.0660349
-0.8134107 -0.8134107 0.027788997 0.4996956 0.46146828 1.0660349 0.59078306 1.0660349
-0.8134107 -0.15242493 0.35249835 -0.43532816 -0.69648427 -0.43632853 -0.8134107 -0.8134107
-0.4413031 -0.70920676 0.88289076 0.9562729 0.46838203 -0.8134107 0.1577506 0.03630495
0.46855497 -0.06202799 0.6031089 0.7502858 -0.21894798 -0.7655543 -0.6842661 0.41342735

params f8 [2]
00000000: 0000 00e0 7507 eabf 0000 00a0 7a0e f13f
-0.8134106993675232 1.0660349130630493
