raw_np/ResNet18_parametrized_hardtanh/activations/layer2.block1.act1_epoch_40.npz (npz, 681835 bytes, 2 tensors)

activations f4 [8, 128, 16, 16]
0	0x3f20b59e	0.62777126
1	0x3f44c3cd	0.7686127
2	0x3f44c3cd	0.7686127
3	0x3f44c3cd	0.7686127
4	0x3f44c3cd	0.7686127
5	0x3f44c3cd	0.7686127
6	0x3f44c3cd	0.7686127
7	0x3f44c3cd	0.7686127
8	0x3f1e3323	0.6179678
9	0x3c893974	0.016751029
10	0x3e212f7f	0.15740775
11	0x3f44c3cd	0.7686127
12	0x3f44c3cd	0.7686127
13	0x3f44c3cd	0.7686127
14	0x3f44c3cd	0.7686127
15	0x3ec874fd	0.39151755
16	0x3eedf345	0.46474662
17	0x3f44c3cd	0.7686127
18	0x3f44c3cd	0.7686127
19	0x3f44c3cd	0.7686127
20	0x3f44c3cd	0.7686127
21	0x3f44c3cd	0.7686127
22	0xbf535729	-0.8255487
23	0xbe6424d2	-0.22279671
24	0xbeaf712a	-0.34266025
25	0xbcc05160	-0.023476303
26	0xbea62b46	-0.3245489
27	0xbefd7a6d	-0.49507466
28	0x3e237651	0.15963103
29	0x3f44c3cd	0.7686127
30	0x3ee9bb2b	0.4565061
31	0x3e838b33	0.25692138
32	0xbf1bf0c7	-0.6091427
33	0x3c56f94d	0.013120961
34	0x3f44c3cd	0.7686127
35	0x3f44c3cd	0.7686127
36	0x3f44c3cd	0.7686127
37	0x3e69a6ca	0.22817531
38	0xbf854245	-1.0410849
39	0xbf854245	-1.0410849
40	0xbe802ef4	-0.25035822
41	0xbe932c93	-0.28744945
42	0xbf854245	-1.0410849
43	0xbf854245	-1.0410849
44	0xbf854245	-1.0410849
45	0x3ed003f5	0.4062802
46	0x3f195b53	0.59904975
47	0xbf25d96b	-0.6478488
48	0xbf854245	-1.0410849
49	0x3e25e1f5	0.16199477
50	0x3f44c3cd	0.7686127
51	0x3dfa4d50	0.122217774
52	0xbf1ec7f1	-0.62023836
53	0xbe5d8182	-0.21631435
54	0xbf76eed7	-0.9645819
55	0xbf854245	-1.0410849
56	0xbf854245	-1.0410849
57	0x3e4abf4c	0.19799536
58	0xbef68530	-0.4814849
59	0xbf854245	-1.0410849
60	0xbf854245	-1.0410849
61	0xbf6cc283	-0.924843
62	0x3e9e6ecc	0.30943906
63	0xbeeafdd5	-0.45896783
64	0xbf854245	-1.0410849
65	0xbf01ad75	-0.506553
66	0xbf73815d	-0.9511927
67	0xbf2f3081	-0.68433386
68	0xbec85371	-0.3912616
69	0xbf854245	-1.0410849
70	0xbf854245	-1.0410849
71	0xbf854245	-1.0410849
72	0xbf854245	-1.0410849
73	0xbe19fd0b	-0.15037934
74	0xbee19cb8	-0.4406488
75	0xbf854245	-1.0410849
76	0xbf80ba47	-1.0056847
77	0xbf854245	-1.0410849
78	0x3e1b39e0	0.15158796
79	0x3e348d89	0.17632116
80	0xbf854245	-1.0410849
81	0xbee7a60d	-0.45243874
82	0xbf854245	-1.0410849
83	0xbf854245	-1.0410849
84	0x3f27446d	0.65338784
85	0xbf854245	-1.0410849
86	0xbf854245	-1.0410849
87	0xbf854245	-1.0410849
88	0xbf854245	-1.0410849
89	0xbe0419a8	-0.12900412
90	0xbf854245	-1.0410849
91	0xbf854245	-1.0410849
92	0xbf854245	-1.0410849
93	0xbf854245	-1.0410849
94	0xbf3da352	-0.7407733
95	0xbf3385c7	-0.70126003
96	0xbf854245	-1.0410849
97	0x3d8320f1	0.064027674
98	0xbf854245	-1.0410849
99	0xbf854245	-1.0410849
100	0x3f44c3cd	0.7686127
101	0x3f2ed482	0.6829301
102	0xbf0cf4e4	-0.55061173
103	0xbf854245	-1.0410849
104	0xbf854245	-1.0410849
105	0xbf854245	-1.0410849
106	0xbf854245	-1.0410849
107	0xbf854245	-1.0410849
108	0xbf854245	-1.0410849
109	0xbea414e9	-0.32047203
110	0xbf854245	-1.0410849
111	0xbf854245	-1.0410849
112	0xbf854245	-1.0410849
113	0xbf6a9483	-0.9163286
114	0xbf854245	-1.0410849
115	0xbf854245	-1.0410849
116	0xbe1a076c	-0.15041894
117	0x3f083231	0.53201586
118	0xbf116a09	-0.5680242
119	0xbf854245	-1.0410849
120	0xbf854245	-1.0410849
121	0xbe1078d5	-0.14108594
122	0xbf049ba5	-0.51799995
123	0xbf854245	-1.0410849
124	0xbf854245	-1.0410849
125	0x3f44c3cd	0.7686127
126	0x3ee8273c	0.45342433
127	0xbf854245	-1.0410849
128	0xbf854245	-1.0410849
129	0xbf854245	-1.0410849
130	0xbf854245	-1.0410849
131	0xbf3b766e	-0.73227584
132	0xbf854245	-1.0410849
133	0x3f44c3cd	0.7686127
134	0x3ec2aa5f	0.38020608
135	0xbf7bba33	-0.9833099
136	0xbf55b981	-0.8348618
137	0xbed9024f	-0.42384574
138	0x3e6d066c	0.23146981
139	0xbe689b32	-0.22715452
140	0xbea5472c	-0.32280862
141	0x3f44c3cd	0.7686127
142	0x3f44c3cd	0.7686127
143	0xbf262e2b	-0.64914197
144	0x3be88a37	0.0070965546
145	0x3db02418	0.08600634
146	0xbf2dfa44	-0.6796
147	0xbf854245	-1.0410849
148	0xbf854245	-1.0410849
149	0xbefddfbb	-0.49584755
150	0xbe56bd5b	-0.20970671
151	0xbf2e2172	-0.68019783
152	0xbf854245	-1.0410849
153	0xbf1e66b8	-0.61875486
154	0x3ee1ef0d	0.44127694
155	0x3ea8c2bd	0.32961074
156	0x3ecea2e5	0.40358654
157	0x3f38be8b	0.72165745
158	0xbf0f418f	-0.5595941
159	0xbf0d740a	-0.55255187
160	0x3f44c3cd	0.7686127
161	0xbd1b4e5a	-0.03791652
162	0xbf854245	-1.0410849
163	0xbf854245	-1.0410849
164	0xbf249e8b	-0.6430442
165	0xbf854245	-1.0410849
166	0xbe3e80cb	-0.18603818
167	0x3cf98122	0.030457083
168	0xbf854245	-1.0410849
169	0xbf854245	-1.0410849
170	0xbe0bfa90	-0.13669801
171	0xbf22040f	-0.6328744
172	0xbdd76522	-0.105173364
173	0xbf4c410b	-0.7978675
174	0xbf7ac7d0	-0.9796114
175	0xbf6e371c	-0.9305284
176	0x3f44c3cd	0.7686127
177	0x3f29dd65	0.66353446
178	0xbd0edcd6	-0.034878574
179	0xbf1e4ad0	-0.61832905
180	0xbf7bfdbe	-0.98434055
181	0xbf854245	-1.0410849
182	0xbf854245	-1.0410849
183	0x3c3317bb	0.010930951
184	0x3f22fbdf	0.63665575
185	0xbf7494e7	-0.95539707
186	0x3dc3d879	0.09562773
187	0xbe698588	-0.22804844
188	0xbecf86c0	-0.40532494
189	0xbf84dee2	-1.0380518
190	0xbf854245	-1.0410849
191	0xbf8084f0	-1.0040569
192	0x3de071ee	0.1095923
193	0x3f19e460	0.601141
194	0x3f44c3cd	0.7686127
195	0x3c23a7a2	0.009988697
196	0xbf854245	-1.0410849
197	0xbf854245	-1.0410849
198	0xbeee2d10	-0.46518755
199	0x3e9f699d	0.31135264
200	0x3f30f82b	0.69128674
201	0x3eaa289a	0.33234102
202	0x3f05c200	0.52249146
203	0x3e905653	0.2819086
204	0xbdb3f974	-0.08787814
205	0xbed3a9cb	-0.4134048
206	0xbe7c051b	-0.24611323
207	0xbf1d361a	-0.6141068
208	0xbeb8948f	-0.3605084
209	0xbe9037ed	-0.28167668
210	0x3f36b373	0.7136757
211	0x3f44c3cd	0.7686127
212	0xbe404a1d	-0.18778272
213	0xbf854245	-1.0410849
214	0xbf854245	-1.0410849
215	0xbf019ef2	-0.50633156
216	0xbd86d75f	-0.065840475
217	0x3f140170	0.57814693
218	0x3f069dcf	0.52584547
219	0x3f13e3cc	0.57769465
220	0x3f02b9e6	0.5106491
221	0x3f37168f	0.71518797
222	0xbe5ae88f	-0.21377777
223	0xbebbb203	-0.3665925
224	0xbee69b5a	-0.450404
225	0xbf26216c	-0.6489475
226	0x3e4067e5	0.18789633
227	0x3f44c3cd	0.7686127
228	0x3f42e40c	0.7612922
229	0x3f0d47e9	0.5518785
230	0x3f182167	0.5942597
231	0x3f44c3cd	0.7686127
232	0x3f44c3cd	0.7686127
233	0x3ecf6db5	0.40513387
234	0x3e6f81fb	0.23389427
235	0x3f3abb05	0.7294162
236	0x3ea23741	0.3168278
237	0x3e5705d6	0.2099832
238	0xbf626cd0	-0.88447285
239	0xbefb14d8	-0.4903934
240	0x3f294ca8	0.66132593
241	0x3e89d55e	0.269206
242	0x3ea66826	0.32501334
243	0x3f282f54	0.65697217
244	0x3f0cd68c	0.5501487
245	0x3e0d601d	0.13806196
246	0x3f44c3cd	0.7686127
247	0x3f44c3cd	0.7686127
248	0x3f44c3cd	0.7686127
249	0x3f44c3cd	0.7686127
250	0x3f44c3cd	0.7686127
251	0x3f44c3cd	0.7686127
252	0x3f44c3cd	0.7686127
253	0x3e9c8203	0.3056794
254	0xbe65ce79	-0.22442044
255	0xbe42bf92	-0.19018391

params f8 [2]
0	0xbff0a848a0000000	-1.041084885597229
1	0x3fe89879a0000000	0.7686126828193665
