raw_np/ResNet18_hardtanh/activations/layer3.block1.act1_epoch_80.npz (npz, 377584 bytes, 1 tensors)

activations f4 [8, 256, 8, 8]
0	0x3ee48dd7	0.44639465
1	0x3f800000	1.0
2	0x3f238394	0.6387265
3	0x3ec902c5	0.39259925
4	0x3e73dd6e	0.23814937
5	0xbeec258d	-0.461224
6	0x3eda89de	0.4268331
7	0xbdc6ddd2	-0.097102776
8	0xbf800000	-1.0
9	0xbf800000	-1.0
10	0xbeb2b5d4	-0.3490435
11	0xbf800000	-1.0
12	0xbf800000	-1.0
13	0xbf65be56	-0.89743555
14	0xbf800000	-1.0
15	0xbf800000	-1.0
16	0xbf800000	-1.0
17	0xbf800000	-1.0
18	0x3d474703	0.048651706
19	0xbd720391	-0.059085432
20	0xbf292bb8	-0.66082335
21	0xbf3dcb36	-0.741382
22	0xbee20ec6	-0.44151896
23	0xbf800000	-1.0
24	0xbf800000	-1.0
25	0xbf800000	-1.0
26	0x3f6bb975	0.9207986
27	0x3e5dbe4f	0.21654628
28	0x3d0b30b5	0.033981998
29	0xbf800000	-1.0
30	0xbf577c93	-0.8417446
31	0xbcef7339	-0.029229747
32	0xbf800000	-1.0
33	0xbf032a83	-0.5123674
34	0xbf800000	-1.0
35	0xbf293f47	-0.6611218
36	0xbf2099cc	-0.62734675
37	0x3ec51b71	0.384975
38	0x3e9349a8	0.28767133
39	0xbdb633a7	-0.08896571
40	0xbf0cb4fc	-0.5496366
41	0xbec30d5f	-0.3809614
42	0xbe671dcd	-0.22569962
43	0xbd4a48b6	-0.04938575
44	0xbe75f10f	-0.24017738
45	0xbf49d16d	-0.78835183
46	0xbf800000	-1.0
47	0xbf800000	-1.0
48	0xbf446319	-0.7671371
49	0xbf800000	-1.0
50	0xbf800000	-1.0
51	0xbf800000	-1.0
52	0xbf800000	-1.0
53	0xbf800000	-1.0
54	0xbf800000	-1.0
55	0xbf2bbc24	-0.67083955
56	0xbf18864e	-0.5957993
57	0xbf800000	-1.0
58	0xbf800000	-1.0
59	0x3d5cae47	0.05387714
60	0x3ea1f4f4	0.31632197
61	0xbf337a24	-0.70108247
62	0xbf36e355	-0.7144063
63	0xbf800000	-1.0
64	0x3eaf9b7d	0.34298316
65	0x3ee52702	0.44756323
66	0x3e4c02c5	0.19922931
67	0xbebaf968	-0.36518407
68	0xbe925a75	-0.28584638
69	0xbdc596fc	-0.096479386
70	0x3f1fb5ae	0.62386596
71	0x3e4fbedf	0.20287655
72	0x3f1eef4b	0.6208388
73	0x3f01db92	0.5072566
74	0xbf800000	-1.0
75	0x3efb0b15	0.49031892
76	0x3f000307	0.5000462
77	0x3f31257a	0.6919781
78	0x3f24bdbb	0.64352006
79	0x3f800000	1.0
80	0x3ef3e404	0.476349
81	0x3f800000	1.0
82	0x3f2174b3	0.63068694
83	0x3e1a6603	0.15077977
84	0x3f108bdd	0.56463414
85	0x3f6ff6d4	0.93736005
86	0xbecabcb4	-0.39597094
87	0x3f38b68d	0.7215355
88	0x3f697fee	0.9121083
89	0x3f800000	1.0
90	0x3f800000	1.0
91	0x3f65c176	0.8974832
92	0x3e2419af	0.16025423
93	0x3f800000	1.0
94	0xbf800000	-1.0
95	0xbe4cfbb7	-0.20017897
96	0x3f800000	1.0
97	0x3f800000	1.0
98	0x3f800000	1.0
99	0x3f34efc1	0.70678335
100	0xbf6fb5ed	-0.9363697
101	0x3eef1903	0.4669877
102	0x3f800000	1.0
103	0x3e95a14d	0.29224625
104	0x3e32204a	0.1739513
105	0xbd8e7702	-0.06956293
106	0x3f09f193	0.5388424
107	0x3e7ad9a2	0.24497083
108	0x3f4c8b82	0.7990037
109	0x3f12b148	0.5730176
110	0x3f21d24f	0.6321153
111	0x3f074c53	0.52850837
112	0xbea6df9c	-0.32592475
113	0x3e51c266	0.20484313
114	0x3f2bd020	0.6711445
115	0x3e2f4b91	0.1711867
116	0xbf40d354	-0.7532246
117	0xbf800000	-1.0
118	0xbf653a2e	-0.895419
119	0xbf800000	-1.0
120	0xbec8055d	-0.39066592
121	0x3dc38e11	0.095485814
122	0x3e7a4444	0.24440104
123	0xbe5ade03	-0.21373753
124	0xbf19f76d	-0.60143167
125	0xbf52766a	-0.82211936
126	0xbf800000	-1.0
127	0xbe8223e9	-0.25418022
128	0x3f3c0ece	0.7346009
129	0x3f52c50f	0.8233194
130	0x3f62aca8	0.885447
131	0x3f17b076	0.59253633
132	0x3c8b42e6	0.016999673
133	0x3ddd1880	0.10795689
134	0x3e058dae	0.13042328
135	0x3ecffab3	0.40620956
136	0x3f800000	1.0
137	0x3f800000	1.0
138	0x3f6c6065	0.92334586
139	0x3f18f651	0.5975085
140	0xbefa1d03	-0.4885026
141	0x3f6dbc77	0.928657
142	0xbcdf0265	-0.027222821
143	0x3f6b2fd9	0.91869885
144	0x3e9dcad6	0.30818814
145	0x3f4f3a8e	0.8094872
146	0xbd760230	-0.06006068
147	0x3e65fc8a	0.22459617
148	0xbeaa1a8e	-0.33223385
149	0x3f800000	1.0
150	0x3f800000	1.0
151	0x3ceb1cf5	0.028700331
152	0xbdef4bb9	-0.11684365
153	0xbf148a73	-0.58023757
154	0xbee900ac	-0.45508325
155	0xbf179e2d	-0.5922573
156	0xbe440799	-0.19143523
157	0xbe944f80	-0.28966904
158	0xbf741880	-0.95349884
159	0x3ec320d9	0.38110998
160	0xbe3906bf	-0.1806898
161	0xbd2a58ed	-0.041588712
162	0xbf5d9912	-0.8656169
163	0x3e882ede	0.26598257
164	0x3f0f00c6	0.55860555
165	0xbf545004	-0.82934594
166	0xbf0bc40f	-0.54596037
167	0x3f7067a5	0.9390815
168	0xbf800000	-1.0
169	0xbf483dd9	-0.7821937
170	0xbf6cce4e	-0.92502296
171	0xbf800000	-1.0
172	0xbf4d5738	-0.8021121
173	0xbf800000	-1.0
174	0xbf800000	-1.0
175	0xbef94970	-0.4868884
176	0xbf49d0c5	-0.7883418
177	0xbf800000	-1.0
178	0xbf0b9a71	-0.54532534
179	0xbf800000	-1.0
180	0xbf800000	-1.0
181	0xbf800000	-1.0
182	0xbf800000	-1.0
183	0xbf800000	-1.0
184	0xbde6b13e	-0.11264275
185	0xbf800000	-1.0
186	0xbf64d139	-0.8938175
187	0xbf800000	-1.0
188	0xbf800000	-1.0
189	0xbf7494bc	-0.9553945
190	0xbed4410c	-0.41455877
191	0xbefd5690	-0.49480104
192	0x3f4837ab	0.7820994
193	0xbea24dd2	-0.31699997
194	0x3ec47920	0.3837366
195	0x3f2d51b3	0.6770279
196	0x3f79bc09	0.97552544
197	0x3f2c4a9f	0.6730136
198	0x3f800000	1.0
199	0x3f2b43e9	0.669005
200	0x3f0b9ad0	0.545331
201	0x3f800000	1.0
202	0xbeb68992	-0.35651833
203	0x3e81bc7f	0.25339124
204	0xbf19ccc5	-0.6007808
205	0x3f42c118	0.7607589
206	0x3f800000	1.0
207	0x3f800000	1.0
208	0xbe029ca4	-0.12755066
209	0x3f800000	1.0
210	0xbf03b739	-0.5145145
211	0x3ac4cd70	0.0015014838
212	0xbeea749a	-0.45792085
213	0xbf2724f8	-0.65290785
214	0xbeb14689	-0.34624127
215	0x3f1d8524	0.6153128
216	0xbf732d0b	-0.94990605
217	0xbf2a0079	-0.6640697
218	0xbe7dc976	-0.24783882
219	0x3e285df7	0.16442095
220	0x3f038c3c	0.51385856
221	0xbe69b9f8	-0.22824848
222	0xbf800000	-1.0
223	0xbedf3bb3	-0.43600234
224	0xbf2c3200	-0.67263794
225	0xbeac6889	-0.33673504
226	0xbeb39308	-0.35073113
227	0x3f00ee0d	0.50363237
228	0x3efe6df6	0.4969327
229	0xbdaed31d	-0.085363604
230	0x3ee96161	0.45582107
231	0x3f800000	1.0
232	0xbd7c666f	-0.061621126
233	0xbe9db050	-0.30798578
234	0x3e2c2564	0.16811138
235	0x3f800000	1.0
236	0x3f800000	1.0
237	0xbec7378f	-0.38909575
238	0xbef5294f	-0.47883078
239	0xbee20fa4	-0.44152558
240	0x3f800000	1.0
241	0x3f404011	0.7509776
242	0x3f29102b	0.66040295
243	0x3f800000	1.0
244	0x3e7401a1	0.23828746
245	0xbf50f25b	-0.81619805
246	0xbf54987a	-0.8304516
247	0xbebbabb2	-0.3665443
248	0xbf26dfc9	-0.6518522
249	0xbd12a5fd	-0.03580283
250	0xbf800000	-1.0
251	0xbf1b6a47	-0.6070904
252	0xbf5a2f64	-0.8522856
253	0xbf5473b7	-0.82989067
254	0xbe3b2f88	-0.1827985
255	0xbf433fb4	-0.7626908
