checkpoint/best_LeNet5_relu6.ckpt (torch, 252036 bytes, 10 tensors)

conv1.0.weight f4 [6, 3, 5, 5]
000000 58 2a ad bd f3 43 6f 3c 98 e7 aa 3d ef 48 10 3e
       -0.08455342 0.014603603 0.08344954 0.14090322
000010 d8 2c f7 3d df ab 82 3c de 48 47 3d be c6 bd 3d
       0.120691 0.015951095 0.048653476 0.09266423
000020 94 b5 26 3e a7 d8 55 3e 16 f1 bc 3d 96 d5 29 3e
       0.16280204 0.20883428 0.09225671 0.16585383
000030 e9 52 42 3d 45 0a be bc fb e7 11 3e bb 5a 44 3d
       0.04744235 -0.023198256 0.1424865 0.04793809
000040 de 8f 18 3d e6 a8 14 3e e4 34 94 bd 17 d4 d9 3d
       0.037246577 0.14517555 -0.072366506 0.10636156
000050 dd 2f 23 3d 25 9d 8c 3d 8e d9 06 be 10 89 09 3c
       0.039840568 0.068659104 -0.13168928 0.008394495
000060 1f 43 e9 bd 90 91 72 be 34 1c a4 bd 30 ee f7 3b
       -0.113897555 -0.2368834 -0.08013192 0.007566236
000070 b9 4c fa 3d d6 7e 01 bd 6a 62 82 be 30 51 3e be
       0.12221665 -0.0316151 -0.2546571 -0.18585658
000080 86 c9 e7 3d a1 31 1e 3e 04 90 50 3c b6 51 fb bc
       0.113177344 0.1544862 0.0127296485 -0.030678611
000090 11 3b d8 bc 81 02 94 3c 75 c4 1b bd b2 e6 23 bd
       -0.026395353 0.0180676 -0.038029153 -0.04001493
0000a0 9a 9b 83 3c ee 69 c3 bc fd 42 de 3c 1c 78 c5 3a
       0.016065408 -0.023854222 0.027131552 0.0015065703
0000b0 74 d2 92 3c 62 d0 e1 3c 36 94 cb bd 6d d2 de bd
       0.017922617 0.027565185 -0.09940378 -0.10879979
0000c0 be 99 31 be 40 40 9b bd 0d d3 b4 bd 3f 98 50 3d
       -0.17343804 -0.07580614 -0.08829317 0.050926443
0000d0 4d 82 42 3e 3f 69 a8 3e 38 28 e0 3d 52 64 09 be
       0.18995018 0.32892796 0.10945171 -0.13417175
0000e0 b7 ac f6 bd 43 70 95 3d ef 53 46 3e f3 ce 3f 3e
       -0.120446615 0.07296803 0.19367956 0.18731289
0000f0 1e 12 e4 bd f2 2f 76 bc be 3d e6 3c d7 3e 06 3e
       -0.11136268 -0.0150260795 0.028105613 0.13109909
000100 af 77 21 bd 86 00 0f 3c 66 a8 b8 3a b1 67 a4 bd
       -0.03942078 0.008728152 0.0014088273 -0.0802759
000110 c0 b9 97 bd f5 51 40 bd 76 b6 f5 3d 2e 4e 0b 3e
       -0.07408476 -0.04695316 0.11997692 0.13604042
000120 42 24 9f 3d 0a 93 12 bc c3 14 f3 bd 9e ea 12 be
       0.077705875 -0.00894619 -0.11869194 -0.14347312
000130 8c 59 60 3d 09 97 a5 3d df 0c 89 3c 8e b3 43 3c
       0.0547729 0.08085448 0.01672977 0.011944665
000140 e0 3a 8c 3d 54 0c 89 3d 48 42 c4 be 4f f0 f7 3d
       0.06847167 0.066918045 -0.3833182 0.12106382
000150 18 40 9c 3d 33 5f 19 3e 96 c8 84 3e 9e f7 26 bf
       0.076294124 0.14977722 0.25934285 -0.65221584
000160 39 fa fb 3b c1 b7 7a 3e 50 e2 c6 3d cd 86 80 3e
       0.007689741 0.24484159 0.097111344 0.25102845
000170 b9 ca eb be c1 19 b1 bd 2c 89 39 3e c5 bb 70 3d
       -0.46053103 -0.0864749 0.18118733 0.05877282
000180 35 b5 fe 3d 08 15 58 be 4a f2 cd 3d 24 86 03 bd
       0.12436906 -0.21101773 0.100559786 -0.03211035
000190 14 b3 df 3d 63 26 29 3d f5 0e 7d bd a1 7d dc 3d
       0.10922828 0.041296374 -0.061781842 0.10766149
0001a0 7e 33 b2 bc 05 5b f2 3d 9c 41 a8 3d d2 b8 9d be
       -0.021753069 0.11833767 0.08215639 -0.3080507
0001b0 ec 17 76 3c e7 43 b1 3d db 87 44 3e 4a 0e 32 3e
       0.015020352 0.086555295 0.1919245 0.17388263
0001c0 75 11 10 bf 34 3b 01 bd 75 cf 8c 3e 2d 58 f5 3d
       -0.5627664 -0.0315506 0.27502027 0.11979709
0001d0 1e 01 99 3e 3c 7d ea be c3 53 e5 bd 34 a9 3e 3e
       0.29883665 -0.4579867 -0.11197617 0.18619233
0001e0 69 47 a3 bd 01 df e4 3d f6 43 87 be 4b 47 fb bd
       -0.07972605 0.11175347 -0.26419038 -0.122694574
0001f0 27 2c 2e 3d a4 72 65 bd 3b bc 2d bd fd 2c b4 bd
       0.042522576 -0.056017533 -0.04241584 -0.08797643
000200 d1 01 ec bd 5c c1 82 bd 41 da 40 3e 1a be d9 3d
       -0.11523784 -0.063845366 0.18833257 0.10631962
000210 8c 60 a2 be 24 57 ca bd fc 71 22 3e e5 35 b0 3e
       -0.31714284 -0.09879902 0.15863794 0.34416118
000220 86 8b 85 3e c9 63 2a bf 72 f0 24 bd ad 07 47 3e
       0.2608301 -0.6655851 -0.04026837 0.19436522
000230 ac fd 36 3e ed 8f 81 3e 31 dc 0c bf 14 e8 83 bd
       0.17870206 0.2530512 -0.55023485 -0.0644075
000240 21 4e 36 3e 12 5a 07 3e 42 06 8d 3e 34 e9 1a be
       0.17803241 0.13217953 0.27543837 -0.15128022
000250 85 b4 6e 3d 9c 4e 13 3c 13 d7 fc ba d7 85 85 bd
       0.058277626 0.00899091 -0.0019290171 -0.065196685
000260 b5 a4 2b be 5b bd 8b 3c 71 86 35 3e 2b 17 81 bd
       -0.1676205 0.017058065 0.17727067 -0.06303247
000270 18 da 43 be 7d 2a 5f be e1 70 04 be ad b9 3c 3d
       -0.19126165 -0.21793552 -0.12933685 0.04607551
000280 45 c5 a7 bd d6 ec 34 be 10 83 62 be ce aa 70 bd
       -0.08191923 -0.1766847 -0.22120309 -0.058756642
000290 e5 d8 12 bc c4 87 a3 bd 1f d4 a7 be b4 7b 68 be
       -0.0089628445 -0.079848796 -0.32779023 -0.22703439
0002a0 c5 a0 32 be 7c df 6f bb ac 13 7f bc af 18 38 be
       -0.17444141 -0.0036601713 -0.015568655 -0.17978166
0002b0 64 f7 26 be 13 a7 77 bd af 34 a3 3c 53 b1 1b bd
       -0.1630531 -0.06046207 0.019922582 -0.038010906
0002c0 16 a2 5c bd 2b 4d bb bc 44 05 f8 bc 1f 2c cd bd
       -0.053865515 -0.022863945 -0.030275948 -0.10018181
0002d0 2a 2e b0 bd 55 a3 21 3d 63 43 4f 3d 9c cf 98 3d
       -0.08602555 0.039462406 0.050601374 0.07461473
0002e0 4a 08 35 3c 67 fd ad bd d3 08 08 bd d3 00 8f 3d
       0.01104934 -0.08495598 -0.03321154 0.06982579
0002f0 77 04 1d bd c8 69 34 bd 86 1e eb bd cc 17 00 3e
       -0.038334336 -0.044046193 -0.11480431 0.12509078
000300 b5 ad 14 bd 88 ee 06 3e 54 37 7e bd 55 c5 d2 bd
       -0.036298472 0.1317693 -0.062064484 -0.10291544
000310 29 90 d2 bc ca 19 a3 3b d0 28 b1 3d df 94 e1 bd
       -0.025703507 0.0049774395 0.086503625 -0.11014723
000320 20 21 a7 3d 05 4e cf 3d c1 b2 4e 3e fd 56 cf bb
       0.08160615 0.10122303 0.20185377 -0.0063275085
000330 07 71 4a be 8f 35 40 3e c0 fb 58 3e 30 a7 86 3e
       -0.19769679 0.18770431 0.21189785 0.2629943
000340 15 22 e6 3d 6c 3d 06 be 74 b7 2c 3e 32 43 69 3e
       0.112369694 -0.13109368 0.16866857 0.22779539
000350 57 a2 8a 3e 29 3c 9a 3d 2a 3f 81 b6 b6 7e 07 3e
       0.2707698 0.07531006 -3.851853e-06 0.1323193
000360 97 b8 99 3e a4 03 a5 3e 5f b5 e7 3d 82 5d 43 bd
       0.30023643 0.3222934 0.11313891 -0.047696598
000370 8f bb d0 bc ab 6b 65 3e 88 b4 6b 3e 4e ea 58 3c
       -0.02548006 0.22404353 0.23018086 0.013239456
000380 d1 4a 6f bc 3b 10 b7 3d e4 1a 85 bd be 78 98 3d
       -0.01460524 0.089386426 -0.064992696 0.07444905
000390 34 81 de 3d e2 db c3 3d 15 1e 85 3d 10 47 6e be
       0.10864487 0.09563424 0.06499878 -0.23269296
0003a0 aa c6 14 be 7a 77 eb 3c ca a8 13 3e 81 90 7e be
       -0.1452891 0.028743494 0.14419857 -0.24859811
0003b0 15 90 41 be 93 ea 99 be 2d 1a ab bd e3 a3 cb 3c
       -0.18902619 -0.30061778 -0.08354602 0.02485842
0003c0 84 e9 3b bd c9 32 a3 bd 9d 84 55 be ba 36 6c be
       -0.045876995 -0.07968671 -0.20851369 -0.23067752
0003d0 d4 98 1e be 1f 56 8a 3e 24 72 d4 3e 23 55 01 3f
       -0.15487987 0.2701883 0.41493332 0.50520533
0003e0 6a 7b 61 3d 19 0d 8b bd 99 a6 d0 bc 3d 8c d4 3d
       0.055049337 -0.067896076 -0.025470065 0.10378311
0003f0 e3 d7 90 3d e2 a1 80 bc 26 d7 e6 bd fb b4 4a 3d
       0.07072427 -0.015702192 -0.11271505 0.049489003

conv1.0.bias f4 [6]
000000 55 40 0b 3f a4 04 66 bd b3 3b d0 3e 75 e5 3e 3d
       0.5439504 -0.05615677 0.40670547 0.046605546
000010 fb 37 81 be 7f 95 d9 3e
       -0.25238022 0.4249687

conv2.0.weight f4 [16, 6, 5, 5]
000000 13 bb d4 bd 5d 8d 76 be c3 8d 7b bc 4c c9 27 3e
       -0.10387244 -0.24077363 -0.015353623 0.16385382
000010 55 54 4e 3e 7d 88 19 be 66 e9 44 be a7 18 89 3d
       0.20149358 -0.14993472 -0.1922966 0.06694155
000020 38 dc 42 3e 73 90 e8 3b 5b 1d 89 be 1c de 64 be
       0.1902932 0.007097298 -0.2678021 -0.22350353
000030 93 32 2d 3e 3f c0 52 3e 2e f9 bf bb 39 c0 84 be
       0.16913824 0.20581149 -0.005858562 -0.25927904
000040 b0 76 ef bd 24 f7 ea 3d 15 a2 c7 3d b9 16 1f bb
       -0.1169256 0.114729196 0.097477116 -0.0024275018
000050 6c c8 36 be 03 da 1b bd 6c 3f 16 3e 1c c6 c4 3d
       -0.17849892 -0.03804971 0.14672631 0.09608099
000060 03 97 ed 3d 42 4b c9 3c 77 eb 0a 3d 14 67 c3 bc
       0.11601069 0.024572019 0.033915963 -0.023852862
000070 61 2e d1 bd c7 95 46 bd 32 73 8e bc 89 36 e9 3c
       -0.10213924 -0.048482683 -0.017388914 0.028468387
000080 48 57 7d bd e6 cc e5 bd 08 c8 b4 bd da 98 0a bc
       -0.061850816 -0.11220722 -0.088272154 -0.008459294
000090 2b 23 b6 3d b2 90 3e bd e1 83 d7 bd 1a 1a 9a bd
       0.088934265 -0.04652471 -0.10523201 -0.0752451
0000a0 16 a8 22 3d bf 18 80 3d bf f4 bd 3a ed 31 32 bd
       0.03971108 0.0625472 0.0014492496 -0.043504644
0000b0 c4 42 df bb 2e 72 23 3e 68 5d 23 3e 5b 72 94 3d
       -0.006813379 0.15961525 0.159536 0.07248374
0000c0 18 1f ab bc 04 23 31 bd 07 53 e7 bd 36 ff 8a bd
       -0.02088885 -0.043246284 -0.11295133 -0.06786959
0000d0 8a 34 69 bc c9 e0 0a 3d dd f0 65 3c 51 ab f6 bd
       -0.014233718 0.033905778 0.014034477 -0.12044395
0000e0 46 fa 13 be 62 43 b8 bd 24 2e c5 3d 8e 7a 46 3c
       -0.1445094 -0.08997227 0.09627941 0.01211418
0000f0 dd c6 ff bd 5d 4d c4 bd c8 93 aa 3d ea 83 94 3d
       -0.12489102 -0.095850684 0.08328968 0.07251723
000100 69 84 22 3e 9f 77 98 bd 6c 86 cf bd 19 99 9e 3c
       0.15870823 -0.07444691 -0.10133061 0.019360112
000110 9d f6 ea 3d f0 c7 2a 3d 84 4c 03 be 68 be 77 bd
       0.11472819 0.04169458 -0.12822157 -0.06048432
000120 d7 4c c1 3d 2f ea 0e 3e be 6f b8 3d 19 94 a0 bd
       0.09438484 0.13956521 0.09005688 -0.078407474
000130 b2 e1 0b be ca 0d 1a 3d 47 d2 05 3e 48 f6 81 3d
       -0.13660315 0.037610807 0.13068496 0.063458025
000140 d7 53 fd bd ad 15 ea bd 74 a8 9c 3d eb c9 21 3d
       -0.12369507 -0.114299156 0.076493174 0.039499205
000150 30 e8 87 3c 0a af b7 bd 19 63 95 bc d4 a4 dc 3d
       0.016590208 -0.08968933 -0.01823573 0.10773626
000160 44 0d ca 3d 09 ef c8 3d 35 dc b6 bc 46 1f 0e 3d
       0.098658115 0.09811217 -0.0223218 0.034697793
000170 d3 cf d7 3d fc 7a b1 3c f2 c1 ac 3d bc 9c a6 3b
       0.10537686 0.021665089 0.0843543 0.005084602
000180 98 40 1a bb aa 2e 7e bd 78 0e 13 bc ea fa db bc
       -0.0023537036 -0.06205622 -0.008975618 -0.026853044
000190 af cf a2 bd 27 68 a4 bd 36 a3 bb bd 73 a7 b2 3d
       -0.07949769 -0.08027678 -0.091619894 0.08723345
0001a0 95 a0 a5 3d 2f 20 e8 bc 39 3a 26 be bf 30 01 be
       0.08087269 -0.028335659 -0.16233148 -0.12616251
0001b0 3c 57 ad bc f7 bf 89 3d 98 18 05 bd 4b 13 15 be
       -0.02115976 0.067260675 -0.032494158 -0.14558141
0001c0 aa d5 bb bd 86 ba 26 3d 54 7b 6b bd 09 4d c4 3c
       -0.091716126 0.040705226 -0.05749066 0.023962514
0001d0 04 bf 2c 3d ec ca e8 3c 74 13 ca 3d 17 f9 e3 bc
       0.042174354 0.028417073 0.09866992 -0.027828736
0001e0 7c 9a 89 3d cd 86 f2 3c 0f 58 25 3d f6 c4 74 bc
       0.06718919 0.029605294 0.040367182 -0.014939537
0001f0 97 78 db bc 6f 93 b4 bc 0c 48 57 3d db 1c a7 3d
       -0.0267909 -0.022042958 0.052558944 0.081598006
000200 46 d3 c7 bd d9 b8 05 be 96 f9 c9 3d 9c 15 63 3d
       -0.09757094 -0.13058795 0.09862058 0.05544053
000210 ca be 8d bd c5 9e 8a 3b 22 b4 0d be 91 cb bd 3d
       -0.06921156 0.0042303526 -0.13838246 0.09267343
000220 3b dd a4 3c b1 59 98 3d 12 c9 cb bc f6 aa 8a bd
       0.020125022 0.07438982 -0.024876151 -0.067708895
000230 1a e2 c6 3d 1d 55 80 3d 38 e0 1b 3c 1d 03 67 bd
       0.09711094 0.06266234 0.009513907 -0.056399453
000240 8d 8a 99 bd 7d a1 92 3d 5f 2a 3c 3c 1f db 28 bd
       -0.074971296 0.07159708 0.011484711 -0.041224595
000250 74 36 b9 bc 9d 58 57 be 99 f7 92 3d ed e9 a2 bd
       -0.022608973 -0.21029897 0.07176132 -0.07954774
000260 d0 b2 97 bd 46 a2 a7 bd ef 60 55 3d 8f de a1 bd
       -0.07407153 -0.08185248 0.052094396 -0.07903778
000270 21 5f b3 bd 46 32 14 be 5f d7 03 be 39 14 65 bd
       -0.08758379 -0.14472303 -0.12875126 -0.05592749
000280 c2 c0 87 bd f9 5c 33 bd 63 67 c7 bd d8 4b 77 bd
       -0.066285625 -0.043789838 -0.09736516 -0.060375065
000290 44 ed 91 bb 74 b5 13 bd cf 43 3c bd 3b 17 0f bd
       -0.004453333 -0.03606172 -0.045963105 -0.034934264
0002a0 69 20 2e 3a 37 d2 a0 3c d2 9a 25 bd 33 ee 02 3d
       0.0006642403 0.019631488 -0.04043085 0.031965446
0002b0 d6 2f 4c bc d0 fd 6d 3d 63 e5 bb 3d 12 55 ef 3d
       -0.012462577 0.058103383 0.091746114 0.11686148
0002c0 98 12 eb 3d 03 a7 2a 3e e7 8c 12 3e 79 a5 8b 3d
       0.11478156 0.16665272 0.14311562 0.06818671
0002d0 62 09 3a 3d c9 3c f2 3d 9c 7a df 3d 69 1a f9 3c
       0.045419104 0.11828 0.10912058 0.030408101
0002e0 40 ca 87 3d 8d ff 91 bb 01 b2 a4 bd 9c a5 13 be
       0.06630373 -0.004455513 -0.08041764 -0.14418644
0002f0 e3 0a 14 be 35 f2 02 be e0 4a c6 bd d2 80 0c be
       -0.14457278 -0.12787707 -0.0968225 -0.13721016
000300 ec 8e 28 be e1 34 1e be 70 76 b9 bd 35 17 6a bb
       -0.1646077 -0.15449859 -0.09055793 -0.00357194
000310 22 e0 5e 3b e1 bd e1 bc c5 2b 14 bd 18 34 70 bd
       0.0034008105 -0.027556362 -0.036174554 -0.05864343
000320 b3 4f 25 3e f7 7c c3 3d a3 78 f8 3c df 77 d8 bc
       0.16143684 0.095453195 0.030330962 -0.026424346
000330 e7 72 f2 3c 32 b2 5a 3d fb b2 0d 3e 35 09 1b 3d
       0.029595805 0.053392597 0.13837807 0.037850577
000340 5e d6 fa 3d 8c d0 95 bc 9f 9f 1c 3d 6a ca 9e 3c
       0.122479185 -0.01828792 0.038238164 0.019383628
000350 4e 1f f1 3c 27 ce a8 bd 4b 3d 11 be d4 f4 91 3d
       0.029433873 -0.082424454 -0.14183538 0.071267754
000360 f6 66 27 3d 55 b6 91 bd 63 ff 01 bd 38 51 2d bd
       0.040869676 -0.07114855 -0.031737696 -0.042313784
000370 71 16 03 3d 3a e1 dd 3d 09 8c 02 bd 3b bf 33 3d
       0.032003824 0.10833974 -0.03187183 0.043883543
000380 3c c9 d3 bd 95 92 a3 3a 57 b5 f7 3b ce 80 2b bd
       -0.10341117 0.0012479598 0.007559459 -0.041870885
000390 bb 71 08 be c5 d3 a0 bd 27 12 17 3e 62 04 24 3d
       -0.13324635 -0.07852892 0.14753018 0.040043242
0003a0 d7 78 f0 3d bc 30 55 3d 38 21 32 3d a8 e9 c0 3d
       0.11741798 0.05204843 0.04348871 0.094195664
0003b0 c1 e4 b2 3c b4 5a a8 3c c8 81 9c 3d 00 d9 37 bc
       0.021837594 0.020551063 0.07641941 -0.01122117
0003c0 8a a0 c1 3b 10 7e 9e bc 51 e1 a7 3c d2 38 83 3d
       0.0059090303 -0.01934722 0.020493181 0.06407322
0003d0 4e a4 5e bd b9 b2 1e 3b 7c 2a 16 3d 50 f7 8d bd
       -0.054355912 0.0024215414 0.03666161 -0.06931937
0003e0 b6 e6 71 bb e8 e7 23 3c 0c 07 84 3d 09 2d a2 bb
       -0.0036911196 0.010004021 0.064466566 -0.0049492163
0003f0 f1 c3 c9 3b 9e bd c5 bb 5a d8 2b bd c8 da be bc
       0.0061573912 -0.006034567 -0.041954376 -0.023297682

conv2.0.bias f4 [16]
000000 9e 0f 16 3e 44 ba 53 bd b6 f0 7a 3d dc 25 1c bd
       0.14654395 -0.05169131 0.061264716 -0.038122043
000010 a4 22 1d 3e 60 e1 d9 3d 6d 45 cf 3d 84 ee 67 be
       0.15345246 0.1063869 0.10120664 -0.2264958
000020 a1 25 cf 3d e0 79 29 be 3e c2 20 3e 22 2d b7 3c
       0.10114599 -0.16550398 0.15699098 0.022360388
000030 75 b9 03 bd 0b f7 27 bd b2 c3 ad bd c7 bc d4 bd
       -0.032159287 -0.041007083 -0.084845915 -0.10387569

fc1.0.weight f4 [120, 400]
000000 9d 5e 43 bd 19 a8 36 bd 79 50 58 bd 05 a3 5b 3b
       -0.047697652 -0.044593904 -0.05281112 0.0033513915
000010 a6 7e 31 bd 90 e8 8d bd a7 25 21 bd 26 75 91 bc
       -0.043333672 -0.069291234 -0.03934255 -0.017756056
000020 1c ab 2b 3c 2d 9d 2e 3d 2c d8 dc bc e2 44 a1 bc
       0.010477807 0.042630363 -0.026958548 -0.019686166
000030 d7 df 80 bd 83 dc 11 3d a9 5a 2b 3c bf 6f 3a bc
       -0.06292694 0.035610687 0.010458627 -0.011379181
000040 3e a6 f4 bb 25 49 58 bc 6d d3 d8 3c 14 92 1b bc
       -0.0074661067 -0.013201033 0.026468003 -0.009495277
000050 ba 8e 57 3c b0 82 a3 3b 37 ba 73 3c 2c ac be 3b
       0.013156587 0.0049899444 0.01487594 0.0058188643
000060 55 b4 80 bb ea f6 d9 bc 6d c7 cf bc ec b7 97 bd
       -0.0039277473 -0.026606996 -0.025363648 -0.07408127
000070 a9 5a a5 bb d1 c3 5b bd 82 a2 43 bc 61 9e 97 bd
       -0.005046208 -0.053653542 -0.0119406 -0.07403255
000080 5d fd 0a bc 21 36 9f 3b a6 b1 e6 3c 6e a6 37 ba
       -0.008483258 0.0048587476 0.028160881 -0.0007005696
000090 5e f1 f9 bc 08 12 1e bb c7 8a ad bc 0f 03 31 3c
       -0.0305106 -0.0024119634 -0.021184338 0.010803952
0000a0 76 e1 8a bd 77 a8 a3 ba dd 19 29 3c f8 cb 61 bd
       -0.067812845 -0.001248612 0.010321108 -0.05512616
0000b0 30 62 91 bc b9 02 1c b9 f9 6d 14 3c 65 d4 91 bc
       -0.017747015 -0.00014878334 0.009059423 -0.017801473
0000c0 cb c1 3c 3d 4a 35 49 3d ad c7 8e bc fd 8a 51 3b
       0.046083253 0.049123086 -0.017429197 0.0031973713
0000d0 2e 9b 88 bb 2e d7 1d 3d 4d 11 ef bc 3b a4 3f bb
       -0.0041688895 0.03853529 -0.029183054 -0.0029242176
0000e0 3a 97 a5 3c bd 27 29 3c 67 84 f3 bb 5b 52 f5 3b
       0.020213712 0.010324416 -0.007431555 0.007486624
0000f0 ba 47 f4 bc 74 4d ca 3c fe 1f 5a bc 8e 46 c1 bb
       -0.029819358 0.024695136 -0.013313292 -0.0058983034
000100 d5 f1 15 3d 6e 2d 55 bc 3e fa 24 bd a1 86 9e bb
       0.036607582 -0.01301132 -0.040277712 -0.0048378264
000110 6d 71 40 bd 42 e9 19 bd bb 32 65 b9 82 84 f2 3c
       -0.04698317 -0.037575968 -0.0002185804 0.0296042
000120 dd 34 3c bd 89 74 29 bd 32 fd 87 3c 93 94 ec 3c
       -0.04594885 -0.041370902 0.016600225 0.02887944
000130 2b 6a 28 3c c5 58 53 bd c0 4d a4 bc a8 88 fe bc
       0.010279219 -0.05159833 -0.020056605 -0.031071022
000140 be 72 89 bc 02 ad cd 3b 17 83 b1 bb 0b 27 82 bc
       -0.016778346 0.0062767277 -0.0054172385 -0.015887758
000150 11 a4 dc bc 05 82 c3 3b f0 40 85 3c 16 10 a3 bc
       -0.026933702 0.0059664273 0.016266316 -0.019905131
000160 1c e6 11 3d 83 59 b7 bc ab 17 2f bc b1 56 2a bd
       0.03561984 -0.02238155 -0.010686795 -0.04158658
000170 cf e2 10 3c bc 5f 6f 3c 9a 4d d7 3c 28 a9 ec bc
       0.008843138 0.014610227 0.02628212 -0.028889254
000180 2d 84 1b bd 06 c1 e6 bc 75 96 1b 3d d1 c9 11 3c
       -0.03796785 -0.028168213 0.037985284 0.008898214
000190 aa 3b 3d bd ec e5 72 bd 89 9c 8f bd 3d 42 3b bd
       -0.04619948 -0.0593013 -0.070122786 -0.045717467
0001a0 b2 78 9b bd c1 76 aa bc 43 c2 47 3c bc 76 5e bd
       -0.0759138 -0.02080858 0.012192312 -0.054312453
0001b0 fb d5 99 bc c0 25 21 bd 45 2f 1f 3d 18 1e 28 bd
       -0.018778792 -0.03934264 0.03886344 -0.041044325
0001c0 4b fb 41 bc 90 cf 10 bd c2 29 96 3c 7c c0 d6 3b
       -0.011839698 -0.035354197 0.018330459 0.0065537076
0001d0 4c 98 f4 bc af 8d 1f bb 5d bb 2b bc 5d 8e 09 bd
       -0.029857777 -0.0024345925 -0.010481683 -0.033583034
0001e0 01 6a 74 3d 5a a8 dd 3c 1b 84 dc bc 9d 31 c3 3c
       0.059671406 0.027057815 -0.026918462 0.023827368
0001f0 6f 1b bf 3c f4 1d 82 bd 84 95 41 bc fd be f5 bb
       0.023328511 -0.06353369 -0.011815432 -0.007499574
000200 ea bd b0 bc 1c f0 c5 bc 44 9a 61 bd c2 fc 06 bd
       -0.021574933 -0.024162345 -0.05507876 -0.032955892
000210 f5 35 07 bd 65 c0 ef bc ce 40 9e 3c 62 52 e2 3b
       -0.03301044 -0.029266546 0.01931801 0.0069067935
000220 c1 85 3b 3b 62 24 9a 3a 39 c6 bc bc 53 f0 12 bd
       0.002861366 0.001176011 -0.023043739 -0.035873722
000230 4a c3 9c bc a8 e2 41 3d 9d bd 5d 3c 29 85 77 bd
       -0.01913609 0.047335297 0.013533977 -0.060429726
000240 86 65 0d bd b3 b2 42 bd a2 3f bc bc 6d 5b 59 bd
       -0.03452065 -0.047533702 -0.022979561 -0.053065706
000250 39 c4 b8 3a c0 ea 83 bd b3 9e c3 3c 7e 3b ed 3c
       0.0014096565 -0.064412594 0.023879385 0.028959032
000260 78 ed 5f bc cd cf 29 3b 92 84 1b bd c9 0a 7b 3c
       -0.013667457 0.0025911212 -0.037968226 0.015322396
000270 34 3b 41 3d dd ea 06 3d 9f b0 ae 3c b4 4e 06 3d
       0.0471756 0.032938827 0.021324454 0.0327899
000280 66 2c c6 3a ee 16 1e 3d 3a 41 0a 3d 96 7b 94 3c
       0.0015119433 0.038596086 0.03375361 0.018125337
000290 15 f9 f5 bb 00 c0 69 bc f3 1b 04 bd ed 6b ea 3a
       -0.0075064995 -0.014266968 -0.032253217 0.0017884948
0002a0 8a 39 e2 bb 52 72 f4 ba 51 c8 ad ba 00 c9 11 3d
       -0.006903832 -0.0018649793 -0.0013258551 0.03559208
0002b0 f3 c9 e4 bb b8 c0 9a 3b 0b e6 9f bc b9 d9 0b bc
       -0.006982082 0.004722681 -0.019518873 -0.008535796
0002c0 0d de 25 bd 2a 91 0b 3d cb bc 21 bd 5d d0 cc bb
       -0.040494967 0.034073986 -0.039486688 -0.006250425
0002d0 81 d3 2e bb e4 96 24 bd 94 73 55 3c 20 f1 98 bc
       -0.002667636 -0.040182963 0.013028044 -0.018669665
0002e0 3e d6 db 3c 99 11 c0 3c 2a 56 ab 3c 05 e2 9d bc
       0.026835557 0.023445891 0.02091511 -0.019272814
0002f0 e7 9c 21 3d 80 63 1c 3c 39 e6 a6 bc fc 14 89 3c
       0.039456274 0.009545207 -0.02037345 0.016733639
000300 2e 0a cd ba 15 25 dd 3c da 11 42 3d 8e 45 9f 3c
       -0.0015643293 0.026995221 0.047380306 0.019442346
000310 81 5f 2f bc 4e fe 9f 3d 3b 8e d2 3a a0 2f 1e 3b
       -0.010703922 0.07812177 0.0016064116 0.0024137273
000320 62 fd 65 bd 11 2e 3a bd bc ef 9b bc df ae 11 3c
       -0.056149848 -0.04545409 -0.019035213 0.00889179
000330 e7 fd b6 bb 2e 88 53 bd c7 fb 1c 3c 12 e1 36 bd
       -0.0055844667 -0.051643543 0.009581513 -0.044648238
000340 4f 95 1b 3d 0e b0 da bc cb 6e 06 bd 24 d2 de bb
       0.03798419 -0.026695278 -0.032820504 -0.006799953
000350 71 7e a9 ba df 3f 2b bd ae 04 c8 3c bd f1 14 bd
       -0.0012931359 -0.04180896 0.024416294 -0.036363352
000360 91 65 80 3c c9 c2 0a 3c 8d 28 75 3c 5e 44 26 bd
       0.01567343 0.008469292 0.014963281 -0.040592544
000370 cc ef 72 bc 09 9b 4d bd 99 ba 49 3b 1a db 39 bd
       -0.01482768 -0.05019668 0.0030781387 -0.045374967
000380 c0 ff 94 bc 43 b1 65 bd 85 75 53 3b 4f 02 5c 3c
       -0.018188357 -0.056077253 0.0032266092 0.013428285
000390 bd b1 03 bd d2 6b cf bb 2b f8 6a bd 47 d5 fe bc
       -0.032151926 -0.006329992 -0.057365578 -0.031107558
0003a0 f7 8d 95 bd c4 b3 0e bb 75 fd 17 bd 58 bc ac 3c
       -0.07302468 -0.002177463 -0.03710695 0.021085903
0003b0 23 ee 70 bd c1 9d 46 bd 4b 2e 03 bd b1 44 73 3c
       -0.058820855 -0.04849029 -0.03202657 0.01484792
0003c0 65 12 f2 bc dd f0 61 bd 19 5e 2d bd bd 0a 61 bd
       -0.029549787 -0.055161346 -0.042326067 -0.05494188
0003d0 0e 06 2f bd 0e 3c dd 3b 93 85 80 ba 34 e4 4e bd
       -0.042730384 0.006751544 -0.0009805433 -0.0505106
0003e0 3f 52 a0 3c ea 00 ef bc 18 28 c7 3c d3 39 75 bc
       0.019570468 -0.02917524 0.02431111 -0.0149674
0003f0 1e 4f 1b 3c 10 65 a8 3c e0 38 05 bd 2f d8 31 3d
       0.009479312 0.020556003 -0.032524943 0.04341906

fc1.0.bias f4 [120]
000000 2e db aa 3c 30 b0 a2 bc 73 43 6a bb c2 7e f2 bc
       0.020856466 -0.019859403 -0.003574577 -0.029601458
000010 ec ae 3f bd fa c2 cb 39 66 d3 44 3d 5e a5 d6 bb
       -0.046797678 0.00038864446 0.048053168 -0.006550475
000020 87 29 3b bc f9 28 81 3d ed e4 0c 3d 82 00 11 bd
       -0.011423475 0.06306643 0.03439801 -0.035400875
000030 2d 84 8e 3c 6e eb 29 bd b5 f7 9a 3d de 40 48 bc
       0.01739701 -0.04148429 0.075667776 -0.012222497
000040 e3 a0 57 3d 01 67 be 3d 72 41 4c 3d a6 3c ef 3c
       0.052643668 0.0929699 0.0498671 0.029203724
000050 f1 97 37 bb 54 71 a8 3b 79 8c 3b 3c 12 56 2f 3c
       -0.0028014148 0.005140463 0.0114470655 0.010701673
000060 5b 7d c5 3c 9d 3f 13 bd c4 80 27 3d b5 48 1f 3d
       0.024107626 -0.03594934 0.040894285 0.0388877
000070 fb 40 75 3d 86 b8 6c 3d 4d 6f 14 3d 8b 7d 42 bd
       0.059876423 0.057793163 0.036238957 -0.04748301
000080 dc b1 e6 3c 08 f0 a7 bc af aa 17 3d 42 55 8a 3a
       0.028160982 -0.020500198 0.03702801 0.0010553973
000090 5f f6 9c 3a 55 4a 3a 3d 81 cd 98 3d 48 b8 09 3d
       0.001197528 0.045481045 0.07461072 0.03362301
0000a0 25 1a a1 3c fe cb 2d 3c a7 f6 8a bb 3c 64 4e 3d
       0.019665787 0.010607718 -0.004240829 0.05038856
0000b0 0e 30 07 bd 03 81 de bc 87 c2 59 3c 4d d2 0c bd
       -0.033004813 -0.027161127 0.013291008 -0.034380246
0000c0 89 90 23 bc da 94 ce bc 8c 02 8c 3a 9f eb 90 bb
       -0.00998319 -0.025217462 0.0010681911 -0.0044226195
0000d0 b4 1b cc bc 78 bd 1b bc bb 06 da 3c b7 5d 09 3c
       -0.024915554 -0.009505622 0.026614537 0.00838416
0000e0 08 f7 29 bd 28 ee e1 bc a4 c9 d2 bc 6a 0f 1d 3d
       -0.041495353 -0.027579382 -0.025730915 0.038344778
0000f0 bb 80 ee bc 0f da 8f 3c ac 63 c0 bc 74 f8 5c bb
       -0.029114118 0.017560033 -0.023485027 -0.0033717426
000100 3e 2d 07 bd 0d 3b 4c bc 64 da 10 3d ba 86 a4 3d
       -0.03300213 -0.012465251 0.035364524 0.080335096
000110 88 f1 a1 ba 53 1c 85 bc fb d3 15 bd 4f 0e a6 bc
       -0.0012355307 -0.016248858 -0.036579113 -0.020270495
000120 82 c8 93 39 e9 aa 15 bd 7d 2f c8 bd 37 1b 4a bc
       0.00028187415 -0.036539946 -0.09774683 -0.01233559
000130 f6 bf 46 bb 26 64 1d 3d 43 8a 8a 39 dd b3 12 3d
       -0.003032682 0.038425587 0.00026424424 0.035816062
000140 4b c1 00 3d f7 7b 49 bd 68 8a e9 3c a9 f5 b4 3c
       0.03143434 -0.049190488 0.02850838 0.022089796
000150 cb 6a a8 3c 1c 3d 3f bd f6 78 b5 bc 5b 6a 91 3b
       0.020558735 -0.046689138 -0.022152405 0.0044377274
000160 a5 2e 7e bd 56 2b 2a bd 16 76 5c 3d 0d 80 ca 3b
       -0.062056202 -0.041545235 0.053823553 0.0061798156
000170 0e 44 c8 bc b5 9e 75 bd 06 f0 26 3d 3a 3e 60 3c
       -0.024446514 -0.059965808 0.040756248 0.013686711
000180 41 da 99 3c 3c e8 62 bc 6e 15 57 bd 5c 67 8e 3d
       0.01878083 -0.013849314 -0.05251067 0.06953308
000190 c5 8a 39 bd 84 1a 95 3c 51 11 e5 bb 47 3d cb 3b
       -0.045298357 0.01820112 -0.0069905897 0.006202373
0001a0 c2 90 dc bc 28 0c d8 bc a9 a7 40 3d 17 c4 06 bd
       -0.026924495 -0.026372984 0.047034893 -0.03290185
0001b0 73 80 1e b9 a7 d8 22 3d 14 37 ef bc b2 6a 60 bd
       -0.00015115905 0.039757397 -0.029201068 -0.054789253
0001c0 00 15 06 3d c4 f2 30 bc 32 25 30 bd 41 e3 99 bb
       0.03273487 -0.010800067 -0.043004222 -0.00469628
0001d0 49 df 04 bc 1b 85 0d bd 25 31 9c bc 52 b9 27 bd
       -0.008109876 -0.034550767 -0.019066403 -0.04094822

fc2.0.weight f4 [84, 120]
000000 b7 e3 ac 3a 9d 69 55 3c c7 8c 1f bd b7 91 28 bd
       0.0013190423 0.013025668 -0.038952615 -0.04115459
000010 01 b6 71 3c ba 04 f0 3c 18 bb ac bd de 86 61 3d
       0.014752866 0.029299129 -0.08434123 0.05506026
000020 50 ad 59 3d ce 35 b1 bd dc 51 53 bc 10 6e a1 3d
       0.0531438 -0.086528406 -0.012897935 0.07882321
000030 a9 80 91 3d f0 31 a7 bd dd 65 ca bc ac cd 44 bd
       0.07104618 -0.08163822 -0.024706775 -0.048047706
000040 9b 9a 99 bd 15 2f ae bd f4 a0 3d 3d e8 e2 13 bc
       -0.07500192 -0.08505074 0.046296075 -0.009026267
000050 d6 0e aa ba ec 5d 1d 3c a3 53 0d ba 17 e8 91 3d
       -0.0012974392 0.009604912 -0.0005391186 0.07124346
000060 52 9d 84 3d 43 17 9f 3d 44 d1 8e 39 c2 4d 5c bd
       0.06475319 0.07768109 0.00027240266 -0.053785093
000070 90 4a 7f 3d 8b 81 76 bd 2a 23 6b 3d 5a 6f ed 3c
       0.062326968 -0.060182136 0.057406582 0.02898376
000080 ef e6 ac bc a8 37 88 3c 78 ad 54 3c ff 5c 32 bd
       -0.021106211 0.016628101 0.012980811 -0.04354572
000090 91 70 e7 b8 54 90 a2 3d e3 fe 3f 3d 58 92 b3 bc
       -0.000110359055 0.07937685 0.04687394 -0.021920368
0000a0 ca f5 60 3d 1a 19 0f 3d da 4c 06 bc 2c 98 e6 bc
       0.054921903 0.034936048 -0.008197034 -0.028148733
0000b0 91 a2 0b bd f6 d3 90 bd 4c 3f 8e 3d ae f8 e4 bb
       -0.034090582 -0.07071678 0.06945667 -0.0069876527
0000c0 08 e8 4b bc f1 d8 74 3d d9 68 af bb 2a 6b 26 bc
       -0.012445457 0.059777204 -0.005353075 -0.010157386
0000d0 9f 9f 57 bc bd 97 be 3c bf e6 9d bd f8 2b b7 bd
       -0.013160615 0.023265714 -0.07710027 -0.08943933
0000e0 0c a7 93 bc b5 d7 97 bd 62 b6 61 bd ef f8 39 bc
       -0.01802399 -0.0741419 -0.055105574 -0.011350854
0000f0 69 9c ac 3d 70 05 b6 bc 69 61 8b 3d e5 7d b1 bd
       0.0842827 -0.02221939 0.06805689 -0.086665906
000100 73 c0 d8 3c c2 2f 9a 3d 8e ec d2 3b 40 7a a6 3d
       0.026458954 0.0752864 0.006436891 0.08128786
000110 8f 1f 8f 3b 8d 12 9f bd d2 26 ec bb a1 27 58 bc
       0.0043677757 -0.0776721 -0.007206776 -0.013193042
000120 bf 97 c5 bc 9b 2a 31 bd 98 5a 25 bd a0 a0 00 3d
       -0.02412021 -0.043253522 -0.0403696 0.031403184
000130 f6 07 d1 bc 8a 5b 27 3d a0 97 67 bd f8 d0 80 bd
       -0.025516491 0.040858783 -0.056541085 -0.062898576
000140 c0 f7 6c 3d d3 5c 99 3c d1 7a 7d bd a2 67 f3 3c
       0.05785346 0.01872102 -0.061884705 0.029712502
000150 c6 d1 27 3d 57 9d 44 3d 55 ad 96 bd 72 95 9f ba
       0.04097154 0.048001613 -0.07357279 -0.0012175275
000160 33 aa 81 bd e7 59 7d bd 17 97 8b bd c7 4c ad 3d
       -0.06331291 -0.061853316 -0.068159275 0.0846191
000170 9d 7f 76 bd ef cb 6b bd 34 f7 52 3d 05 78 8f bd
       -0.060180295 -0.057567533 0.051505283 -0.07005314
000180 ab 1a 57 3d 61 f8 ad bd b5 5a 9d bd 86 e6 a6 3c
       0.052515667 -0.0849464 -0.076833166 0.020373594
000190 34 52 98 3d df a5 c8 bb f5 22 6d bd cf ad 73 bd
       0.07437554 -0.006123289 -0.057894666 -0.05949193
0001a0 92 fa 27 bc d8 b7 cc 3b fa 11 2a 3c 35 a8 40 3c
       -0.010252612 0.006247502 0.0103802625 0.011758854
0001b0 91 77 2f 3d 1e 65 24 3d b1 dd a0 bd 93 26 c4 3d
       0.042838637 0.040135495 -0.07854784 0.0957767
0001c0 f6 00 69 bc e3 75 da 3b c5 88 bb bd 96 67 de bc
       -0.0142214205 0.006666885 -0.09156946 -0.027149003
0001d0 77 d2 8f bd a5 13 9b 3d b7 63 02 bc ed 8b 1f 3d
       -0.07022565 0.07572106 -0.007958344 0.038951803
0001e0 2a e1 8f bd cd 7a 03 3d d8 31 64 bd 83 44 61 bd
       -0.070253685 0.032099534 -0.055711597 -0.05499698
0001f0 5d 08 de bb 8e bc 58 3d e2 a4 8e bd eb f4 5d 3d
       -0.0067758993 0.052914195 -0.06965043 0.05418865
000200 ac 8b 1b ba 68 23 b9 bd 7f 98 bd 3d 7c 16 ac 3b
       -0.00059335935 -0.09039956 0.09257602 0.005251704
000210 fd 66 aa 3c 8f a5 2f 3d 8e 75 9f bd 8f 43 c3 3c
       0.020801062 0.0428825 -0.07786094 0.023835925
000220 df 98 36 bc a0 38 85 bc 55 c9 4a bd 3b 27 9c bd
       -0.011144846 -0.016262352 -0.04950841 -0.0762467
000230 b4 35 a5 3d ab 2b e3 bd 69 a4 4a bd ef 6a 83 3d
       0.08066884 -0.110923134 -0.0494732 0.0641688
000240 98 89 ca bd a5 53 82 bd 4f 60 d0 3c 8f eb c9 3d
       -0.09889525 -0.0636361 0.025436549 0.09859382
000250 f9 5a da 3c 14 34 39 3d d1 ea 6c 3d 01 fc 89 bd
       0.026654707 0.04521568 0.057841126 -0.06737519
000260 8c da 7c bc 8f d6 09 be 18 79 51 3d 12 a0 ba 3d
       -0.015432965 -0.13460754 0.051140875 0.09112562
000270 42 c1 49 bd 99 a3 84 bd c2 78 40 bd 16 f5 4a 3d
       -0.04925657 -0.06476516 -0.046990164 0.04955014
000280 3d 5e 5d 3d a9 03 91 3b ad 07 ce bd 18 5c 1b 3b
       0.05404495 0.004425485 -0.10060058 0.0023706015
000290 c0 9a dc bd bc 92 b5 3b 08 1a c1 bd 23 36 8f bb
       -0.10771704 0.0055411737 -0.09428793 -0.0043704673
0002a0 05 0d 30 bc 0d 0c 9d 3d c6 dd c1 3d 37 1b 0f 3d
       -0.010745292 0.07668314 0.09466128 0.034938063
0002b0 b6 78 3a 3d 02 99 7d 3d f4 db ae bc 2a 02 9b 3d
       0.045525275 0.061913498 -0.021345116 0.07568772
0002c0 96 f1 b4 3d 59 b7 8f 3d 56 20 85 bd 07 31 bb 3d
       0.08835141 0.07017393 -0.06500308 0.091402106
0002d0 41 d0 41 3d 69 2a 35 3c 74 89 82 bd ca db 20 3d
       0.047317747 0.011057475 -0.06373873 0.039272107
0002e0 c4 f6 74 3c 57 fb 0c bc 80 09 d1 3b c9 0d e9 3d
       0.014951412 -0.008604846 0.0063793063 0.113795824
0002f0 07 a0 b6 bd 24 02 29 3d c3 7d 44 bc bd 6f bd bd
       -0.089172415 0.041261807 -0.011992875 -0.09249828
000300 03 57 e6 bb 05 13 21 3b 42 d0 a0 3d 7e 69 01 3d
       -0.0070294156 0.0024577987 0.07852222 0.031594746
000310 44 fb 9a bd 60 f3 69 3d 37 fe 00 bd b2 15 b5 bd
       -0.07567456 0.057116866 -0.03149244 -0.08842029
000320 2e 7d 3d bd 53 67 64 3d bd 9a 6b bb 65 f1 0f 3c
       -0.04626196 0.0557626 -0.0035950385 0.00878558
000330 cb 95 a2 bd b9 9b fd 3c e0 67 bd 3d b6 a0 5b bd
       -0.07938727 0.030958043 0.09248328 -0.053620063
000340 f6 26 01 3d 9e 9c 6a 39 f7 8c 3e 3d 91 04 b8 bd
       0.031531297 0.00022374323 0.046521153 -0.08985246
000350 f2 a8 cf 3d e2 69 41 3d 7c 5f 19 3d b6 48 8d bd
       0.10139646 0.04722012 0.037444577 -0.06898634
000360 8f d4 8f bb f4 32 19 3c e3 ff 2a 3d 43 28 b6 bc
       -0.0043893526 0.009350527 0.04174794 -0.022235995
000370 86 b2 3e bc 0f 8b f6 3b 8b da 95 3c 4b 99 a7 bd
       -0.011639243 0.0075239013 0.018292686 -0.08183535
000380 a2 5e 67 3d 5b 5c a1 3d 45 4f 51 3c 80 ef a3 bc
       0.056486733 0.078789435 0.012775247 -0.020011663
000390 d3 ad b3 3d 38 26 4a bd ab 25 9a bd ac 2f 58 3c
       0.08773389 -0.049352854 -0.07526716 0.01319496
0003a0 7b 68 4a 3d bc 68 93 bd 91 4e 06 3d 96 24 98 3d
       0.049416047 -0.07197711 0.03278977 0.07428853
0003b0 b3 83 89 bd 84 33 cc bc 69 84 bf bc 74 33 87 bc
       -0.06714573 -0.024926908 -0.023378568 -0.016504027
0003c0 46 11 7e 3d 44 15 40 3c e7 ce 46 3d bd a3 98 bd
       0.062028192 0.01172382 0.04853716 -0.074531056
0003d0 20 c4 96 bd b9 e7 96 3d 7d 74 d1 3d 40 d0 23 bd
       -0.073616266 0.07368416 0.102272965 -0.039993525
0003e0 d3 dd 61 3d 90 e5 9e bd 4e 58 ec bd f2 80 75 bd
       0.05514319 -0.07758629 -0.1154028 -0.059937425
0003f0 68 33 ad 3d 44 f6 8c bd aa 24 73 bc 8f 06 ea 3d
       0.084570706 -0.06882909 -0.014840284 0.11427032

fc2.0.bias f4 [84]
000000 ff 58 a5 bd 87 d6 b7 bc 6a c6 b6 3d a4 5e 71 bc
       -0.08073615 -0.022441162 0.08924563 -0.014732037
000010 7a 67 ac 3d 38 5a 01 3e d6 67 8a 3c 8c fc c0 bc
       0.08418174 0.12632072 0.016895216 -0.023557924
000020 85 b5 25 3e f0 5e 3b bd 83 35 c2 3c a9 5b 04 3e
       0.16182525 -0.045744836 0.023707157 0.1292559
000030 14 4f 21 3d 35 2f 04 bb 08 b6 b3 3d c5 24 b2 bd
       0.039382055 -0.002016974 0.08774954 -0.086984195
000040 3c 53 00 bd e0 d8 c7 3c 81 61 cd 3d e1 eb 35 3d
       -0.03132938 0.024395406 0.10028363 0.044414405
000050 0d 6c 46 bc 9b a8 df bd 54 66 c1 3c dd a3 d6 3d
       -0.012110722 -0.10920831 0.023608364 0.10480473
000060 b6 c2 33 3c 11 a6 15 be 3e bc 55 bd 00 dd a1 bd
       0.010971716 -0.1461413 -0.052181475 -0.079034805
000070 3e 30 e6 3d 41 10 68 3c 22 84 a9 bd b5 99 c9 3a
       0.1123967 0.0141640315 -0.082771555 0.0015380891
000080 f2 f9 ab bc 58 87 bc 3c 33 9a 1d 3d 9e 7e ee 3d
       -0.020993207 0.023013756 0.038477134 0.11645244
000090 66 f8 c0 bd b0 d1 0f 3d b4 9e 3b 3d 30 05 2a 3e
       -0.09422378 0.035112083 0.045805648 0.16603541
0000a0 32 a4 18 3d f3 cd 07 3d 42 10 86 3d e1 5e 7f 3d
       0.037265964 0.033155393 0.0654607 0.062346343
0000b0 19 ce aa bd 99 78 76 bd cf c0 d5 bc 7e 02 21 3c
       -0.08340091 -0.060173605 -0.026092915 0.009827254
0000c0 0f f5 29 bd 20 a7 4c bc bb 28 ac bc 60 b0 aa 3c
       -0.04149347 -0.012491018 -0.021015516 0.020836055
0000d0 47 59 7c bd 8a 7a d6 3b b1 f8 07 3d 4a 12 c1 3c
       -0.06160858 0.0065453695 0.033196155 0.023568291
0000e0 83 fe d4 bc 45 ef c9 3d 3d 41 77 3d 7d b5 d5 bd
       -0.026000267 0.0986009 0.06036495 -0.10435007
0000f0 3e e0 a8 3d 00 7d 2a bd dd 44 c9 3d 69 c6 b3 bd
       0.08245896 -0.041623116 0.09827588 -0.08778078
000100 12 f3 af 3d 75 7a 12 bd 44 3a 22 3e cb b8 4a 3d
       0.08591284 -0.035761315 0.15842539 0.04949264
000110 02 09 88 ba d8 81 08 3c 90 66 af bd 04 63 c0 3d
       -0.0010378661 0.008331738 -0.08564484 0.09393886
000120 3e 7b 96 3d c9 8a 90 bc ba c9 da bd ab 83 40 bc
       0.07347725 -0.017644303 -0.106830075 -0.011750142
000130 89 cd 2c 3d a4 1b 27 3d 46 e3 a5 3c d8 9a b9 bc
       0.0421882 0.040797845 0.020249974 -0.022656843
000140 88 3c ea 3d 53 b5 62 bd 73 21 35 3d 9c cc 28 bd
       0.11437327 -0.055348706 0.044221353 -0.041210756

fc3.weight f4 [10, 84]
000000 0d e1 83 bd ab 3a eb 3d 58 72 f5 bd 38 ab 8b 3d
       -0.064394094 0.114857994 -0.119847 0.06819767
000010 27 33 8e 3d ab 96 25 3d 4b b1 c8 bd 03 aa 60 3a
       0.0694335 0.04042689 -0.09799441 0.00085702556
000020 56 89 b4 bd 22 bc f1 3d f1 fb b2 3d e6 de 62 3e
       -0.08815257 0.118034616 0.0873946 0.22155342
000030 53 75 5f 3e 4f 59 46 bd 71 b2 1b 3e 79 85 2a bb
       0.218221 -0.048425015 0.15204789 -0.0026019497
000040 e6 cf 5c 3d fa 05 9c 3d b0 e3 88 bd 73 dc da 3d
       0.053909205 0.076183274 -0.06684053 0.106865786
000050 06 85 c5 bc ed 32 e0 3d 7c 74 ca 3d 64 c5 a8 be
       -0.024111282 0.10947213 0.09885499 -0.32963097
000060 97 13 c1 bd da a8 c8 3d 00 f3 b2 bd 64 3e 7d 3d
       -0.094275646 0.09797831 -0.08737755 0.06182708
000070 ff 55 02 be d4 8f b8 bd 9e 5d 8e 3e 9d 6c 4e bb
       -0.12728117 -0.09011808 0.278058 -0.0031497844
000080 92 08 1e 3e 02 ad 8a 3c d4 56 99 bc 97 c2 44 3e
       0.15432957 0.0169282 -0.01871816 0.19214855
000090 94 5d f1 3c 37 16 92 3e 0b fc 8c 3d ab 3d f2 bd
       0.029463567 0.28532574 0.06884011 -0.118281685
0000a0 d5 89 99 ba 72 bc ce 3d de ef 99 bc e8 52 91 be
       -0.0011714051 0.10094537 -0.018791135 -0.28383565
0000b0 77 90 70 bc 73 fc 02 be 3a c0 63 3e e2 d8 2a be
       -0.014682881 -0.12791614 0.22241297 -0.16684297
0000c0 88 ad 3c bd fb aa e7 3c 2e 38 c8 3d 90 da 5d 3e
       -0.04606393 0.028279772 0.097763404 0.21665406
0000d0 0c 18 a7 3a f1 d4 5d 3c d1 9e 82 3e e5 0c 46 3d
       0.0012748255 0.013539539 0.25511792 0.04835214
0000e0 c5 0a 7f 3d d6 97 8b 3d 37 0d 66 3e e8 6b 5f 3e
       0.06226613 0.0681607 0.22465979 0.21818507
0000f0 32 02 06 be 43 21 25 3d 83 65 a5 bc b8 73 d5 bc
       -0.13086775 0.040314924 -0.020190006 -0.026056156
000100 8c 75 13 be 2b 89 3f 3d 42 4f 4e be 59 a0 1f 3e
       -0.1440031 0.046761673 -0.20147422 0.15588512
000110 25 f8 60 3c aa 8d 81 3d fa 7f 54 3e 43 3c 5e be
       0.013731037 0.063258484 0.20751944 -0.21702676
000120 55 77 86 3c 51 9c df bd ce 65 fe 3d 41 43 58 3d
       0.016414324 -0.10918487 0.124217615 0.052798513
000130 a0 81 cd bd 4c 14 f8 3d eb 25 65 be 6b fc 97 3d
       -0.1003449 0.12113246 -0.22377746 0.07421192
000140 e2 e1 c0 3d cd 0c 65 be a2 a2 08 be 52 d1 23 bd
       0.09418084 -0.22368164 -0.1334329 -0.039994545
000150 59 8e 5d 3d cf c6 10 3e 4d 60 fd bd b2 be 63 3e
       0.05409083 0.1413834 -0.123718835 0.22240713
000160 7f ff 80 bd 2f 0b 2e be b4 4a a4 3d 00 fe e3 3c
       -0.06298732 -0.16996454 0.08022061 0.027831078
000170 13 64 54 be 3d 42 00 be 22 41 b9 3e af d9 77 be
       -0.207413 -0.12525268 0.36182505 -0.24204133
000180 fc 0c 71 3d 23 91 42 3e 62 b7 ec bd 0d 09 3a 3d
       0.058850273 0.19000678 -0.11558415 0.045418788
000190 ed d9 d1 3d 1a 6f 0b be 9c 27 81 bd 98 eb cf bd
       0.10246644 -0.136166 -0.06306383 -0.10152358
0001a0 0c 95 80 3d f6 c3 60 3d 2d a9 0b be 1d d4 82 3e
       0.062784284 0.054874383 -0.13638754 0.25552455
0001b0 c2 3c 06 be 16 44 8b 3e 70 c7 a8 3c cc bd 7c bc
       -0.13109115 0.27200383 0.020602912 -0.0154261105
0001c0 e7 55 9f bd c3 b2 63 3d 9e 6e 4b ba 49 68 92 3d
       -0.077800564 0.055590402 -0.00077603187 0.07148797
0001d0 98 d5 5a be 77 0f 86 3d a5 c4 fb bd ad 26 b1 bd
       -0.21370542 0.065459184 -0.12293366 -0.08649955
0001e0 66 0d 11 3e 92 54 57 be c0 b2 4a bd b3 e0 b5 bd
       0.14165267 -0.21028355 -0.049486876 -0.088807486
0001f0 c2 17 5f be 3f 7f 88 3d d3 b1 a2 be 9e 3b 54 be
       -0.21786407 0.06664895 -0.31776294 -0.20725867
000200 48 55 97 bc c3 1e 39 3e ce 16 d5 bc 13 cb b2 bd
       -0.018473282 0.18078141 -0.02601185 -0.087301396
000210 cb 30 57 bd 4a 59 ad bc 60 5f 36 bb 6d 06 07 be
       -0.052536767 -0.02116074 -0.0027827844 -0.13186045
000220 d2 66 12 be 4c 26 8e bd 7c 0b 39 be 0c 32 52 3e
       -0.14297035 -0.06940898 -0.18070787 0.20526904
000230 ee 15 55 3e 1a 2d 98 be 44 14 28 bd 91 28 2a be
       0.20809147 -0.2972191 -0.04103495 -0.16617037
000240 8f b8 78 3d 7c c3 4f bd 75 47 d8 3b 24 d4 be bd
       0.060722884 -0.050723538 0.006600315 -0.09317806
000250 0f ad 16 bd 10 22 f7 bd 25 d9 fd bb 1d b1 c6 3c
       -0.036786135 -0.12067044 -0.007746833 0.024254376
000260 f5 e7 55 3d f2 bd 87 bc 80 e4 6a bc 1e 67 6b be
       0.052223165 -0.016570065 -0.014336705 -0.22988555
000270 84 3e b2 bd 8f 8b 03 be 7c 44 6e 3c 99 ad e8 3d
       -0.0870333 -0.12846206 0.014542695 0.11361236
000280 6c 3d 82 3e b6 82 f5 3d 7d a0 cc bd 55 f5 02 bd
       0.25437486 0.11987822 -0.09991548 -0.031972248
000290 6d 48 94 3d 7d 8d c3 bd 07 f5 ed 3c a0 8c ce bd
       0.072403766 -0.09548471 0.029047502 -0.10085416
0002a0 08 af 7b 3d cf 47 fd 3c 3d ee 5e 3d 31 93 42 be
       0.06144622 0.03091803 0.05442642 -0.19001462
0002b0 e9 61 9b bd c0 35 81 3e d5 0e 17 be 65 00 90 3d
       -0.07587034 0.2523632 -0.14751752 0.07031325
0002c0 1f 10 b1 3d b9 32 0a 3e 57 c1 42 3d 99 a6 5c 3e
       0.08645653 0.13495912 0.047547664 0.21547927
0002d0 67 77 ad bd cb b0 0c bd 25 71 83 bd 4d fa 97 3b
       -0.0847004 -0.03434829 -0.06418065 0.0046379925
0002e0 f6 de 3c 3e cc cc 53 bd 0f 50 7d 3e 31 f6 56 3c
       0.18444428 -0.05170898 0.24737571 0.01312022
0002f0 e9 e3 9f 3e a4 a2 46 be 2a 9a 14 3e ad 26 26 3e
       0.3122857 -0.1939798 0.14511934 0.16225691
000300 ab 06 42 3e 91 a5 79 3c df 2c 0c bd 5b 72 8f 3c
       0.18947856 0.015237228 -0.03422248 0.017510584
000310 4b d4 3d 3e 30 15 85 3e d1 e9 55 3e 5e 3b 35 bd
       0.18538015 0.25992727 0.20889975 -0.04424607
000320 d5 5b 9c 3d f5 fc 5e bd 41 8f 3a bd ac f6 80 3e
       0.07634703 -0.054440457 -0.045546774 0.25188196
000330 7d 18 3e be 76 98 2f 3e 5b 44 59 3e ce fe 2e bd
       -0.18564029 0.17148003 0.21217482 -0.04272347
000340 8c 2a ba bd 0c 31 5f 3d 86 c5 d2 3d fe 04 89 3d
       -0.090901464 0.054490134 0.10291581 0.06690405
000350 0c ff d7 bd 78 68 83 be 30 8e 95 3d f5 1f 51 3e
       -0.10546693 -0.2566564 0.07302511 0.20422347
000360 9e 4b e8 bd d0 98 dc bc b7 57 f6 bd 6e b5 01 3e
       -0.11342548 -0.026928335 -0.12028449 0.12666866
000370 54 b5 84 3e dc 93 61 bd 7e 6e 84 3b 7a 21 70 bd
       0.25919592 -0.05507265 0.004041492 -0.058625676
000380 7e 90 4b be 61 f6 8b 3d d7 0e 92 3d da c1 cc bd
       -0.19879338 0.068341024 0.07131737 -0.09997912
000390 1e b8 8b bd a3 85 30 3d 6c f1 5d bd 9d fc 97 3d
       -0.06822227 0.043096196 -0.054185316 0.07421229
0003a0 5a 45 87 3e bf 2c 8b bc 14 78 77 3d 2b 6d 7d 3e
       0.264201 -0.01698911 0.06041725 0.24748676
0003b0 af 1f 98 3c 76 ac ee bc 33 e5 97 3d b7 5b 76 bd
       0.018569795 -0.02913497 0.07416763 -0.06014606
0003c0 76 d5 fc 3d b8 12 8c bc c9 3e 31 3b 6f 88 2f be
       0.12345402 -0.01709877 0.002704548 -0.17141889
0003d0 6f 9a 37 be 01 25 50 3d af 27 28 3e 33 35 c6 bc
       -0.17930005 0.05081654 0.16421388 -0.02419529
0003e0 00 96 e2 3d bd 5b 2a 3e 9c 5e 49 be f8 be a5 bb
       0.110637665 0.16636558 -0.19664997 -0.0050581656
0003f0 bb 32 8d bd f0 d8 66 3b 88 50 f3 bc 62 f6 ef 3d
       -0.06894442 0.003522452 -0.029701486 0.11716916

fc3.bias f4 [10]
000000 b6 63 a4 bd e9 27 dc bd 17 7a 2c 3e f2 8a 7a bd
       -0.08026831 -0.107498 0.16843449 -0.061167665
000010 bc 14 a1 3e 6a c5 9a bd 43 46 23 3e 97 ea b6 bc
       0.31461132 -0.07557185 0.15944771 -0.022328658
000020 7c b1 8e bd 97 80 d8 bd
       -0.06967446 -0.105714016
