checkpoint/best_LeNet5_relu.ckpt (torch, 252693 bytes, 10 tensors)

conv1.0.weight f4 [6, 3, 5, 5]
0	0xbd700fa2	-0.05860866
1	0xbbdab76c	-0.0066746976
2	0xbd839c14	-0.06426254
3	0x3e9e3033	0.30896148
4	0x3dacb4b9	0.084329076
5	0x3cae7db2	0.02130017
6	0x3e237737	0.15963446
7	0x3eef09e4	0.46687233
8	0x3f2dff87	0.6796803
9	0x3e618ca8	0.22026312
10	0xbd9d900b	-0.0769349
11	0x3e15d9e8	0.14633906
12	0xbb833c6c	-0.0040050056
13	0x3e5ff8ac	0.21872205
14	0xbe7212ac	-0.23639935
15	0xbe34bb53	-0.17649584
16	0x3d3ad009	0.045608554
17	0xbe850759	-0.25982168
18	0x3e22ea0b	0.15909593
19	0xbecff29a	-0.40614778
20	0x3c52212a	0.01282529
21	0xbe6db9e9	-0.2321545
22	0xbebed249	-0.3726981
23	0xbd31e73b	-0.04343341
24	0xbe6488bd	-0.22317787
25	0xbceef3f2	-0.029169057
26	0x3d302c82	0.043011196
27	0xbeefadab	-0.46812186
28	0xbe3267d1	-0.17422415
29	0xbe5ab6f1	-0.21358849
30	0xbac1f593	-0.0014797918
31	0x3e94f13b	0.29090294
32	0x3d8b2997	0.06795042
33	0x3dbd0af1	0.092306025
34	0x3dc7f9e6	0.09764461
35	0xbc9fe0e6	-0.01951642
36	0x3ea7273e	0.32647127
37	0xbd6f2896	-0.058388315
38	0xbc418430	-0.011811301
39	0xbd997a1d	-0.074939944
40	0xbcd51702	-0.026011948
41	0xbcd00a22	-0.025395457
42	0xbf0ac75d	-0.54210454
43	0xbb3dbccb	-0.002895164
44	0xbe6de570	-0.23232055
45	0x3d37e43d	0.0448954
46	0x3e572aea	0.21012464
47	0xbe4c6b8f	-0.19962905
48	0x3dee59c9	0.11638219
49	0x3b0c5784	0.0021414468
50	0x3d61ee84	0.055159107
51	0x3d0a132b	0.033709686
52	0xbed2cecb	-0.41173396
53	0xbe5f4410	-0.21803308
54	0xbde96bdd	-0.113975264
55	0x3ddacd4a	0.10683687
56	0x3d277e08	0.040891677
57	0xbdd45b2c	-0.10368952
58	0x3defc39a	0.1170723
59	0x3e073df6	0.1320723
60	0xbd805c98	-0.06267661
61	0x3e6d8dce	0.23198625
62	0xbe422622	-0.18959859
63	0x3e5bdb77	0.21470438
64	0x3c897854	0.01678101
65	0xbe49d7c2	-0.19711211
66	0xb97a6373	-0.00023878906
67	0xbeb703db	-0.3574513
68	0x3e1017ff	0.14071654
69	0x3d62eed5	0.05540355
70	0x3da11521	0.07865358
71	0x3e9ee264	0.31032097
72	0xbcfd9466	-0.030954551
73	0x3e8de914	0.27716887
74	0x3e4f77a0	0.20260477
75	0xbe23e814	-0.160065
76	0x3da8675b	0.082228385
77	0xbd3cd22f	-0.046098884
78	0xbce99dd0	-0.028517634
79	0x3d4461a5	0.047944684
80	0xbf0475d1	-0.51742274
81	0x3c1a6e36	0.00942569
82	0x3ee79d6b	0.45237288
83	0xbdab183e	-0.08354233
84	0xbc69b37a	-0.014263982
85	0x3efd21f9	0.49439982
86	0xbe78ad1e	-0.24284789
87	0xbebe0d70	-0.37119627
88	0x3ca56827	0.020191265
89	0x3c7ea75a	0.015542829
90	0x3edad01d	0.42736903
91	0xbdda91ec	-0.10672364
92	0xbe89272b	-0.26787695
93	0xba63f78d	-0.0008696251
94	0xbd4db797	-0.050223913
95	0xbddfd62c	-0.10929522
96	0x3e4306a6	0.19045505
97	0x3e34f2f1	0.176708
98	0xbd3cccb1	-0.046093646
99	0x3d949ca7	0.072564416
100	0x3be8b366	0.007101464
101	0x3d91f9a8	0.07127696
102	0x3db733ce	0.08945428
103	0xbd4d6857	-0.050148334
104	0xbc6aec80	-0.014338613
105	0xbee8bc9c	-0.45456398
106	0x3dab451a	0.083627895
107	0x3ef8f538	0.48624587
108	0xbb3a4f5b	-0.0028428647
109	0x3d6bc8d7	0.057564583
110	0x3f019c31	0.50628954
111	0xbea46484	-0.32107937
112	0xbeca4d70	-0.39512205
113	0x3dc3d549	0.09562165
114	0x3ddf51a1	0.10904241
115	0x3e80a762	0.25127703
116	0xbd80ad82	-0.06283094
117	0xbe6b8a3b	-0.2300195
118	0x3da18177	0.078860216
119	0xbd5835b6	-0.052785598
120	0xbe537c64	-0.2065292
121	0x3d3fa040	0.046783686
122	0x3da84ef3	0.08218183
123	0xbe5ad165	-0.2136894
124	0xbdbadfc0	-0.09124708
125	0xbe425436	-0.18977436
126	0x3e1382d9	0.14405383
127	0xbd64e60c	-0.055883452
128	0x3dbbd40f	0.09171306
129	0x3d6bc286	0.05755856
130	0xbf189ea1	-0.5961705
131	0x3db7596e	0.08952604
132	0x3ed40f7b	0.4141806
133	0xbdad99bf	-0.0847659
134	0xbd5ef2f2	-0.05443091
135	0x3efa9a6c	0.4894594
136	0xbe675001	-0.22589113
137	0xbe814d9a	-0.25254518
138	0x3dda461b	0.10657903
139	0xbcc70176	-0.024292689
140	0x3eaccc01	0.33749393
141	0xbd92d355	-0.07169215
142	0xbe0f6fe9	-0.14007534
143	0xbd03227c	-0.03201531
144	0xbca8c620	-0.020602286
145	0xbdb98d2f	-0.09060132
146	0x3da6b0ae	0.08139168
147	0x3e0bffe1	0.13671829
148	0xbd70e881	-0.058815483
149	0x3d44c044	0.04803492
150	0x3c57b64c	0.013166022
151	0x3d34b499	0.044117544
152	0xbb5ae732	-0.0033401963
153	0xbd9ac26e	-0.07556616
154	0xbdc6da1e	-0.09709571
155	0xbaca021d	-0.0015412007
156	0x3dc71391	0.09720529
157	0x3e49776c	0.19674462
158	0x3e363639	0.17794122
159	0xbd087281	-0.033312324
160	0x3d860641	0.065441616
161	0x3dbc45a5	0.09192971
162	0x3e3c99be	0.18418023
163	0x3e2e93fa	0.17048636
164	0x3e280422	0.16407827
165	0x3d7c4776	0.061591588
166	0x3d2b1f4b	0.04177789
167	0x3e42b161	0.19012977
168	0x3e466c4d	0.19377251
169	0x3d7f270a	0.06229309
170	0x3e1bec52	0.15226868
171	0x3e010317	0.12598835
172	0x3c780945	0.015138929
173	0x3d55bd1f	0.052182313
174	0x3d078f0d	0.03309541
175	0xbe34a5f0	-0.17641425
176	0x3deca858	0.115555465
177	0x3d955be9	0.07292921
178	0xbdcce1ba	-0.100039914
179	0xbe0e07ae	-0.13870117
180	0xbddf963e	-0.10917328
181	0x3d832979	0.06404395
182	0xbb9a30d2	-0.004705527
183	0x3cbf7fec	0.023376428
184	0x3bced2b9	0.006311741
185	0xbe1edb18	-0.15513265
186	0xbda92270	-0.082585216
187	0xbcb6f2f2	-0.022332642
188	0xbca0bc52	-0.019621048
189	0xbc4bec20	-0.012446433
190	0xbe06447b	-0.1311206
191	0xbddf33bb	-0.10898539
192	0xbd6a6ae7	-0.057230856
193	0xbe0b4309	-0.1359979
194	0x3ca37dbf	0.019957421
195	0xbe58392e	-0.21115562
196	0xbe006e61	-0.12542106
197	0xbe0d27cf	-0.13784717
198	0xbd5f6c9f	-0.05454695
199	0xbdc3592f	-0.09538495
200	0x3e12e6ba	0.14345828
201	0x3e6df34a	0.23237339
202	0x3e1fe845	0.15615948
203	0x3d6a4bc6	0.05720117
204	0xbdfbefc9	-0.12301595
205	0x3ddb6748	0.10713059
206	0x3e328da5	0.17436846
207	0x3e2add5e	0.16686007
208	0x3dbfeee7	0.09371739
209	0x3a24da3a	0.0006288622
210	0xbe0a8ae3	-0.13529544
211	0xbc51de85	-0.0128094
212	0x3d5d13ca	0.05397395
213	0x3e066477	0.13124262
214	0xbd9b23be	-0.07575177
215	0x3d5ea228	0.054353863
216	0x3c057b49	0.008147069
217	0xbd758439	-0.05994055
218	0x3df99e35	0.12188379
219	0x3c1766c2	0.009240808
220	0xbc023cf7	-0.007949105
221	0x3ddda389	0.108222075
222	0x3d3c7098	0.046005815
223	0xbd8ba7d5	-0.06819121
224	0xbdb3f1b6	-0.08786337
225	0xbde830d6	-0.1133744
226	0xbdd5db8d	-0.104422666
227	0xbe25a4b7	-0.16176115
228	0xbe19392d	-0.14963217
229	0x3cca8a6a	0.024724204
230	0xbe27cd23	-0.16386847
231	0xbe235999	-0.15952148
232	0xbe67004d	-0.22558708
233	0xbe89cc72	-0.26913792
234	0xbda15b9b	-0.078788005
235	0xbe2162a9	-0.15760292
236	0xbe3f9a16	-0.18711123
237	0xbe66b97c	-0.22531694
238	0xbe852685	-0.2600595
239	0xbe83f107	-0.25769827
240	0xbdf0b6d6	-0.11753623
241	0xbdcbaee9	-0.09945471
242	0xbe2e3c39	-0.1701516
243	0xbe1f1747	-0.15536223
244	0xbe017324	-0.12641579
245	0xbde4fbcf	-0.11180841
246	0xbe198ee0	-0.14995909
247	0xbbf8d78d	-0.007594055
248	0xbe051c23	-0.12999015
249	0xbd8929bc	-0.06697413
250	0xbca8aa36	-0.020588975
251	0xbda8f592	-0.08249964
252	0x3e007830	0.12545848
253	0x3d364375	0.044497926
254	0x3d485c81	0.048916344
255	0x3ce545c0	0.027987361

conv1.0.bias f4 [6]
0	0xbed92604	-0.42411816
1	0x3e736e5d	0.23772569
2	0x3f76a829	0.9635034
3	0x3ec0efc4	0.37682927
4	0x3e568e5b	0.20952742
5	0x3d8641a4	0.06555489

conv2.0.weight f4 [16, 6, 5, 5]
0	0xbaa865a0	-0.001284767
1	0x3d659738	0.056052417
2	0x3d49b900	0.049248695
3	0x3d3bafab	0.045821827
4	0x3a69031f	0.00088887097
5	0x3dab42c9	0.08362348
6	0x3e04dd54	0.12975055
7	0x3de2d92f	0.11076581
8	0x3dfc0281	0.12305165
9	0x3d42790e	0.047478728
10	0x3e0a1966	0.13486251
11	0x3e24ac7f	0.16081427
12	0x3e345dcf	0.1761391
13	0x3dbd2486	0.09235482
14	0x3e0b48dc	0.13602012
15	0xbbc874c4	-0.006117435
16	0x3e002826	0.12515315
17	0x3e0d4a07	0.1379777
18	0x3d82a455	0.06379
19	0x3dbd7ae7	0.092519574
20	0x3ca734b1	0.020410867
21	0x3d571cd4	0.052517727
22	0x3e407dae	0.18797943
23	0x3e5871c9	0.21137156
24	0x3e58a03a	0.21154872
25	0x3dc4780b	0.09593209
26	0x3ddbdcb9	0.10735459
27	0x3db2126e	0.086949214
28	0x3da32cf5	0.07967559
29	0x3dad3959	0.08458204
30	0x3dd3731d	0.103246905
31	0x3e130fbc	0.14361471
32	0x3e0047b0	0.12527347
33	0x3e0803a4	0.13282639
34	0x3daa5a5e	0.083180174
35	0x3e0a05b9	0.13478746
36	0x3e102149	0.14075197
37	0x3de5b39c	0.112158984
38	0x3dcd122f	0.10013234
39	0x3e0bce3e	0.13652894
40	0x3e1dd625	0.15413721
41	0x3e0e30db	0.13885824
42	0x3db3175a	0.08744688
43	0x3e16cee3	0.14727359
44	0x3e22fb26	0.15916118
45	0x3d421eed	0.047392774
46	0x3e035bd3	0.12827997
47	0x3e1a6abd	0.1507978
48	0x3e05601b	0.13024943
49	0x3e08bbc1	0.13352872
50	0x3dba0093	0.09082141
51	0xbd0c19a3	-0.034204137
52	0xbbd21d46	-0.006412181
53	0x3c6da2a2	0.014504107
54	0xbc0e45f1	-0.0086836675
55	0x3d0ae012	0.033905096
56	0x3d62f061	0.055405024
57	0x3c7f85c7	0.01559586
58	0xbd73ed72	-0.059552617
59	0xbc100e1e	-0.008792428
60	0x3dd93992	0.10606684
61	0xbd8feba5	-0.070273675
62	0x3db3a2e2	0.08771302
63	0xbc03dc1f	-0.008048086
64	0x3c498886	0.012300616
65	0xbdfa716f	-0.12228667
66	0x3c191300	0.009342909
67	0x3d8b9ffb	0.06817623
68	0x3db1c901	0.086809166
69	0x3e10fc4c	0.14158744
70	0x3da4ae88	0.08041102
71	0xbd2c55e8	-0.042074114
72	0xbd118768	-0.035529524
73	0x3d36dee8	0.044646174
74	0x3e12ce65	0.14336546
75	0x3de85179	0.11343665
76	0x3d7cc4f8	0.06171128
77	0xbd9f6cf9	-0.07784457
78	0xbb0b6199	-0.002126789
79	0xbd46521c	-0.04841815
80	0xbc9a46cc	-0.018832587
81	0x3d3f98b4	0.04677649
82	0x3d3342b1	0.043764774
83	0x3c338a93	0.010958332
84	0x3c98e3c8	0.018663302
85	0xbd3faa13	-0.046793055
86	0xbd3d1dd4	-0.046171024
87	0x3a9cddef	0.0011967997
88	0x3d96809d	0.0734875
89	0xbd810d8b	-0.06301411
90	0xbd18f861	-0.037346248
91	0xbc2b922e	-0.010471864
92	0xbd9f7a5e	-0.077870116
93	0x3d7571ce	0.059922986
94	0xbd9805ee	-0.07423006
95	0x3d004e5e	0.031324737
96	0xbbdee4f8	-0.0068021975
97	0x3ba7e809	0.0051240963
98	0xbe06e371	-0.131727
99	0xbcbf69eb	-0.023365935
100	0xbdb5dac9	-0.088796206
101	0xbd2c63d9	-0.04208741
102	0xbd43e614	-0.04782684
103	0xbd10f0be	-0.03538584
104	0xbe14dfad	-0.1453845
105	0x3b5e6d0d	0.003393951
106	0x3c3ecac0	0.011645019
107	0xbd52b9a8	-0.051446587
108	0x3a958eed	0.0011410393
109	0xbdb3b26e	-0.08774267
110	0xbd03a52f	-0.032139953
111	0xbce9b88c	-0.028530382
112	0x3d65040e	0.05591207
113	0xbc892244	-0.016739972
114	0xbcc00211	-0.023438485
115	0xbbd6ad1a	-0.006551397
116	0xbca8e1f6	-0.02061556
117	0xbc90dc7b	-0.017683258
118	0x3b86713f	0.0041028555
119	0xbd339491	-0.043842856
120	0x3d3b9f26	0.045806073
121	0x3e104c28	0.14091551
122	0x3de7b9b0	0.11314714
123	0xbc97bb18	-0.01852183
124	0xbda98794	-0.082778126
125	0x3c31f5dd	0.010861841
126	0x3d985cbd	0.074395634
127	0x3d53478a	0.051581897
128	0x3d911208	0.07083517
129	0x3cc06b93	0.023488795
130	0xbdd1e8cf	-0.10249483
131	0xbcc7d10d	-0.024391675
132	0x3c10642d	0.008812946
133	0x3d2130cf	0.039353188
134	0x3d30040a	0.042972602
135	0xbdd23991	-0.10264886
136	0xbe39c425	-0.1814123
137	0xbde9adbe	-0.11410092
138	0xbd8fda86	-0.07024102
139	0xbd45fff0	-0.048339784
140	0xbe06dcea	-0.1317021
141	0xbe23531e	-0.15949675
142	0xbe504c26	-0.20341548
143	0xbe3c5dc3	-0.18395142
144	0xbda49672	-0.08036508
145	0xbca5d28e	-0.020242002
146	0xbddd2060	-0.10797191
147	0xbe33c542	-0.17555717
148	0xbe510fce	-0.20416185
149	0xbd9ab9bc	-0.07554957
150	0xbe0c7005	-0.13714607
151	0x3cdf52a2	0.027261082
152	0x3c9c560d	0.019084001
153	0x3d07375c	0.03301178
154	0xbdd67e89	-0.104733534
155	0xbd21421f	-0.0393697
156	0x3da99527	0.08280402
157	0xbd2d2be1	-0.042278174
158	0xbe2d9c0b	-0.16954057
159	0xbd43aa09	-0.04776958
160	0x3d889886	0.066697165
161	0xbdc199e5	-0.09453181
162	0xbdd93ef9	-0.10607714
163	0xbdc9b75a	-0.09849425
164	0xbca5f36e	-0.020257678
165	0xb8b9bc5c	-8.856572e-05
166	0xbdb6680b	-0.08906563
167	0xbc8c46a7	-0.017123533
168	0xbbc7f619	-0.006102335
169	0xbd9ee63e	-0.07758759
170	0x3d854e7b	0.065091096
171	0xbb7e6ce5	-0.003882223
172	0xbcc40fee	-0.023933377
173	0x3c2d7d46	0.01058895
174	0xbdb66369	-0.0890568
175	0xbdb71b5a	-0.08940764
176	0x3ca62f29	0.02028616
177	0x3da54eb5	0.08071653
178	0x3cfb8dd5	0.03070728
179	0xbdba57f2	-0.090988055
180	0x3ae4114a	0.0017400172
181	0x3dfba951	0.12288154
182	0xbcb1ef50	-0.021720558
183	0xbe0aa3d8	-0.13539064
184	0xbd25439c	-0.04034768
185	0x3d7420b6	0.059601508
186	0x3d636781	0.05551863
187	0xbe33bea0	-0.17553186
188	0xbd9cae66	-0.07650451
189	0x3e41bd58	0.18919885
190	0x3a0b004a	0.0005302472
191	0xbda84e4e	-0.082180604
192	0xbd7e5462	-0.062092192
193	0x3e484774	0.19558507
194	0x3db1f8f9	0.08690066
195	0xbccb5a94	-0.024823464
196	0xbd6af314	-0.057360724
197	0x3d6e0507	0.058110263
198	0x3d850a15	0.064960636
199	0xbc6b64c4	-0.014367286
200	0xbd15a73f	-0.03653645
201	0x3d999859	0.07499761
202	0x3d740564	0.059575453
203	0xbd17790d	-0.036980677
204	0x3c48962d	0.012242836
205	0x3d66d025	0.056350846
206	0x3cf5bf94	0.029998578
207	0xbe18dd63	-0.14928202
208	0xbd77fcff	-0.06054401
209	0x3d88eda5	0.06685952
210	0x3df82599	0.12116546
211	0xbdca039f	-0.09863972
212	0xbe45eae6	-0.19327888
213	0xbd9c4ba4	-0.07631615
214	0x3e1f05c8	0.15529549
215	0xbd618a5e	-0.055063598
216	0xbe554f49	-0.20831026
217	0xbe0b8467	-0.13624726
218	0x3dd28dea	0.10280974
219	0x3e608d18	0.21928823
220	0xbe14624f	-0.14490627
221	0xbdf00629	-0.11719925
222	0x3ce29e2a	0.02766331
223	0x3e389f18	0.1802944
224	0x3e26e2bd	0.16297431
225	0xbc198277	-0.009369484
226	0xbdb646e6	-0.089002416
227	0x3b60f60b	0.003432634
228	0xbe0d5069	-0.13800205
229	0x3ce94a4d	0.028477812
230	0xbd141e5a	-0.036161758
231	0xbc2b889f	-0.010469585
232	0xbd8e0c76	-0.069359705
233	0xbdc72fe3	-0.097259305
234	0x3dc6c7e0	0.09706092
235	0xbd900611	-0.07032407
236	0xbe70cd6b	-0.2351586
237	0xbd70340a	-0.05864338
238	0x3d7ce728	0.061743885
239	0x3e541539	0.20711221
240	0xbe17930a	-0.14802185
241	0xbe40f0e2	-0.1884189
242	0xbd6265f5	-0.055273015
243	0x3dd2acfd	0.10286901
244	0x3e666bed	0.22502108
245	0xbe13ce4e	-0.14434168
246	0xbe07e352	-0.1327031
247	0x3db1034f	0.08643209
248	0x3e5d898c	0.21634501
249	0x3e615e4a	0.22008625
250	0xbc812f9d	-0.015769774
251	0xbd946d3c	-0.07247397
252	0xbe22170f	-0.15829109
253	0xbc96cf71	-0.018409463
254	0x3d5a0a00	0.053232193
255	0xbe390091	-0.18066622

conv2.0.bias f4 [16]
0	0x3e3c5c8a	0.18394676
1	0x3e2b8d18	0.16753042
2	0xbe5f3fe9	-0.21801724
3	0xbe0fedff	-0.14055632
4	0xbe98c0d8	-0.29834628
5	0xbe9b6f96	-0.3035857
6	0xbef0b0d4	-0.4700991
7	0x3eb326bf	0.34990498
8	0x3ea5ba35	0.32368627
9	0xbd1d1068	-0.038345724
10	0xbd304ffe	-0.043045036
11	0xbd415f2a	-0.047209896
12	0x3f33f966	0.70302427
13	0xbd4a14be	-0.049336188
14	0x3e0aebeb	0.13566558
15	0xbd06bae9	-0.032893095

fc1.0.weight f4 [120, 400]
0	0x3d1b3bfb	0.037899
1	0x3ad3f849	0.0016172017
2	0x3c3b3766	0.011426782
3	0x3d4b3f76	0.049621068
4	0x3d8e10c9	0.06936795
5	0xbc906300	-0.017625332
6	0xba0f86a6	-0.0005475081
7	0xbd0c432c	-0.034243748
8	0x3bc9427e	0.0061419597
9	0x3d8d3b20	0.06896043
10	0xbbd8e1ce	-0.006618715
11	0x3c2a53f6	0.010395994
12	0xbd6ae3a3	-0.057345998
13	0x39ed7ef1	0.0004529874
14	0x3dac012e	0.083986625
15	0x3c991de4	0.01869101
16	0x3c6e1339	0.01453095
17	0xbdb4fb73	-0.08837023
18	0xbd96adbb	-0.07357355
19	0x3d6324d3	0.05545504
20	0x3da9ccc2	0.082910076
21	0x3c63d2fc	0.013905283
22	0xbd2d41ec	-0.042299196
23	0xbd0979c7	-0.0335634
24	0x3d88e1d1	0.06683696
25	0x3c223200	0.009899616
26	0xbcfdb252	-0.030968819
27	0xbd863f42	-0.06555034
28	0xbcd3ff96	-0.025878709
29	0x3bfdc2dc	0.0077441763
30	0x3da4a63c	0.08039519
31	0xbc1954a5	-0.00935856
32	0x3b397106	0.0028296127
33	0xbc529baf	-0.012854501
34	0xbc190d40	-0.009341538
35	0x3d57ae41	0.052656416
36	0x39c817f1	0.0003816481
37	0xbc59a77a	-0.013284558
38	0x3bc14346	0.005897912
39	0x3d750b3e	0.059825175
40	0xba9d87ec	-0.0012018657
41	0xbd54aecd	-0.051924516
42	0x3d37d54b	0.044881146
43	0xbc0bb751	-0.008527593
44	0xbcb95ccc	-0.022627257
45	0x3d0c383e	0.034233324
46	0x3ca372c3	0.019952184
47	0x3b9086ac	0.0044105854
48	0xbc247f17	-0.010040066
49	0xbb7362c0	-0.0037137717
50	0xbc632463	-0.013863656
51	0xbd54c72a	-0.05194775
52	0x3d2b73ba	0.041858412
53	0xb9bc4a20	-0.00035913382
54	0x3cd0e877	0.025501473
55	0xbb9b6fc5	-0.0047435486
56	0xbd05f221	-0.032701615
57	0x3cdd8646	0.027041566
58	0x3ce6beae	0.028167095
59	0xbbf9fe78	-0.007629212
60	0xbc909815	-0.017650643
61	0x3d12f4f0	0.03587812
62	0x3d487ee2	0.04894913
63	0xbc827e70	-0.01592943
64	0xbbef0ae3	-0.007294999
65	0xbcf9189b	-0.03040724
66	0xbbee4c92	-0.0072723115
67	0x3cf1f465	0.029535482
68	0x3ce04108	0.02737476
69	0xbcace5d6	-0.021105688
70	0x3bf9b86f	0.007620863
71	0x3c32dc02	0.010916712
72	0x3caf6632	0.021411035
73	0x3c29d4bc	0.010365661
74	0x3c99aff7	0.018760664
75	0x3cf115d3	0.029429352
76	0xbca20606	-0.019778263
77	0x3c88e09b	0.016708663
78	0x3b5d7971	0.0033794309
79	0xbcae1118	-0.021248385
80	0x3b5c8da1	0.0033653753
81	0xbc9aca54	-0.018895306
82	0xbb9393d6	-0.0045037074
83	0xbd5230ab	-0.051315945
84	0x3cb17147	0.02166046
85	0xbca0bf75	-0.019622544
86	0x3c2d2e9a	0.010570193
87	0xbcce1566	-0.025156688
88	0xbd91104e	-0.07083188
89	0xbd4a21c1	-0.049348596
90	0x3c16af9e	0.009197144
91	0xbd8b2fa4	-0.06796196
92	0xbcb5f815	-0.022213021
93	0xbc58d6be	-0.013234792
94	0xbc995cc3	-0.01872099
95	0xbc58d3f4	-0.013234127
96	0x3d3dce2e	0.046339206
97	0x3d6dfb3c	0.058100924
98	0x3d88d55e	0.066813216
99	0x3cff244a	0.031145234
100	0x3b140257	0.0022584402
101	0xb9d247d6	-0.00040107843
102	0x3cc283a5	0.023744414
103	0xbd211985	-0.039330978
104	0x3cc1863a	0.023623575
105	0x3c84fc25	0.016233513
106	0xbd0fb4f9	-0.0350847
107	0x3c94ece4	0.018179365
108	0x3c99fd23	0.018797463
109	0x3bb22da5	0.00543757
110	0xbd1807a1	-0.03711665
111	0x3d225d79	0.039639924
112	0xbbf5dc77	-0.007503088
113	0xbd3f5011	-0.046707217
114	0xbc8b7854	-0.01702515
115	0xbd0a7134	-0.033799365
116	0xbd0c74ff	-0.034291264
117	0x3c21ad5a	0.00986799
118	0x3b551924	0.0032516206
119	0xbd748fe6	-0.059707545
120	0xbabb22d1	-0.0014277344
121	0x3d445780	0.04793501
122	0x3d58175e	0.05275666
123	0x3cc3a86f	0.023884026
124	0xbd9f2dbf	-0.07772397
125	0x3caf766c	0.021418773
126	0x3b984fe8	0.0046481974
127	0xbcf6a3cb	-0.0301074
128	0xbbcd90e3	-0.0062733754
129	0x3b9ed155	0.0048467317
130	0x3d2675d1	0.040639702
131	0x3b86aaa5	0.004109698
132	0xbd52bd30	-0.051449955
133	0xbca4f51a	-0.020136405
134	0x3c250161	0.01007113
135	0x3ce0fd8e	0.027464654
136	0x3b9b18b6	0.0047331704
137	0xbbd6ffac	-0.00656124
138	0x3d057f0d	0.03259187
139	0xbcd6fb48	-0.026242867
140	0x3cc16962	0.02360982
141	0xbb30becc	-0.0026969193
142	0x3d8154cc	0.06315002
143	0xbd1d6813	-0.03842933
144	0x3cc6998c	0.024243139
145	0x3cf6894c	0.030094765
146	0x3d198f15	0.03748997
147	0xbad6ea01	-0.0016396643
148	0xbca1724d	-0.019707823
149	0x3cd97e53	0.026549494
150	0x3d8309e1	0.063983686
151	0xbaabb834	-0.0013101161
152	0x3cc1d9b0	0.023663372
153	0x3c80a798	0.015704915
154	0xbc7db727	-0.015485561
155	0x3c02715f	0.0079616
156	0xbd866721	-0.06562639
157	0xbd77d284	-0.060503498
158	0xbd5a7fa2	-0.053344376
159	0xbc878e67	-0.016547395
160	0x3c2f7ed8	0.010711394
161	0xbd3d6c92	-0.04624612
162	0x3bdbf852	0.0067129517
163	0xbcff461f	-0.031161366
164	0x3cb026c9	0.02150287
165	0xbb5db770	-0.003383126
166	0xbd6bdf1f	-0.05758583
167	0xbd5846bf	-0.052801844
168	0x3cd28e78	0.0257027
169	0x3c946237	0.018113239
170	0x3d7bcd4c	0.061475083
171	0x3c794058	0.015213095
172	0xbce9d606	-0.028544437
173	0xbc2918e9	-0.01032088
174	0x3bdcc87b	0.0067377663
175	0x3d23c92a	0.039986767
176	0xbcc53767	-0.02407427
177	0x3c9defeb	0.01927944
178	0x3ccdc16e	0.025116649
179	0xbc5563e1	-0.013024301
180	0x3c9a1765	0.018809984
181	0x3cbfd053	0.023414766
182	0xbd397a54	-0.045282677
183	0xbc4f56a0	-0.01265493
184	0x3d332c11	0.043743197
185	0x3d1b4436	0.037906848
186	0xbd500e14	-0.050794676
187	0x3c828d26	0.015936445
188	0x3d187d1f	0.0372287
189	0x3c4650e8	0.0121042505
190	0x3d0c23ec	0.034213945
191	0xbcb56ccd	-0.022146607
192	0x3c60de3b	0.013724859
193	0xbce9cfc4	-0.028541453
194	0xbc8f8306	-0.017518532
195	0x3dcd32bd	0.10019443
196	0x3c4fda7b	0.012686367
197	0x3d810375	0.062994875
198	0x3d621cf1	0.055203382
199	0x3c92770e	0.017879035
200	0x3bd69ccd	0.006549454
201	0x3c27b478	0.010235898
202	0xbd0633e0	-0.032764316
203	0x3cf1fcae	0.029539432
204	0xbbfbca07	-0.0076839956
205	0x3d0e5690	0.03475052
206	0x3ccd898e	0.025090005
207	0xbd1988f4	-0.037484124
208	0xbd89a43c	-0.06720778
209	0xbd3649a8	-0.044503838
210	0xbc43a31d	-0.011940745
211	0x3be4cb35	0.006982232
212	0xbd1a0b57	-0.03760847
213	0xbd92cbb5	-0.0716776
214	0xbd11dd9f	-0.035611745
215	0xbd482625	-0.048864502
216	0xbce1ee73	-0.027579522
217	0x3bcbc2a6	0.0062182723
218	0xbbbf8698	-0.0058449022
219	0xbccf827d	-0.025330776
220	0xbbe5f909	-0.0070182127
221	0x3a4620df	0.0007557999
222	0x3a8e5b87	0.0010861018
223	0xbbb45819	-0.005503666
224	0x3abf3259	0.0014587148
225	0x3cc34f7d	0.023841614
226	0x3c435890	0.01192297
227	0x3bfc2bc1	0.0076956456
228	0x3d472ff1	0.048629705
229	0xbc4a1ea4	-0.012336407
230	0xbcabe673	-0.02098391
231	0x39e5d311	0.0004383554
232	0xbd28b184	-0.041184917
233	0x3c3c5fd5	0.0114974575
234	0xbcd9acc1	-0.026571633
235	0xbd0fb834	-0.03508778
236	0x3beeb98b	0.007285302
237	0x3ca18740	0.019717813
238	0x3c01cc96	0.007922312
239	0xbc671971	-0.014105187
240	0x3c69a30d	0.014260066
241	0xbd2b582a	-0.041832127
242	0xbcf52ee0	-0.029929578
243	0xbc93261a	-0.017962504
244	0x3a3dc1f8	0.00072386814
245	0x3c9aedc0	0.018912196
246	0x3c9ab52d	0.01888522
247	0x3c967adf	0.018369136
248	0xba62940e	-0.00086432777
249	0xbcab5639	-0.020915138
250	0x3da13b17	0.078725986
251	0xbc907dcd	-0.017638111
252	0xbcc2c8ef	-0.023777453
253	0x3c1b220d	0.009468568
254	0x3d878c86	0.066185996
255	0x3d8beab4	0.068318754

fc1.0.bias f4 [120]
0	0xbd83e0be	-0.064393505
1	0x3d6e8b20	0.05823815
2	0x3bc25101	0.0059300666
3	0x3e286892	0.1644614
4	0xbcc92265	-0.024552533
5	0x3db47ef1	0.08813275
6	0x3d0b56e3	0.03401841
7	0x3ce82a7e	0.028340574
8	0xbd20d7ba	-0.039268233
9	0x3a313a85	0.0006760734
10	0x3ce9d34b	0.028543135
11	0x3d8121e3	0.063052915
12	0xbb2638a9	-0.0025363362
13	0xbb4e02a7	-0.0031434686
14	0xbc39aed3	-0.011333185
15	0x3e0400e8	0.1289097
16	0xbd9b05be	-0.075694546
17	0x3bfbad07	0.0076805386
18	0x379687e3	1.794467e-05
19	0x3d94f21e	0.07272743
20	0x3be1b3eb	0.006887903
21	0xbc7519e5	-0.014959787
22	0x3ac91753	0.0015342034
23	0x3cc27665	0.023738096
24	0xbc9722a3	-0.018449133
25	0x3e0b4d23	0.13603644
26	0x3d5777c2	0.052604444
27	0x3d820eb5	0.063504614
28	0x3d9ccb20	0.076559305
29	0xbb6d7ea9	-0.0036238825
30	0x3d312c4d	0.04325514
31	0xbc694825	-0.014238392
32	0x3db83571	0.08994568
33	0xbc6480a3	-0.013946685
34	0xbc562ac5	-0.0130717205
35	0xbd822197	-0.06354063
36	0x3beb194d	0.007174647
37	0xbd43d3ba	-0.04780934
38	0xbd52bcb4	-0.051449493
39	0x3cb370b1	0.021904321
40	0xbcedf16f	-0.029045789
41	0x3ccd8cbc	0.025091521
42	0x3d886ce6	0.06661396
43	0xbd125fd1	-0.03573591
44	0xbb2c7513	-0.00263149
45	0xbe149749	-0.14510836
46	0xbd22f836	-0.039787494
47	0x3cdb395e	0.026760753
48	0x3b8164ea	0.0039487975
49	0xbd03c0ac	-0.032166168
50	0x392b40db	0.00016331991
51	0xbc7dabda	-0.015482867
52	0x3d4c1896	0.049828134
53	0xbd5e2222	-0.05423177
54	0xbd383b67	-0.044978525
55	0xbcff9f63	-0.031203931
56	0x3d9be70a	0.076124266
57	0x3cef842d	0.029237831
58	0xbd192ed1	-0.037398163
59	0x3c29b558	0.010358177
60	0x3d4bd985	0.04976799
61	0x3cf137a6	0.02944548
62	0xbcc6f4ab	-0.024286589
63	0x3b4aa2d5	0.003091981
64	0xbc4b125d	-0.012394515
65	0xbd36fd60	-0.04467523
66	0x3d54fbc3	0.05199791
67	0xbb834267	-0.0040057185
68	0xbd398f31	-0.045302574
69	0x3c9314d2	0.017954264
70	0x3d12d037	0.0358431
71	0x3bce16c5	0.0062893354
72	0x3d143184	0.036180034
73	0x3da15c13	0.0787889
74	0xbd06612a	-0.032807507
75	0xbd0059b4	-0.031335548
76	0x3ca90c97	0.020635886
77	0x3cbd2c34	0.023092367
78	0x3d2c6297	0.04208621
79	0xbcd15006	-0.025550853
80	0xbca622bd	-0.020280236
81	0xbcacc7c2	-0.021091346
82	0x3c181547	0.009282417
83	0xbb755ad2	-0.0037438166
84	0xbd3bbb30	-0.045832813
85	0x3d1a99d0	0.037744343
86	0xbd49cb44	-0.049266115
87	0x3cc4bb7e	0.024015184
88	0x3d747848	0.05968502
89	0x3cf9ba13	0.030484235
90	0x3c2760c1	0.010215939
91	0xbd48b817	-0.049003687
92	0xbb4b7a04	-0.0031048069
93	0xbc849be8	-0.016187623
94	0xbcc522b7	-0.024064405
95	0x3d5c9233	0.053850364
96	0xbc5a0613	-0.013307112
97	0x3d416ad7	0.04722103
98	0xbcfc8c52	-0.030828629
99	0x3d8cc273	0.06873026
100	0x3d5c3041	0.053756956
101	0x3b586f5a	0.0033025355
102	0x3d99e7c8	0.07514912
103	0x3d264f06	0.040602706
104	0xbdd19bbf	-0.10234784
105	0xbd142a7b	-0.036173325
106	0xbde66ff3	-0.11251821
107	0x3e12ff0c	0.14355105
108	0xbdd3f3c7	-0.10349231
109	0xbcb4d26d	-0.022072995
110	0xbd100732	-0.035163112
111	0x3c2b0bf4	0.010439862
112	0xbd231e36	-0.039823733
113	0x3acc4752	0.001558522
114	0x3d1a7c25	0.03771605
115	0x3d66a07c	0.056305394
116	0x3d193138	0.037400454
117	0x3d67f55c	0.056630477
118	0x3d440aa6	0.047861718
119	0xbc910358	-0.01770179

fc2.0.weight f4 [84, 120]
0	0x3d8d08c9	0.06886441
1	0x3dbf22fe	0.09332846
2	0xbd51ac80	-0.0511899
3	0xbd0fb51c	-0.03508483
4	0xbdb8f75f	-0.09031557
5	0x3d30093a	0.04297755
6	0xbdbf1f04	-0.09332088
7	0x3a86413f	0.0010242834
8	0x3d2fa2bc	0.042879805
9	0x3d291a56	0.04128488
10	0xbbb8d20e	-0.005640275
11	0x3dbeebdc	0.0932233
12	0x3c7204dc	0.014771666
13	0xbd1d772b	-0.038443726
14	0xbc1f44d3	-0.009720999
15	0xbd569bd6	-0.05239471
16	0x3db5530f	0.08853733
17	0x3d59a22d	0.05313318
18	0xbdb68a9a	-0.08913155
19	0x3dba781f	0.091049425
20	0x3d7376e1	0.059439544
21	0xbd586d61	-0.052838687
22	0x3c067db6	0.008208683
23	0xbda93260	-0.082615614
24	0x3d734f4f	0.059401806
25	0x3d036b90	0.032085
26	0x3cb9ec37	0.022695644
27	0x3d70f956	0.058831535
28	0xbcaf99ea	-0.021435697
29	0x3dc14211	0.09436429
30	0x3d26af78	0.040694684
31	0xbd011a55	-0.031519253
32	0xbcb26ee4	-0.021781392
33	0x3d150f5a	0.036391594
34	0x3bda0a67	0.006654072
35	0xbd2c41b3	-0.042054843
36	0x3cd3e753	0.02586714
37	0xbdb2376b	-0.087019764
38	0xbd58a767	-0.052894022
39	0xbcc45bc6	-0.023969542
40	0xbd167884	-0.036736026
41	0x3db0b813	0.08628859
42	0x3820db84	3.8351413e-05
43	0xbdef858d	-0.11695395
44	0xbdf7fd92	-0.121089116
45	0x3d09cdad	0.033643413
46	0xbdd8b80c	-0.10581979
47	0x3cb4d659	0.022074865
48	0xbd7de522	-0.061986096
49	0xbd57b40e	-0.052661948
50	0xbdef88c6	-0.11696009
51	0xbd7ac296	-0.061220728
52	0x3d3efeb4	0.046629623
53	0x3d952784	0.07282928
54	0x3deedeb7	0.11663573
55	0xbd874948	-0.06605774
56	0x3bbf5945	0.005839499
57	0x3cdbc534	0.026827432
58	0xbd3713c5	-0.044696588
59	0x3d698a0f	0.05701643
60	0xbd6c527b	-0.057695847
61	0x3d897795	0.067122616
62	0x3c55a16e	0.013038976
63	0x3e168ac4	0.14701372
64	0xbdc0be85	-0.09411339
65	0xbd931cb7	-0.07183211
66	0xbdba7107	-0.091035895
67	0x3d2d50f6	0.04231354
68	0x3d7f5fe2	0.0623473
69	0x3c2eb54d	0.010663343
70	0x3d734de0	0.05940044
71	0x3dc43c27	0.09581786
72	0xbe07e76b	-0.13271873
73	0x3c93fc92	0.01806477
74	0xbc137de6	-0.0090021845
75	0x3d7d1499	0.06178722
76	0xbbd0ccf9	-0.006372091
77	0xbd2921aa	-0.04129187
78	0x3d001e41	0.031278852
79	0xbc1347a2	-0.008989247
80	0x3d1edc07	0.038784053
81	0xbd26dcba	-0.040737845
82	0x3da8f035	0.08248941
83	0xbbf1809b	-0.0073700673
84	0xbd034fa3	-0.03205837
85	0xbd12db4b	-0.035853665
86	0x3d9191b5	0.071078695
87	0xbc32a10f	-0.010902657
88	0x3da5c3ca	0.080939844
89	0x3de3079c	0.11085436
90	0xbc6b0240	-0.014343798
91	0x3d292b73	0.041301202
92	0xbbad6bbc	-0.005292384
93	0x3defeacb	0.11714705
94	0x3cfbb5ad	0.030726278
95	0x3d85b083	0.065278076
96	0xba8958a5	-0.0010478689
97	0x3d9d7738	0.07688755
98	0xbc081ed5	-0.008308132
99	0x3d6510d3	0.055924248
100	0xbd664ff6	-0.0562286
101	0x3d9fe29c	0.07806894
102	0xbd370de7	-0.044690993
103	0xbda7d7a4	-0.08195427
104	0xbd3713d5	-0.044696648
105	0x3da711d8	0.081577
106	0x3caf9f3c	0.021438234
107	0xbcba85c1	-0.022768857
108	0x3de48d05	0.1115971
109	0xbd6b3f5a	-0.057433464
110	0xbc824823	-0.015903538
111	0xbd6093ee	-0.054828577
112	0xbd611383	-0.05495025
113	0x3d93d822	0.072189584
114	0xbd51127d	-0.051043022
115	0x3d149c52	0.03628189
116	0x3de6ca93	0.11269107
117	0xbd451f83	-0.048125755
118	0x3cc53030	0.02407083
119	0x3cf711a7	0.030159784
120	0xbc07ccde	-0.00828859
121	0xbd799e73	-0.060942125
122	0x3da00dd0	0.078151345
123	0x3dc9fc4c	0.09862575
124	0x3dc0710c	0.09396562
125	0xbd0e63ea	-0.034763254
126	0xbbbf1a4b	-0.005831992
127	0x3c879812	0.016552005
128	0xbd26f131	-0.04075736
129	0x3e021849	0.12704577
130	0x3ce017c0	0.027355075
131	0x3dc8d50c	0.098062605
132	0xbbc2ab56	-0.005940835
133	0xbd3cda1b	-0.04610644
134	0xbbe452f3	-0.006967896
135	0x3a5fe3ed	0.00085407385
136	0x3d010fa7	0.031509068
137	0x3dd56b29	0.1042083
138	0xbdf04c2d	-0.117332794
139	0xbd598e38	-0.053114146
140	0x3d0b2e74	0.033979848
141	0xbd2d30cb	-0.04228286
142	0xbdc95dba	-0.0983233
143	0x3dda2fc5	0.106536426
144	0x3dba33af	0.09091889
145	0x3dfe4097	0.12414663
146	0xbd984bb0	-0.07436311
147	0xbd4463a5	-0.04794659
148	0x3d31df25	0.043425698
149	0xbcad8f12	-0.021186385
150	0x3df22ce8	0.118249714
151	0x3c5f2aac	0.013621014
152	0x3dba732f	0.09104001
153	0x3d99bf62	0.075072065
154	0xbd32114b	-0.043473523
155	0x3d48c07d	0.049011696
156	0xbdb64e56	-0.0890166
157	0x3c90e9b4	0.017689563
158	0x3dce6079	0.100769944
159	0x3c84999c	0.016186528
160	0xbd145048	-0.036209375
161	0x3ca3c87e	0.019993063
162	0x3e09ca75	0.13456137
163	0x3c8b600e	0.017013576
164	0x3ca53b01	0.020169737
165	0x3c615aed	0.013754589
166	0x3d9ef31e	0.07761215
167	0x3daa5038	0.08316082
168	0xbd93cbcd	-0.07216606
169	0xbd7bf6a4	-0.06151451
170	0x3cb38d5a	0.021917988
171	0xbc448f6c	-0.011997085
172	0x3ba733bc	0.0051026028
173	0xbdd6e6b7	-0.10493224
174	0xbcc101b3	-0.02356038
175	0xbe029bef	-0.12754796
176	0x3d864fdd	0.065582015
177	0xbd869b13	-0.06572547
178	0x3c148ea6	0.009067213
179	0xbe0c67d7	-0.13711487
180	0xbd6e037a	-0.058108784
181	0x3da8bf6f	0.08239638
182	0x3cc706f1	0.024295302
183	0xbdbc9466	-0.09207992
184	0xbd8bea55	-0.06831805
185	0xbd058053	-0.032593083
186	0xbc45a9b3	-0.012064385
187	0x3d644daf	0.055738147
188	0x3c6700b1	0.014099286
189	0x3d9b0d66	0.07570915
190	0x3d670a25	0.05640616
191	0x3e38eebf	0.18059824
192	0xbd164fbe	-0.03669714
193	0xbd08b26e	-0.03337329
194	0x3c1304ec	0.008973341
195	0x3d2acd8b	0.041699927
196	0x3cf8d2a2	0.030373875
197	0x3dd2d433	0.1029438
198	0x3cc5b2ae	0.024133053
199	0xbcaff4a8	-0.021478966
200	0x3d33d9a3	0.043908726
201	0xbd73317a	-0.059373356
202	0xba403d97	-0.00073333964
203	0xbd827173	-0.06369295
204	0x3d6b2786	0.05741074
205	0x3d171248	0.03688267
206	0xbcd6d431	-0.026224228
207	0xbdb2d2fa	-0.08731647
208	0xbd0973c1	-0.033557657
209	0x3daddcec	0.08489403
210	0x3c1de464	0.009636972
211	0xbda71c13	-0.081596516
212	0xbdb13457	-0.08652561
213	0x3d124aba	0.035715796
214	0x3db0b68e	0.086285695
215	0x3d0c5545	0.034261007
216	0x3d55e545	0.0522206
217	0xbd42c272	-0.04754872
218	0x3d8f4b9f	0.069968455
219	0x3dcee3aa	0.10102017
220	0x3da174b9	0.07883591
221	0x3d83ca4d	0.0643507
222	0xbc856a09	-0.016285913
223	0x3d7cdaa2	0.061731942
224	0xbd6c4588	-0.057683498
225	0x3e1bf24c	0.15229148
226	0xbd797670	-0.060903966
227	0x3da44d6f	0.08022582
228	0x3d11ce4f	0.03559714
229	0xbd0e1175	-0.034684617
230	0x3d40879f	0.04700434
231	0xbd010b29	-0.031504784
232	0xbdd5cef4	-0.10439864
233	0x3dee47a9	0.11634762
234	0xbbace0a0	-0.005275801
235	0x3decc919	0.11561794
236	0x3defb4b1	0.11704386
237	0xbdb1547e	-0.08658694
238	0x3cb9c9ad	0.022679174
239	0xbcb2acc9	-0.021810906
240	0x3d77157a	0.060323216
241	0x3bb961cd	0.0056574107
242	0x3d276cae	0.04087513
243	0xbdb5bc46	-0.08873801
244	0x3c8040d6	0.015655916
245	0x3c1201bd	0.008911547
246	0xbd365fef	-0.044525083
247	0x3d8587bd	0.06520031
248	0x3da2e827	0.07954436
249	0x3daa5971	0.08317841
250	0xbd80a8ea	-0.06282218
251	0xbca00ac8	-0.01953639
252	0xbdc87032	-0.097870246
253	0x3d0fcc66	0.03510704
254	0x3d07b9c2	0.033136137
255	0x3db20eb1	0.086942084

fc2.0.bias f4 [84]
0	0xbd4c7307	-0.049914386
1	0x3db6b94c	0.08922061
2	0x3b95181b	0.0045499927
3	0x3d987542	0.0744424
4	0xbdb6b23b	-0.089207135
5	0xbd666ac1	-0.056254152
6	0xbdf28c82	-0.11843206
7	0xbd89c95d	-0.0672786
8	0xbd8d2b29	-0.06892998
9	0x3d39f15f	0.045396205
10	0x3d754011	0.05987555
11	0xbda5690f	-0.08076679
12	0xbd9eb0de	-0.077485785
13	0x3c030e30	0.007998988
14	0xbc375df4	-0.011191834
15	0xbddabf87	-0.10681062
16	0x3debf8b8	0.11522049
17	0x3c7f43dd	0.015580145
18	0x3de7ce07	0.113185935
19	0x3e5e72b0	0.21723437
20	0x3bd20bdb	0.0064101047
21	0xbdc72754	-0.09724298
22	0xbd8da4bb	-0.069161855
23	0xbd8e85c9	-0.06959111
24	0x3e3a3ddd	0.18187661
25	0xbcc40dbc	-0.02393233
26	0x3c963997	0.018338008
27	0x3db10bef	0.08644854
28	0xbd1fcb24	-0.03901209
29	0x3cab149f	0.020883856
30	0x3c8408aa	0.016117413
31	0xbcf79c26	-0.030225825
32	0x3ca09f7e	0.019607302
33	0xbd5d11f0	-0.053972185
34	0xbcd95cfd	-0.026533598
35	0x3d8a3b23	0.06749561
36	0x3da33143	0.0796838
37	0x3e4a6db1	0.19768406
38	0x3d07a398	0.033115
39	0xbd01c7ee	-0.03168481
40	0xbdc40b15	-0.09572426
41	0xbe21fdd6	-0.15819487
42	0xbdf5b232	-0.11996879
43	0xbcded925	-0.027203152
44	0x3e30594a	0.17221561
45	0x3d937c44	0.07201436
46	0xbdffca67	-0.12489777
47	0x3e12ce34	0.14336473
48	0xbd9e0713	-0.07716193
49	0x3d1fa65f	0.038977023
50	0x3da1430c	0.07874116
51	0x3dc373ed	0.095435955
52	0x3d51579c	0.05110894
53	0xbd92bd53	-0.07165017
54	0x3dc1a25a	0.09454794
55	0x3e13eddd	0.14446206
56	0x3d0cfeb5	0.034422595
57	0xbdc363fa	-0.095405534
58	0xbdd3cf5d	-0.10342286
59	0xbd3249cc	-0.04352741
60	0xbd72f604	-0.05931665
61	0xbd08778d	-0.033317138
62	0xbd5c4190	-0.053773463
63	0xbc2b4ade	-0.010454861
64	0xbe24fed8	-0.1611284
65	0x3d138d01	0.036023144
66	0xbd8f76c3	-0.07005074
67	0x3d84514c	0.06460819
68	0x3e00d901	0.1258278
69	0x3d9b0ffe	0.0757141
70	0xbdcfdc40	-0.10149431
71	0x3d090318	0.033450216
72	0x3dfbaacf	0.122884385
73	0xb8c7c42a	-9.525598e-05
74	0xbdde0652	-0.10841049
75	0xbdf8ba3a	-0.12144895
76	0x3d449096	0.04798945
77	0x3e2cb3b2	0.16865423
78	0xbddb11e3	-0.10696771
79	0xbcb0f4c8	-0.021601096
80	0x3c5dc408	0.013535507
81	0xbccf47c5	-0.025302777
82	0x3d137a8c	0.03600554
83	0x3d3a584d	0.045494366

fc3.weight f4 [10, 84]
0	0x3db33718	0.08750743
1	0xbd743234	-0.05961819
2	0x3c1d508b	0.0096017225
3	0xbc199009	-0.00937272
4	0xbdc481fd	-0.09595106
5	0x3b2a30e6	0.0025969087
6	0x3ea4514e	0.3209328
7	0x3e3c1bb6	0.18369946
8	0x3e57c0e8	0.21069682
9	0x3ccad92b	0.024761757
10	0xbd1c8cce	-0.03822022
11	0xbcd9a03e	-0.026565667
12	0x3e50bb33	0.20383911
13	0x3c617002	0.013759615
14	0x3e8fd3ae	0.28091186
15	0x3c8711da	0.016488004
16	0xbdb26ef0	-0.08712566
17	0xbd4ee789	-0.050513778
18	0xbd88599a	-0.06657715
19	0xbdec4f5c	-0.11538574
20	0xbd5716e0	-0.05251205
21	0x3dd9cbb2	0.10634555
22	0x3c839327	0.016061379
23	0x3e0d97ea	0.13827482
24	0x3e6797dd	0.22616525
25	0x3d7cd602	0.06172753
26	0x3deed47e	0.116616234
27	0xbe95b3c4	-0.29238713
28	0xbd0f76cf	-0.035025414
29	0x3e1e827b	0.15479462
30	0x3d9c86c9	0.07642896
31	0x3c46431d	0.012100962
32	0xbe03bebd	-0.1286573
33	0xbe07591e	-0.1321759
34	0x3d87231c	0.065984935
35	0xbe173f3a	-0.14770213
36	0x3de445be	0.11146115
37	0xbdf9e677	-0.12202161
38	0xbde634fd	-0.112405755
39	0xbe6f49aa	-0.23367944
40	0x3c0ff931	0.008787439
41	0x3e2ae9d5	0.16690762
42	0xbccab335	-0.024743656
43	0xbe5988ef	-0.21243642
44	0x3df7a426	0.12091856
45	0xbc3ff4e0	-0.011716098
46	0x3df48338	0.119390905
47	0xbe816295	-0.25270525
48	0xbdbc7c58	-0.09203404
49	0xbd776d41	-0.060406927
50	0xbdec4d03	-0.11538126
51	0xbdff3076	-0.12460415
52	0xbcc53cbd	-0.024076814
53	0x3e2949af	0.16532014
54	0xbda6db73	-0.08147325
55	0x3dafc051	0.08581603
56	0xbd56abfe	-0.05241012
57	0x3dd83162	0.10556294
58	0x3cf016b6	0.029307704
59	0xbcd25a48	-0.025677815
60	0xbe3a12ab	-0.18171184
61	0x3df9a025	0.12188748
62	0x3dccb70d	0.09995852
63	0x3d80dc4f	0.062920205
64	0x3e215f07	0.15758906
65	0x3cb858ce	0.022503283
66	0x3d4700ab	0.04858462
67	0x3d4433f7	0.04790112
68	0x3d9395c0	0.07206297
69	0x3e683c60	0.22679281
70	0x3ebbeef6	0.3670575
71	0xbe3761ba	-0.17908373
72	0xbe0204f1	-0.12697197
73	0x3d9b11b1	0.07571734
74	0xbb05b51b	-0.0020402137
75	0xbd563e2a	-0.052305378
76	0x3e01b97b	0.12668411
77	0x3dff45cd	0.12464485
78	0x3eafcbf1	0.34335282
79	0xbe681a1c	-0.2266621
80	0xbe274c5c	-0.16337723
81	0x3dcbb20c	0.09946069
82	0x3e5e6b8e	0.21720716
83	0xbddb13c2	-0.10697128
84	0xbd640222	-0.055666097
85	0xbe697d35	-0.22801669
86	0xbd9fb552	-0.07798256
87	0x3e42b5fa	0.19014731
88	0x3c2fd490	0.010731831
89	0xbdac01cf	-0.083987825
90	0x3de0013f	0.10937738
91	0x3e1d701f	0.15374802
92	0xbe668e05	-0.22515114
93	0xbc241421	-0.010014565
94	0x3daaf44a	0.08347376
95	0xbd85b3a7	-0.065284066
96	0x3e0848d7	0.13309036
97	0x3e768fb6	0.24078259
98	0xbe13bb9d	-0.14427038
99	0xbd883c23	-0.06652095
100	0xbe25d248	-0.16193497
101	0x3e11c408	0.14234936
102	0xbd6af828	-0.057365566
103	0xbdef485e	-0.11683725
104	0x3e199079	0.14996518
105	0xbcf2d702	-0.02964354
106	0xbdd59ed2	-0.10430683
107	0xbe91d7f1	-0.28485063
108	0xbdab93d1	-0.08377803
109	0xbd9fe428	-0.07807189
110	0x3dadb677	0.08482068
111	0xbba40086	-0.005004945
112	0x3d94885f	0.07252573
113	0x3e002535	0.12514193
114	0xbd8e6531	-0.069528945
115	0xbe1c2478	-0.15248287
116	0x3e2755da	0.16341344
117	0x3e7b41e9	0.24536861
118	0xbd10dc26	-0.0353662
119	0x3e3d28ee	0.18472645
120	0x3dc62f81	0.096770294
121	0xbe79cf0a	-0.24395385
122	0x3e356477	0.17714106
123	0x3e34e72e	0.17666313
124	0xbd50d44c	-0.050983712
125	0x3e81a987	0.25324652
126	0xbd2d635b	-0.04233108
127	0x395a91ca	0.00020844411
128	0xbe9e4f9c	-0.30920112
129	0xbddfc511	-0.10926259
130	0x3d4bf600	0.04979515
131	0xbde02144	-0.10943845
132	0x3cdec60a	0.027194042
133	0x3d96c5f3	0.073619746
134	0x3e2ee347	0.17078887
135	0xbe3cffb5	-0.1845692
136	0xbd289827	-0.04116073
137	0xbe8aa764	-0.27080834
138	0x3a337dd3	0.00068470574
139	0xbda21a74	-0.07915202
140	0xbe87a135	-0.2649018
141	0x3e1d1e2c	0.15343541
142	0x3eb4f5ad	0.35343686
143	0x3d337902	0.043816574
144	0x3d742b5e	0.05961167
145	0x3d431107	0.04762366
146	0x3b1934a0	0.0023377314
147	0x3e1ccc4b	0.15312307
148	0x3e3325ad	0.17494841
149	0xbd9db626	-0.07700758
150	0xbc77e2bf	-0.015129744
151	0x3d95377b	0.07285973
152	0xbe1bc24a	-0.15210834
153	0xbe56f736	-0.20992741
154	0xbccc51d6	-0.024941366
155	0x3da6fab0	0.081532836
156	0xbd8dee39	-0.06930203
157	0x3dd89a94	0.105763584
158	0x3ccfbc50	0.02535835
159	0x3e0a3ff5	0.1350096
160	0x3ba0bfb5	0.0049056658
161	0xbe93c1ac	-0.28858697
162	0xbe8ad50b	-0.27115664
163	0x3d76e97e	0.06028127
164	0xbcee3bbe	-0.029081222
165	0x3b2f08f3	0.0026708215
166	0xbe17c346	-0.14820585
167	0xbe4f4fb6	-0.20245251
168	0xbdea5483	-0.114419006
169	0x3e5211c3	0.20514588
170	0x3d8a10da	0.067414954
171	0x3e69a77a	0.22817793
172	0xbdcf075f	-0.10108828
173	0xbcdb05fd	-0.026736254
174	0xbd911b2c	-0.07085261
175	0x3d156a99	0.036478613
176	0xbd99cb9c	-0.075095385
177	0xbdb4803f	-0.088135235
178	0x3d3949ee	0.04523652
179	0xbd92c311	-0.07166112
180	0x3d99ac0c	0.075035185
181	0xbdfae83e	-0.12251328
182	0xbc8aee86	-0.01695944
183	0x3d9f42ae	0.0777639
184	0xbe142391	-0.14466693
185	0xbc90ecc6	-0.017691027
186	0xbb6855c2	-0.0035451506
187	0x3e523e04	0.2053147
188	0xbe586e22	-0.21135762
189	0x3e15b760	0.14620733
190	0x3d110363	0.03540362
191	0xbdc98cdb	-0.09841319
192	0x3eae850d	0.34085885
193	0x3c982e85	0.01857687
194	0x3e73abd9	0.23796023
195	0xbe800f8d	-0.25011864
196	0xbc826b6a	-0.01592036
197	0x3b3b12a1	0.002854504
198	0x3e19aed5	0.150081
199	0xbd35da40	-0.044397593
200	0xbd9dec02	-0.077110305
201	0xbbb07219	-0.0053846953
202	0xbd944445	-0.07239584
203	0x3dc2d021	0.09512354
204	0x3e79b45f	0.24385212
205	0x3dfd2cc5	0.12362055
206	0x3d1031f1	0.035203878
207	0xbe0f6ba6	-0.14005908
208	0x3e5d2576	0.21596321
209	0xbe621f01	-0.2208214
210	0xbe28511b	-0.1643719
211	0xbd9ab88b	-0.0755473
212	0x3dcf21a0	0.10113835
213	0x3b4e795b	0.003150544
214	0xbe2d3017	-0.16912876
215	0xbd8e5505	-0.0694981
216	0xbd61e5ad	-0.055150677
217	0xbde63937	-0.112413816
218	0xbd9059c1	-0.07048369
219	0x3e0fb975	0.1403559
220	0x3ea1372c	0.31487405
221	0x3dcc5f3b	0.09979101
222	0xbcc54183	-0.02407909
223	0x3e139d21	0.14415409
224	0x3e2a5c16	0.1663669
225	0xbd6150cc	-0.055008695
226	0xbd8a9cbb	-0.06768175
227	0xbce0e7aa	-0.027454216
228	0x3c9a479a	0.01883297
229	0x3d1f82b7	0.03894302
230	0xbcce6b3b	-0.025197616
231	0xbddb7fe1	-0.1071775
232	0xbe4777df	-0.19479321
233	0x3e35b426	0.17744502
234	0xbcb0bda6	-0.021574806
235	0x3b89f551	0.004210152
236	0x3e2fb107	0.17157374
237	0x3e0b2504	0.13588339
238	0xbc71dc54	-0.014762003
239	0xbe080bb4	-0.13285714
240	0x3e41770a	0.18893066
241	0xbd8a1132	-0.06741561
242	0xbe87a57d	-0.26493445
243	0x3da08fa8	0.078399
244	0xbe19d52c	-0.15022725
245	0xbd858500	-0.06519508
246	0x3d676407	0.056491878
247	0xbd34832a	-0.0440704
248	0xbeadb854	-0.33929694
249	0xbcd64b7e	-0.026159044
250	0xbe38b04a	-0.18035999
251	0x3e95c4d5	0.29251733
252	0xbe34af7d	-0.17645068
253	0xbd553c81	-0.052059654
254	0xbda64797	-0.081191234
255	0xbd7f64fd	-0.06235217

fc3.bias f4 [10]
0	0xbeb1fb89	-0.3476222
1	0xbec12c5c	-0.37729156
2	0x3e4124c2	0.18861678
3	0xbc2413a1	-0.0100144455
4	0x3f0634ac	0.5242412
5	0xbe303171	-0.1720636
6	0x3ca3bacd	0.019986534
7	0xbe8da052	-0.27661377
8	0x3e17ba4d	0.14817162
9	0xbe96463a	-0.29350454
