checkpoint/best_LeNet5_hardtanh.ckpt (torch, 252757 bytes, 10 tensors)

conv1.0.weight f4 [6, 3, 5, 5]
000000 6c 98 c6 bc 3b f7 85 3d 16 65 2b bd 50 20 b0 bc
       -0.024242602 0.06541296 -0.04184445 -0.021499783
000010 c8 ce 9a bc 36 fc 9c 3d b6 55 85 3d ca 14 10 bd
       -0.01889743 0.07665293 0.06510489 -0.035176076
000020 58 52 89 3d 0c 16 a4 3c 33 95 60 3d 41 42 9f 3d
       0.06705159 0.020030044 0.054829787 0.07776309
000030 f6 05 fd 3c a5 df 32 3d 06 b0 8b bd a0 d5 ff 3c
       0.030886631 0.043670315 -0.06820683 0.031229794
000040 09 ca c6 3d e5 f1 18 3e 3c e5 cc 3d a9 18 cc bc
       0.09706504 0.14936025 0.100046605 -0.024914103
000050 5e 1f 24 3d 86 a8 bc 3d ee 38 9b 3d 8e 92 96 3d
       0.040068977 0.09211831 0.07579218 0.07352172
000060 19 9e 9c bd 84 bd 05 3c bc 7e 93 bd b4 ba 5d bc
       -0.07647342 0.00816286 -0.07201907 -0.013533283
000070 66 68 96 3c 8c 56 cd 3c f0 5e 0f bd 16 be c1 bd
       0.018360328 0.025065683 -0.03500265 -0.09460084
000080 4d f6 cc bd 13 4a 20 bd 47 cc d7 3c e7 ba b6 bc
       -0.10007916 -0.039133143 0.026342524 -0.022305919
000090 af 89 10 be 38 f3 bb bc df 29 4c 3d 38 ae 09 3d
       -0.14115022 -0.022943124 0.04984462 0.033613414
0000a0 34 87 9b bd 9c 10 b7 bd 01 24 27 bd 4a 18 39 bd
       -0.07594147 -0.08938715 -0.04080582 -0.04518918
0000b0 93 59 ba 3c 97 19 04 bb b8 02 ed bd 61 50 1a bb
       0.02274779 -0.0020156854 -0.11572784 -0.0023546445
0000c0 e9 a4 6d bd da 74 aa 3c 39 96 f0 bc 4e 69 47 3d
       -0.0580186 0.020807672 -0.029368507 0.04868441
0000d0 b3 f3 ae 3c 25 a0 cf bd 91 86 81 3c 40 bc 81 bc
       0.02135644 -0.10137967 0.015811237 -0.015836835
0000e0 20 ea 7d 3d ed 16 e5 bd 89 60 54 3d 7a 52 37 3d
       0.061990857 -0.11186013 0.051849876 0.04475639
0000f0 fd b3 2a bd 33 5d b5 bd d2 71 c5 3b a0 6c ba 3d
       -0.041675556 -0.08855667 0.0060255313 0.0910275
000100 1f 10 7c 3b ef eb 67 ba 18 9e bf bc c3 18 81 bc
       0.0038461757 -0.00088471075 -0.023390815 -0.015758878
000110 3a 7a 00 bd 19 25 70 3b 0f 7c 2f bd e5 ae 32 3d
       -0.031366564 0.0036643206 -0.04284292 0.043623824
000120 99 63 47 bd a7 be d1 3b 2d 4b 6f 3d cd c2 93 ba
       -0.048678968 0.0064009014 0.058421303 -0.0011273265
000130 56 97 3d 3d de be 4f bd 65 6d 7d 3d 6c b6 37 bd
       0.046286903 -0.050719135 0.061871905 -0.044851705
000140 8f d9 37 3d 81 76 dd 3b 3b ff 4f 3e ea 8a c6 3a
       0.044885214 0.0067585115 0.20312206 0.0015147601
000150 ca 5f 13 3e d3 21 a3 bd 98 6f 9a be 26 06 c8 bd
       0.1439201 -0.07965436 -0.30163264 -0.09766798
000160 28 c9 96 bd 28 6d 2b 3b 01 d9 0e 3e 10 37 02 3d
       -0.07362586 0.0026157591 0.13949968 0.031790793
000170 2a be 34 be ed d8 1b bd e3 bf fa 3b 1e 3e b6 3d
       -0.17650667 -0.038048673 0.007652269 0.08898567
000180 ca 9d 31 3e 65 06 d7 3d 9a 39 86 bd 6b 68 98 bd
       0.17345348 0.104992665 -0.065539554 -0.07441791
000190 ed 08 28 bd 05 d9 b6 bb 14 a7 bb 3c 93 a5 b4 3b
       -0.041024137 -0.00558007 0.022906817 0.005512902
0001a0 e3 52 7f 3d ee b9 5d 3d f9 6f ef 3d a5 33 0e 3e
       0.062334906 0.054132394 0.11691279 0.13886888
0001b0 f1 19 71 3d 21 b7 93 bc 9f 3d 9a bd 40 f2 81 be
       0.05886263 -0.018031659 -0.075312845 -0.25380135
0001c0 17 f3 5b be e4 c8 cb bc a9 a5 7e bd aa f0 0b bd
       -0.2147945 -0.024876066 -0.062169705 -0.034165062
0001d0 78 34 d0 bc 0e 64 1a be 05 b2 95 bd d0 71 04 3c
       -0.025415644 -0.1507723 -0.07309345 0.008083776
0001e0 0b b1 dd bd 75 1b 77 bc b7 b4 c1 bb b1 f2 85 bd
       -0.10824784 -0.01508223 -0.0059114355 -0.0654043
0001f0 ba e8 dd bc 57 3c 14 bc 0a 51 39 bd 2f 3c 12 bd
       -0.027088512 -0.009047589 -0.0452433 -0.035701927
000200 2a 42 78 bd 2e 89 fb bc 41 ad 5f 3b f9 ba a1 3d
       -0.060609974 -0.03070506 0.0034130367 0.0789699
000210 12 98 4e 3e dc 9f b7 3d d0 2b 05 3d 45 1f d9 bd
       0.20175198 0.08966038 0.032512486 -0.10601667
000220 9e 68 cf 3c 92 78 ce bd 55 fb 9f 3d 74 dc 1e bd
       0.02531844 -0.10081591 0.0781161 -0.03878446
000230 23 be a7 3d 63 7e a2 3d 5d 29 48 3d 1b 3e 99 bc
       0.081905626 0.079342626 0.048867572 -0.018706372
000240 d1 5c 1d 3d a9 b4 b2 bc 05 d8 e5 3c e8 9d 08 bd
       0.038418595 -0.021814661 0.028057108 -0.033353716
000250 f8 d2 2b 3d e0 c0 8e bc ab 4b 84 bd af 53 c3 3c
       0.041949242 -0.017425954 -0.06459745 0.023843614
000260 e3 f9 2b 3d 03 0f 7d bd 20 d3 1c 3c d3 03 5c 3d
       0.041986357 -0.061781894 0.0095718205 0.053714585
000270 e2 12 74 3c 36 dc 41 be f2 44 6e 3e 1b 5b cd bd
       0.01489708 -0.1893166 0.23268488 -0.100271426
000280 62 d8 63 bd 14 b7 52 3d 85 5f 44 be be 5e 97 3e
       -0.05562628 0.05144413 -0.19177063 0.2956447
000290 bd 09 9d bd 57 b3 bc bc c0 96 12 3d 16 85 77 be
       -0.07667873 -0.023034735 0.035788298 -0.24171862
0002a0 1c 84 43 3e 91 3b 89 bd 63 9c fa 3c c8 20 b4 3d
       0.19093364 -0.067008145 0.03059215 0.08795315
0002b0 1b b1 0f be e8 48 ec 3d 49 d4 43 bb f9 1c e8 3d
       -0.14032404 0.11537343 -0.002988117 0.11333651
0002c0 45 3d a3 bd ab c5 01 bd 3c 15 0c 3e 03 66 7d bc
       -0.079706706 -0.03168265 0.13679975 -0.015466216
0002d0 69 85 2f bc af 7e 69 bd ba be 98 bc cf b8 58 3e
       -0.01071296 -0.05700558 -0.018645633 0.21164249
0002e0 57 eb f9 bd ec 84 83 3d 91 b5 84 3d 9a 70 a0 be
       -0.12203091 0.06421837 0.064799435 -0.31335908
0002f0 4c b2 b1 3e 06 19 19 be 22 42 26 bd b0 6c 02 3e
       0.34706342 -0.14950952 -0.040590413 0.12736773
000300 76 6c 83 be b1 8d 8c 3e be f0 da bd ef f3 d9 bc
       -0.25668687 0.27451852 -0.10690449 -0.026605574
000310 0a 8f 11 3c b7 79 7b bd 59 e5 b5 3d d6 d4 20 3d
       0.008884201 -0.061395373 0.08881635 0.039265476
000320 2d 35 4b bd 63 45 db 3d 43 eb a5 bd 80 60 12 3d
       -0.04961126 0.10706594 -0.08101513 0.03573656
000330 c1 80 79 bd 84 78 3b bd d2 16 e7 3d bc 13 15 be
       -0.060913805 -0.04576923 0.112836495 -0.1455831
000340 da 04 04 3e 0d d6 7d bd 01 fe b5 bb 3a e0 bc 3d
       0.12892476 -0.061971713 -0.0055539613 0.09222455
000350 e4 2d 7b be f3 fc 85 3e 46 34 ff bd 85 bc 2b 3d
       -0.24529225 0.26169547 -0.12461142 0.041927833
000360 29 af 57 3d 6c dd 1a be 7a f4 1b 3e 07 18 58 bd
       0.05265728 -0.15123528 0.15229979 -0.05275729
000370 17 cb 94 3c fb 39 2b 3c 66 8e c1 bd 42 79 3c 3d
       0.018163247 0.010450835 -0.094509885 0.046014078
000380 0f be a8 bd 14 43 4e 3d 1c 22 aa 3d d2 86 57 bc
       -0.08239376 0.05035694 0.08307287 -0.013154702
000390 3c 6f 66 3c a8 47 ec 3c 12 10 e1 bc a2 45 a6 bc
       0.014064606 0.028842762 -0.027473483 -0.020296875
0003a0 e0 ae 04 3d 51 bd 95 bc 1d cb aa bd c6 0f 91 3e
       0.032393336 -0.01827875 -0.08339522 0.28332347
0003b0 8b 35 85 be 43 24 c0 be 77 cc 0e 3d 39 b5 d8 3c
       -0.26017413 -0.37527665 0.03486296 0.026453601
0003c0 8c 4d 8d be 72 03 5f 3e 71 81 95 3e da 54 d3 bd
       -0.27598226 0.21778658 0.29200318 -0.103189185
0003d0 74 24 9e bc eb b0 91 bc 3b 17 3b 3c be 27 f2 3c
       -0.019304492 -0.017784556 0.011419113 0.029559966
0003e0 a9 60 6a 3d 50 97 65 3c d7 b2 eb bc 13 d8 df bd
       0.05722109 0.0140131265 -0.0287718 -0.10929885
0003f0 36 62 8e bc c4 f1 47 3d fe 90 bc bd d3 60 fe 3c
       -0.017380815 0.04881455 -0.092073426 0.031052029

conv1.0.bias f4 [6]
000000 65 66 08 be 43 1e e1 be b5 1a 90 be 1d ce 97 be
       -0.1332031 -0.439684 -0.28145376 -0.2964944
000010 f1 d2 51 be b8 43 a6 bd
       -0.20490624 -0.08118385

conv2.0.weight f4 [16, 6, 5, 5]
000000 47 8a f6 bd 36 08 f0 bb ac 70 b6 3d cc c4 b6 3d
       -0.12038093 -0.0073251976 0.08908209 0.08924255
000010 fe 26 2a 3d 13 68 87 bc e8 4f 54 be 4b 0a 42 bc
       0.041541092 -0.016529119 -0.20733607 -0.011843274
000020 83 a3 d6 3d 33 79 a9 3d dc fd 16 3e b9 f9 3a be
       0.10480406 0.0827507 0.14745277 -0.18259324
000030 5a cb 8b be c2 54 38 bd 25 47 19 3e 56 1a 26 3e
       -0.27303582 -0.045002706 0.14968546 0.16220984
000040 84 a8 16 3e cc e5 5f bd 1f 86 cb bd c1 cb e7 3d
       0.14712721 -0.05466251 -0.09937691 0.1131816
000050 5b a1 fc bd 01 a6 1d 3d fe 77 b0 3d 70 98 71 3d
       -0.123354636 0.03848839 0.08616637 0.058983266
000060 7f 89 fd bc 4e 76 86 3d d2 bb 95 ba a6 ea 93 3c
       -0.030949352 0.065655336 -0.0011423773 0.018056225
000070 33 d0 09 bb f1 00 f7 bc 2f 4b cd 3d 4c 5a d1 3d
       -0.0021028637 -0.030151816 0.10024106 0.10222301
000080 79 89 0a bc 68 64 84 bd cb c9 20 bd 84 b6 de 3d
       -0.008455628 -0.064644635 -0.039254945 0.10874656
000090 71 b8 0e 3e a0 ae 50 3d d4 f8 83 bd a7 41 97 bd
       0.13937546 0.050947785 -0.064439446 -0.07385569
0000a0 63 04 0e 3e 22 c7 6a 3d d7 f4 d1 3d f2 68 39 3d
       0.13868861 0.057318814 0.102517776 0.0452661
0000b0 40 78 4f bd c1 f0 09 3d 31 97 de 3d c1 ca c5 3d
       -0.05065179 0.033676866 0.10868681 0.09657813
0000c0 53 14 fe 3d 07 ed a1 39 3c d6 5c 3c b6 13 fd bb
       0.1240622 0.00030884912 0.013478812 -0.007723297
0000d0 27 f6 10 3b b4 0a 1c 3d 42 59 1d 3d b6 4f 59 bd
       0.0022119374 0.038096145 0.0384152 -0.053054534
0000e0 44 61 80 3d 6f 29 9d 3c 18 5c 09 3c e4 8d 0e 3c
       0.06268552 0.019184796 0.008383773 0.008700822
0000f0 93 84 13 bc d3 c3 87 3c 29 88 61 3d 9b 48 00 3d
       -0.009003776 0.016572868 0.055061493 0.031319242
000100 00 a0 0e 3c 1a 0e e3 3d 58 25 79 3d 28 7f 77 3d
       0.008705139 0.11086674 0.06082663 0.060424
000110 d5 1d f5 3c 6d 76 66 3c 41 c0 c2 bc 50 ed 93 bc
       0.029921452 0.014066321 -0.023773314 -0.018057495
000120 dd a1 50 bd 96 f0 34 bd 54 46 18 bd df 3e 6e 3d
       -0.050935615 -0.044174753 -0.037176445 0.058165427
000130 79 2d c6 3b 39 47 2b 3c ee 08 12 bd 8d f3 98 bd
       0.006047901 0.0104539925 -0.035653047 -0.074683286
000140 9f dd 9f 3d aa ee 6a 3c bb 4c 7e 3d 00 c4 d2 bc
       0.07805943 0.0143391285 0.062084895 -0.025728226
000150 37 fa 86 bd 59 dc a6 3d 79 6f 9f 3c 24 3f 63 3d
       -0.065906934 0.08147497 0.019462334 0.055480137
000160 71 b0 2d bc 16 35 89 bb 58 e1 d5 3d a8 01 4e 3d
       -0.010601149 -0.0041872365 0.104433715 0.05029455
000170 ba b5 c8 3c 7e ab 2c 3c b2 36 72 3b 16 84 bb 3d
       0.024500716 0.010538934 0.003695887 0.09156053
000180 02 c6 65 3d 49 f2 27 3d 21 25 6f 3c 67 55 d5 3c
       0.056097038 0.041002546 0.014596255 0.0260417
000190 7d db 16 3d 0f 6d 0d bb 98 09 27 bd fd f6 aa bb
       0.036830414 -0.0021579897 -0.040780634 -0.0052174316
0001a0 b0 69 4d bc 09 7b 3a 3d 95 ba e3 3c fe c6 ee bc
       -0.012537405 0.04552749 0.02779893 -0.029147621
0001b0 a7 6f f1 bc f8 d4 39 3d 0b 66 b7 3c fc 83 6d bc
       -0.029472185 0.04536912 0.022387525 -0.0144968
0001c0 9b fc 6e bc 84 51 90 bb 5c bf e0 3d 1c 7a 7b bc
       -0.014586593 -0.0044042487 0.10973999 -0.015348937
0001d0 c0 dc a9 bc 8a ee 90 bd 51 04 86 bc 83 a7 f7 bc
       -0.020735145 -0.07076748 -0.01635948 -0.030231243
0001e0 3f a6 88 3d 66 de 04 3e 55 b8 a2 3d ca 6c ee bc
       0.06672334 0.12975463 0.07945315 -0.029104609
0001f0 a2 4a e5 bc a4 e3 87 3d 1b 34 f6 3c 25 6c 89 3b
       -0.02798969 0.06635216 0.030054143 0.0041938
000200 47 d0 01 be 78 0a 9e bd dc 0f 56 3e ec cd 27 be
       -0.12677108 -0.077168405 0.20904487 -0.16387147
000210 6f 52 31 be 03 5e 14 3e 6a cf c3 3d c4 4a f5 3d
       -0.17316602 0.14488988 0.095610455 0.11977151
000220 96 d8 5e 3e 5e c4 72 bd 89 51 d4 3c 37 10 83 bd
       0.21762308 -0.0592693 0.025917785 -0.06399577
000230 bf 1c a5 be 9a bb 76 3e 48 2a 6e 3e c0 89 b2 bd
       -0.32248494 0.24095002 0.23258317 -0.0871768
000240 7b ec 9b be 95 d4 80 3d 64 09 97 bd 82 82 3a 3e
       -0.30453858 0.06290547 -0.07374838 0.18213847
000250 59 02 a3 3d a9 6b 9a 3c f4 d9 52 be 26 a2 14 3c
       0.07959432 0.018850164 -0.20590955 0.009071862
000260 80 c0 a1 bd 1a c8 b1 3d 34 fb 8d 3d e9 fd 3d 3b
       -0.078980446 0.086807445 0.06932679 0.0028990454
000270 4d d1 7c bd 53 26 b2 bd db 8d a6 3c fd dd bc bd
       -0.061723042 -0.08698716 0.020331314 -0.092220284
000280 ed ff a7 3c 91 da 12 be 65 2e 09 3d 75 c0 39 3e
       0.020507777 -0.14341189 0.03349151 0.18139823
000290 1a a9 54 bd 76 d3 84 3d af 03 39 be a0 90 fd 3d
       -0.05191908 0.064856455 -0.18067811 0.12381101
0002a0 df 51 16 3e c5 33 1b bd 6c ef 89 3d d7 02 91 bd
       0.14679669 -0.03789117 0.06735119 -0.0708062
0002b0 67 6a 2a 3e dd d7 fa 3d e9 b2 b2 bd e6 32 43 3d
       0.16642152 0.12248204 -0.08725531 0.047655962
0002c0 0b 2b 2c 3d 54 a7 06 3d 99 15 49 bc 95 99 2b 3d
       0.042033236 0.03287442 -0.012273216 0.041894514
0002d0 9e b4 67 3d 2d 7c 47 3d f6 7b c2 bc 22 c9 6c bd
       0.056568734 0.048702408 -0.02374075 -0.057809003
0002e0 0d ae 80 bc 30 80 b8 3c dc cf a5 3b d7 7e f9 bd
       -0.015707994 0.022522062 0.005060179 -0.12182396
0002f0 01 fc d2 bd 17 6c 1f bd ba 1e 7d bd b8 df 9c bd
       -0.10301972 -0.038921442 -0.06179688 -0.076598585
000300 f5 e0 04 be 27 0f b6 bd 98 7b 64 bd 67 78 8a bd
       -0.1297644 -0.08889609 -0.05578193 -0.06761246
000310 e7 f5 99 bd f7 f3 6a bd c7 23 e1 bc af 4d 79 bd
       -0.07517605 -0.05736157 -0.02748288 -0.0608651
000320 61 6c 0a 3d da 2f 10 3d a5 fe 39 3d 24 fd 22 3d
       0.033794764 0.035201885 0.045408864 0.039792195
000330 70 2e 14 3d ef 84 89 3c 4a d6 19 bc 64 20 c3 3c
       0.0361771 0.01678702 -0.009389469 0.023819156
000340 5c be 20 3c b5 c3 0b 3c fe 7e 87 3c b0 e3 c7 3c
       0.00981101 0.008530547 0.016540047 0.024400562
000350 a9 f0 84 3d c1 ee 98 3d 25 5c d8 3c b4 7d 9c 3c
       0.06491215 0.07467414 0.026411125 0.019102909
000360 9a 46 f7 ba a7 5c b9 3b 6a 0c 99 3c ad dc bc bc
       -0.0018865645 0.005656797 0.018682677 -0.023054445
000370 92 b3 8e bc 0e a3 0a 3d a3 44 1a 3d d4 bb 42 3d
       -0.01741961 0.033846907 0.037663113 0.047542408
000380 fa 6f 27 3d 0e 04 5e 3d 37 74 8c 3d 7e 42 88 3d
       0.040878274 0.054203086 0.06858104 0.066533074
000390 d6 e7 97 3b c1 a8 bb bc 4b ae 98 3d 9d d3 48 3d
       0.0046357913 -0.022907617 0.07455119 0.049029935
0003a0 71 07 2e bd ba aa b0 bd 96 f8 96 bd 87 ff b6 3c
       -0.042487565 -0.086263135 -0.07371633 0.022338642
0003b0 cf 6a 87 bd 30 5f e3 bd 3c 0b ee bd 61 10 bb bd
       -0.06612169 -0.1110214 -0.116232365 -0.091339834
0003c0 b7 e9 25 bd aa 4a 03 be de dc ed bd 4c 26 ff bd
       -0.04050609 -0.12821451 -0.11614393 -0.124584764
0003d0 26 91 d0 bd a2 65 a6 3c ef 35 34 bd 60 8a 24 bc
       -0.10183935 0.020312134 -0.043996748 -0.010042757
0003e0 29 42 f7 bc 61 9e 63 bc 44 09 72 3d dc 54 d9 3d
       -0.030182915 -0.013892741 0.059090868 0.10611889
0003f0 34 e4 cc 3d 62 53 80 3d 4a 0b 07 3d a3 08 58 3d
       0.10004464 0.06265904 0.03296975 0.05274261

conv2.0.bias f4 [16]
000000 ae 40 7d be f9 a9 d7 bd 55 b0 c6 be 0e 06 26 3d
       -0.24731705 -0.105304666 -0.38806406 0.040533118
000010 10 ea 1f bf 07 0e 88 be 86 e1 72 3e 08 55 4a be
       -0.62466526 -0.26573202 0.23718843 -0.19759
000020 e8 60 01 bf 9d d8 b8 be 1e 6a 9d be af 20 50 be
       -0.5053849 -0.36102763 -0.30745023 -0.20324968
000030 3c 2c ba be 51 eb 12 be 10 7f af bd 08 43 77 be
       -0.36361873 -0.14347579 -0.08569157 -0.24146664

fc1.0.weight f4 [120, 400]
000000 fc 92 11 bd 2e 51 aa bd 5b e8 d6 bc a6 05 12 bd
       -0.035540566 -0.08316265 -0.026233843 -0.035649918
000010 24 a1 7f bb aa 43 3a 3d 29 9e 85 bc be ea 84 3d
       -0.003900596 0.045474686 -0.016310768 0.06490086
000020 ae f5 25 3d 5a 43 95 3d 7a 56 0c 3e c2 9d f7 3c
       0.0405175 0.07288237 0.13704863 0.030226592
000030 67 e6 be 3d b2 b4 82 3c 07 57 c6 3d 6b 54 b3 3d
       0.093212895 0.015955303 0.09684568 0.08756336
000040 ed 67 12 bb 43 57 a1 3c e1 84 6b 3c 19 bd 18 bd
       -0.0022339777 0.01969493 0.0143749425 -0.037289713
000050 39 11 3d 3c 10 f0 9d bb 32 0f 36 3c 1a 2b 17 bd
       0.011539751 -0.0048198774 0.011112021 -0.03690634
000060 3f 66 04 bb 7f 40 a3 3d 46 bd 07 3e 58 28 20 3d
       -0.0020202545 0.07971286 0.13255796 0.039100975
000070 8e ac ef 3c d9 b0 29 3e 7b 89 84 bd 84 fb 6b 3d
       0.029257085 0.16571368 -0.06471535 0.05761291
000080 de 78 af 3c c7 ac 79 3d d7 95 a4 3d a9 52 bc bd
       0.021419939 0.06095579 0.08036392 -0.09195454
000090 85 70 81 3c 24 24 2f bd 28 20 60 bc 1a e7 8a bc
       0.015800724 -0.042759076 -0.013679542 -0.016955901
0000a0 91 85 36 bd c3 c3 c3 bc 82 c8 44 bd d1 ab fb 3a
       -0.044560973 -0.023897057 -0.04804278 0.0019200986
0000b0 11 c7 ff 3b b3 e6 e0 3d 04 7c 22 3e 06 21 3a 3e
       0.007805713 0.109815024 0.1586762 0.1817666
0000c0 23 b6 1e 3e e0 dc 8d 3d e7 67 13 3d 20 68 d7 3d
       0.15499167 0.06926894 0.03598776 0.10517907
0000d0 2d c6 49 3e 50 3b e4 3d b1 f8 d9 3c 61 42 0b be
       0.19704504 0.111441255 0.026607843 -0.1359954
0000e0 6e 0b 01 be 94 5a f6 bd ae c0 5a be ce f0 56 be
       -0.12602016 -0.12028995 -0.21362564 -0.20990297
0000f0 e6 b0 8c 3d 74 36 90 bc c7 03 bf bd 37 5f 7e bd
       0.06869678 -0.01760409 -0.09326892 -0.062102523
000100 d1 cf 1b 3d 78 1d 42 3e 37 98 c1 3d 2c 98 53 3d
       0.038039986 0.18956554 0.09452861 0.051658794
000110 d0 2f a1 3d 84 96 5a 3e 6c 85 dd bc 7d 30 ac 3d
       0.07870448 0.2134648 -0.02704116 0.08407686
000120 8e c6 d2 3c f0 7f 77 3d a3 d4 bb 3c 4b 78 2c bd
       0.025729444 0.060424745 0.022928542 -0.042106908
000130 4d 2b 2b bd a9 a5 2c 3d 50 3f 06 3e 78 bf 6a 3d
       -0.04178934 0.042150173 0.1311009 0.057311505
000140 48 a0 37 3d a1 79 6c 3d cc ab 59 3d 09 53 65 bd
       0.04483059 0.057733182 0.053142354 -0.05598739
000150 e5 8a 02 be 64 eb ed 3c 55 bf 7d 3d 3f db db 3c
       -0.12748297 0.029042907 0.061950047 0.026837943
000160 8f 48 03 3d 26 f0 89 bd 69 ba 26 3c eb 7f a5 bc
       0.03205162 -0.06735258 0.01017628 -0.020202598
000170 59 76 21 3d cc 56 e6 ba 6a d9 01 3d 1c ae 5e 3d
       0.039419506 -0.0017573475 0.031701483 0.054365262
000180 34 36 ac 3c 86 e6 ab 3d 5a 6f c0 3d a8 1b f6 bc
       0.02102194 0.08393578 0.093962386 -0.030042484
000190 32 55 36 3d 68 d5 1f bd 04 fa e7 bd c3 b9 bf bd
       0.044514842 -0.03902188 -0.113269836 -0.09361603
0001a0 ac 15 6b bd b4 c2 6b 3c ad 6c 2e 3d ec 7b 3a 3d
       -0.057393715 0.014389683 0.04258411 0.045528337
0001b0 d4 d3 01 3d 10 bd a4 bc 71 ce ba bd 80 e3 0c bd
       0.031696156 -0.020109683 -0.09121407 -0.03439665
0001c0 eb c3 99 3d ba b1 85 bd f6 df 64 bd bf 80 cc bd
       0.075080715 -0.06528039 -0.05587765 -0.09985494
0001d0 3d ab c0 bd e6 99 7b bd 82 8d 9b bd c4 a6 8b bd
       -0.09407661 -0.061426066 -0.0759535 -0.068189174
0001e0 c7 25 40 bd da 81 a2 3d d7 7f e6 3c 9a 22 90 bd
       -0.046911027 0.079349235 0.02813713 -0.0703785
0001f0 be 73 98 bd 13 55 21 bd be 9e 0f be 1e 99 13 be
       -0.07443951 -0.039387774 -0.14025399 -0.14413878
000200 cf a7 fa bd b4 d7 83 bd b6 f5 16 3e 44 44 3b 3e
       -0.12239038 -0.064376265 0.14742169 0.1828776
000210 6c ad 6a 3e 85 98 0a 3e 39 3b ff 3d b1 38 d2 3c
       0.22917718 0.13534744 0.12462468 0.025661798
000220 bf bc 94 3d 5b 12 1a 3c 68 95 aa 3c 9b f1 68 bc
       0.07262563 0.00940379 0.020823196 -0.0142177595
000230 06 3e 10 be 20 a7 75 be 09 9a 34 be 50 7a 5e be
       -0.1408616 -0.23989534 -0.17636885 -0.21726346
000240 87 3c 73 be 17 e4 08 3e 64 5b db 3d 65 9c f3 3d
       -0.23753558 0.1336826 0.10710791 0.11895064
000250 21 d7 04 3e 52 1a ea 3d 65 4a f0 3c 4a b3 27 3e
       0.1297269 0.114308015 0.02933235 0.16376987
000260 c6 01 f7 3d 1c 30 bd 3d 22 f7 ad 3a 89 3a 90 3d
       0.12060885 0.09237692 0.0013272504 0.07042415
000270 43 e0 c9 3d 81 6d 30 3d ee 3e b2 3d 62 6a 40 3d
       0.09857228 0.04307318 0.08703409 0.046976455
000280 fa f6 ff 3d bc c7 15 3e 71 2a 28 3e fc 0d 04 3e
       0.12498279 0.14626974 0.1642244 0.1289596
000290 26 30 60 3d b5 35 e7 3c 0a 60 cb bc 15 b8 43 3b
       0.054733418 0.028223852 -0.024826068 0.002986436
0002a0 a0 4c ab bc 65 cf 0b ba b2 c2 c2 bb 3f d4 93 bd
       -0.020910561 -0.00053333334 -0.0059436196 -0.07218217
0002b0 72 98 d9 bc 2b 70 1f bd bd dc e3 bc e9 46 dc 3d
       -0.02656195 -0.03892533 -0.027815217 0.107557125
0002c0 ad e6 b0 3d bc 36 ca bc 1b ba 8b 3d 35 f3 ea 3c
       0.08637748 -0.024684303 0.06822606 0.028680423
0002d0 c0 d2 44 3b c6 b1 05 3d 0c f1 3a bd bc 2a 2f bd
       0.0030032843 0.03264024 -0.045640036 -0.042765364
0002e0 f9 eb a2 3c a7 97 bc 3c 41 b3 7a 3d 2f 92 65 bc
       0.019887911 0.023021532 0.061206106 -0.014011904
0002f0 94 ff 1d 3d d9 74 c6 3d 90 b3 35 3d 60 dd 85 3d
       0.038573816 0.09690256 0.044360697 0.065363646
000300 04 6e 21 3d b7 aa 93 3d c3 c8 34 3d 5b bb 0e be
       0.03941156 0.07210296 0.044136774 -0.13938658
000310 18 fa 85 bd 8e 23 e2 bd 31 9a 12 bd 51 6d 50 be
       -0.06541842 -0.11041938 -0.03579158 -0.20354201
000320 ef 4e 28 3c e7 5e cd 3d 72 b4 20 3d 47 b5 f3 3c
       0.0102727255 0.10027867 0.039234586 0.029749526
000330 fa 7f 16 3d be e5 bb bd 09 cf f4 bd d8 ad f4 bd
       0.03674314 -0.09174679 -0.11953551 -0.119472206
000340 35 c4 e3 bc 91 a3 8f 3c 86 06 eb bc 38 ba ac bd
       -0.02780352 0.01753405 -0.028689634 -0.08433956
000350 97 d0 af bd 9f 59 13 3c 05 9b df bb 09 77 d1 3d
       -0.08584707 0.008993535 -0.0068238997 0.10227782
000360 f3 e3 4f bd 65 99 d2 3c 5d 56 aa 3d 43 df 52 3c
       -0.0507545 0.02570791 0.08317254 0.012870613
000370 73 b3 63 3d 01 c8 27 3d 6a ec 87 3d cf 16 d0 3c
       0.055591058 0.040962223 0.06636889 0.025401501
000380 3c 77 af 3c af db 57 3d 16 4a df 3d a4 2a 04 3e
       0.02141916 0.05269974 0.10902803 0.12906891
000390 5e 9d f5 3d 29 6d 18 3e c9 a4 d9 3d 4a 48 a8 bd
       0.11992906 0.14885391 0.106271334 -0.08216913
0003a0 92 1b af bd 01 e0 d4 bd 8a 94 f5 3b bb c3 f4 bd
       -0.085501805 -0.10394288 0.007494514 -0.11951395
0003b0 ca bd f2 bd 1f 4b df bd 08 ed 9c bd ba 0e 5f bd
       -0.11852606 -0.10903 -0.076623976 -0.054457404
0003c0 d4 fb a2 bc 24 d8 e7 bc a9 12 93 3d cd c6 8a 3d
       -0.019895472 -0.028301306 0.071812935 0.067761995
0003d0 e0 b2 a1 bc 34 d1 af bb f7 ed 07 bd e4 14 e6 bc
       -0.019738615 -0.005365515 -0.033185925 -0.028086133
0003e0 41 d1 87 bc a9 a2 69 bd d9 95 8c bd e4 53 91 bd
       -0.016579272 -0.05703989 -0.06864519 -0.07096079
0003f0 e5 e3 f8 bd 35 b9 d3 bd 5d e0 a5 bd 13 0a 01 be
       -0.121528424 -0.1033806 -0.080994345 -0.126015

fc1.0.bias f4 [120]
000000 a1 34 19 3e ad cb a9 bc 46 03 f3 be 5a 9e 13 3b
       0.14961483 -0.020727003 -0.47463435 0.0022524805
000010 af fc 6b be 38 34 0a 3e 26 d8 c7 be 94 8a 09 3d
       -0.2304561 0.13496482 -0.39032096 0.033579424
000020 4d 96 41 bc 86 db 45 3d b3 bb 7a be d8 a3 0c 3f
       -0.01181562 0.048305057 -0.24485664 0.54937506
000030 15 0c d6 3e 30 f5 18 bf e0 3f 84 3e 43 ba 76 3e
       0.41806093 -0.59749126 0.25829983 0.2409449
000040 51 84 bb 3e 53 a8 65 bd b1 a9 a4 3e 98 b4 a4 be
       0.36624387 -0.05606873 0.32160714 -0.32169032
000050 af 15 9f 3e 31 cc cd 3e 27 ad d6 3e 94 92 e2 3d
       0.3107123 0.40194848 0.4192898 0.11063114
000060 38 10 88 bb 61 2d 5e 3e 0b dc 35 be 3d 8d 56 3e
       -0.004152324 0.21696998 -0.17759721 0.20952316
000070 9b 4a a2 be 60 c1 9f 3e 06 18 02 be f4 06 81 3e
       -0.31697544 0.3120222 -0.12704477 0.25200617
000080 ae a5 92 be 6a ee 04 be 70 cd 80 be 2d f2 5e 3e
       -0.2864203 -0.12981573 -0.25156736 0.2177207
000090 77 67 bd 3c 82 74 0a bf 54 95 81 be f7 b5 a4 3e
       0.023120625 -0.54084027 -0.2530924 0.32170078
0000a0 88 43 dc be 3d 31 71 3e 2e 9a b4 be 6d f1 01 3f
       -0.43020272 0.23553939 -0.3527388 0.5075901
0000b0 b3 2d 68 be 68 8f 17 bf 06 87 93 3e 64 42 6f be
       -0.22673683 -0.59203196 0.28813952 -0.2336517
0000c0 73 9f 26 bf ee 14 41 3e 80 4d 61 be 69 da a6 3e
       -0.6508705 0.1885564 -0.2200222 0.3258851
0000d0 db 0d a3 3d bf 06 bd 3e 25 53 63 be 51 ff 58 bd
       0.07961627 0.3691921 -0.22199686 -0.052977864
0000e0 2d 68 4f 3e 7b 09 86 bd f5 bd dd 3c 25 f2 12 3f
       0.20254584 -0.06544777 0.027068118 0.57400733
0000f0 17 b4 1d bf bf b4 3a 3e e0 54 d8 3e 10 a1 1a bf
       -0.6160292 0.18233012 0.42252254 -0.6040201
000100 f1 57 05 be 01 00 55 be e3 50 3a bf 9f d0 04 bf
       -0.13021828 -0.20800783 -0.72779673 -0.5188083
000110 4d da 05 be da e5 68 be 14 7e ca bd 4d aa 87 3e
       -0.13071556 -0.22743931 -0.09887329 0.26497117
000120 82 3c ba 3d 83 7d 0c 3e 29 22 a0 be ab 53 0f bf
       0.09093572 0.13719754 -0.31276062 -0.5598704
000130 9c 44 6c 3e b2 13 10 3e f8 22 be 3e a1 f5 52 bd
       0.23073047 0.14070013 0.37136054 -0.05150378
000140 c7 05 d1 3d 3b d2 bb 3e 08 13 b2 3d 04 5b ca 3e
       0.1020618 0.3668383 0.08695036 0.39522564
000150 63 e4 9f be 49 89 f2 be 24 0c 3f 3e ac 39 03 3f
       -0.31228933 -0.47370365 0.18656975 0.51259875
000160 60 4a 38 3f 00 98 1b 3d 10 19 ae 3e c6 69 fb 3e
       0.7198849 0.037986755 0.34003496 0.49104136
000170 a6 84 1e bf 5e ed fd be d6 a0 c4 bd 12 e5 7c 3e
       -0.61921155 -0.4959516 -0.096009895 0.24696758
000180 1b d0 76 3c fc 84 67 3e d7 6e e7 3d 80 d4 75 be
       0.015064265 0.22609323 0.11300438 -0.24006844
000190 c0 c1 5f be 3e 34 85 be 47 a1 b2 3d b2 de 87 3d
       -0.21851254 -0.2601642 0.087221675 0.06634273
0001a0 25 8b ce be ef fa 17 3e 84 8f e7 3e 5b 66 bc 3e
       -0.40340534 0.14841817 0.4522668 0.3679684
0001b0 92 06 0e 3f 85 7a e4 3d 3e be 06 be 11 64 bc be
       0.55478776 0.11156181 -0.13158509 -0.36795095
0001c0 45 31 39 bf 9c 4b 0b be 37 ae eb 3d b6 68 b1 be
       -0.72340804 -0.13603061 0.11507838 -0.346502
0001d0 5f fa 05 bd f9 3b 69 3e 4d cf fa be a8 4f 91 3e
       -0.032709476 0.22776784 -0.48986283 0.28381085

fc2.0.weight f4 [84, 120]
000000 e9 22 ca bd b0 43 75 3d f8 59 35 3e 83 84 bc bd
       -0.0986994 0.059879005 0.17710102 -0.09204962
000010 2b cc 84 3c cd 9e dc bc 7f 05 dc bd 39 b3 18 3e
       0.016210636 -0.02693119 -0.10743236 0.14912118
000020 88 4c f0 bd 9a 0d 46 bd b4 b5 fa bd 40 a1 2d 3e
       -0.11733347 -0.048352815 -0.12241688 0.16956043
000030 47 3f 40 bc f9 d0 b1 bd 31 14 94 3e f1 cd 18 be
       -0.0117338365 -0.086824365 0.28921655 -0.1492231
000040 01 2e 39 3d 73 dc 07 bd 1e ba 1b 3d 1f aa da 3c
       0.04520989 -0.03316922 0.038019292 0.026692448
000050 ce e2 af 3b a8 8a d7 3d d6 5a 87 3b df a3 e0 bd
       0.0053676134 0.105244935 0.0041307015 -0.10968756
000060 6a 93 77 3d e4 28 04 be 73 59 0b be 84 d0 bf 3c
       0.06044332 -0.12906224 -0.13608341 0.023414858
000070 34 8c 9b be 73 07 f1 3d db e8 db bd f7 6d b8 3c
       -0.30380404 0.11768999 -0.10737773 0.022513373
000080 86 0c 1c 3e ee 09 1d bd 25 78 47 be 44 1e 66 be
       0.15239152 -0.038339548 -0.19479425 -0.22472483
000090 bf c7 54 be a3 2c 91 3e fb fb ee 3c 61 e5 be bd
       -0.20779322 0.28354368 0.029172888 -0.09321094
0000a0 44 c4 b3 3e 80 55 b9 bd 1c 85 f1 bd a2 b9 47 3c
       0.35110676 -0.09049511 -0.11792967 0.012190254
0000b0 17 d2 db 3d a3 34 b5 bd f7 e1 53 be d8 f6 a6 3e
       0.10733431 -0.0884793 -0.20691667 0.32610202
0000c0 91 3e b7 bd 42 c7 51 3e 20 5b 65 be 7b 62 60 3d
       -0.089474805 0.20486167 -0.22398043 0.05478142
0000d0 bd c4 c6 bd df ca 51 be ed a9 1d 3e 5d 33 0b be
       -0.097054936 -0.20487545 0.15396853 -0.13593812
0000e0 cc 05 76 3d 3c 5f 2b 3d 8c be f2 bd 58 cf 80 3e
       0.060064122 0.04183887 -0.1185275 0.2515819
0000f0 21 5c a6 bd 3f c5 01 3e 59 c5 70 3d af 59 d4 3c
       -0.08123041 0.126729 0.058781955 0.02592167
000100 79 2b 85 3c 90 0e 70 be 8d ff a1 bc e6 b3 38 3e
       0.016256081 -0.23443055 -0.019775176 0.18037376
000110 44 4f 20 bd 89 05 aa bd b9 35 cb 3d 75 83 88 3e
       -0.039138094 -0.08301837 0.09922356 0.26662794
000120 10 ee 00 bd 8f 3f 2c be 7e 3f 19 3e 95 1a 90 be
       -0.031477034 -0.1682112 0.14965627 -0.2814528
000130 31 37 36 3e d2 02 80 bd 0f 06 40 be 8a 7d e6 bd
       0.17794491 -0.06250538 -0.18752311 -0.112544134
000140 f7 81 c0 bd 7e d6 60 3e 4f d9 05 be c5 5f 85 3d
       -0.09399789 0.21956822 -0.13071178 0.06512407
000150 70 e0 ea bd 1d 4b a6 bd b1 7a a1 3d d0 e6 c8 bb
       -0.11468589 -0.081197955 0.0788473 -0.0061310306
000160 ec 02 6f bb 8a 67 e5 bd 48 b1 1c bd 2c cc 75 3d
       -0.0036470247 -0.11201389 -0.038255006 0.060009167
000170 16 4b 92 3e 35 e9 80 bd 9b 0c d8 3b f5 82 de bd
       0.2857291 -0.06294481 0.0065932996 -0.10864822
000180 3b 66 5a 3d a8 f1 4b be 3e df 37 be e2 d1 1a 3e
       0.05332015 -0.19916403 -0.17956254 0.15119126
000190 c7 92 25 bd ba 2c 06 be 35 7f 3a 3d de 9a ae 3d
       -0.04042318 -0.13103 0.04553147 0.08525632
0001a0 ac a3 0b be bf 9f 46 3e f5 57 8f 3d a3 e1 a7 3d
       -0.13636655 0.19396876 0.06999198 0.08197334
0001b0 5b 56 63 3d 3d 17 39 be f5 d6 ee bb 8a 36 cf 3c
       0.055502277 -0.18075271 -0.0072888085 0.025294561
0001c0 57 83 05 3d 96 24 2e be cc 5d 8b 3c a5 5f d7 bd
       0.03259596 -0.17006144 0.0170125 -0.105162896
0001d0 33 9c f7 3d 68 b9 47 be 03 21 e3 3d 94 1b 8a bd
       0.120903395 -0.1950432 0.11090281 -0.06743541
0001e0 38 0f 80 3e 41 e5 27 3d 04 a4 18 3c 36 d6 c6 bc
       0.2501161 0.040990118 0.009316448 -0.024272066
0001f0 10 cd 53 bd a1 fa 30 3e 16 f0 27 bd 06 d0 ce bc
       -0.051709235 0.17283107 -0.04100045 -0.025245678
000200 8c 7b 7f bd 72 a1 16 3e 72 eb 78 3d d3 fd 04 3c
       -0.062373683 0.14710024 0.060771413 0.008117157
000210 ef 7c 90 3d 49 c9 71 bd f0 74 7b 3d 8c cf 19 3e
       0.07055079 -0.05902985 0.061390817 0.15020579
000220 96 fe b5 3d c7 5c 10 bd 52 34 16 bc 30 39 33 3e
       0.08886449 -0.03524473 -0.009167748 0.17502284
000230 66 af 29 3e e6 27 1e be 69 4b 2e be 08 98 7c bc
       0.16570815 -0.15444908 -0.17020954 -0.015417106
000240 57 a8 66 bd 17 d8 a5 3d 0b 45 98 be f0 b3 72 bd
       -0.056312885 0.080978565 -0.29740176 -0.059253633
000250 d4 2b 19 3e 62 ce 5c bd 9f c7 93 3d b2 9e 26 3e
       0.14958125 -0.05390776 0.07215809 0.16271475
000260 1e db 68 bd e1 35 a2 3c 64 e4 3f bd 74 b5 3d 3d
       -0.05684959 0.019801082 -0.04684867 0.046315625
000270 f1 fc 6e 3d da 6e 67 bd 88 3e aa 3d 1f b0 92 3c
       0.058346692 -0.0565022 0.08312708 0.017906247
000280 71 5a 08 3c f5 d5 d0 3d 87 82 16 3e 72 fe 9e 3d
       0.008322344 0.10197059 0.1469823 0.07763375
000290 d4 ed e3 bd e5 02 af bd 79 97 83 3d 72 34 8c bc
       -0.111293465 -0.08545474 0.064253755 -0.017114852
0002a0 6b ff 88 3d 06 c7 3d 3c 53 af 1b 3e d8 d0 2c be
       0.06689342 0.011583095 0.152036 -0.16876543
0002b0 40 32 00 be 45 2f 25 3e 8d f4 0b bd f7 60 88 ba
       -0.12519169 0.16131313 -0.03416877 -0.0010404874
0002c0 e5 04 4a 3e b3 d3 0e bd 84 eb 91 bd 92 58 96 be
       0.1972843 -0.03486986 -0.07124999 -0.2936445
0002d0 e3 79 ce bb 76 ab 12 be 1d 72 6e 3a ca 91 11 3d
       -0.006301151 -0.1432322 0.00090959837 0.035539426
0002e0 92 0d 1a 3d bd 40 1e bd 70 f6 a7 3d a3 0d 7d 3d
       0.037610598 -0.038635958 0.08201301 0.061780583
0002f0 ca 3e 87 3d 5e aa 03 3d c5 c0 29 3e d4 76 81 be
       0.06603773 0.032144897 0.16577442 -0.2528597
000300 16 af 97 3c 42 1a 5f bd 1d 4d 09 bd 54 78 7a 3e
       0.018516105 -0.0544684 -0.033520807 0.24459964
000310 e1 bf 34 3d de f8 19 3c 18 c4 85 3d 99 d2 6a 39
       0.044128302 0.0093977135 0.065315425 0.00022394433
000320 55 07 f0 3d 83 e0 5e be f6 9a 39 3e 8a fd e2 3e
       0.117201485 -0.21765332 0.18125519 0.4433406
000330 49 6b 11 be 3b 50 03 3d ca a1 af bd a4 d0 93 be
       -0.14201082 0.032058936 -0.08575781 -0.28870118
000340 16 0e 21 be da 6e 4f 3d 79 56 33 3e fe 76 cf 3d
       -0.1572803 0.050642826 0.17513455 0.10130118
000350 f9 d1 12 be e4 87 85 3d fa 6d d1 3c 66 13 e0 3d
       -0.1433791 0.0652006 0.025565136 0.109412
000360 d1 0e 0c 3e f6 0e 00 3d e6 82 2d 3d fb e9 e1 bd
       0.13677527 0.031264268 0.042361163 -0.11030956
000370 83 6f bf 3d 20 1b 5e 3b bc b8 5c 3e 6d 97 31 be
       0.09347441 0.003389068 0.21554846 -0.1734292
000380 39 71 62 3e cc 2e 2d 3e f2 8a 41 3e a6 e5 7c be
       0.22113504 0.16912383 0.1890066 -0.24696979
000390 47 01 cf bd e1 8d 01 3e 33 c3 38 3e 58 52 05 3c
       -0.101076655 0.12651779 0.18043213 0.008137308
0003a0 b9 07 b4 3d 26 2e f2 bc 00 e9 14 3e 20 78 a5 3d
       0.087905355 -0.02956302 0.14542007 0.08079553
0003b0 f0 07 4e bd 2e a0 d9 3d 92 ed 83 bd b2 3f 3d 3e
       -0.05030054 0.10626255 -0.06441797 0.18481329
0003c0 5e 70 ec bd 49 ea 81 bd e4 64 9b be 22 31 48 bc
       -0.1154487 -0.063435145 -0.3035041 -0.012218745
0003d0 91 89 02 3d 5b 85 02 be b3 48 95 3d d4 5a 8b 3d
       0.031869475 -0.12746184 0.07289257 0.068044335
0003e0 c8 88 db 3c ae c7 9b bd ab 5b df bb f1 f1 04 bd
       0.02679862 -0.07606445 -0.0068163476 -0.032457296
0003f0 77 44 1b 3e dc e2 79 bd 50 be c1 bc 1e a0 22 bd
       0.15162836 -0.061007366 -0.023650318 -0.03970348

fc2.0.bias f4 [84]
000000 a5 65 e6 3c a3 a6 3b be 48 48 19 3e fa 8d 87 3d
       0.02812464 -0.18325286 0.1496898 0.06618877
000010 b2 1c a5 bd 05 c2 0d bd 05 00 95 be 9f 77 08 bc
       -0.08062114 -0.03460886 -0.29101577 -0.008329301
000020 0d 2d 5a be 87 8c a7 be e7 15 94 be 93 c6 e2 3d
       -0.21306248 -0.327244 -0.2892296 0.11073031
000030 b9 15 31 3e 06 aa d9 be 5b b3 be bd f3 9f b1 3e
       0.17293443 -0.4251253 -0.09311553 0.34692344
000040 68 43 46 be 93 be 26 3e 33 d3 80 bd 33 f6 a9 be
       -0.19361651 0.16283636 -0.06290283 -0.33195648
000050 e4 94 4d bb 54 1a 82 3c 23 5f 73 3e 22 f9 9f 3e
       -0.0031369263 0.015881695 0.2376676 0.3124476
000060 8d 17 8d be 4a 02 de 3d e1 aa ae be f2 a5 dd 3d
       -0.2755703 0.1084028 -0.34114745 0.10822667
000070 cf ac f2 3d a9 89 9e be 63 ec 37 be 52 40 b9 3c
       0.11849367 -0.309644 -0.17961268 0.022613678
000080 9d cb a1 3e 23 33 0e bc 63 31 ab be 7a 79 84 be
       0.31600657 -0.008679184 -0.33436117 -0.2587393
000090 77 fa 04 3d 0f 43 10 3c 77 9f 53 be 5b 94 2f be
       0.032465424 0.0088050505 -0.206663 -0.17146437
0000a0 74 cf 1f 3e 32 91 0b 3e 68 e0 a1 3d 63 18 5d 3e
       0.15606481 0.13629606 0.0790413 0.21591334
0000b0 6a 8f 0d bc b5 15 ce 3e f3 bb b0 3e 2e 33 23 3e
       -0.00864015 0.40250936 0.34518394 0.15937492
0000c0 c9 8b 0e 3f 1d cf 30 bd 47 1b cc bd f3 05 8f 3d
       0.55682045 -0.04316627 -0.0996614 0.069835566
0000d0 7f 7a 90 be c9 30 54 3c 5f ef 27 be a7 1d 0a be
       -0.28218457 0.012951084 -0.16399907 -0.13487874
0000e0 64 d7 4d 3e 9b 1a e3 3e a9 eb e2 3e c6 74 13 3d
       0.20101696 0.44356236 0.4432042 0.036000036
0000f0 af 67 ba 3d 34 8c bf 3e 2b 57 3d be 1f 11 30 3e
       0.09101807 0.37411654 -0.18490283 0.17194031
000100 e4 95 99 3e 50 df 25 3d 3d a5 ac 3e ff 44 fc 3c
       0.2999717 0.04049617 0.33719817 0.030794619
000110 4a 2b d1 3e 26 06 b1 be 73 40 85 be 0d 66 27 3d
       0.4085334 -0.34575003 -0.26025733 0.040868808
000120 05 41 a3 bd 59 46 d1 bd 54 76 1b bd 5f 3c 31 3d
       -0.07971386 -0.10218496 -0.037954643 0.043270465
000130 48 0e 4b bd e0 fb be bd f0 59 d3 3e 3a 1e ac 3e
       -0.049574167 -0.09325385 0.41279554 0.3361681
000140 53 4a 05 3e 47 31 d7 3c 11 70 55 3e 8c 78 79 3e
       0.13016634 0.026268614 0.20843531 0.24362391

fc3.weight f4 [10, 84]
000000 b6 e9 4e bd b1 50 91 be 9a 46 3e be fd 2f c2 bc
       -0.050515853 -0.28381875 -0.1858162 -0.023704523
000010 e4 b7 73 be e8 84 dd bd 80 2b 42 3e 97 fa 83 3e
       -0.23800617 -0.108163655 0.18961906 0.25777122
000020 33 cd db be f7 f7 80 3d 76 73 be 3d 25 4c 9f 3e
       -0.42929992 0.062972955 0.09299366 0.3111278
000030 c3 ea a5 bd 5a 98 10 be a3 06 3f 3e 15 77 90 3e
       -0.08101418 -0.14120618 0.18654875 0.28215852
000040 87 20 dd be 13 4b 86 be 87 41 c5 3c 21 c7 1f 3e
       -0.4318888 -0.26229152 0.024079097 0.15603305
000050 7c bd 1f be 5f c1 67 3e 76 34 93 be a6 b2 c9 3e
       -0.15599626 0.22632359 -0.28750962 0.3939411
000060 9f e4 ce be e0 2e 7e bd 98 9f a2 bd f8 42 46 be
       -0.404088 -0.062056422 -0.07940596 -0.19361484
000070 a1 45 25 3d f2 69 c2 bd 70 f8 f8 bd f9 60 81 be
       0.040349606 -0.09492864 -0.12156761 -0.25269297
000080 12 46 c3 3e 9e d1 dc 3e c8 bc 74 be 6f 0c a2 be
       0.38139397 0.43128675 -0.2390014 -0.3165011
000090 c8 b6 01 bd 5f 04 38 3c b7 32 73 be ec 29 77 3d
       -0.031668454 0.011231511 -0.23749815 0.060342714
0000a0 1b 89 2d 3e f6 be 8e be 01 c7 8a 3e 7d 05 32 3e
       0.16946833 -0.27880067 0.27104953 0.17384906
0000b0 46 7f 04 be ed fc 1e 3e af b4 94 3e 81 0a 60 be
       -0.12939176 0.15526171 0.290441 -0.21879007
0000c0 bb a7 b0 3e e7 ab d4 3d c7 20 af 3d 86 8e 13 be
       0.34502968 0.1038435 0.08551174 -0.14409837
0000d0 ec 2f 54 3e 97 5e 99 3e 0d c6 5e be 61 85 ff bd
       0.20721406 0.2995498 -0.21755238 -0.12476612
0000e0 ca cc 9b 3e 93 61 ae 3e 7d 05 d0 bd 9a 58 9d bd
       0.3042968 0.34058818 -0.10157297 -0.07682915
0000f0 96 4d d3 3d da 03 90 3e b6 f5 4b 3e d6 09 da 3e
       0.10317533 0.28127939 0.1991795 0.4258563
000100 88 f4 11 be a6 57 c4 be fe 34 8b 3e 1d af a4 3e
       -0.14253438 -0.3834812 0.27188867 0.3216485
000110 6e 12 af 3c 57 1d 01 be 96 fa 97 bc 9b d9 00 3e
       0.021371093 -0.12608849 -0.018552106 0.1258301
000120 fd 41 48 3e 61 97 b8 bd 2c 81 3e bd af 51 c2 3e
       0.19556423 -0.09013248 -0.046509907 0.37952945
000130 f6 e3 e0 3e b8 da 06 bd 20 06 c9 3e b9 29 31 be
       0.4392392 -0.03292343 0.39262486 -0.17301072
000140 5f 29 c7 bd b5 e8 a0 be 87 e1 76 3e 92 d0 e1 be
       -0.09724688 -0.3142754 0.2410947 -0.4410444
000150 32 30 f7 bc 92 c6 92 3e ed 97 8a bd 6a 22 d0 3e
       -0.030174349 0.28667122 -0.06767259 0.40651256
000160 5b 69 00 be 0a ca 05 3e 55 d8 dc 3e 1e f8 af be
       -0.1254019 0.13065353 0.43133798 -0.34368986
000170 89 f1 ae 3e 16 2a 1c 3e c6 be 3d 3f 13 0a 0e 3f
       0.34168652 0.1525043 0.7411922 0.5548412
000180 c6 b5 17 3e 4e 40 a5 3d 6f 10 65 3e f2 66 53 bd
       0.14815435 0.08068906 0.2236955 -0.05161185
000190 6d 73 54 3e ec e9 9b 3e 09 af a1 3e 05 1e 67 be
       0.20747156 0.30451906 0.31578854 -0.22570045
0001a0 ef 53 83 3e 20 2e 89 3e 83 b7 64 3e 1f b1 b3 3e
       0.25649974 0.26793003 0.22335629 0.3509607
0001b0 19 10 22 3f ae 66 c1 be 6f 74 28 3e aa 3b 86 3c
       0.63305813 -0.3777365 0.16450666 0.016385872
0001c0 26 30 d9 be f5 cf be 3e 6f 82 79 3e 9b 74 95 3e
       -0.42419547 0.37268034 0.24366163 0.29190525
0001d0 ee dc ef 3e 82 33 85 3e cc 9e f2 bd 88 90 b9 be
       0.46848243 0.2601586 -0.11846694 -0.3624308
0001e0 60 1b a1 be 0a 12 7e be 88 4a 26 be e3 b9 f1 be
       -0.31466198 -0.24811569 -0.16239369 -0.47212133
0001f0 99 e2 92 3e c4 99 09 bf bd 09 7e be 6d 51 55 3e
       0.28688505 -0.5375025 -0.24808402 0.20831843
000200 b5 19 4f 3e 91 41 f8 bc 33 1e c2 3d e5 0b 3d 3d
       0.2022465 -0.030304702 0.09478416 0.04615392
000210 cc 30 e9 3d 99 dd 35 be d6 c9 b6 3d b0 7d c3 3a
       0.113862604 -0.17760314 0.08925216 0.0014914777
000220 f8 d9 a8 3e 6a f7 93 3d 95 17 df bd af ee 28 3e
       0.32978797 0.07224925 -0.1089317 0.164973
000230 4b 50 fa bd 3b 8f 96 bc a3 56 06 3e 18 d5 ba 3d
       -0.12222346 -0.018378844 0.13118987 0.09122676
000240 0d b2 54 3e 19 20 90 be 8c d1 d7 bd e7 d3 e9 be
       0.20771046 -0.2814949 -0.10538015 -0.4566948
000250 77 5e dc 3e aa 4e 6c 3e f3 71 96 3e 59 bb 84 be
       0.4304082 0.23076883 0.2938381 -0.25924185
000260 aa 60 c5 3e 74 83 e5 be 59 f2 16 3e e0 96 48 be
       0.3855031 -0.44826853 0.14740886 -0.19588804
000270 20 2c a3 bd 42 a6 ec bd 5b 99 b8 be 78 fa 5a 3e
       -0.079674006 -0.11555149 -0.360545 0.21384609
000280 a4 ed 65 be 52 11 b9 3e 39 77 65 3d 51 e6 41 bd
       -0.22453934 0.36146027 0.056021903 -0.047338787
000290 a1 f6 c0 3e a0 29 d6 be 11 6f 5a 3e 1c 1a 26 3d
       0.37688163 -0.41828632 0.21331431 0.040552244
0002a0 7c 1a 75 3e fc cb 70 be 8b 58 43 3e 54 e4 bc be
       0.23935884 -0.23515314 0.19076745 -0.3689295
0002b0 be d5 7a 3e c8 c2 88 3e 54 dd c1 be 52 79 85 3e
       0.24495599 0.26711106 -0.37864172 0.26069123
0002c0 dd 91 5c bc cf d8 25 3e 3b 7e 51 bd 10 b9 35 be
       -0.013462511 0.16195987 -0.051145773 -0.17746377
0002d0 a7 91 36 be ef 45 c9 be 71 e7 66 be ce e2 a1 3e
       -0.17829 -0.39311168 -0.22549225 0.3161835
0002e0 26 42 91 3e b5 f0 43 3e 3d 3c 3e be b9 c4 a1 3d
       0.2837078 0.19134791 -0.18577667 0.0789885
0002f0 2b 9e bb 3a 97 1c 4f 3d 04 9f 8e bd 39 de 37 be
       0.0014314106 0.050564375 -0.069639236 -0.17955865
000300 d8 5d 56 bd 79 bc 30 3e b1 bd d6 be 26 ed e2 bc
       -0.05233559 0.17259397 -0.41941598 -0.027700972
000310 3b f7 45 3e d2 26 b3 be 2f b4 a0 be 51 dd cb be
       0.19332592 -0.34990555 -0.3138747 -0.3981729
000320 68 0d 1e 3d 3e ca 91 be 7d 59 e9 bd 56 3d 0f be
       0.038587004 -0.2847461 -0.11394022 -0.13988242
000330 d8 c1 4d 3e 47 1a da be 18 a3 c6 3e 34 d2 95 39
       0.20093477 -0.42598173 0.38796306 0.00028576108
000340 6c 70 00 3c ec 62 0e 3e 72 41 26 3d db 3d 76 be
       0.007839303 0.13904923 0.040589757 -0.24047033
000350 77 1e 97 be d4 6d 05 3d ac 70 f6 3e 8e f6 bc 3d
       -0.2951543 0.032575443 0.48132837 0.09226714
000360 3e 72 9c 3e b3 13 18 be 68 08 a7 3b ce c1 88 be
       0.3055591 -0.14851265 0.0050974376 -0.2671036
000370 4a 0b 21 bd f7 a6 8f 3e fb 0c 3c bd 8b 77 16 be
       -0.039317407 0.28057072 -0.045910817 -0.1469404
000380 1e 6b 03 be 78 4e 25 be bd a3 9d 3e 4a 70 21 bf
       -0.1283383 -0.16143215 0.30788985 -0.63061965
000390 5f 2a ac 3e a4 05 5b 3e 72 6a a9 be 0b 5c a9 be
       0.33626077 0.2138887 -0.33089024 -0.33078036
0003a0 35 7c 83 3e 50 c7 b1 3e ec 70 5a 3e c7 cd de 3d
       0.256807 0.34722376 0.21332139 0.10879093
0003b0 f1 b9 0b be 68 d5 d5 bb 65 32 e1 bd 6e d4 83 3e
       -0.1364515 -0.006525684 -0.1099594 0.25748008
0003c0 22 53 e1 3c 2a e0 9f 3e e2 52 81 3e 32 67 1d 3e
       0.027505461 0.3122571 0.25258547 0.15371397
0003d0 96 53 46 bd ef 25 e4 be 01 5a ea 3d 56 b5 8e be
       -0.048419558 -0.4456019 0.11442948 -0.27872723
0003e0 94 01 0d be d9 a0 a8 be f1 80 20 3e 46 3e 28 3e
       -0.13770133 -0.32935217 0.15674187 0.16430005
0003f0 e1 32 c9 bd 21 c0 08 3e f3 c8 c0 3e 12 ea c0 3d
       -0.098241575 0.13354541 0.37653312 0.09419645

fc3.bias f4 [10]
000000 15 63 8e 3e 17 92 11 3c d6 95 b7 3e 39 9e 82 3e
       0.2780997 0.008884928 0.35856503 0.2551134
000010 40 22 90 be 86 6d 4d be 2f a3 0e bb 64 d6 e8 be
       -0.2815113 -0.20061311 -0.0021764745 -0.45476067
000020 bd 86 99 3e 27 9d 24 bd
       0.2998561 -0.040188935
