checkpoint/best_LeNet5_relu6.ckpt (torch, 252453 bytes, 10 tensors)

conv1.0.weight f4 [6, 3, 5, 5]
00000000: 28ac 79bd f9ac 46bd 6692 e2bd 8a67 c8bd
00000010: 569d 1cbd a95e f0bd cc4d 82bd 998f 9abd
00000020: c805 25be 684a 17bb ae90 0cbd 8f02 48bd
00000030: 8147 433d d233 623d 9cdc 9dbd 2277 ca3b
00000040: d9ac d6bc 4ebe a2bd 55e5 d8bc bced 0ebe
00000050: 43b6 b2bd 3fe7 a53d 5e65 f4bc aff6 77bd
00000060: f3ab bcba 41c4 7dbc 8266 7ebd 7993 bebd
00000070: ef45 29be 5183 e3bd 0190 0bbe bac4 e7bd
00000080: 2dce c63b 7598 6f3d cac8 7cbd 101c cbbd
00000090: ed90 66bb 496f 8bbc 9c55 3abd dd9a 38bd
000000a0: b3fe 6fbb c9c5 82bd 3c3f 5dbb fe36 853d
000000b0: 12cb 663d ae3b fabd 156a 71bd 45fa 1b3c
000000c0: b3a5 f33c 68d9 81bd 0427 f8bc e7a3 003c
000000d0: e0fd 093e e38e b93d 3011 353d 12c6 0b3e
000000e0: 76c3 d93d eaad 833d 3ce4 143e b6ed c03d
000000f0: 524f 1b3e 66fd 463e 25ba f23d 51b9 993d
00000100: 734e 913d cd9b fe3d c1cf 483e a33b 343e
00000110: c99f c73d 07c0 163e 6d6a 0c3e 2fcf d23c
00000120: f153 8c3d 3990 8e3d 9229 243e 090d 3c3d
00000130: eb23 473d 9e8d 113e 23ec ff3d 893e 44bc
00000140: 2bb1 e83b 50ba 313e 7259 be3d 2c53 f23d
00000150: 1acf c13d 3228 77bd 56be 073e cb7d fd3d
00000160: de4c e63d 5ec5 3c3d c1c5 503d 276f 973d
00000170: 3a0e 313e eed8 a73d 91e8 08bc 3164 1e3e
00000180: 55d6 ab3d 57e8 db3d 3434 1e3e a26a 2d3d
00000190: 6ace 95bc c2ac 9d3d 63e1 e8bb 8a80 79bb
000001a0: fb1b 11be dd8d 22bd 2cf9 18ba 46c5 813d
000001b0: 00c4 c3bc fe69 e0bc 865d 8dbd 2b32 7e3d
000001c0: 9ab1 b7bd 96bc d8bd 34d5 cdbd 4b06 6fbd
000001d0: ab76 a8bb 542b c5bd 67f0 05bd fcae eabd
000001e0: a834 65be 8464 81bd 8ba0 2fbd eac5 31be
000001f0: 5d5a 89bd 8ecf 9e3d 1230 233e 8944 183e
00000200: 14af f7bc 6984 253c a048 c23d 4394 9c3d
00000210: 12c7 373e 7f00 a03d 5c40 abbc 0fb6 ac3d
00000220: 358a f13d 5bd1 2d3e 940f f93d 568c 903d
00000230: 86a5 8ebc ac98 853c bcac 073d c267 023d
00000240: 4489 76bd 8f75 6e3d 90b9 2b3c 014c 6b3c
00000250: 2934 a53d 9280 3ebd e26f 333c f225 143d
00000260: ae23 0d3d a9b2 ca3d e836 1c3d f75f 8b3d
00000270: d3ce 313d 07dc 0d3e 1565 da3c 4054 85bd
00000280: 4486 e4bb 7417 b0bd 5aae 85bd dd5d 823b
00000290: 703d e7bc 91d2 96bd 9ca3 933c de72 91bc
000002a0: a15a 9bbd 71fc 553d 5501 373e ef8c e73d
000002b0: e789 0ebc 63b7 413d b277 033e 822c 69be
000002c0: 0edc 4ebe 1e30 4fbd ddad 14be bec4 f2bd
000002d0: 111e 5cbe 71da 22be 0b43 30be 4208 4ebe
000002e0: aee6 35bd 4184 77bd 9e2e 3abe 0962 81be
000002f0: d431 17be c30f 62be a961 2dbe 85d0 e73b
00000300: 27b9 053c af87 25be 0e42 41be 48a2 9cbc
00000310: cd39 3b3d 4466 f33c df8b bbb9 d339 4f3d
00000320: 74da 3f3b c54a 22be 3b35 013d 5d80 22be
00000330: f924 753d fedd 0dbe 074c 1bbe 1c91 803c
00000340: 8779 afbd 1a34 cb3d 3e18 dfbd 79d5 993d
00000350: 497a bbbd 26a6 a6bc 7da8 4ebd aeae 6d3d
00000360: 4253 333d 8d03 093e 1bfc a73d 84dd f93c
00000370: dccc 4fbc 6f97 1f3e 3143 d13d fb98 553e
00000380: 0835 8c3d adff abbd ead1 3ebe c329 45be
00000390: 68c6 dabd ed0f 85bd 35d5 08be caed 45be
000003a0: 5fb5 88be f1c1 72be 236a 87be 8630 0cbe
000003b0: 6c56 10be 9fdf 1bbe e327 dcbd 2fc6 28be
000003c0: a50d 05bd 2aae ba3b 2a85 f7bd 06d2 ebbd
000003d0: 5f5b 62bd c828 c7bd 9f7e 2f3d 3c71 b3bd
000003e0: 1a7f 21bc 4fa7 0cbe 1bc4 813d 73a3 703d
000003f0: 9451 d8bc 49f4 2cbd 43da c9bd 4546 47bd
-0.060955197 -0.048504803 -0.110630795 -0.097853735 -0.038235985 -0.11736805 -0.06362495 -0.0754692
-0.16115487 -0.002308512 -0.034317665 -0.048830565 0.047675613 0.0552252 -0.077080935 0.0061787525
-0.026205467 -0.07946454 -0.026476542 -0.13957876 -0.0872617 0.08100747 -0.029833492 -0.06053799
-0.0014394507 -0.015488685 -0.062109478 -0.09305472 -0.16530584 -0.11109031 -0.13629152 -0.113168195
0.0060670585 0.058495004 -0.061714925 -0.09917462 -0.0035181597 -0.017020838 -0.0454918 -0.045069564
-0.0036620318 -0.06385381 -0.0033759614 0.065046296 0.056346007 -0.12218414 -0.05893906 0.009520118
0.029742097 -0.06340295 -0.030292042 0.007851577 0.13475752 0.090604566 0.044205844 0.13649777
0.10632984 0.06429656 0.1454019 0.0942034 0.15166977 0.19432601 0.118519105 0.075060494
0.07095041 0.124320604 0.19610502 0.17600875 0.097472735 0.1472169 0.13712473 0.025733558
0.06851948 0.06961102 0.16031483 0.04591087 0.04861824 0.14214179 0.124962114 -0.0119778
0.007101198 0.17356229 0.09294404 0.1183227 0.094633296 -0.060341068 0.13256201 0.12377509
0.1124513 0.04608666 0.050969843 0.073942475 0.17290583 0.08195673 -0.008356229 0.15467907
0.0839049 0.10737675 0.15449601 0.04233802 -0.018286902 0.076989666 -0.0071069463 -0.0038071
-0.1417083 -0.039686073 -0.00058354693 0.06336455 -0.023897171 -0.027394291 -0.06902604 0.062059563
-0.08969422 -0.10582845 -0.10050431 -0.05835561 -0.0051410994 -0.09627405 -0.03269997 -0.11459157
-0.22383368 -0.06318 -0.042877715 -0.17360654 -0.067066886 0.07754432 0.15936306 0.14869894
-0.030234851 0.01010237 0.09486508 0.07645466 0.17947033 0.078125946 -0.020904712 0.084331624
0.11793939 0.16974394 0.121611744 0.07058017 -0.017412912 0.016308151 0.033123717 0.031837232
-0.0601895 0.05821758 0.010481253 0.014361382 0.080665894 -0.046509333 0.010951968 0.036169
0.034457855 0.09897358 0.0381383 0.06805413 0.043410134 0.13853465 0.026659528 -0.0651021
-0.0069740135 -0.08598223 -0.065273955 0.0039784745 -0.028227538 -0.07364381 0.018022351 -0.017754968
-0.075856455 0.0522427 0.17871602 0.11306178 -0.008699871 0.04729403 0.12838629 -0.22770885
-0.20201132 -0.050582998 -0.14519449 -0.11853932 -0.21495844 -0.15903641 -0.17213075 -0.20120338
-0.044409446 -0.06042886 -0.18181846 -0.25270107 -0.14765102 -0.22076325 -0.16931786 0.007074418
0.00816182 -0.1616504 -0.18872854 -0.01912035 0.04570942 0.02971185 -0.00035771632 0.050592255
0.0029274495 -0.15848835 0.031544905 -0.15869279 0.059849713 -0.13854215 -0.15165721 0.015694194
-0.085681014 0.09922047 -0.10893296 0.0751142 -0.091541834 -0.020342898 -0.05045365 0.058027916
0.043780573 0.13380261 0.08202382 0.030501135 -0.01268312 0.15585111 0.10217894 0.20859139
0.068460524 -0.08398376 -0.18634763 -0.19254212 -0.10682374 -0.06497178 -0.13362582 -0.1932899
-0.26700875 -0.23706795 -0.26448163 -0.13690385 -0.14095467 -0.15222023 -0.10749795 -0.16481851
-0.032483716 0.0056970315 -0.12085946 -0.11514668 -0.05526292 -0.09724575 0.042845365 -0.08761832
-0.0098569635 -0.13735698 0.06336232 0.058749627 -0.026406087 -0.042225156 -0.09856083 -0.048651

conv1.0.bias f4 [6]
00000000: 615b 14bd 6f3c 813e fdb0 893c 61a8 153d
00000010: 539e bbbd ff9e a13e
-0.03621996 0.2524142 0.016808027 0.03653753 -0.09161057 0.31566617

conv2.0.weight f4 [16, 6, 5, 5]
00000000: e2d9 883d 4e73 1f3d d4f4 2c3d 7576 ae3d
00000010: 02e7 7d3d d82e 593d 2a13 a3bc a066 5c3d
00000020: adb7 2abc a930 bdbc f618 c63d adc5 363d
00000030: d875 92bb 639e 783d ff78 313d 1bc6 87bd
00000040: 8ad4 8d3d 13ad 24bc 805e 213d 7e07 c73d
00000050: 31e6 963d 9791 63bd d8ae 403d 863c 4a3d
00000060: 6143 10bd fa1b 013d 3dbb db3c e25e a2bd
00000070: 0680 47bc c59c fdbb 42d8 9fbd ca05 edbb
00000080: 8bd8 a7bc 8df2 a7bd 26ab 793d 0407 663c
00000090: 9eb6 6ebc ecb3 d1bb 9069 073c 24f4 83bd
000000a0: 91c0 8bbd 23f2 9e3c 8b2e adbc fc05 6dbd
000000b0: 0739 3c3d 2d2b d53c c8ba 71bc 6e6e 8cba
000000c0: 9a39 5cbd 9429 86bd b9ea c13d 1ed0 543d
000000d0: b48b 1dbc 029c b2bc 663b 6dbd 7adf db3d
000000e0: 81ea 2b3d 4324 a03d 7cff d03d cb41 543d
000000f0: 77d2 e03d 3f6a cd3c 80b7 393d fb61 46bd
00000100: 94de d83b 1efa c1bc 9133 d13b 76c2 0f3d
00000110: c641 83bb 83a9 043d 0c11 ad3c e3a0 833d
00000120: 9fcf 09bd 81fc 5ebc 2055 25bd 9b75 323d
00000130: 0f10 eb3b 718c 7f3d 240c 97bc 2595 6a3d
00000140: 1258 5f3d cab9 e03c ed39 29bd 1ed4 413b
00000150: c7e3 48bc f487 653d ea7b b03d bb53 583d
00000160: 3f85 f83d c503 1d3d b39f 7fbc 318a ae3d
00000170: a8f3 fd3d 3220 c83d 30e5 143e d7a0 363e
00000180: f179 203e b410 833d e8f7 b93d 6ac1 dd3c
00000190: 25aa 913d 3767 16bd da50 f6bc 4e37 12bd
000001a0: ba3e 3abc bace a4bb 0998 823d dbae b93c
000001b0: 760c e03c 9b8c 8a38 1f0b 363d 48d5 483d
000001c0: cb81 183d abb7 0639 6ef7 f6bc 4e3a 403d
000001d0: 0ce0 643d d09b 2cbb 4fa1 18bd 02d9 1fbd
000001e0: f167 4abd 4629 e5bc 820d 543b 6a2f 913d
000001f0: 391b 323c 5a3a 373d fd0b 71bc 052c 2c3d
00000200: 2b2c cc3c fc41 013d a234 91bd 3801 a2bb
00000210: af47 f1bc 4fb1 6dbc 8825 62bc 2f6e cebb
00000220: 0531 34bd 89d6 ebbd 2884 dabd 6e08 edbd
00000230: 4299 2b3a ad15 9bbd 501f cdbd c8c6 70bd
00000240: 5020 e2bd ea55 ecbc 1546 4fbd d9fa 3bbd
00000250: 304f c3bd 65d9 a7bd 26ef fd3c b61d 5bbc
00000260: f16a 94bc 04af af3d 99de 26bd 78ee 1d3d
00000270: ad05 b6bc 8646 9f3d 9d59 883d 838a b9bd
00000280: 4736 1fbb 931b 923d 9248 a93c fe90 e5bd
00000290: 6714 0a3d 81fa 903d 4b2b 9c3c 0577 d1bc
000002a0: 4d05 453c 25b2 73bd 49b6 723d 28ce e63d
000002b0: 23b4 c43d 2bb9 b6bd 2b05 bdbc 14a9 cbbc
000002c0: 4228 4f3d 5c23 b93d 3b52 3dbd f3d0 0ebd
000002d0: 3d57 863d 529c 8cbb a013 1dbd 2434 3d3c
000002e0: 509e 50bd 3d44 b23d de93 163e dd21 a2bd
000002f0: d65d 85bd 7fcd efbd 2bf0 2c3e 119d 013e
00000300: a34d 90bc 9a4b 47bd 6900 a1bd 67c5 8a3d
00000310: 349d 153e 13d2 a8bd a0a9 d6bd 47f6 eebc
00000320: 2563 143d ca4b 2fbd 8f88 d8bb c292 c7bd
00000330: 69f5 af3d 381e 963c 3ceb 2c3c dddc 94bc
00000340: 9b33 85bd fc64 57bc e85c 1cbe 8574 08be
00000350: 997b a53c 3725 d13d f72a fe3d c445 10be
00000360: 1f3e 9fbd 0e66 25bd 5348 0a3e 2a79 f03d
00000370: a634 1ebe d7ce d3bc 30c4 753d 7071 a13d
00000380: 2114 683d 66fa e0bd 007e 23bd a2b3 253d
00000390: e252 b73d fd6b 82bd f7c1 0fbd cb9d 42bd
000003a0: 7c0b 833d f561 d73d 1d96 14bd 028a b7bc
000003b0: e305 48bd d17e 973d 9e2a 14bd 1a09 9a3d
000003c0: 3ca4 843d 3d99 22bd b1dc a5bc 95e9 2abb
000003d0: 41e1 5f3d b101 4fbc 75ab df3d 7ff5 a13c
000003e0: cbfd c5bd 5629 cebd ea49 dd3c e3ba 833b
000003f0: c973 59bd 2e0f f2bc 5688 073d 0c1e b4bc
0.06682183 0.038928322 0.042225674 0.08518688 0.061987884 0.05302319 -0.0199066 0.05380881
-0.010419768 -0.023094492 0.0967273 0.044622112 -0.0044696145 0.060697924 0.04332828 -0.066295825
0.06925304 -0.01005103 0.039396763 0.09718226 0.07368124 -0.055558767 0.047041744 0.049374126
-0.035220508 0.03152082 0.02682268 -0.07928254 -0.012176519 -0.0077396357 -0.0780492 -0.007233356
-0.020488998 -0.0820056 0.060954235 0.014039759 -0.0145699065 -0.006399622 0.008264914 -0.064430505
-0.068238385 0.01940257 -0.021140357 -0.057867035 0.045952823 0.026021564 -0.014754005 -0.0010714063
-0.05376587 -0.06550899 0.09468598 0.05195629 -0.009615827 -0.021802906 -0.057917975 0.10735984
0.041971687 0.078194164 0.1020498 0.051820558 0.10977643 0.025075076 0.045341015 -0.048433285
0.0066183303 -0.023678835 0.006384321 0.03509756 -0.0040056435 0.03238822 0.021126293 0.06427171
-0.03364527 -0.013610006 -0.040364385 0.04356919 0.007173545 0.062389795 -0.018438406 0.05727114
0.05452735 0.027432341 -0.041315008 0.0029575895 -0.012261338 0.056037858 0.08617385 0.052814227
0.1213479 0.038333673 -0.01560204 0.08522452 0.12399989 0.09771766 0.14540553 0.17834793
0.15671517 0.0639967 0.090804875 0.027069766 0.071125306 -0.036719527 -0.03006785 -0.035697274
-0.011367494 -0.0050295265 0.06376655 0.022666385 0.027349692 6.6065426e-05 0.0444442 0.049031526
0.037233155 0.00012847657 -0.03014728 0.046930604 0.05587773 -0.0026337989 -0.03726321 -0.039025314
-0.049415532 -0.027973782 0.0032356684 0.07089122 0.010870748 0.044733383 -0.014712331 0.042034168
0.024923405 0.03155707 -0.07090117 -0.004943993 -0.029453127 -0.014507606 -0.013802893 -0.006299756
-0.04399206 -0.11515529 -0.10669738 -0.115738735 0.00065459695 -0.07572494 -0.10015738 -0.058783323
-0.11041319 -0.02884956 -0.050603945 -0.045893524 -0.09536588 -0.081957616 0.030997824 -0.013373783
-0.0181174 0.085783035 -0.04073963 0.0385575 -0.022219503 0.07777123 0.066577174 -0.09059622
-0.0024293826 0.071341656 0.020664487 -0.11209296 0.033710863 0.0707903 0.019063612 -0.025569448
0.01202519 -0.059496064 0.059255872 0.1126979 0.09604671 -0.08922037 -0.023073753 -0.024860896
0.050575502 0.090399474 -0.046221 -0.03486724 0.06559608 -0.004291096 -0.038348794 0.011548076
-0.05093223 0.08704422 0.14704844 -0.07916615 -0.065120384 -0.11709117 0.16888492 0.12657572
-0.017615145 -0.048656084 -0.07861406 0.06775933 0.1461075 -0.082431935 -0.10481572 -0.029170169
0.036227364 -0.042796887 -0.006608076 -0.09744789 0.0859173 0.018324956 0.010554131 -0.018171722
-0.065039836 -0.013146635 -0.15269816 -0.13325699 0.020200538 0.10212176 0.12410539 -0.14089113
-0.077755205 -0.04038053 0.13504152 0.1174186 -0.15449771 -0.025855465 0.060001552 0.078829646
0.05665982 -0.1098526 -0.039915085 0.040454514 0.089513555 -0.063682534 -0.03509709 -0.047513764
0.06398675 0.10516731 -0.03627597 -0.022404674 -0.04883374 0.07397235 -0.036173455 0.07521267
0.06476638 -0.03969692 -0.020246835 -0.0026079167 0.05465818 -0.012634681 0.10921375 0.019770382
-0.09667548 -0.10066478 0.027012784 0.0040200814 -0.053088937 -0.029548254 0.033089004 -0.021986984

conv2.0.bias f4 [16]
00000000: 607c 513b 04cd e53d 2561 503d c8eb 45bd
00000010: 7535 bf3b 822e 083d 3b83 3ebd a1cd b4bd
00000020: ffb2 79bc fc7a b6bd 605d 1bbe 141a 7bbd
00000030: 49a5 c33d 3256 cabd 5f6b a1bd 6d07 2d3e
0.0031965002 0.11220744 0.050873894 -0.04832056 0.00583523 0.03324748 -0.04651187 -0.08828283
-0.01524043 -0.08910176 -0.15172338 -0.061304167 0.0955301 -0.09879722 -0.078818075 0.16897364

fc1.0.weight f4 [120, 400]
00000000: d6b7 2ebd 392e 0bbd 8405 1ebb 3713 2b3d
00000010: 93fa a1bc 3dd1 4b3c dad1 6a3a 4cd1 923c
00000020: e074 d9bc 591e 3c3c e3a8 11bc 1f25 24bd
00000030: 3aae 37bd 2098 173d 66a5 093d 2ed4 21bd
00000040: 9ddb 21bd 2a5a 28bc eb98 133d d97f 01bc
00000050: 04cf 023d 4458 d7bc c969 193d a733 ccb9
00000060: 8ed0 ea3c 4f29 ae3c e3b7 94bb 07c3 d7bb
00000070: 695c e73b 6f28 9e3c 070b 943c 6dad 74bc
00000080: 40d7 c6bc f442 d13b 8c04 22bd c768 dbbc
00000090: 9206 8dbc 1330 9d3c a62c 4bbd d6c2 1c3d
000000a0: b7f0 393d 013b e33a 10f3 e0bc 8c52 5a3c
000000b0: 7469 90bc 9382 013d cd2c 343d 5a12 0dbd
000000c0: b711 b9bc 2299 38bd 2d3b 8fbc 22dd a43c
000000d0: f3c5 303d 6c99 aebc c2a7 9f3c c807 c5bb
000000e0: ebc3 9b3b 402f 0a3d b3eb 3fbc 485d cf3c
000000f0: ef93 723c 78bc 403d 7fc5 1b3d c79b 573b
00000100: 2d30 b63b b34a 5abc 7f07 0a3c f7bf 18bd
00000110: 27fa 263b 5380 c9bb 1cb4 b33c e404 c63c
00000120: b027 19bd 10ec 323d 4490 1c3d b44c e13b
00000130: fb98 65bb fd9a cc3c 503c 39bc c79d 403d
00000140: d676 33bc 60d1 1f3d baa5 e13c 14a8 c8bb
00000150: 132f 47bd 7184 7b3c 63a3 20bc fa00 33bd
00000160: 0fc7 d03b e18c 82bc 0bcb f2bc b791 2d3d
00000170: 016e b93c 6ec7 f038 af88 153c fa5a 07bd
00000180: 6588 abbc dc4b 333d e02d 6f3c e9c1 d53c
00000190: 47ea 1e3b ac2a 43bd 93c2 43bd 9cc8 e8bc
000001a0: 507e 8d3c aca6 26bd a9d5 3c3d 8d01 c8bc
000001b0: 036e 25bd c39a 0e3d 723d c73c 1f35 0e3d
000001c0: d0d6 16bb ed65 2f3b b76e b23a 29dc 25bd
000001d0: edf8 28bd 58d6 03bd 2a0f ac3b 01ee 83bb
000001e0: ceb3 2f3d 6281 013d 9d94 373d b52c 383d
000001f0: 7d04 14bc e775 02bd 34ab cf3c 052f 513a
00000200: 0837 163c 2ec4 26bd 43c6 3e3d 4e03 98bc
00000210: 42be 1f3d 0c41 2fbd 9d7c 7ebc f5a9 43bd
00000220: e657 53bc 7eca 363d 14be 8bbc 2aad 823c
00000230: 7699 2a3c 6464 af3b 3047 ef3c ddab 20bd
00000240: 3fc1 3fbd 242b c0bc cbe4 103d 7c03 36bd
00000250: 170f 21bd 3521 bcba 43bf 44bd a795 37bd
00000260: 89da 11bd 5c78 8b3c 47d6 c33b 5c66 d4bc
00000270: fa1c f73c b40c 2c3d ee34 2abd feec 903c
00000280: 3041 2e3c 217d 34bd 824f 3d3d f314 27bd
00000290: a122 e8bc d768 083d e924 583a b76f c9bc
000002a0: 8265 573c 5f22 92ba a83c de3c 1947 d7bc
000002b0: d5b5 f8bc 2ca3 f83c 7209 773c 65ba a2bc
000002c0: d079 40bd 1d9c fbbc 214e 613c 479f bdbc
000002d0: 8130 1e3d f296 1abc 25d6 0dbc 0a64 b33c
000002e0: 7391 f93b c329 2e3d b3ec 0c3d ca75 44bd
000002f0: 8951 a73c 3480 d93b 87f1 85bc 3a7a db3c
00000300: 6436 26bd b2e4 c93b 13e9 c8bb 6817 44bd
00000310: 75da f83c 3be5 4ebd e3c2 443c 5e6a bdbc
00000320: 68b1 2cbd ab91 edbb 66c3 aabc c908 3bbd
00000330: 31f0 46bd dfae 56bc adad 343d c7a0 31bd
00000340: f0b5 403d a361 33bd cd03 b4bc 7ff9 90bc
00000350: 6dae 1c3b 9924 f7bc 5dfd b73b fc12 c7bb
00000360: 3a4a 053d 7f9f 2fbd f917 f3ba 44b5 063c
00000370: f8a6 43bd ce8a 083d 3c24 093c d35b 003d
00000380: 9dcb debc 90db dcbc 8dfc 2bbd 0be0 393d
00000390: 93b4 3bbd 40b5 44bb debe a33c b2d3 b2bc
000003a0: 821e 34bc d7ef b83c 7c9e 9f3c 640c 7f3c
000003b0: 140f e1ba 8636 003d c282 dcbc 39d3 8cbc
000003c0: 5dc8 37bc beb8 44bd 8199 7e3c 3afc db3b
000003d0: 1546 8dbb 7714 f1bc 1d3a bebc 1b8f 0cbd
000003e0: 3cc0 cbbc e9e7 ffbb 3f60 f6b9 e033 023a
000003f0: 5072 593c 6df5 d83c 8027 843c 1c1f c83c
-0.04265579 -0.03397963 -0.0024112174 0.04176637 -0.019772803 0.012440023 0.0008957662 0.017922066
-0.026544988 0.011481845 -0.008890363 -0.040074464 -0.04484389 0.037010312 0.033605002 -0.03950899
-0.03951608 -0.010275403 0.036034506 -0.007904016 0.031935707 -0.026287206 0.0374544 -0.00038948396
0.0286639 0.021259932 -0.0045385226 -0.0065845284 0.0070605767 0.01930639 0.018071664 -0.014933926
-0.024272561 0.0063861553 -0.039555117 -0.02678336 -0.017215047 0.019187963 -0.049603127 0.038271748
0.04539558 0.001733631 -0.027459651 0.013325345 -0.017628409 0.031618666 0.043988038 -0.03444133
-0.022591455 -0.045067914 -0.017484272 0.020124976 0.04315753 -0.021313392 0.019489173 -0.0060128905
0.00475358 0.033736467 -0.01171391 0.025313035 0.014805778 0.047054738 0.038030144 0.0032899247
0.005559942 -0.013323474 0.008424639 -0.037292447 0.0025478692 -0.0061493306 0.021936469 0.024172254
-0.037391365 0.043682158 0.03822352 0.006875599 -0.003503381 0.024976248 -0.0113058835 0.04702547
-0.010953626 0.039018035 0.027544845 -0.006123552 -0.048628878 0.015351401 -0.009804579 -0.043702103
0.006371386 -0.015936317 -0.029637834 0.042375293 0.022635462 0.000114812385 0.009126826 -0.033045746
-0.020939061 0.043773517 0.01459834 0.02609344 0.0024248527 -0.047648117 -0.047792982 -0.02841597
0.017272145 -0.040686294 0.0461022 -0.024414802 -0.04038812 0.03481556 0.024321292 0.03471863
-0.0023016222 0.0026763633 0.0013613318 -0.040493164 -0.04125302 -0.032186836 0.005250831 -0.004026175
0.042896084 0.03161753 0.044819463 0.04496451 -0.009034273 -0.03185072 0.02535019 0.0007979724
0.009168394 -0.040714435 0.046575796 -0.018556263 0.038999803 -0.042786643 -0.01553264 -0.047769506
-0.012899375 0.044626705 -0.01705841 0.015951712 0.0104125645 0.0053525437 0.02920875 -0.0392264
-0.046815153 -0.023458071 0.035374444 -0.044436917 -0.03932103 -0.0014353158 -0.048033964 -0.044820454
-0.035608802 0.017025165 0.0059764716 -0.025927715 0.030165184 0.042004302 -0.041554384 0.017691132
0.010635659 -0.044064645 0.046218403 -0.040791463 -0.028336825 0.033303108 0.0008245246 -0.024589403
0.01314676 -0.0011149159 0.027128533 -0.02627902 -0.030360142 0.030351244 0.0150779355 -0.01986427
-0.04699117 -0.030714089 0.013751538 -0.023147238 0.038620476 -0.009435402 -0.008657013 0.021898288
0.007616216 0.042520296 0.03440542 -0.047963895 0.020424621 0.0066375975 -0.01635052 0.02679168
-0.040579215 0.006161296 -0.0061313002 -0.047873884 0.030377606 -0.05051158 0.012009355 -0.023122009
-0.042161375 -0.007250031 -0.020845126 -0.045662675 -0.048568908 -0.013103216 0.044110943 -0.04336622
0.04704851 -0.043794286 -0.021974469 -0.017697094 0.0023907677 -0.030168818 0.00561492 -0.006075261
0.03254149 -0.042876717 -0.0018546573 0.008221928 -0.047766656 0.0333355 0.008370455 0.03133757
-0.0271967 -0.026960164 -0.041988898 0.04537968 -0.045826506 -0.003001526 0.019988474 -0.02182946
-0.010993602 0.022575302 0.01948475 0.015566919 -0.0017170631 0.031301998 -0.026917819 -0.017190563
-0.011217204 -0.048027746 0.015539528 0.0067134174 -0.004311333 -0.029428704 -0.02322107 -0.034316164
-0.024871938 -0.0078096283 -0.00046992485 0.00049668364 0.013271883 0.026484216 0.016132116 0.024428897

fc1.0.bias f4 [120]
00000000: c722 0dbc d05a 0a3d 943b b93b b3f3 ea3c
00000010: 5501 da3c 26fe 64bc cd50 16bd 0498 393c
00000020: c7dd 0abd d568 1d3d e458 323c 2b05 34bd
00000030: 6ac9 6fbc db2b cf3c aa55 34bd acf9 5d3c
00000040: 9efd 213d 3f0a 41bc 5b80 4e3d 0945 e4bb
00000050: 749e e33b 50ba b13c abfe 923c 7121 423c
00000060: ec4d 9bba 946f 543d 6096 4dbb 7ad5 e0bc
00000070: 1b05 d5bc 1551 ddbc 6118 e3bc ac14 dd3a
00000080: e5b7 06bd 9e69 10bc b1b8 ebba 5cc1 183d
00000090: e067 353d 85d7 12bd 5645 52bd b3b9 3cbc
000000a0: 336a cebc 4657 3cbb 0abd 9ebc 388d 5d3b
000000b0: 8193 bfbb 0b5c 45bd e077 12bd 1755 153c
000000c0: 55d6 a33b 3c03 103d 6393 62bd 0f44 3cbc
000000d0: 84bd a3bd d2d5 1fbd 0010 f33c 9409 b9bb
000000e0: 127d cabc e198 433d 83d7 2dbd a98e 8bbb
000000f0: bd62 983c fbe5 443d 20a1 07bd 0440 32bd
00000100: 604e c23b c832 ea3c 6442 393d 955f e4bc
00000110: 5da5 29bd 3d1e 66bd 8c7f 0a3d 9eac ae3c
00000120: a28b 47bd 7770 84bc 997b 88bc 0ff2 8abd
00000130: f5e9 093d c8b7 8bbc 487d b83c de53 e6bc
00000140: b0a2 e4b9 b943 58bc cfd3 0a3d cca6 d43b
00000150: 0cca 2a3d 6300 d73c 5c0d 013d 55a1 1d3d
00000160: 70e2 923c 26db 8fbc 0b3a c73c 8a65 a03c
00000170: 58d2 e1bc 8a11 9a3c 7c86 eb3b b80d b3bc
00000180: e4eb 3f3d 7498 763c 1dfd 65bc 4c62 3bbb
00000190: be1c 6bbb e46d bbbc 55b0 29bc 5ae4 9d3d
000001a0: a51b d2bc 31cd 933d 7eff e43c f111 35bd
000001b0: 2f03 99bc fa0d 79bb 697d 1c3b aac2 8fbc
000001c0: b6b0 19bd 5f6a 13bc d534 d9bc 90dd c93c
000001d0: 1f1a f1bc 4cce 54bc a476 25bd 41bf 023d
-0.008614249 0.03377801 0.005652854 0.028680658 0.026611963 -0.013976609 -0.03669815 0.011327747
-0.03390291 0.038430054 0.010885451 -0.04395024 -0.014635423 0.025289467 -0.044027008 0.013548296
0.03954851 -0.011782228 0.050415378 -0.0069662374 0.0069463793 0.021695286 0.0179437 0.011848793
-0.0011848784 0.05186422 -0.0031370148 -0.027445544 -0.026003411 -0.027016202 -0.027721586 0.0016867123
-0.03289022 -0.008814244 -0.001798412 0.037293777 0.044288516 -0.035850067 -0.051335655 -0.0115188835
-0.025197124 -0.0028738542 -0.01937725 0.0033806097 -0.0058464413 -0.048183482 -0.035758853 0.009114525
0.0049999156 0.035159335 -0.05531634 -0.011490836 -0.079951316 -0.039022274 0.029670715 -0.0056468938
-0.024717841 0.04775322 -0.042441856 -0.00425895 0.01860177 0.04807089 -0.033112645 -0.04351808
0.005929753 0.028588668 0.04522933 -0.027877608 -0.04141747 -0.05618118 0.033813044 0.021322545
-0.04871715 -0.016166909 -0.016660498 -0.0678445 0.033670384 -0.017055407 0.022520676 -0.028116163
-0.0004360876 -0.01319974 0.033893403 0.0064896103 0.041696593 0.026245302 0.03150688 0.038483936
0.01793024 -0.017560553 0.02431967 0.019579668 -0.02756612 0.018807191 0.0071876626 -0.021857128
0.046855822 0.015050996 -0.014037398 -0.0028592525 -0.0035875286 -0.022879548 -0.010356982 0.0770957
-0.025647948 0.072168715 0.02795386 -0.044206563 -0.018678276 -0.0038002715 0.0023878461 -0.017548878
-0.03752204 -0.008997529 -0.02651445 0.024641782 -0.0294314 -0.012988638 -0.040396348 0.031920675

fc2.0.weight f4 [84, 120]
00000000: db31 503d f9ec ffbb e724 323d 0cac a9bd
00000010: fd24 0dbd fb19 8dbd 5208 a43d f38e 4f3d
00000020: 02a1 d9bc ac18 a0bd f2a8 233d 78ce 823d
00000030: 65bb 8b3d 9180 663d bf8f 8a3d 2fdf 89bb
00000040: b060 c53c 8a53 25bd e9c2 27b9 d7d4 653d
00000050: 45d8 a93c 573b 6dbd 8d5a c3bd 5eac b4bd
00000060: 442d 8dbd b410 b33c a286 763d 37fa 173d
00000070: 2b82 36bd dc21 823c b5c0 d2bd c438 ac3d
00000080: 67a8 23bc d3e6 72bd c6aa 943d cd8b d4bc
00000090: 580e 9f3d b8e3 a93b e475 aabd b6c0 27bd
000000a0: b80c 6d3d cc18 bfbc 373a 903d a048 6ebd
000000b0: 8d1a c73d 9433 883d c910 e7b9 0834 8d3d
000000c0: 15bd 5b3d 4191 b93d 8845 aa3d 0dc5 173d
000000d0: 5067 4abd acd3 7abd a822 b9bc e423 90bd
000000e0: 3834 113c 0349 8f3d abdd 723d 0360 6ebc
000000f0: 9ee2 a23d 87ce 403d d760 5c3d 3fe3 bfbc
00000100: 6c04 4a3c 7e73 babd bc76 373d 3efa 023d
00000110: 163f 00be 90f5 8f3b 78e6 663d 642f 40bd
00000120: 3931 95bd e6d8 00bd 0d72 d1bd 9fa8 9a3d
00000130: 05df d7bc 31d1 113d 61b9 1d3c 0cdf 033d
00000140: 6835 53bb 754c 96bd 5bba 82bc a572 183d
00000150: 4545 83bd 2240 f53c b8c2 15bc b458 103e
00000160: 0f10 b73d 00b1 bd3d 538d b93d 1f7b 51bd
00000170: df00 34bd 2797 b13d 73a4 56bc e32d 423d
00000180: 8078 c1bd 21d7 e7bd 0e02 923d 790e 8a3d
00000190: 505d 24bd 0d17 cd3b 643c 053d d964 59bc
000001a0: 4398 efbc 8c51 e9bc 9081 e53d be16 da3b
000001b0: 41c4 3cbd 24aa 4b3c 970e b8bd d9cd 4d3d
000001c0: bc14 6d3d cebe af3d 3558 2cbd fbfd 883d
000001d0: 9e80 00bd 1bb6 863d becc b43d b327 9f3b
000001e0: 91cf ff3c edce 4bbb e36d 01bd ed19 febc
000001f0: 6a66 793d 48dd 603d 62f7 c73c 3c76 8b3d
00000200: a811 8cbd 5190 abbd 372d 433d d36e 043d
00000210: 3db2 56bd 85f9 5d3c a1c6 ac3c 2886 54bd
00000220: 949b d13c e768 a5bc 9cc0 30ba 7046 95bc
00000230: b963 48bd 0254 893d 2006 dcbc 3099 a53c
00000240: 7f6f e13a 0634 433b 3337 febc 630d edbc
00000250: 7cda 15bc f6db b3b9 bedb a73d 6f50 5abc
00000260: 8641 f83c 3aa1 f53c ed61 8ebd 309c 59bd
00000270: 149d e2bc ebcb 073d 3b69 b4bd 1d0d 74bd
00000280: c8c3 b7bd 53d5 a83b 5d4d b2bc 6676 debb
00000290: d4a5 a8bc 19bb 463d c483 e73c 5b3f 323d
000002a0: e246 c73c 043a 35bc 5ebf 13bd 98af 993c
000002b0: 5827 3f3d eff4 993d bb9b 55bd 34ef b03d
000002c0: 642f 99bd b8d5 843d 737e 943d 781f acbc
000002d0: d102 b73c fd67 b0bc af76 903d 8b01 57bc
000002e0: 5bf6 5c3d 7e97 9d3d 2e76 97ba 4ec3 183d
000002f0: f332 b4bd 4dc0 6bbd a43b b2bd 8061 ba3c
00000300: e2e9 913d c149 a73d 5c1c a5bd 8bba a93d
00000310: f1df 8f3d 4c15 993d b539 13bc af6a 543d
00000320: c637 7d3d c869 2dbd 69e7 21bc b00c 37bc
00000330: 2ba5 eabc 1282 35bd 800a 4c3d e1e9 c13c
00000340: e69b b0bc 97aa 223d cf60 af3d 55b7 85bd
00000350: 9f5f 91bd 8a65 a63c d9d7 56bd 8c91 90bd
00000360: 6fbd 5bbd b2d9 9c3d a758 4ebc 1364 2bbd
00000370: 7d75 6fbd 7126 8bbc 2e34 cfbd 6ddb a53d
00000380: a2b9 9dbd a521 84bd 88d0 a8bd cb94 ba3b
00000390: e1de 9b3d 5521 9b3d 630e b3bd 56c0 b6bd
000003a0: 90c8 e4bc bda0 6abd f2e3 b23c f838 89ba
000003b0: 8796 523a 8131 f03c b886 7c3d 824f 0f3c
000003c0: b468 a23d d710 333d 15e2 543d 3da8 c7bc
000003d0: 8b8b ca3c 3b58 41bd 1275 82bd 1b52 0dbd
000003e0: 574d 7d3d 4d1a b9bd c2fd 023c 0671 9abd
000003f0: fd33 74bd c79b 9e3d e15f 353c 603f a8bd
0.050828796 -0.0078102318 0.043492224 -0.082847685 -0.034459103 -0.06889721 0.080093995 0.050673436
-0.026566032 -0.07817206 0.03995604 0.06387037 0.06822852 0.056274954 0.06765699 -0.0042075138
0.024093956 -0.040362872 -0.00015998971 0.056111183 0.020733008 -0.05791792 -0.095387556 -0.08821939
-0.06893399 0.02185855 0.06018699 0.037103858 -0.04455773 0.015885286 -0.10290662 0.08409265
-0.009988881 -0.059302162 0.07259135 -0.025945568 0.07766408 0.005184617 -0.08323267 -0.040955268
0.057873458 -0.023327254 0.070423536 -0.05817473 0.09721861 0.06650463 -0.0004407226 0.0689469
0.05364712 0.09060908 0.08314043 0.037053157 -0.049414933 -0.061237022 -0.022599533 -0.070380956
0.008862548 0.06996348 0.05929343 -0.014549258 0.0795338 0.04707196 0.05380329 -0.02342379
0.012330156 -0.0910406 0.04479097 0.03197693 -0.12524065 0.004393287 0.056372136 -0.046920195
-0.07284779 -0.03145685 -0.102268316 0.07551693 -0.026351461 0.03559989 0.009626717 0.032195136
-0.0032227878 -0.07338802 -0.015958002 0.03721871 -0.064096965 0.029937807 -0.009140663 0.14096338
0.0893861 0.09262276 0.090601586 -0.051142808 -0.043946143 0.08671408 -0.013100731 0.047407042
-0.09446812 -0.113203295 0.07129298 0.06741042 -0.040128052 0.0062588514 0.032528296 -0.013268673
-0.029247409 -0.028481267 0.11206353 0.006655543 -0.0460856 0.012430701 -0.08987158 0.05024514
0.057881102 0.08581315 -0.04207631 0.06689068 -0.03137266 0.065777026 0.08828114 0.0048570274
0.031226905 -0.003109868 -0.031598937 -0.031018222 0.060888685 0.05489853 0.024409954 0.06809661
-0.06839305 -0.083771355 0.047650542 0.032332253 -0.052416075 0.01354826 0.021090807 -0.051885754
0.02558688 -0.020191623 -0.0006742568 -0.018222064 -0.048923228 0.06705476 -0.02685839 0.020214647
0.0017199366 0.0029785647 -0.03103218 -0.028937047 -0.009146329 -0.00034305424 0.08196209 -0.013324841
0.030304682 0.029984105 -0.069522716 -0.053127468 -0.027662791 0.033153456 -0.088091336 -0.05958282
-0.08972889 0.0051523834 -0.021765405 -0.0067890165 -0.020586886 0.048518274 0.028261073 0.04351745
0.024325792 -0.011061195 -0.036071174 0.018760487 0.04666838 0.075174205 -0.05215047 0.086393744
-0.07479742 0.06486076 0.07250681 -0.0210111 0.02234021 -0.02153396 0.07053887 -0.0131229265
0.05394588 0.076949105 -0.0011555606 0.037295632 -0.0879878 -0.05755644 -0.08702782 0.02275157
0.07124688 0.08168364 -0.0806205 0.082875334 0.07025135 0.07474765 -0.008985926 0.051859554
0.061820768 -0.04233721 -0.009881833 -0.0111724585 -0.028643211 -0.044313498 0.0498147 0.023671092
-0.021558713 0.03971347 0.08563387 -0.065291084 -0.070983164 0.02031209 -0.052451942 -0.07059011
-0.053647455 0.076587096 -0.012594379 -0.041843485 -0.058461655 -0.016986104 -0.10117374 0.08098493
-0.07701422 -0.0645173 -0.08242899 0.005694007 0.0761087 0.07574717 -0.087429784 -0.08923404
-0.027927667 -0.0572822 0.021837208 -0.0010469249 0.00080332946 0.02932048 0.061651915 0.0087469835
0.07930127 0.04371723 0.05197342 -0.024372214 0.024724742 -0.047203284 -0.06369986 -0.03450213
0.061841335 -0.090382196 0.007995071 -0.07541089 -0.059619892 0.07744556 0.011070223 -0.08215213

fc2.0.bias f4 [84]
00000000: c2f0 603d 19c8 8fbd f481 c8bd d8e3 343d
00000010: 61eb 65bd b33e 373c 8a78 99bd 43a3 d63d
00000020: 2baa 0bbc 7940 bf3c d8ae 653e 1bce f2bd
00000030: 9a5d 8cbd 9c78 33bc ef7a d73c baec dcbb
00000040: 9cf1 813a 45a7 80bb d676 1dbd 1b05 ea3d
00000050: 031d 78b9 fff0 573c d579 963d 23d3 70bd
00000060: 08ef 8e3d 8de6 c5bd da03 89bd 8787 a33d
00000070: f56c e13b e5a4 fa3b 42ad 703d 18a2 a83d
00000080: 6d5c a63b 78e6 9039 f0c5 1bbc 70f8 983d
00000090: 3343 dcbc 567a 2bbd ed99 7ebd 485b a7bd
000000a0: 5f82 8abc a3e6 443d d260 2cbd bd73 9fbd
000000b0: 520a b8bd 0e3b 0e3d a36d 553d e1e4 ba3d
000000c0: 74ed a8bd 8e71 7c3d e4c3 3a3d 86ae 2c3d
000000d0: 69ae 643d 185a 9fbd e1dd 8c3d 61ad d33d
000000e0: a65c 773c 0087 acbd fd3d 9d3d dd50 09bd
000000f0: a095 4f3e b97b 963d c524 eebd 9971 a03d
00000100: 26af 01bc 1ca1 333e 0e15 08bd f255 06bd
00000110: dfba 3b3d a95d 40bd 4f2a cd3c 4df5 a1bd
00000120: b9e5 fd3c fa11 eabd 82de b7bb 95c6 53bc
00000130: 425c d83d cfe2 8cbd cc40 8c3b d2d6 7a39
00000140: 1824 65bd d12b 23bd a043 4d3c 14e4 b4bd
0.054917105 -0.070205875 -0.097904116 0.0441626 -0.056132678 0.011184382 -0.07493694 0.104803585
-0.008524458 0.023346173 0.22429979 -0.11855718 -0.068537906 -0.0109540485 0.026303736 -0.006742087
0.0009913924 -0.00392619 -0.03844341 0.11426755 -0.00023661931 0.013180017 0.07347456 -0.058795106
0.06979185 -0.09663115 -0.06690188 0.07984834 0.006879444 0.0076490515 0.05875898 0.08234042
0.005076936 0.00027637533 -0.009507641 0.07469261 -0.026887512 -0.041864716 -0.062158514 -0.081717074
-0.016907869 0.048071515 -0.042084523 -0.07785747 -0.089863434 0.034724288 0.05210651 0.091256864
-0.082484156 0.06163173 0.045596972 0.042158626 0.055830393 -0.07780856 0.068782575 0.10335804
0.015097773 -0.08424187 0.07677839 -0.033524383 0.20271921 0.07347817 -0.11628107 0.07834167
-0.007915294 0.17541927 -0.033223204 -0.032796808 0.04583251 -0.04696432 0.025044588 -0.079081155
0.03099333 -0.1142921 -0.005611242 -0.012925764 0.10564472 -0.06879198 0.0042801853 0.00023921885
-0.055942625 -0.03983671 0.01252833 -0.08832565

fc3.weight f4 [10, 84]
00000000: 6994 56bc 7f10 02bd 5477 a9bd e5a6 31bd
00000010: 0042 aebc b372 083e a94a 113e f5a0 5f3d
00000020: e72e c93d 746f 49be aa0b 0dbe 68cc 61bc
00000030: 0524 13ba c953 1c3e 238f 413d a7a1 053d
00000040: 48eb 3d3d dcc4 3a3d 1e56 013e 37ba 523b
00000050: 8d2a 533e 3387 c53d f49a 70bd 2497 883d
00000060: 1265 fbbd f7f5 c43d aafb af3d e7f4 f2bc
00000070: 219f 143e 3263 88bd 1438 a7bd 789e f93d
00000080: ce00 dfbd a94c 8f3c 40de 563d f362 10be
00000090: 401e 623e b856 333e 3586 5dbd 9e1f 8abd
000000a0: 1e59 e63c d809 dbbd 5da2 af3c efd4 aebc
000000b0: 6132 9fbd 08df b6bd d8ce 36bd 4429 aebc
000000c0: 184e d6bd d05d 963d 1f9f 2f3e cc64 d0bd
000000d0: 86d9 b23d 6aaf 98bd 42d6 113e a05d c73d
000000e0: ab7d b63c dce6 80bd 1f7c c73d b325 443e
000000f0: f18e 06bd 875a b03c 4c16 843d 3721 663c
00000100: b6e6 c63d 5928 dbbd 6cd9 a6ba ef46 943d
00000110: 3ded 20be 1bfe 613d 008a 06be 71f5 5a3d
00000120: a404 a53c 1a77 1b3e 95ed 2e3d c811 97bc
00000130: dd53 c53d 36a9 fd3d 331b c1bd b5c7 c43d
00000140: 105e 51bd b36d 36bd 6e06 6abd ff90 af3d
00000150: 1ab2 193d 9b30 ad3d e77d 853d 0f8b 353e
00000160: 5fc6 9a3e ee7f fe3b fd7e 343d 822d b0bd
00000170: 02fd 953b 95d3 263c c3c3 76be 6635 b53d
00000180: e160 adbd bc3b 06be 2a04 8abd b3ce e93d
00000190: 7831 19bd 8281 e6bc d831 9e3c edd3 55be
000001a0: be0c 3a3c 2443 f93b 7103 3b3d e1e5 a2bc
000001b0: 6cc2 393e a1d1 c33d 87b3 df3d cbbc 773c
000001c0: f8af a53d 8519 093d 631c a03d 3d30 d2bd
000001d0: 1bdd fc3c e8b1 b93d 29d2 8d3d e019 323e
000001e0: 2a2b d8bc 09c8 58be d73c a23b 074f 6bbd
000001f0: 4168 903d e3e3 d63d 7314 3ebd c79c 8e3d
00000200: 1b42 03be 32b4 50bc 834f bebc 132e 1bbe
00000210: 29ec 5fbd a987 e4bc eef3 76bd 11f4 0c3d
00000220: ede8 a4bd 1c74 cdbd 5c81 f6bd 6180 41ba
00000230: f2ec 943d f56c ffbc 37e9 8bbb 532f bdbd
00000240: 935b 33be 82d3 aabd 639e c43d 6aef b3bd
00000250: 7510 d7bd fa85 aabe 120c d1bd 654d acbc
00000260: 5de9 0a3e d9c5 873d ab44 80bd d10c 6e3d
00000270: b8f4 253e f5a6 9b3c 757b 6abd c6b8 003e
00000280: 8bd2 19be cbe5 033e c038 12bb f705 7a3d
00000290: 5193 bcbd 6064 0cbd bf38 09bd 9ee1 a3bc
000002a0: 6aa8 57bd 9e85 9dbc 499a a8bc 0844 5bbd
000002b0: 13e0 1abe 9e31 fd3d aaf0 3b3e 2838 3f3e
000002c0: 8a18 8abd 8a57 c5bd 67ef 293e 899e bfbd
000002d0: f3a4 19bd 85e5 00bd c90b 7bbd 1381 86bd
000002e0: c451 5c3d c196 9fbd bc87 773d 4b54 8c3e
000002f0: 59a6 fb3d 88d1 c43c 0b00 40bd cac8 62bd
00000300: 8392 953d f563 69bc 8403 e3bd f3fb 103d
00000310: de8a df3d 62a5 cd3d ec7a 563d 3313 cb3b
00000320: 52ce d8bd aa96 ad3d 7f7d 243e a924 2e3e
00000330: dda9 02bd c922 e13c b1de cb3c 2776 3e3c
00000340: 4b11 a43c 8f0c 4ebd db43 1b3e bb83 81bd
00000350: c6fa 0bbe 53d5 3cbe b8e6 21bc 65a2 853e
00000360: 0b81 ebbc b1dd 41bd acf9 df3b 8f7b 953d
00000370: 2f70 10bd 92ce 0dbd 6546 c3bd e312 df3d
00000380: 0fdb 773d 6973 8dbd 0de2 f43d d718 4e3d
00000390: 6701 2a3e ce72 6d3c b624 15be 34f7 f5bd
000003a0: e5fc d4bc ed92 0f3e f4bc d73d 1b4b 73bd
000003b0: e16c 213e 7deb 12be 66c7 32bd 4bf8 a43d
000003c0: 8e76 bcbd 3bd4 47bd 4601 abbd df9d d2bc
000003d0: 0945 093e 1edc 9c3d e450 a1bd be63 a9bc
000003e0: a75a a1bd 574d ed3d 73af 03bd 2a4a 213e
000003f0: 12f2 c6bd eff9 0bbd e233 633d f479 8cbc
-0.013096907 -0.031754013 -0.08274713 -0.043372054 -0.021271706 0.13325004 0.14188637 0.05459686
0.09823399 -0.19671422 -0.1377398 -0.013781644 -0.00056129723 0.15266337 0.047255646 0.032624867
0.04636696 0.045597896 0.12630507 0.003215445 0.206217 0.09644928 -0.058741525 0.06669453
-0.12275137 0.096172266 0.08592923 -0.029657794 0.14513828 -0.06659545 -0.08164993 0.12188429
-0.10888825 0.01749261 0.052458048 -0.14100246 0.22081852 0.1751355 -0.054083068 -0.06744312
0.028118666 -0.10695237 0.021439726 -0.021341769 -0.07773281 -0.089292586 -0.044630855 -0.021259911
-0.10464114 0.07342112 0.17150544 -0.101754755 0.087328956 -0.074553326 0.14241889 0.097346544
0.02227672 -0.06294033 0.09740471 0.19155006 -0.032851163 0.021527542 0.06449565 0.014046005
0.09711973 -0.10701055 -0.0012729592 0.07240092 -0.15715499 0.055173974 -0.1313858 0.053456727
0.020143814 0.15182152 0.042707045 -0.018441096 0.09635136 0.1238579 -0.09429016 0.096084036
-0.051115096 -0.04453821 -0.057135038 0.08572578 0.037523367 0.084565364 0.065181546 0.17728828
0.3022947 0.0077667153 0.044066418 -0.0860243 0.00457728 0.010182281 -0.24098115 0.088480756
-0.08465744 -0.13108724 -0.067390755 0.11416378 -0.037400693 -0.028137926 0.019310877 -0.20881625
0.011355577 0.0076068807 0.04565758 -0.019885005 0.18140572 0.09561468 0.10922914 0.015120695
0.08090204 0.033471603 0.07817914 -0.10263107 0.03086715 0.09067136 0.069248505 0.17392683
-0.02638777 -0.21170057 0.0049511003 -0.057448413 0.07051135 0.10492685 -0.04640622 0.06963497
-0.12818186 -0.012738274 -0.023231274 -0.15154295 -0.05466858 -0.027896719 -0.060291223 0.034412447
-0.080522396 -0.10031912 -0.12036392 -0.00073814957 0.07271756 -0.031179884 -0.0042697447 -0.09237542
-0.17515402 -0.08341123 0.09600522 -0.08785899 -0.10501186 -0.3330534 -0.1020738 -0.021032998
0.13565584 0.06629533 -0.062630974 0.05811769 0.16206634 0.01900051 -0.057246644 0.12570485
-0.15021722 0.12880628 -0.0022311658 0.061040845 -0.09207786 -0.034275413 -0.033501383 -0.020005044
-0.052650847 -0.019228753 -0.020581381 -0.053531677 -0.1512454 0.12362979 0.18353525 0.18673766
-0.06742962 -0.096358374 0.16595231 -0.0935641 -0.037510823 -0.031468887 -0.061290536 -0.06567588
0.053788915 -0.07792426 0.06043218 0.2740806 0.12287588 0.024025694 -0.04687504 -0.05536727
0.073033355 -0.014245023 -0.11084655 0.035396527 0.10915159 0.1004131 0.05236332 0.006197357
-0.105862275 0.084760025 0.16063498 0.17006172 -0.031900275 0.027482407 0.024886461 0.011624849
0.020027777 -0.050304946 0.15162604 -0.06323954 -0.13669881 -0.18440752 -0.009881668 0.2610046
-0.028748056 -0.047330562 0.006835183 0.072989576 -0.035263237 -0.03462083 -0.09534911 0.10892274
0.060511645 -0.06906778 0.11957178 0.050316658 0.16602097 0.014492704 -0.14564785 -0.12010041
-0.025999496 0.14020891 0.10534087 -0.059397798 0.1576419 -0.14347644 -0.043647192 0.080551706
-0.092023 -0.048786383 -0.08349852 -0.025710044 0.13405241 0.076591715 -0.07876757 -0.020677444
-0.07878619 0.11587017 -0.032149743 0.15750948 -0.0971414 -0.034173902 0.0554694 -0.017147996

fc3.bias f4 [10]
00000000: a8d9 49be 7ad2 65be 4bfc 023e ff4b f13a
00000010: 5238 4d3e e159 943c 6631 343e f86e 7bbd
00000020: 80fb 5abe d561 13be
-0.19711936 -0.22443572 0.12791555 0.001840949 0.20041016 0.018109264 0.17596969 -0.061385125
-0.21385002 -0.14392789
