checkpoint/best_LeNet5_hardtanh_quantized_4_bits.ckpt (torch, 274896 bytes, 19 tensors)

conv1.0.weight f4 [6, 3, 5, 5]
0.0386836 0.12499038 0.008681402 0.08566249 -0.08033634 -0.026053585 -0.010937243 0.0739519
0.02638867 0.07266488 0.11839156 0.06279759 0.036236998 -0.011468359 0.10565515 -0.091552906
0.020115728 -0.06193707 0.13453236 0.08020175 0.09478607 0.07819127 0.09832104 -0.07774595
0.13998778 -0.024028726 0.056315273 -0.06969249 0.046095278 0.0906359 -0.057471793 0.096104786
0.016545653 0.06911825 0.073544815 -0.045409113 -0.044524986 0.10490112 -0.09193882 0.024762461
-0.010204654 -0.005706015 -0.0277069 0.026453061 0.02587513 -0.0605636 -0.0664876 0.12155323
-0.015414185 -0.035142135 -0.027262961 -0.12334156 -0.12039267 -0.10363899 -0.12995763 -0.015723664
-0.055524692 -0.06897406 -0.07861448 -0.038966555 -0.12189368 -0.044571236 -0.013967711 -0.017611204
0.013307912 -0.03537691 -0.08131111 0.042714845 -0.05873762 -0.09391157 -0.07844448 -0.06872763
-0.09890134 -0.064663336 -0.097888246 0.08855308 -0.11455744 0.023725707 -0.086830124 0.043346327
-0.049876176 0.108009316 0.10260365 -0.04078839 -0.020718172 0.0027411256 0.09067297 -0.006562275
-0.07410966 -0.059070762 0.0026241739 0.0059045255 0.033659257 -0.11135702 -0.110611744 0.09202072
0.07756894 -0.094735906 -0.081207514 0.04384037 -0.043481696 0.07204368 -0.04570269 -0.0773215
0.10217153 -0.028429361 -0.09990107 0.044945683 0.058537148 -0.001088226 -0.014703756 0.064693846
0.096888006 -0.07012406 0.0437785 -0.045318518 -0.066748835 -0.0913524 0.09707422 0.11520884
-0.0121549545 0.032639448 0.04154276 -0.077614404 0.081807666 -0.13865493 0.019040532 -0.08268923
-0.053779688 0.045819096 -0.08651177 -0.034527913 -0.02891719 -0.057213183 -0.025301991 0.08314893
0.08591964 -0.096570425 0.03887499 -0.13830808 -0.069917664 -0.019684572 -0.044087756 -0.06482755
-0.11203332 0.022265634 -0.09015307 -0.011801624 -0.036324427 0.024603551 -0.074552864 -0.0030332995
-0.08745901 0.048161715 -0.04685419 0.06462503 0.1019801 -0.08171674 -0.09925564 0.00424354
0.092350565 -0.0955956 -0.071822315 -0.07303127 -0.004729177 0.056925368 -0.089688145 -0.0031318853
0.08002221 -0.03824604 -0.020349972 -0.053305008 -0.05958691 -0.06095622 -0.050033312 0.049302254
-0.011712156 -0.028441194 -0.0148587115 0.099294424 -0.11837606 0.0011116903 0.07758224 -0.08032744
-0.11929505 -0.048802145 0.08295536 -0.031411827 0.02459118 -0.10017329 -0.080855384 -0.12387609
0.03431546 0.03220596 0.08222532 -0.11987782 -0.12363423 -0.066483684 -0.009663995 -0.09804671
0.0060489913 -0.055934086 0.009818763 -0.013606025 -0.076285936 0.01847539 0.037089568 -0.0015489454
0.0743295 0.06273584 0.074305944 0.07846609 0.057076618 0.114439376 0.02225715 0.08010339
0.052233666 0.04354947 -0.06799241 -0.032318834 0.11719211 -0.039379533 0.10053649 -0.086638786
-0.045182273 -0.09824303 -0.101868644 -0.06230836 0.005558141 -0.06858305 -0.0050147926 0.07230605
0.018231882 -0.058181375 -0.09019104 0.07758031 -0.0498168 -0.099022925 0.01363541 0.03329741
-0.032081414 -0.091886334 0.0039812373 6.3726446e-05 0.05659475 -0.066680364 0.0017024177 -0.065651
0.09863136 -0.11635835 -0.058663495 0.051351514 0.088818915 -0.01112978 -0.015044926 0.028902197
00000000: b272 1e3d f5fa ff3d 703c 0e3c d16f af3d
00000010: 6187 a4bd 546e d5bc 1f32 33bc 1874 973d
00000020: 0d2d d83c 53d1 943d 4677 f23d 069c 803d
00000030: 3f6d 143d c9e5 3bbc ba61 d83d 1780 bbbd
00000040: bdc9 a43c bab1 7dbd dac2 093e d140 a43d
00000050: 331f c23d bf22 a03d 8b5c c93d 4539 9fbd
00000060: f558 0f3e e4d7 c4bc d8aa 663d f0ba 8ebd
00000070: 67ce 3c3d 519f b93d 8b67 6bbd 96d2 c43d
00000080: c08a 873c de8d 8d3d aa9e 963d e8fe 39bd
00000090: d55f 36bd 66d6 d63d 6c4a bcbd a5da ca3c
000000a0: 6c31 27bc 86f9 babb 95f9 e2bc 17b4 d83c
000000b0: 15f8 d33c 8a11 78bd a72a 88bd e6f0 f83d
000000c0: c78b 7cbc 33f1 0fbd 9356 dfbc 809a fcbd
000000d0: 6f90 f6bd ae40 d4bd 9d13 05be eace 80bc
000000e0: dc6d 63bd 4642 8dbd a100 a1bd 659b 1fbd
000000f0: 65a3 f9bd 5490 36bd d3d8 64bc 5f45 90bc
00000100: 6e09 5a3c 61e7 10bd 7086 a6bd c3f5 2e3d
00000110: dc96 70bd b654 c0bd 80a7 a0bd 12c1 8cbd
00000120: c98c cabd 366e 84bd a279 c8bd 515b b53d
00000130: 179d eabd 6a5c c23c fed3 b1bd eb8b 313d
00000140: f64a 4cbd fd33 dd3d dd21 d23d ba11 27bd
00000150: 28b9 a9bc 75a4 333b c0b2 b93d 5a08 d7bb
00000160: cec6 97bd 2ff4 71bd 55fa 2b3b c07a c13b
00000170: 4ade 093d 260f e4bd 6988 e2bd 5c75 bc3d
00000180: 77dc 9e3d e604 c2bd 2050 a6bd f691 333d
00000190: dd19 32bd a38b 933d be32 3bbd bc5a 9ebd
000001a0: 4f3f d13d b1e4 e8bc ef98 ccbd f718 383d
000001b0: a6c4 6f3d cea2 8eba 06e8 70bc 357e 843d
000001c0: 386d c63d 349d 8fbd 1651 333d e99f 39bd
000001d0: 9db3 88bd f816 bbbd d9ce c63d 9df2 eb3d
000001e0: 9325 47bc f1b0 053d be28 2a3d 4df4 9ebd
000001f0: c78a a73d 8ffb 0dbe e4fa 9b3c f958 a9bd
00000200: 1748 5cbd ceac 3b3d 152d b1bd 246d 0dbd
00000210: bee3 ecbc 5f58 6abd 1f46 cfbc fc49 aa3d
00000220: a3f6 af3d b7c6 c5bd 623b 1f3d a2a0 0dbe
00000230: fe30 8fbd 8a41 a1bc 5d95 34bd 4ec4 84bd
00000240: ba71 e5bd 6b66 b63c 2ca2 b8bd 995b 41bc
00000250: ecc8 14bd 638d c93c 2caf 98bd 52ca 46bb
00000260: b61d b3bd 3845 453d 2eea 3fbd 215a 843d
00000270: f1da d03d 1b5b a7bd 8a46 cbbd 650d 8b3b
00000280: 4b22 bd3d a0c7 c3bd 9417 93bd 6b91 95bd
00000290: 36f7 9abb 932a 693d 6bae b7bd 5140 4dbb
000002a0: afe2 a33d e1a7 1cbd fcb4 a6bc 5a56 5abd
000002b0: 6711 74bd 3bad 79bd bbef 4cbd 29f1 493d
000002c0: 58e4 3fbc 82fd e8bc f471 73bc e05a cb3d
000002d0: 266f f2bd 23b6 913a 70e3 9e3d b682 a4bd
000002e0: f750 f4bd c2e4 47bd 80e4 a93d b0a9 00bd
000002f0: 7173 c93c a727 cdbd 8297 a5bd bfb2 fdbd
00000300: 5e8e 0c3d 66ea 033d c065 a83d 8182 f5bd
00000310: f133 fdbd 9928 88bd bc55 1ebc b7cc c8bd
00000320: 9e36 c63b 241b 65bd e0de 203c ceeb 5ebc
00000330: cd3b 9cbd b359 973c 3beb 173d fc05 cbba
00000340: 113a 983d a67b 803d b72d 983d d4b2 a03d
00000350: 2cc9 693d 315f ea3d a054 b63c 3f0d a43d
00000360: f8f2 553d ee60 323d 9b3f 8bbd c160 04bd
00000370: 6b02 f03d 6f4c 21bd 13e6 cd3d ad6f b1bd
00000380: 0c11 39bd a433 c9bd 82a0 d0bd 0d37 7fbd
00000390: 1121 b63b 4575 8cbd 2153 a4bb 3215 943d
000003a0: 075b 953c 984f 6ebd 14b6 b8bd 6de2 9e3d
000003b0: b30c 4cbd 88cc cabd 0e67 5f3c dd62 083d
000003c0: cd67 03bd e72e bcbd 0a75 823b e0a4 8538
000003d0: e6cf 673d b78f 88bd a923 df3a 0874 86bd
000003e0: 3dff c93d 494d eebd 2249 70bd f755 523d
000003f0: b1e6 b53d ae59 36bc fe7e 76bc 4dc4 ec3c

conv1.0.bias f4 [6]
0.15085706 0.034599375 -0.055105142 -0.032325946 0.045034394 0.008186822
00000000: 467a 1a3e 13b8 0d3d eeb5 61bd 3668 04bd
00000010: fc75 383d 0522 063c

conv2.0.weight f4 [16, 6, 5, 5]
0.080419466 0.05009541 0.05050243 -0.03169222 0.048396867 -0.057174917 -0.038743693 0.054545827
0.02678376 0.018692892 0.08079524 0.043112032 -0.0131695885 -0.02253379 0.050218355 0.027912164
0.026016785 -0.02007781 0.06516255 -0.07736469 -0.05620766 -0.06545258 -0.012059933 -0.02934968
-0.01998759 0.03991719 0.0029793682 -0.05922122 -0.054208204 0.084891565 -0.0036421313 0.0038141513
0.034827366 0.039862137 0.043360323 0.0590386 0.039721824 0.030618485 -0.049807515 -0.03791643
0.05273579 0.059028313 -0.0014207691 -0.057541396 0.016536292 0.036927573 0.069948256 0.06925931
0.013152567 0.06950785 0.046883836 0.041690268 -0.060835227 0.005202187 -0.00017167281 -0.067825176
0.030408105 -0.035780367 0.037520673 -0.019903716 -0.07374237 -0.065281495 -0.060600523 0.012966396
-0.07550799 -0.039721385 -0.0029640824 -0.069007196 0.01641643 -0.054657515 0.039988127 -0.04752935
0.021706041 0.011064606 -0.007024945 0.049211472 -0.06875279 0.017878076 0.08488079 0.0014150442
0.035639018 0.03249599 -0.0100391805 0.019108059 0.08495877 0.02663997 -0.06445569 0.014058991
0.030472297 0.035672758 -0.085590556 -0.039166536 -0.0671937 -0.017238036 -0.048702754 -0.07107609
-0.014508235 0.02249015 -0.020862008 0.062569425 -0.038925838 0.07330122 -0.04103721 -0.03095581
-0.0077951415 0.011793684 -0.03993754 0.012855091 -0.07495223 -0.010639011 0.07660183 -0.05673373
0.0009764771 -0.04643755 0.026752697 0.0074379575 0.018782413 -0.0106564 -0.045206256 0.07851246
0.07986426 -0.074670866 0.0033061798 -0.048068825 -0.06462523 -0.06860101 0.006201807 -0.006859295
0.057827782 -0.03523502 -0.010016545 -0.06113971 -0.0051623653 0.004091828 0.034433085 -0.025761519
-0.03920592 -0.07973877 0.015131335 -0.056719664 0.07724675 0.041498885 0.050807863 -0.038553767
0.04564869 -0.07070235 -0.018052813 0.0068884715 0.06586347 -0.032461848 -0.058114152 0.05847393
-0.095705345 -0.09848502 0.04489609 -0.08106456 -0.008627734 -0.08898381 0.05933896 -0.09541799
0.033352923 0.061559252 -0.083039194 -0.07443598 -0.048878 -0.02484193 -0.0053808573 0.03361387
-0.024171589 -0.05173416 -0.049948342 0.052791484 0.03401437 -0.023385063 -0.07578814 -0.01970082
0.049491394 0.011513163 -0.041732818 -0.0877437 0.013992293 -0.08253448 -0.0149496645 0.047254708
-0.026159944 0.024162587 -0.050197545 0.07398031 0.050119523 0.026609166 -0.08257358 -0.08523418
-0.008174626 -0.050196916 0.017949367 -0.034345903 -0.019815141 0.03328299 0.01234371 0.030203862
0.02552867 0.03492248 -0.03901865 0.034723453 0.057362698 0.03431239 0.045991883 0.07002437
-0.026794765 -0.003200097 0.043603744 0.07650889 0.078184724 0.06647326 -0.052641194 -0.0015353531
0.004106964 0.03441908 0.017070299 0.0030375028 -0.031090938 0.081743054 0.029454615 -0.028918093
-0.052172992 0.00813437 -0.013577672 -0.051114496 -0.06191691 0.013531326 0.021876775 -0.07548523
-0.040003292 -0.038394786 -0.004911562 0.05875287 -0.08104492 -0.058234565 -0.083268374 -0.02441278
-0.02499165 0.03896133 -0.061419822 -0.06465775 -0.077694744 -0.0515922 -0.030467762 0.07745206
0.0018871237 0.050478656 -0.07122098 0.06409944 -0.076504335 0.0065507437 -0.024130933 -0.06687579
00000000: f6b2 a43d d830 4d3d a3db 4e3d b4cf 01bd
00000010: cb3b 463d 3f30 6abd b5b1 1ebd 726b 5f3d
00000020: 9e69 db3c d621 993c fa77 a53d 3e96 303d
00000030: 42c5 57bc c898 b8bc c3b1 4d3d 0da8 e43c
00000040: 2721 d53c 387a a4bc f173 853d 6171 9ebd
00000050: 013a 66bd 010c 86bd 0697 45bc bd6e f0bc
00000060: 04bd a3bc 3580 233d 8141 433b f391 72bd
00000070: 6c09 5ebd a1db ad3d d3b0 6ebb d7f6 793b
00000080: 24a7 0e3d 7b46 233d 989a 313d 76d2 713d
00000090: 5ab3 223d 9ed3 fa3c f702 4cbd 424e 1bbd
000000a0: 7c01 583d acc7 713d 1a39 baba 87b0 6bbd
000000b0: 1e77 873c 5e41 173d 0841 8f3d d3d7 8d3d
000000c0: dd7d 573c 225a 8e3d 4409 403d 6ac3 2a3d
000000d0: 5c2e 79bd 1c77 aa3b 1203 34b9 ede7 8abd
000000e0: 6b1a f93c 6f8e 12bd 47af 193d 1e0d a3bc
000000f0: 3d06 97bd 4eb2 85bd 4138 78bd 0271 543c
00000100: efa3 9abd e4b2 22bd 0d41 42bb a553 8dbd
00000110: c07b 863c 8fe0 5fbd 97ca 233d 23ae 42bd
00000120: ded0 b13c 5248 353c 8331 e6bb f891 493d
00000130: 43ce 8cbd 0b75 923c fbd5 ad3d 0179 b93a
00000140: 38fa 113d 841a 053d 607b 24bc 8188 9c3c
00000150: ddfe ad3d 113c da3c 5801 84bd af57 663c
00000160: 0aa1 f93c 991d 123d 1a4a afbd 176d 20bd
00000170: da9c 89bd c836 8dbc 8a7c 47bd 5790 91bd
00000180: f3b3 6dbc 433d b83c cde6 aabc 6624 803d
00000190: b370 1fbd f31e 963d a216 28bd 0a97 fdbc
000001a0: 636e ffbb 4c3a 413c 8c95 23bd 299e 523c
000001b0: 8e80 99bd 3f4f 2ebc 6ce1 9c3d a161 68bd
000001c0: 45fa 7f3a 4d35 3ebd 7928 db3c 1cba f33b
000001d0: 93dd 993c 2e98 2ebc 322a 39bd 24cb a03d
000001e0: e08f a33d 0aed 98bd 7eac 583b d1e3 44bd
000001f0: 3c5a 84bd b07e 8cbd 8738 cb3b f0c3 e0bb
00000200: d3dc 6c3d 9952 10bd 6f1c 24bc a26d 7abd
00000210: 0f29 a9bb be14 863b b509 0d3d d209 d3bc
00000220: 6396 20bd 154e a3bd 6be9 773c e152 68bd
00000230: 8b33 9e3d bcfa 293d e81b 503d 8eea 1dbd
00000240: 1ffa 3a3d 65cc 90bd 7ee3 93bc b0b8 e13b
00000250: 6de3 863d b7f6 04bd 1b09 6ebd 5c82 6f3d
00000260: 2a01 c4bd 84b2 c9bd f6e4 373d 2d05 a6bd
00000270: 575b 0dbc 253d b6bd 690d 733d 826a c3bd
00000280: 139d 083d 8e25 7c3d 7410 aabd e471 98bd
00000290: 4c34 48bd 4e81 cbbc e751 b0bb b3ae 093d
000002a0: 7f03 c6bc 33e7 53bd a296 4cbd e23b 583d
000002b0: a752 0b3d 0892 bfbc d036 9bbd 9d63 a1bc
000002c0: 7db7 4a3d b5a1 3c3c 08f0 2abd f8b2 b3bd
000002d0: ee3f 653c d607 a9bd 70ef 74bc 278e 413d
000002e0: 614d d6bc 9ef0 c53c f19b 4dbd fd82 973d
000002f0: 214a 4d3d 77fb d93c 561c a9bd 428f aebd
00000300: deee 05bc 489b 4dbd 8d0a 933c 4aae 0cbd
00000310: 5d53 a2bc bf53 083d 463d 4a3c 176e f73c
00000320: 8021 d13c e00a 0f3d 05d2 1fbd 2e3a 0e3d
00000330: 26f5 6a3d 268b 0c3d fc61 3c3d f068 8f3d
00000340: b280 dbbc b8b8 51bb d799 323d b1b0 9c3d
00000350: 501f a03d 2223 883d 4b9e 57bd e73d c9ba
00000360: b693 863b 05fb 0c3d 03d7 8b3c d710 473b
00000370: 6cb2 febc e768 a73d ce4a f13c a3e5 ecbc
00000380: 59b3 55bd 0546 053c e274 5ebc 6f5d 51bd
00000390: 969c 7dbd 7fb2 5d3c ec36 b33c 0098 9abd
000003a0: 7eda 23bd da43 1dbd 2bf1 a0bb d9a6 703d
000003b0: e1fa a5bd 5e87 6ebd 9c88 aabd 4ffd c7bc
000003c0: 4abb ccbc ea95 1f3d 5a93 7bbd 486b 84bd
000003d0: 6c1e 9fbd 5852 53bd 8797 f9bc 309f 9e3d
000003e0: 5d59 f73a b5c2 4e3d 4edc 91bd 9146 833d
000003f0: 4eae 9cbd 9fa7 d63b 3cae c5bc 2df6 88bd

conv2.0.bias f4 [16]
-0.009905081 -0.016420506 0.03172333 -0.05568189 -0.060715295 0.079755895 0.086162284 0.0056089074
-0.06944231 0.002374932 0.044621907 -0.028806293 -0.03925479 -0.055087645 -0.061075013 -0.02982697
00000000: ec48 22bc 4c84 86bc 53f0 013d b212 64bd
00000010: 9ab0 78bd 0f57 a33d da75 b03d edca b73b
00000020: c537 8ebd bfa4 1b3b 76c5 363d 2dfb ebbc
00000030: a1c9 20bd 95a3 61bd cb29 7abd b157 f4bc

conv2.0.weight_fake_quant.scale f4 [16]
0.01131613 0.012867762 0.0127974115 0.0119846845 0.011820442 0.011451128 0.012946395 0.010961843
0.011669086 0.011470367 0.0113788815 0.011881989 0.012812625 0.011838589 0.012270767 0.012338343
00000000: 4a67 393c 4ed3 523c 3cac 513c 695b 443c
00000010: 87aa 413c 839d 3b3c 1e1d 543c 4d99 333c
00000020: b22f 3f3c 35ee 3b3c 7d6e 3a3c adac 423c
00000030: 0bec 513c a4f6 413c 540b 493c c326 4a3c

conv2.0.weight_fake_quant.activation_post_process.min_val f4 [16]
-0.08487097 -0.096508205 -0.088171154 -0.08263737 -0.08865331 -0.08588345 -0.087770775 -0.077322
-0.08751814 -0.08602775 -0.08534161 -0.08911492 -0.09609468 -0.08878941 -0.09203075 -0.09253757
00000000: d5d0 adbd 18a6 c5bd 1493 b4bd c83d a9bd
00000010: de8f b5bd aae3 afbd 2ac1 b3bd ff5a 9ebd
00000020: b63c b3bd 512f b0bd 95c7 aebd e281 b6bd
00000030: 4acd c4bd 39d7 b5bd 9e7a bcbd 5684 bdbd

conv2.0.weight_fake_quant.activation_post_process.max_val f4 [16]
0.083785355 0.08153539 0.095980585 0.08988513 0.08097503 0.08467449 0.097097956 0.08221382
0.083068 0.08445751 0.085182674 0.08169075 0.08801295 0.08738865 0.08647525 0.07664893
00000000: a897 ab3d 07fc a63d 7891 c43d b215 b83d
00000010: 3dd6 a53d d269 ad3d 4bdb c63d b85f a83d
00000020: 8e1f aa3d 0ff8 ac3d 4174 ae3d 7b4d a73d
00000030: 2240 b43d d2f8 b23d f019 b13d 1dfa 9c3d

fc1.0.weight f4 [120, 400]
0.01578975 0.002201735 -0.036351256 -0.0199106 -0.04835598 -0.039198216 0.032410845 0.028586546
0.03611861 -0.0032744936 -0.012590865 0.03183212 -0.048074935 -0.032804165 0.02282566 0.045177747
-0.027056828 -0.033287648 0.037978657 -0.0009215319 -0.0075503676 -0.006542161 0.020951193 -0.031265143
0.031875115 -0.027904876 -0.043823384 0.033445727 -0.035937842 -0.03846719 0.015442148 -0.00041980934
0.034533758 0.029856961 0.043251634 -0.038832303 -0.0065987124 -0.04894285 -0.03007507 -0.023031509
0.04758437 -0.03526259 -0.044040006 -0.01814714 -0.0015712336 0.04227039 -0.022283064 0.013792907
-0.047343407 -0.043307908 0.040295273 -0.024700398 0.00950315 0.041580606 0.016579803 0.042211372
0.007059275 0.028961666 0.013938167 0.04511333 -0.047042135 0.016071687 -0.045249466 0.026289169
-0.0047878255 0.04154312 0.028503748 0.03366654 0.017582532 -0.016434776 0.006189296 -0.04397149
-0.027074417 0.022595 -0.037026495 -0.023074735 -0.008809125 0.014158329 -0.029819796 0.020393519
-0.029271323 0.03316642 0.00040850608 -0.04794247 0.027642291 -0.030668814 -0.041354734 -0.039536115
-0.025046611 -0.037147924 -0.04304887 -0.029640112 -0.03965004 -0.04105582 0.0057504107 0.0057092616
0.016787395 -0.030839588 0.038311746 -0.015920848 -0.0015834068 -0.0067263036 -0.00866253 0.044645585
-0.023803733 -0.020295396 0.010713394 0.025373949 0.010145232 -0.041107662 0.025613504 -0.03559941
-0.041786704 0.010391963 0.011771333 -0.0293934 -0.012367461 -0.013551366 -0.033898257 0.025676392
-0.045481447 0.022728551 0.016836787 -0.012911942 0.04634516 0.006297346 -0.023589546 -0.030326333
0.010617933 -0.025980059 -0.011640805 -0.040186226 -0.013528903 0.03600607 0.041474964 0.04363012
0.0035260026 0.016990688 -0.004215181 -0.03683284 0.032378443 0.038049836 -0.048773658 0.04238202
-0.0062197493 0.04505683 0.038202062 0.04146756 -0.018534249 -0.008616942 0.026367877 -0.035112165
-0.019651588 0.009307349 -0.0046138493 -0.03870286 0.0121386275 0.04797628 -0.03927929 -0.016055422
-0.012896462 -0.026808722 0.0420378 -0.019640306 -0.044426084 0.03758257 0.04176297 0.021659318
0.0021616349 0.014246749 -0.03715203 0.0233003 0.009244759 0.04412941 -0.010592634 -0.032752812
-0.043162353 -0.003813704 -0.040886033 0.0024565344 -0.013585877 -0.027370207 0.049786054 0.015933618
-0.033539813 0.039178688 -0.028562695 -0.0010564682 0.044863496 0.03329446 0.025327774 0.02594035
0.0087563675 0.03894428 0.03868922 0.038640812 0.04787512 -0.046237316 -0.051333424 -0.021355778
-0.040189296 -0.0014590973 0.0246745 0.042388096 -0.042656444 -0.033692908 -0.007930814 0.041627385
0.020475 -0.0028828478 -0.043077625 0.011048271 0.039904814 0.03814859 -0.0076209293 0.022416065
0.020504631 -0.028467469 -0.04842578 -0.021238254 0.034043398 0.005085811 0.030799989 -0.017846746
-0.013833813 -0.0013690152 -0.037253402 0.046609443 -0.023571184 0.032636266 -0.0021160725 0.026579455
-0.003567556 0.0256388 -0.025321009 0.034381296 0.041808687 -0.024422431 -0.0009886451 -0.03889057
-0.014548283 -0.0259249 0.024463974 0.04736106 -0.009713894 -0.0063808095 0.007418868 -0.030888954
-0.046306904 0.028299132 0.020315785 0.04640161 0.036247343 -0.016885988 0.017618835 -0.013677266
00000000: 8159 813c fc4a 103b 0ee5 14bd 8e1b a3bc
00000010: ec10 46bd 4f8e 20bd 3cc1 043d 552e ea3c
00000020: 1cf1 133d e398 56bb ea49 4ebc 6662 023d
00000030: 39ea 44bd a95d 06bd e1fc ba3c 4d0c 393d
00000040: 48a6 ddbc a158 08bd 828f 1b3d f592 71ba
00000050: 1369 f7bb a05f d6bb d6a1 ab3c e10f 00bd
00000060: 7b8f 023d c498 e4bc 2680 33bd 63fe 083d
00000070: 8f33 13bd c68f 1dbd 1001 7d3c db19 dcb9
00000080: 4573 0d3d 9696 f43c a028 313d 9f0e 1fbd
00000090: 033a d8bb 4c78 48bd fe5f f6bc 93ac bcbc
000000a0: d4e7 423d 816f 10bd 4b63 34bd 50a9 94bc
000000b0: daf1 cdba b723 2d3d f98a b6bc a5fb 613c
000000c0: 29eb 41bd a263 31bd a80c 253d 7d58 cabc
000000d0: 1ab3 1b3c 6d50 2a3d 5ed2 873c d5e5 2c3d
000000e0: 7e51 e73b 0441 ed3c e95c 643c c1c8 383d
000000f0: 41af 40bd c5a8 833c 8157 39bd 625c d73c
00000100: 31e3 9cbb 1e29 2a3d b180 e93c ede5 093d
00000110: 3e09 903c 39a2 86bc 94cf ca3b 731b 34bd
00000120: 2bcb ddbc 2619 b93c 18a9 17bd 3a07 bdbc
00000130: 2654 10bc 56f8 673c a548 f4bc 4f10 a73c
00000140: 6aca efbc 83d9 073d c22c d639 535f 44bd
00000150: 1672 e23c 2a3d fbbc 9563 29bd 9ff0 21bd
00000160: 8d2e cdbc 6c28 18bd 0354 30bd d2cf f2bc
00000170: 1568 22bd 262a 28bd f16d bc3b c214 bb3b
00000180: b885 893c 4ea3 fcbc c7ec 1c3d 706c 82bc
00000190: 518a cfba 5368 dcbb 49ed 0dbc 4ade 363d
000001a0: 0c00 c3bc 8842 a6bc 3b87 2f3c 07dd cf3c
000001b0: 3038 263c 8260 28bd 69d3 d13c b0d0 11bd
000001c0: 8928 2bbd 0d43 2a3c 8ddc 403c 6dca f0bc
000001d0: e4a0 4abc 8c06 5ebc e6d8 0abd 4c57 d23c
000001e0: c14a 3abd 3a31 ba3c 4ded 893c 9c8c 53bc
000001f0: 6cd4 3d3d f859 ce3b dd3e c1bc ee6e f8bc
00000200: d7f6 2d3c 22d4 d4bc 13b9 3ebc 509a 24bd
00000210: 55a8 5dbc 1a7b 133d a7e1 293d 7fb5 323d
00000220: 8214 673b 0e30 8b3c 801f 8abb 08de 16bd
00000230: 429f 043d 25da 1b3d e3c6 47bd c598 2d3d
00000240: 0acf cbbb 838d 383d c479 1c3d e3d9 293d
00000250: 23d5 97bc 132e 0dbc 7201 d83c c6d1 0fbd
00000260: 5efc a0bc da7d 183c c62f 97bb e486 1ebd
00000270: 18e1 463c c782 443d 52e3 20bd a986 83bc
00000280: af4b 53bc f79d dbbc d42f 2c3d b5e4 a0bc
00000290: 20f8 35bd 2ef0 193d a60f 2b3d e26e b13c
000002a0: 37aa 0d3b 326b 693c ba2c 18bd 45e0 be3c
000002b0: 5477 173c 0ac1 343d ba8c 2dbc d027 06bd
000002c0: 02cb 30bd 56ef 79bb 1d78 27bd cffd 203b
000002d0: 4c97 5ebc 7c37 e0bc 76ec 4b3d 3887 823c
000002e0: 0b61 09bd d579 203d 50fc e9bc 3179 8aba
000002f0: c9c2 373d c65f 083d 317c cf3c db80 d43c
00000300: de76 0f3c 0a84 1f3d 9678 1e3d d445 1e3d
00000310: b418 443d 5763 3dbd ff42 52bd 50f2 aebc
00000320: 889d 24bd 2e3f bfba 2d22 ca3c 249f 2d3d
00000330: 86b8 2ebd 9301 0abd 3ff0 01bc 7a81 2a3d
00000340: 30bb a73c 29ee 3cbb 2a72 30bd cf03 353c
00000350: 3b73 233d b241 1c3d fdb8 f9bb e5a1 b73c
00000360: 54f9 a73c 9c34 e9bc 1c5a 46bd d9fb adbc
00000370: 1771 0b3d e0a6 a63b 4250 fc3c 5733 92bc
00000380: 38a7 62bc 8770 b3ba 0697 18bd 8be9 3e3d
00000390: 5b18 c1bc 9bad 053d cead 0abb 28bd d93c
000003a0: a8cd 69bb 7608 d23c 016e cfbc 67d3 0c3d
000003b0: 963f 2b3d 8d11 c8bc 6d95 81ba b84b 1fbd
000003c0: ec5b 6ebc 7560 d4bc ac68 c83c acfd 413d
000003d0: 0627 1fbc 1c16 d1bb fa19 f33b d50a fdbc
000003e0: 4fac 3dbd 95d3 e73c 4a6d a63c 9d0f 3e3d
000003f0: 1878 143d 7c54 8abc 6055 903c 9d16 60bc

fc1.0.bias f4 [120]
-0.0038748018 0.045269173 0.028533246 -0.023465853 -0.002406796 -0.014838879 -0.014261103 -0.012606631
-0.010446757 -0.045295812 0.008799977 -0.0035349778 0.031944666 -0.017892268 -0.029469905 0.027880963
-0.037239112 0.028531821 0.020060757 -0.04901698 -0.047935236 -0.0025469048 0.0442698 0.009878766
0.027448008 0.039043725 0.015263223 -0.04036409 0.045282632 -0.0054893056 0.039589345 -0.04187507
0.024942817 -0.0342123 0.025465552 -0.024580125 0.023115853 0.03026763 0.030145051 0.04745097
0.01321203 -0.027368637 -0.0144761 -0.021697892 0.046349477 -0.015432998 -0.025482552 0.018889405
0.03398912 -0.009031588 -0.021886611 0.014673563 -0.002050064 -0.036454063 0.010176817 0.030646665
-0.040061846 -0.0010562687 -0.02010485 -0.004115321 -0.02471384 0.025300335 -0.038473308 0.034420937
-0.04286023 -0.039275683 0.013465226 -0.03609039 0.013537695 -0.04179118 -0.03552017 0.019239983
-0.01324406 0.0042616646 0.047670227 0.046227273 -0.01061995 -0.04704872 0.04195473 0.00369267
0.0025409835 -0.023942433 -0.01143781 0.04037945 -0.022574404 -0.020362366 -0.017477356 0.023336647
-0.02750079 0.039657164 0.024956102 0.021991014 -0.01109954 0.02923235 -0.007957285 0.008881652
-0.0065828087 -0.0067081894 0.046501834 -0.0049606166 0.028199313 -0.011880695 0.031250235 0.013277662
-0.03950264 -0.027393285 0.0051980503 -0.04401354 -0.008058558 0.0020882476 -0.017412798 0.00029070117
0.04225648 -0.0036717728 0.004139619 0.036652233 0.014344412 -0.028401027 0.017125284 -0.005193489
00000000: 63f0 7dbb 2b6c 393d 8ebe e93c 763b c0bc
00000010: 56bb 1dbb c51e 73bc 67a7 69bc 0b8c 4ebc
00000020: e028 2bbc 1a88 39bd c72d 103c 16ab 67bb
00000030: 69d8 023d ce92 92bc df6a f1bc 9e66 e43c
00000040: 0a88 18bd 91bb e93c 7556 a43c 07c6 48bd
00000050: bd57 44bd f9e9 26bb 4054 353d 8cda 213c
00000060: a5da e03c 50ec 1f3d 9912 7a3c d154 25bd
00000070: 487a 393d a2df b3bb 7028 223d 3285 2bbd
00000080: e154 cc3c 3222 0cbd 229d d03c 425c c9bc
00000090: 755d bd3c d2f3 f73c c1f2 f63c f35b 423d
000000a0: 4577 583c 3134 e0bc 2a2d 6dbc c7bf b1bc
000000b0: f3d8 3d3d afda 7cbc c9c0 d0bc f4bd 9a3c
000000c0: 2d38 0b3d 3af9 13bc 8d4b b3bc 6269 703c
000000d0: 5e5a 06bb db50 15bd aabc 263c b70e fb3c
000000e0: e417 24bd 7f72 8aba edb2 a4bc d1d9 86bb
000000f0: ae74 cabc a642 cf3c 3096 1dbd f8fc 0c3d
00000100: 358e 2fbd 8adf 20bd 409d 5c3c 84d3 13bd
00000110: 35cd 5d3c 3a2d 2bbd 997d 11bd 2b9d 9d3c
00000120: 9dfd 58bc 6fa5 8b3b db41 433d cf58 3d3d
00000130: 4cff 2dbc 29b6 40bd b9d8 2b3d b900 723b
00000140: a186 263b ec22 c4bc a765 3bbc ec64 253d
00000150: f5ed b8bc face a6bc ac2c 8fbc 7f2c bf3c
00000160: 5649 e1bc 8d6f 223d bd70 cc3c 8026 b43c
00000170: d8da 35bc ae78 ef3c 465f 02bc 5984 113c
00000180: 9ab4 d7bb 5fd0 dbbb b578 3e3d ab8c a2bb
00000190: 3f02 e73c 3fa7 42bc 3f00 003d 8d8a 593c
000001a0: 85cd 21bd e267 e0bc 6854 aa3b 8b47 34bd
000001b0: 0b08 04bc fbda 083b 49a5 8ebc 4069 9839
000001c0: 2115 2d3d 20a2 70bb a4a5 873b a720 163d
000001d0: d304 6b3c 45a9 e8bc 534a 8c3c 252e aabb

fc1.0.weight_fake_quant.scale f4 [120]
0.0067814034 0.0068435883 0.0070327646 0.0068436135 0.007286589 0.0068704206 0.006770309 0.007051062
0.0069757802 0.0072067203 0.006835108 0.0069268616 0.007049861 0.0070384364 0.0068392595 0.0067229127
0.0067425948 0.006894483 0.0072926013 0.007379446 0.007405283 0.0070749405 0.0070017003 0.006815301
0.006995934 0.0068243523 0.006949196 0.006853609 0.0072044963 0.006908747 0.006801511 0.0071513155
0.006843108 0.0072776168 0.0073295054 0.006805636 0.006734999 0.00710721 0.006833963 0.006950182
0.007208065 0.0072637675 0.007166472 0.007007255 0.007063134 0.007035789 0.006845789 0.0069554257
0.006820461 0.0068298914 0.0070786243 0.00695112 0.007042906 0.006731058 0.006992065 0.006854133
0.006903101 0.0067668958 0.0071725273 0.0073108138 0.007997221 0.0069307135 0.007446546 0.006922188
0.007054267 0.0075919125 0.0067658164 0.006917327 0.0073631927 0.006928663 0.006735824 0.0069615287
0.006751614 0.0070899576 0.0067242505 0.006891312 0.007052306 0.0070361816 0.0069795707 0.0070079817
0.006762283 0.006747111 0.0070007704 0.0070765032 0.0066893674 0.006898145 0.006947273 0.006829957
0.0072765155 0.006726449 0.007659952 0.0070374124 0.0067726816 0.0067835427 0.006948418 0.006822783
0.0067679146 0.006914747 0.007501506 0.0069935224 0.0069084037 0.006879487 0.006832736 0.0071564685
0.0067380522 0.006938708 0.0071991733 0.00695058 0.0070186392 0.006844576 0.0075360867 0.0069936938
0.0070188288 0.007035732 0.0070725805 0.006733996 0.0067874915 0.00679053 0.0071996166 0.006816877
00000000: 8936 de3b 2e40 e03b 1b73 e63b 6440 e03b
00000010: 57c4 ee3b 4421 e13b 78d9 dd3b 980c e73b
00000020: 1695 e43b 5a26 ec3b 0bf9 df3b bafa e23b
00000030: 8502 e73b afa2 e63b de1b e03b e14b dc3b
00000040: fcf0 dc3b 1eeb e13b c6f6 ee3b 48cf f13b
00000050: 04a8 f23b e7d4 e73b 856e e53b e352 df3b
00000060: 263e e53b d19e df3b 15b6 e33b 3d94 e03b
00000070: b213 ec3b c562 e23b 36df de3b 9555 ea3b
00000080: 273c e03b 1379 ee3b 592c f03b d001 df3b
00000090: 44b1 dc3b 99e3 e83b 70ef df3b 5abe e33b
000000a0: a231 ec3b e604 ee3b b9d4 ea3b 1e9d e53b
000000b0: dd71 e73b 7a8c e63b a452 e03b 57ea e33b
000000c0: 2c7e df3b 48cd df3b cef3 e73b 39c6 e33b
000000d0: 2dc8 e63b 3590 dc3b b11d e53b a398 e03b
000000e0: 6933 e23b d6bc dd3b 8507 eb3b 8d8f ef3b
000000f0: c706 033c 0a1b e33b 2802 f43b 86d3 e23b
00000100: 7b27 e73b 94c5 f83b c8b3 dd3b bfaa e23b
00000110: f046 f13b d609 e33b 30b8 dc3b 891d e43b
00000120: a53c dd3b e052 e83b 1a57 dc3b 84d0 e13b
00000130: 0817 e73b c58f e63b e2b4 e43b 36a3 e53b
00000140: 2496 dd3b df16 dd3b b866 e53b 03e2 e73b
00000150: 7b32 db3b d609 e23b f3a5 e33b d5cd df3b
00000160: d66f ee3b 8b69 dc3b 5600 fb3b 189a e63b
00000170: 5fed dd3b 7b48 de3b 8eaf e33b a791 df3b
00000180: 62c5 dd3b 1a95 e23b 31cf f53b eb29 e53b
00000190: e45f e23b 526d e13b 25e5 df3b cf80 ea3b
000001a0: e1ca dc3b 1a5e e33b 0be7 eb3b b1c1 e33b
000001b0: 9dfc e53b 7748 e03b 47f1 f63b 5b2b e53b
000001c0: 34fe e53b ff8b e63b 1bc1 e73b daa8 dc3b
000001d0: 9b69 de3b 1883 de3b c3ea eb3b 1c60 df3b

fc1.0.weight_fake_quant.activation_post_process.min_val f4 [120]
-0.050860524 -0.05132691 -0.052745733 -0.0513271 -0.054649416 -0.05007595 -0.050027087 -0.052882962
-0.05231835 -0.0540504 -0.05126331 -0.05195146 -0.052873954 -0.05278827 -0.051294442 -0.05042184
-0.05056946 -0.05170862 -0.053271092 -0.055345844 -0.05553962 -0.050864715 -0.049999703 -0.051114753
-0.052469503 -0.05118264 -0.05211897 -0.051402062 -0.05403372 -0.051168382 -0.05101133 -0.053634863
-0.05132331 -0.054582123 -0.05497129 -0.051042266 -0.050185602 -0.05298368 -0.050935447 -0.051634364
-0.054060485 -0.054478254 -0.053748537 -0.05210727 -0.0529735 -0.051804896 -0.051343415 -0.05216569
-0.050388567 -0.051224183 -0.05308968 -0.0521334 -0.051452674 -0.050482932 -0.052440483 -0.050348006
-0.051773258 -0.050751716 -0.053793952 -0.05265782 -0.05997916 -0.04953923 -0.055849094 -0.049917147
-0.052907 -0.05693934 -0.050695837 -0.05187995 -0.05522394 -0.05196497 -0.050518677 -0.052211463
-0.050637104 -0.051660657 -0.048588593 -0.051684838 -0.052223343 -0.050903473 -0.049820535 -0.05255986
-0.05071712 -0.04849318 -0.052398473 -0.05307377 -0.05014901 -0.051736087 -0.052104544 -0.051224675
-0.054573864 -0.049492456 -0.05744964 -0.05278059 -0.050795108 -0.050367694 -0.05211313 -0.050654303
-0.050759356 -0.0518606 -0.055579238 -0.052451417 -0.051813025 -0.048666712 -0.051245518 -0.05367351
-0.05053539 -0.05172962 -0.053798117 -0.052129347 -0.04794611 -0.051334318 -0.05652065 -0.051279802
-0.052494768 -0.05197745 -0.053044353 -0.04877597 -0.050906185 -0.049980026 -0.053123534 -0.049267445
00000000: 2053 50bd 2a3c 52bd e90b 58bd 5d3c 52bd
00000010: 11d8 5fbd 701c 4dbd 34e9 4cbd ce9b 58bd
00000020: c44b 56bd f463 5dbd 7af9 51bd 0ecb 54bd
00000030: 5c92 58bd 8338 58bd 1f1a 52bd 2287 4ebd
00000040: ec21 4fbd 6bcc 53bd ca32 5abd 53b2 62bd
00000050: 837d 63bd 8557 50bd 7dcc 4cbd b45d 51bd
00000060: 43ea 56bd e3a4 51bd b37a 55bd f88a 52bd
00000070: 7652 5dbd f095 51bd 42f1 50bd 3bb0 5bbd
00000080: 6438 52bd 8191 5fbd 9329 61bd b211 51bd
00000090: 6b8f 4dbd 6a05 59bd b0a1 50bd 8e7e 53bd
000000a0: 876e 5dbd 9724 5fbd 6d27 5cbd 6f6e 55bd
000000b0: befa 58bd 5f31 54bd 794d 52bd b1ab 55bd
000000c0: 3e64 4ebd 73d0 51bd 9074 59bd d589 55bd
000000d0: 0ac0 52bd 31c7 4ebd d5cb 56bd b639 4ebd
000000e0: 3210 54bd 08e1 4fbd 0c57 5cbd baaf 57bd
000000f0: b5ac 75bd a6e9 4abd 05c2 64bd ec75 4cbd
00000100: 03b5 58bd 3a39 69bd 70a6 4fbd 1280 54bd
00000110: 8032 62bd 38d9 54bd acec 4ebd b0db 55bd
00000120: da68 4fbd 209a 53bd d504 47bd 7bb3 53bd
00000130: 25e8 55bd 2980 50bd 9e10 4cbd 0249 57bd
00000140: c1bc 4fbd c9a0 46bd c89f 56bd e263 59bd
00000150: 0c69 4dbd 38e9 53bd 936b 55bd f7d0 51bd
00000160: d888 5fbd 9ab8 4abd 5050 6bbd 7630 58bd
00000170: 880e 50bd 5b4e 4ebd 9474 55bd e37a 4fbd
00000180: 0be9 4fbd c86b 54bd 0ea7 63bd 4cd7 56bd
00000190: e539 54bd bf56 47bd d2e6 51bd c1d8 5bbd
000001a0: 32fe 4ebd 70e2 53bd 6a5b 5cbd 9585 55bd
000001b0: 2463 44bd ef43 52bd 3282 67bd c50a 52bd
000001c0: c104 57bd 4ee6 54bd 0945 59bd 50c9 47bd
000001d0: 0183 50bd dbb7 4cbd 1098 59bd a9cc 49bd

fc1.0.weight_fake_quant.activation_post_process.max_val f4 [120]
0.049688473 0.050278626 0.05179704 0.05107862 0.05408194 0.051528152 0.050777316 0.05252523
0.050869443 0.051575497 0.04976458 0.050902195 0.049604002 0.04944266 0.051249012 0.050392166
0.049333204 0.05120484 0.054694507 0.053491928 0.05238115 0.05306205 0.05251275 0.050721794
0.051611617 0.049610093 0.050282482 0.050656095 0.050697405 0.0518156 0.04912108 0.052113116
0.050001442 0.053503882 0.05379988 0.049265753 0.05051249 0.053304072 0.05125472 0.052126363
0.052467886 0.05398647 0.052510563 0.05255441 0.05163974 0.052768417 0.049456052 0.050723325
0.051153455 0.05060161 0.051996727 0.049507663 0.05282179 0.050258428 0.050258733 0.051405996
0.049720675 0.05057442 0.050732404 0.0548311 0.058927346 0.05198035 0.052891172 0.05191641
0.052859753 0.056265287 0.05074362 0.050122358 0.054427728 0.051459063 0.050354082 0.050486717
0.050216734 0.05317468 0.050431877 0.051592782 0.052892294 0.05277136 0.052346777 0.05135285
0.05064674 0.05060333 0.052505776 0.05306534 0.050170254 0.050503545 0.050380222 0.050959658
0.053999558 0.050448366 0.05094358 0.05086338 0.050694305 0.05087657 0.04948114 0.05117087
0.04908072 0.051003054 0.05626129 0.051598527 0.050817594 0.05159615 0.049826853 0.053069096
0.050489232 0.05204031 0.0539938 0.05143758 0.05263979 0.050706714 0.052285045 0.052452702
0.052641213 0.052767985 0.05001899 0.050504968 0.049807206 0.050928973 0.05399712 0.051126577
00000000: 2486 4b3d f6f0 4d3d 2229 543d d137 513d
00000010: 0685 5d3d 2f0f 533d e0fb 4f3d b224 573d
00000020: 7a5c 503d d440 533d f2d5 4b3d d27e 503d
00000030: 912d 4b3d 6384 4a3d 7cea 513d 0468 4e3d
00000040: 9d11 4a3d 2bbc 513d 5907 603d 5a1a 5b3d
00000050: 9e8d 563d 9857 593d 9c17 573d a8c1 4f3d
00000060: b466 533d f433 4b3d 01f5 4d3d c47c 4f3d
00000070: 15a8 4f3d 983c 543d 3033 493d 9074 553d
00000080: 50ce 4c3d e326 5b3d 435d 5c3d e3ca 493d
00000090: 2fe6 4e3d 5f55 5a3d 78f0 513d 7482 553d
000000a0: 91e8 563d eb20 5d3d 5115 573d 4b43 573d
000000b0: 3184 533d b223 583d 6e92 4a3d 43c3 4f3d
000000c0: 4986 513d a243 4f3d 85fa 543d 8cc8 4a3d
000000d0: a95b 583d c8db 4d3d 1adc 4d3d 188f 523d
000000e0: e8a7 4b3d 1f27 4f3d c8cc 4f3d 9396 603d
000000f0: cd5d 713d 59e9 543d 6aa4 583d 4da6 543d
00000100: 7883 583d 6e76 663d 8bd8 4f3d 1a4d 4d3d
00000110: 9cef 5e3d bdc6 523d 1540 4e3d 29cb 4e3d
00000120: 10b0 4d3d b1cd 593d a891 4e3d f452 533d
00000130: 97a5 583d c826 583d 9369 563d 5e57 523d
00000140: f572 4f3d 7045 4f3d 4c10 573d 0b5b 593d
00000150: 537f 4d3d cedc 4e3d 7e5b 4e3d 13bb 503d
00000160: a42e 5d3d f2a2 4e3d 37aa 503d 1f56 503d
00000170: d5a4 4f3d f363 503d bcac 4a3d 8c98 513d
00000180: dd08 493d 94e8 503d 3d72 663d fa58 533d
00000190: 1c26 503d 7c56 533d 3e17 4c3d fb5e 593d
000001a0: cccd 4e3d 3828 553d 9a28 5d3d 36b0 523d
000001b0: d29c 573d d8b1 4f3d d828 563d a5d8 563d
000001c0: 509e 573d 3e23 583d b6e0 4c3d 4cde 4e3d
000001d0: a402 4c3d e69a 503d 162c 5d3d 1a6a 513d

fc2.0.weight f4 [84, 120]
-0.060644068 0.0077173426 -0.025702799 -0.07781804 0.060418967 0.0050271647 -0.06556394 -0.07575858
-0.023634842 -0.009204421 -0.006893656 -0.06290625 0.021075338 -0.073959276 -0.036040813 0.01856011
-0.0015227959 -0.016316071 0.001955802 -0.018304463 0.06580164 0.07218474 0.08644394 0.085449934
0.07117553 0.014101999 -0.05457608 0.088140756 0.08143654 -0.060265597 -0.024907177 -0.033134542
-0.064111814 0.073719926 -0.062618285 -0.003022395 0.024568615 0.05605101 -0.07992074 -0.078288466
0.08558999 0.019578448 -0.001841163 -0.024542328 0.044488177 -0.04076966 0.057918735 -0.01810893
0.06693617 -0.03583327 0.03377177 -0.057096545 -0.08724255 -0.006450924 0.07892671 0.0014695461
-0.07704206 -0.024851404 0.056402422 -0.054424975 -0.021339582 0.05612527 0.07748395 0.012330819
0.0716151 -0.028950384 0.025991818 0.0067626126 0.035173867 0.02877282 0.011071526 0.029951647
-0.017975802 -0.07749683 -0.0038653307 0.022498181 0.08192323 -0.07941013 0.006297057 0.064455435
0.0174566 -0.03353692 -0.04474761 -0.06763615 0.07558887 -0.013511808 0.033717513 0.07243419
0.041406464 -0.04309017 -0.029005444 0.08348781 0.019434255 0.06515363 -0.06937401 0.012516006
0.033447444 0.015208185 -0.0664964 -0.025359644 0.022404877 -0.06635527 0.015200991 0.04465308
-0.050359245 -0.022848705 0.084273346 0.08281283 0.041603606 -0.0053917314 -0.018572945 0.07493753
-0.09130861 0.027251052 -0.086846866 0.029564708 0.062028047 0.016826233 -0.053811148 -0.018849153
0.038659967 -0.025970949 0.035542022 0.053038597 -0.06685248 0.059610393 0.037996344 0.014722868
-0.0055310624 0.04578182 0.06116686 -0.07254911 -0.06240309 -0.08975473 0.05787726 0.0056841597
-0.04142639 0.017655328 0.09085126 -0.06063842 0.027069064 -0.007581242 -0.074309245 -0.07636
0.031217549 0.08952818 0.011342075 0.03274986 0.06507291 0.027335612 0.034756493 0.02458819
-0.07204478 0.0058754734 0.021153634 -0.041145787 -0.026847338 0.026698643 -0.07197235 0.05009044
-0.02354471 0.014676364 -0.02799451 -0.0025150548 0.0071796137 -0.047490966 0.00227017 0.0015746413
-0.007889542 0.019036729 -0.080221586 0.015650308 -0.08987162 -0.08316889 -0.05851183 0.08573379
0.08370934 0.02124668 -0.06213793 0.079190716 0.083568454 0.0885023 0.045837328 -0.043960102
0.061996695 -0.06976108 -0.01941429 -0.036110558 -0.049974866 0.01547819 -0.0014154854 0.016892193
-0.022984926 0.05234181 0.05725721 -0.047984228 -0.051554073 -0.037037563 0.03363374 -0.08001309
-0.049075156 -0.0103406105 -0.07945921 0.05856279 0.07914028 -0.0182717 -0.06543554 0.005504673
0.044047095 0.0027776095 -0.025343567 0.050420478 -0.07040851 0.076896004 0.053734336 -0.063144356
-0.03890496 0.067295976 0.017742913 -0.009802084 -0.056740988 0.046229202 -0.067733034 -0.08602669
-0.032875597 -0.025012232 -0.07208053 0.0525887 -0.04301576 0.0090470435 0.07979768 -0.045979243
0.07922127 -0.045365296 0.00020567382 0.01303874 0.06442172 0.045621965 0.0766367 0.018218672
0.031130658 0.056476865 0.037311375 0.027185697 -0.014617233 0.027966145 -0.037663076 -0.02087395
-0.012892964 0.07756481 0.050569367 0.08883813 -0.045672394 0.03471996 0.03940608 0.075513974
00000000: ea65 78bd c3e1 fc3b ad8e d2bc 115f 9fbd
00000010: e179 773d eaba a43b 6346 86bd 5027 9bbd
00000020: db9d c1bc 24ce 16bc 2ee4 e1bb fed4 80bd
00000030: 30a6 ac3c f677 97bd 889f 13bd 5f0b 983c
00000040: 8d98 c7ba 48a9 85bc ea2c 003b 3ef3 95bc
00000050: 03c3 863d 98d5 933d 8509 b13d 6000 af3d
00000060: 7ac4 913d 120c 673c 2b8b 5fbd 2483 b43d
00000070: 33c8 a63d 0fd9 76bd 230a ccbc 16b8 07bd
00000080: 0e4d 83bd 79fa 963d 043e 80bd 6013 46bb
00000090: 1f44 c93c be95 653d 7cad a3bd b455 a0bd
000000a0: ce49 af3d fb62 a03c 2e53 f1ba fe0c c9bc
000000b0: 3c39 363d 16fe 26bd 323c 6d3d 2e59 94bc
000000c0: d515 893d e8c5 12bd 4454 0a3d 11de 69bd
000000d0: 39ac b2bd 4662 d3bb 54a4 a13d c99d c03a
000000e0: 3ac8 9dbd 2c95 cbbc 3a06 673d b9ec 5ebd
000000f0: 59d0 aebc 9ce3 653d e8af 9e3d 3407 4a3c
00000100: f0aa 923d 5b29 edbc cbec d43c e898 dd3b
00000110: 7912 103d fab4 eb3c 5965 353c 285d f53c
00000120: fd41 93bc a8b6 9ebd 7d51 7dbb 1b4e b83c
00000130: 5ec7 a73d c7a1 a2bd 8b57 ce3b 3601 843d
00000140: 2501 8f3c 025e 09bd 4549 37bd d284 8abd
00000150: 56ce 9a3d a160 5dbc 601b 0a3d 6058 943d
00000160: d399 293d 517f 30bd d39c edbc a8fb aa3d
00000170: 9634 9f3c 446f 853d f613 8ebd ef0f 4d3c
00000180: 3000 093d c02b 793c 442f 88bd 07bf cfbc
00000190: 6f8a b73c 46e5 87bd 940d 793c 26e6 363d
000001a0: 7f45 4ebd 352d bbbc 8197 ac3d c699 a93d
000001b0: 8b68 2a3d 1fad b0bb 4a26 98bc d978 993d
000001c0: 0200 bbbd 993d df3c c5dc b1bd b031 f23c
000001d0: 1f11 7e3d 2bd7 893c 1469 5cbd 8a69 9abc
000001e0: ea59 1e3d 07c1 d4bc 8394 113d 003f 593d
000001f0: f4e9 88bd 072a 743d 0ea2 1b3d 2f38 713c
00000200: ea3d b5bb b885 3b3d 1a8a 7a3d a194 94bd
00000210: 629a 7fbd 54d1 b7bd b510 6d3d 3042 ba3b
00000220: b8ae 29bd e8a1 903c 3a10 ba3d fe5f 78bd
00000230: f1bf dd3c 116c f8bb 722f 98bd a262 9cbd
00000240: f2bb ff3c 8d5a b73d 1cd4 393c b824 063d
00000250: f244 853d efee df3c d35c 0e3d 2c6d c93c
00000260: 378c 93bd 0b87 c03b 634a ad3c 7c88 28bd
00000270: f3ee dbbc 1db7 da3c 3d66 93bd a22b 4d3d
00000280: d6e0 c0bc 2275 703c be54 e5bc 9ed3 24bb
00000290: f742 eb3b e385 42bd 22c7 143b 3264 ce3a
000002a0: 2343 01bc eaf2 9b3c 374b a4bd 1335 803c
000002b0: 9d0e b8bd 7354 aabd 1aaa 6fbd 3395 af3d
000002c0: cd6f ab3d 840d ae3c 5884 7ebd be2e a23d
000002d0: f025 ab3d b240 b53d ecbf 3b3d 820f 34bd
000002e0: 3ff0 7d3d e6de 8ebd b80a 9fbc aae8 13bd
000002f0: 72b2 4cbd 3c98 7d3c cf87 b9ba 7f61 8a3c
00000300: e24a bcbc 5e64 563d 8986 6a3d 1c8b 44bd
00000310: 5d2a 53bd b3b4 17bd 88c3 093d e7dd a3bd
00000320: 0803 49bd aa6b 29bc 83bb a2bd 89df 6f3d
00000330: 4d14 a23d 88ae 95bc 1203 86bd 8b60 b43b
00000340: ba6a 343d 8e08 363b 509d cfbc b485 4e3d
00000350: 5632 90bd a77b 9d3d 8918 5c3d d451 81bd
00000360: cf5a 1fbd 79d2 893d 9659 913c ec98 20bc
00000370: 3d69 68bd d55a 3d3d 9eb7 8abd c32e b0bd
00000380: 90a8 06bd 74e6 ccbc f59e 93bd 4067 573d
00000390: 4b31 30bd 0d3a 143c f76c a33d bb54 3cbd
000003a0: c33e a23d f6d0 39bd 25aa 5739 70a0 553c
000003b0: 89ef 833d 19de 3a3d b4f3 9c3d 533f 953c
000003c0: b905 ff3c 4954 673d d0d3 183d 8ab4 de3c
000003d0: 1e7d 6fbc 4219 e53c 9944 1abd d9ff aabc
000003e0: 033d 53bc 4dda 9e3d d321 4f3d c4f0 b53d
000003f0: fa12 3bbd 8436 0e3d 4568 213d 12a7 9a3d

fc2.0.bias f4 [84]
0.025524873 0.037283942 0.040265083 -0.01123088 0.08589342 -0.028636787 -0.08702483 -0.050380297
0.0013747967 -0.039971437 0.038429767 0.06314648 -0.091503784 0.07103865 0.058380652 -0.052697837
-0.020689296 0.08359537 -0.051202055 -0.027679946 -0.0615436 0.06295362 0.06820324 -0.04087756
0.032809723 0.035122972 0.055882342 -0.06591637 0.057605043 -0.0072933813 0.08257188 -0.022938013
-0.015939185 -0.08138554 0.006654467 -0.021336338 -0.03758271 0.03436833 -0.022709586 0.0077078515
0.008176434 0.026367685 -0.07983681 -0.008716926 0.027514074 -0.060073227 -0.034114864 -0.012192069
0.02814141 0.07821357 0.09075195 0.08274553 0.010958521 0.050459888 -0.061056476 -0.018634753
-0.04286001 0.062835455 0.0839567 0.08456963 -0.030913614 0.022319604 -0.07817278 0.05743148
0.040875368 0.029228544 0.02166171 0.03544396 -0.001833729 -0.013552466 -0.08814344 0.083458774
-0.039692346 -0.032677 0.031388834 -0.034428965 -0.06925791 0.028913986 -0.02617915 -0.019291945
-0.074787535 0.011949649 -0.025999648 -0.08914356
00000000: 8a19 d13c 0cb7 183d 00ed 243d ba01 38bc
00000010: e4e8 af3d b297 eabc 133a b2bd 925b 4ebd
00000020: 8632 b43a 17b9 23bd 8868 1d3d f152 813d
00000030: 5666 bbbd b67c 913d 8d20 6f3d b0d9 57bd
00000040: 997c a9bc 0d34 ab3d 3fb9 51bd 0ec1 e2bc
00000050: 2415 7cbd d4ed 803d 24ae 8b3d 3a6f 27bd
00000060: 7d63 063d 1bdd 0f3d e2e4 643d 29ff 86bd
00000070: 44f3 6b3d 51fd eebb 721b a93d 80e8 bbbc
00000080: e592 82bc 76ad a6bd b70d da3b 8bc9 aebc
00000090: 54f0 19bd cec5 0c3d 7409 babc 2592 fc3b
000000a0: 73f6 053c 0b01 d83c 7b81 a3bd 70d1 0ebc
000000b0: 3265 e13c 580f 76bd 07bc 0bbd 3ec1 47bc
000000c0: d088 e63c 702e a03d 29dc b93d 7d76 a93d
000000d0: 5e8b 333c 07af 4e3d 5b16 7abd e9a7 98bc
000000e0: fa8d 2fbd e0af 803d 7ef1 ab3d d832 ad3d
000000f0: 8c3e fdbc 9ad7 b63c 0d19 a0bd 463d 6b3d
00000100: ee6c 273d b370 ef3c e673 b13c b02d 113d
00000110: bc59 f0ba 2a0b 5ebc 8c84 b4bd 6fec aa3d
00000120: 7194 22bd 51d8 05bd 9491 003d 6305 0dbd
00000130: 17d7 8dbd 06dd ec3c a875 d6bc 240a 9ebc
00000140: 352a 99bd 76c8 433c 37fd d4bc e690 b6bd

fc2.0.weight_fake_quant.scale f4 [84]
0.012296336 0.012113511 0.012367771 0.012171288 0.011927971 0.012325227 0.012763377 0.012868777
0.012146801 0.011977378 0.012286999 0.012567984 0.012323931 0.012740777 0.012464852 0.012792953
0.01237292 0.012453378 0.012428241 0.012113971 0.012087906 0.012388875 0.012167262 0.012151387
0.012040455 0.012494342 0.011959868 0.012380484 0.012280919 0.013035453 0.012514668 0.012066798
0.01225672 0.012260712 0.012265337 0.013346422 0.012430214 0.011901581 0.012076194 0.012280627
0.012042075 0.012031723 0.01217941 0.012567116 0.012430036 0.012039038 0.012226829 0.012096813
0.012998032 0.012213369 0.012247003 0.01220029 0.012129031 0.012096921 0.012914785 0.012816968
0.012105187 0.012409694 0.012142855 0.012263817 0.012265623 0.01236197 0.011990923 0.012784586
0.012684348 0.012212381 0.012148979 0.01237536 0.012172461 0.012456176 0.012821072 0.012270787
0.012493852 0.011963907 0.012371244 0.012927498 0.0133317625 0.012127094 0.011908421 0.012761591
0.01210628 0.0119306855 0.0121204285 0.0121351825
00000000: 9276 493c bf77 463c 31a2 4a3c 156a 473c
00000010: 896d 433c c0ef 493c 7c1d 513c 90d7 523c
00000020: 6003 473c c43c 443c 694f 493c f2e9 4d3c
00000030: 50ea 493c b1be 503c 6139 4c3c 8999 513c
00000040: cab7 4a3c 4109 4c3c d29f 4b3c ad79 463c
00000050: 5a0c 463c b5fa 4a3c 3259 473c 9c16 473c
00000060: 5445 453c 12b5 4c3c 52f3 433c 83d7 4a3c
00000070: e835 493c a792 553c 520a 4d3c d2b3 453c
00000080: 69d0 483c 27e1 483c 8df4 483c f4aa 5a3c
00000090: 19a8 4b3c d9fe 423c 3bdb 453c af34 493c
000000a0: 204c 453c b420 453c 268c 473c 4ee6 4d3c
000000b0: 5aa7 4b3c 633f 453c 0a53 483c b631 463c
000000c0: b3f5 543c 951a 483c a7a7 483c bae3 473c
000000d0: d8b8 463c 2a32 463c 8998 533c 43fe 513c
000000e0: d654 463c 0752 4b3c d3f2 463c 2dee 483c
000000f0: c0f5 483c dc89 4a3c 9475 443c 7176 513c
00000100: 03d2 4f3c 7016 483c 830c 473c 06c2 4a3c
00000110: 006f 473c fd14 4c3c 790f 523c 690b 493c
00000120: 03b3 4c3c 4304 443c c2b0 4a3c dbcd 533c
00000130: 776d 5a3c b8b0 463c 8a1b 433c fe15 513c
00000140: 6b59 463c ec78 433c c394 463c a5d2 463c

fc2.0.weight_fake_quant.activation_post_process.min_val f4 [84]
-0.09222251 -0.09008274 -0.092758276 -0.091284655 -0.08945978 -0.0924392 -0.090439774 -0.09293387
-0.09068507 -0.08844244 -0.09215249 -0.08964082 -0.092429474 -0.09555582 -0.09348638 -0.09594715
-0.0927969 -0.09044584 -0.0932118 -0.08543146 -0.090188354 -0.09275931 -0.089508526 -0.08983253
-0.08827356 -0.09271679 -0.08908195 -0.09285362 -0.08874288 -0.09776589 -0.09048408 -0.09050098
-0.0919254 -0.091955334 -0.0905234 -0.10009816 -0.09266663 -0.08913636 -0.090571456 -0.092104696
-0.09031556 -0.087025926 -0.09134557 -0.09425336 -0.08681964 -0.08449061 -0.09047656 -0.09072609
-0.09395285 -0.09160026 -0.091852516 -0.091502175 -0.09096773 -0.090726905 -0.096860886 -0.09612726
-0.0907889 -0.08862064 -0.09075515 -0.087278746 -0.09107301 -0.09271477 -0.08940042 -0.09588439
-0.095132604 -0.09055632 -0.09111734 -0.0928152 -0.089772254 -0.09342132 -0.096158035 -0.088872194
-0.087837614 -0.088659264 -0.09278432 -0.09695623 -0.099988215 -0.0909532 -0.08663219 -0.095711924
-0.08918033 -0.0891708 -0.09090321 -0.08884267
00000000: 28df bcbd 4d7d b8bd 0df8 bdbd 73f3 babd
00000010: b036 b7bd c350 bdbd 7d38 b9bd 1d54 bebd
00000020: 18b9 b9bd 4f21 b5bd 72ba bcbd 9b95 b7bd
00000030: aa4b bdbd c5b2 c3bd ca75 bfbd f07f c4bd
00000040: 4d0c bebd ab3b b9bd d4e5 bebd b0f6 aebd
00000050: acb4 b8bd 98f8 bdbd 3f50 b7bd 1efa b7bd
00000060: c5c8 b4bd 4de2 bdbd 9970 b6bd 0a2a bebd
00000070: d4be b5bd 7c39 c8bd b84f b9bd 9458 b9bd
00000080: 6243 bcbd 1453 bcbd 5564 b9bd 4400 cdbd
00000090: 01c8 bdbd 208d b6bd 877d b9bd 63a1 bcbd
000000a0: 5df7 b8bd a63a b2bd 6313 bbbd e807 c1bd
000000b0: 7fce b1bd 6a09 adbd c64b b9bd 9ace b9bd
000000c0: 5a6a c0bd eb98 bbbd 2c1d bcbd 7e65 bbbd
000000d0: 4a4d babd 07cf b9bd 005f c6bd 5ede c4bd
000000e0: 88ef b9bd bd7e b5bd d6dd b9bd 33bf b2bd
000000f0: 7c84 babd 3ee1 bdbd 9117 b7bd 095f c4bd
00000100: e2d4 c2bd 9875 b9bd ba9b babd e515 bebd
00000110: 84da b7bd ad53 bfbd 81ee c4bd a002 b6bd
00000120: 35e4 b3bd fd92 b5bd b505 bebd fd90 c6bd
00000130: 9fc6 ccbd ac45 babd 386c b1bd 9d04 c4bd
00000140: 2da4 b6bd 2e9f b6bd 762b babd 25f3 b5bd

fc2.0.weight_fake_quant.activation_post_process.max_val f4 [84]
0.08817083 0.09085132 0.09226462 0.09086404 0.08781667 0.08993918 0.09572533 0.09651582
0.091101 0.08983033 0.08649413 0.09425987 0.0899869 0.09161847 0.09181408 0.09265794
0.08777952 0.09340033 0.09040116 0.09085478 0.09065929 0.092916556 0.09125446 0.0911354
0.090303406 0.09370756 0.089699 0.091501154 0.092106886 0.0950505 0.09386 0.089491285
0.09061111 0.08952032 0.091990024 0.09635316 0.093226604 0.08926185 0.08814198 0.09149801
0.0898286 0.090237916 0.090305254 0.0879004 0.09322527 0.09029278 0.09170122 0.089724965
0.09748524 0.0882106 0.09143377 0.0900459 0.08947234 0.090152204 0.08928824 0.08888484
0.09023337 0.0930727 0.091071405 0.091978624 0.09199216 0.08838501 0.08993192 0.09511601
0.09077906 0.09159285 0.090691045 0.08661247 0.09129345 0.08887292 0.0921905 0.0920309
0.09370388 0.089729294 0.092033796 0.09322268 0.0978046 0.08952907 0.08931316 0.09439697
0.0907971 0.08948014 0.090799816 0.09101386
00000000: e892 b43d 4210 ba3d 3cf5 bc3d ed16 ba3d
00000010: 3ad9 b33d 0832 b83d a40b c43d 16aa c53d
00000020: 2993 ba3d f7f8 b73d d623 b13d 520b c13d
00000030: 0d4b b83d 77a2 bb3d 0509 bc3d 72c3 bd3d
00000040: c0c5 b33d ac48 bf3d 3e24 b93d 1212 ba3d
00000050: 94ab b93d 094b be3d 9ee3 ba3d 32a5 ba3d
00000060: fef0 b83d c0e9 bf3d 1cb4 b73d f564 bb3d
00000070: 89a2 bc3d d6a9 c23d ac39 c03d 3547 b73d
00000080: 5192 b93d 6e56 b73d 4465 bc3d ce54 c53d
00000090: 97ed be3d ebce b63d c883 b43d 4f63 bb3d
000000a0: 0ff8 b73d a8ce b83d f6f1 b83d 2005 b43d
000000b0: e4ec be3d 6ceb b83d d9cd bb3d b9c1 b73d
000000c0: 57a6 c73d c2a7 b43d a141 bb3d fc69 b83d
000000d0: 463d b73d b8a1 b83d c1dc b63d 4109 b63d
000000e0: 46cc b83d e69c be3d a583 ba3d 4a5f bc3d
000000f0: 6366 bc3d 3303 b53d 3a2e b83d 2fcc c23d
00000100: 5fea b93d 0895 bb3d 3abc b93d e161 b13d
00000110: 0ff8 ba3d 0103 b63d 5fce bc3d b27a bc3d
00000120: d2e7 bf3d fec3 b73d 377c bc3d 88eb be3d
00000130: c74d c83d 045b b73d d1e9 b63d 3353 c13d
00000140: d4f3 b93d 5d41 b73d 41f5 b93d 7a65 ba3d
