checkpoint/best_LeNet5_relu_quantized_4_bits.ckpt (torch, 271820 bytes, 10 tensors)

conv1.0.weight f4 [6, 3, 5, 5]
00000000: 4c8a f3bd 5e9a 70bd 6b62 b2bd e49e ba3e
00000010: 53cd ea3d 7a3f 8e3d 4c96 873e e654 1c3f
00000020: 9e21 633f ac16 a93e 1bfc f7bd 844d 2e3e
00000030: db36 d2bc cd7e 843e 6ad7 99be 38d7 4dbe
00000040: 1491 e03c 932e c2be 5bdd 023e 96c1 04bf
00000050: 8083 123d 36d4 84be f3d4 d8be 18de 0ebd
00000060: 7426 94be c1e1 9fbd fc52 8aba 2999 1bbf
00000070: 0e9f 5cbe 3cee 62be 5ce9 4c3d acda df3e
00000080: 5f08 083e ba62 723e 5d47 383e eb5f a4bd
00000090: e307 cd3e e5cb 06be 3f97 4e3c 3d5e 0abe
000000a0: c7e8 bdbd 2987 3abd 20d8 3cbf c1ff 10bd
000000b0: ebfb 9dbe c2ff 2b3d 9b17 4f3e 6447 82be
000000c0: 9232 403e 5884 c13c fc8d 373d 3907 4f3c
000000d0: d138 07bf 919c 91be afad 0cbe 3fef 383e
000000e0: 5120 213e e611 a8bd f4a1 343e fbcf 2e3e
000000f0: ecdf a5bd a6f6 9d3e c06d 74be 013f 5b3e
00000100: 6c1a 1cbd 7524 64be e9c4 0a3d 0042 e3be
00000110: 95da 143e 67f8 733c bff8 c43d 27c0 b83e
00000120: 0194 aa3c 6ef2 c73e 5b6c 7c3e e884 41be
00000130: 89c0 043e eece 06bd c24e e2bc 00f2 573d
00000140: 4aea 34bf 5b8f 563c 701c 183f c71f a0bd
00000150: 56aa 31bd 5fa4 1f3f 2779 b9be 1da6 f9be
00000160: 49ed 833d ebed d3bb 35b6 043f 0f1b d6bd
00000170: fa41 b5be 15c9 23bd b081 28bd 7185 16be
00000180: b904 6e3e 585c 533e 0843 3cbd bd24 b83d
00000190: 185a 3dbd 0a9b d13d 852b b23d a9b5 3abd
000001a0: 2f0d ab3c 7425 26bf 2081 b63d 1c0a 233f
000001b0: 3b10 043d 4834 bd3d e7a3 243f 84f5 dcbe
000001c0: bdc5 00bf c32b 303e 23c7 113e e4e2 a93e
000001d0: 49f2 7ebd 2886 9fbe c3e0 7e3d 5c80 75bc
000001e0: f776 90be 3e6f 613d 3ce6 a23d 27e8 6cbe
000001f0: 2691 c6bd 8648 7cbe 9caa 463e 5b38 42bd
00000200: 6683 6d3d 2623 d33c 241b 4dbf 14b4 e53d
00000210: f71f 173f 1054 89bd 71bc 89bd bc1c 283f
00000220: c1f3 a8be 0493 bfbe a5d7 1f3e 69d1 20bd
00000230: f6e3 f43e d540 0abd 39b7 5dbe b850 77bd
00000240: b5da 1dbd 5257 04be ba52 233e 0595 453e
00000250: 704e 8fbd 3fe4 033c f296 9cbc 7683 803d
00000260: 14f5 b0bc ff9f 0abe d49c 17be 0f84 cb3b
00000270: a55d 193e 4bc6 7b3e 2d6e 5b3e 3d44 17bc
00000280: a79f fe3d 8914 463e b5e1 8a3e ebe0 733e
00000290: 03ef 6e3e 9e5b f73d 222d f63d 009f 823e
000002a0: 6094 733e 75dd ee3d a9aa 463e da04 203e
000002b0: a086 2a3d f0e7 5c3d 9dd2 5a3d 2450 6ebe
000002c0: 4037 183e 0e5a cb3d ca29 d0bd 7108 11be
000002d0: ff23 51be a1da 543d 28af 8c3c a30d 343d
000002e0: 0db6 80bb 33f7 79be 3bc9 c4bd 10af 40bc
000002f0: 2697 76bc 7113 b3bc ec1d 59be b69e 1abe
00000300: e704 a1bd 7aad 21be 3acc 06bc d7de 86be
00000310: 5a0f 3bbe 9499 36be f5a8 ccbd d91d 02be
00000320: fca6 203e 7c26 a83e 638e 663e cac7 7a3d
00000330: 230a 1fbe bb92 c73d 3536 703e 6b23 743e
00000340: 3586 123e 6286 83bc 0a96 0fbe 3896 023d
00000350: 606c d13d be6d 223e 42dc acbd a264 623d
00000360: de0c b23c bd6b 31bd ff20 fd3d 97e9 c3bb
00000370: 6900 b03c 4d75 e23d 26ec 523d 3ee5 9dbd
00000380: ce1b c7bd cccf ddbd 8e24 07be a368 48be
00000390: 7ce4 1cbe a772 8d3d ef8f 4bbe a9d4 6bbe
000003a0: 5989 a1be cc32 a6be 00bd d7bd 73ec 49be
000003b0: 1d80 88be aade a1be bb1a afbe 4c94 9abe
000003c0: 2fce 17be 5f11 2fbe 7f14 82be daad 6cbe
000003d0: 2285 2bbe 3925 00be 9a5e 42be 8ae4 4dbd
000003e0: 8eaa 34be 50ab c0bd 8343 8ebd 0411 c1bd
000003f0: b910 073e 8d65 533d 866a 4f3d a405 babc
-0.118916124 -0.058740966 -0.08710178 0.3644935 0.11464944 0.06945701 0.26481855 0.61067045
0.8872317 0.3302511 -0.12108632 0.17021757 -0.025660923 0.2587799 -0.3004716 -0.2010163
0.027412929 -0.37926158 0.12779753 -0.5185789 0.03576994 -0.25943154 -0.42349967 -0.034879774
-0.28935587 -0.07806731 -0.0010553296 -0.6078058 -0.2154505 -0.22161192 0.050027236 0.4372152
0.13284443 0.23670474 0.17995973 -0.080261074 0.4004508 -0.13163717 0.012609302 -0.13512512
-0.092729144 -0.045539055 -0.7376728 -0.035400156 -0.3085626 0.041991957 0.20223849 -0.25445092
0.18769291 0.023622677 0.04481314 0.012635999 -0.5282107 -0.28439763 -0.1373813 0.18060015
0.15734984 -0.08206539 0.17639905 0.17071526 -0.0809935 0.3085224 -0.23869991 0.21410753
-0.038111135 -0.22279532 0.033879194 -0.44386292 0.14536507 0.014890767 0.09617757 0.360841
0.020822527 0.39052147 0.2465071 -0.18898356 0.12964071 -0.032912187 -0.027625445 0.052721024
-0.70669997 0.013095702 0.5941839 -0.07818561 -0.043375336 0.62360185 -0.36225244 -0.48759547
0.06441743 -0.006467571 0.51840526 -0.1045438 -0.354019 -0.03998669 -0.041139305 -0.14699341
0.23243989 0.20640695 -0.045962363 0.08991382 -0.0462285 0.102346495 0.08699707 -0.0455834
0.02088031 -0.649009 0.089113474 0.636873 0.03224204 0.092384875 0.64312595 -0.43156064
-0.50301725 0.17204194 0.14236121 0.33180916 -0.06224278 -0.3115704 0.06222607 -0.014984217
-0.28215763 0.05503773 0.0795407 -0.23135434 -0.096956536 -0.2463704 0.1940102 -0.047417026
0.05798664 0.025773596 -0.8011954 0.11215988 0.5903315 -0.06705487 -0.067253955 0.65668845
-0.3299847 -0.37416852 0.15609606 -0.03926221 0.4783017 -0.033753235 -0.21651925 -0.060379714
-0.038538653 -0.12923935 0.15949526 0.19295128 -0.06997383 0.008050024 -0.019114945 0.06275074
-0.021601237 -0.13537596 -0.14805919 0.006210811 0.14977129 0.24587362 0.21428747 -0.009232578
0.12432795 0.19343771 0.27125326 0.23816268 0.23333363 0.120780215 0.12020327 0.25511932
0.2378707 0.11663333 0.19401039 0.1562685 0.041632295 0.05393213 0.053423513 -0.23272759
0.14864826 0.09929286 -0.10164221 -0.14163376 -0.20423888 0.051966313 0.017173365 0.043958317
-0.003927952 -0.24410705 -0.09608694 -0.011760488 -0.015050685 -0.021859856 -0.2120282 -0.15099606
-0.07862263 -0.15788832 -0.008227402 -0.26341888 -0.18267575 -0.17832023 -0.099931635 -0.12706698
0.156887 0.3284186 0.22515254 0.06122569 -0.1553121 0.097447835 0.23458178 0.23841636
0.14309008 -0.01605529 -0.14022079 0.03188154 0.10225749 0.15862176 -0.08440448 0.055271752
0.021734651 -0.043315638 0.12359809 -0.005978774 0.02148457 0.110575296 0.05149474 -0.0770974
-0.097221 -0.1083065 -0.13197538 -0.19571166 -0.15321535 0.06906634 -0.19879125 -0.23030342
-0.315501 -0.3246063 -0.10534096 -0.19719104 -0.26660243 -0.31615192 -0.3420008 -0.30191267
-0.14824747 -0.1709647 -0.25406262 -0.23113194 -0.16750005 -0.125142 -0.189814 -0.05026678
-0.17643186 -0.09407675 -0.069464706 -0.094270736 0.13189973 0.05161052 0.050638698 -0.022707768

conv1.0.bias f4 [6]
00000000: 649f 04bf 174f d73e 1e5d 943f 79d0 0c3f
00000010: 3cf5 243e d319 b13d
-0.5180571 0.42052528 1.1590917 0.55005604 0.16109174 0.08647504

conv2.0.weight f4 [16, 6, 5, 5]
00000000: a19d cfbc e277 1e3d 7286 2c3d bc27 313d
00000010: 9926 003c 0ab0 b93d 658d 093e e818 ff3d
00000020: de2c 193e af70 ac3d 129a fb3d 33f6 393e
00000030: 4999 4f3e 36b7 e13d 55f3 203e ec84 29bc
00000040: c084 2a3e 4416 553e 1c46 e63d d220 ff3d
00000050: c722 2b3d 7b7b be3d 7ff0 813e db0c 953e
00000060: f112 953e dd6a eb3d a72a ff3d e050 013e
00000070: 497b ff3d 8479 f23d a1f2 ff3d 359d 4a3e
00000080: 8ea9 2e3e d0c9 193e 57ab ff3d e35b 443e
00000090: d766 403e 2cf7 203e d063 043e b675 383e
000000a0: 5e0c 553e d6b0 553e a3d9 0d3e b971 2b3e
000000b0: 9722 3f3e d700 b13d f662 043e fb49 553e
000000c0: 3936 2f3e 2e8e 173e bfac a13d 10b2 9ebd
000000d0: 7ebe 29bd a8b2 a2bc 66ef 1fbd 063c 363d
000000e0: 5192 093d 2924 9b3c 3085 8fbd 0090 9abc
000000f0: 830e fc3d 55f8 57bd d134 e93d c1c6 1bbb
00000100: 9bb2 fc3c a91c 05be 5874 ea3b abb4 ec3d
00000110: 2bbf f03d 5403 433e 837a 953d 92f6 98bd
00000120: 7762 21bd a94a 863d 066e 553e 689c ff3d
00000130: 3d3a 2a3d a48c b5bd 7c64 46bd b9d9 fbbd
00000140: 0140 f8ba 20a9 1d3d a180 363d 16ff afbc
00000150: ee3c 16bd f553 1dbd 3328 7cbd 18d3 a9b9
00000160: f2e3 4d3d 06f5 ddbd 3396 0dbd b1ca 08bd
00000170: 9799 b1bd e660 2a3d ed2c b7bd 0e85 0f3d
00000180: 47cf 03bd cdb9 a7bb acc8 09be 5bca 08bd
00000190: 09ec ffbd 83f3 80bd 3e75 9abd 0759 93bd
000001a0: f5e0 40be 257a bfbc f09b 6cbb 39d9 2dbd
000001b0: f36c 6bbb 8e00 bfbd d08e 26bd 9219 56bd
000001c0: f4d9 cb3c 2f8b a3bc 1361 2abd 7328 183c
000001d0: 8b33 1abd 5bc0 2fbd 6b56 80bc f38e 80bd
000001e0: 2d2b 413d bfd5 2c3e 97c9 ff3d c1a2 cdbc
000001f0: 8b24 03be 50e8 293d 5c7b 8c3d c487 553d
00000200: 4501 8b3d 77a4 2b3d 3875 d7bd 3271 c8bc
00000210: f419 c93b 5edb 2a3d 7fbc 253d 1eb4 0bbe
00000220: 62de 54be 4579 01be e630 64bd c51a 28bd
00000230: 25c9 06be 2325 52be 0f68 66be a6df 45be
00000240: d0d6 a7bd 9feb 28bd ad54 e6bd 8384 34be
00000250: f71b 5fbe c494 f5bd 1596 1fbe 2657 fe3c
00000260: 5021 733d b189 2a3d e45e e4bd af0f 26bd
00000270: fa3e 003e a450 67bc 3e2a 3abe da40 2abd
00000280: 4eff ea3d 37f3 bbbd 5609 08be 8bdc 9fbd
00000290: 7b72 a8bc c435 93bc 6613 ffbd 91d4 80bc
000002a0: a0fb efbb 2afd f1bd af30 0a3d 0475 643c
000002b0: 4af2 d6bc bdf0 f1bc 74bb ffbd c567 0bbe
000002c0: 998c 04bd 96d6 973d 9cd9 293d 1b83 d5bd
000002d0: 5ead 32bd e5dc eb3d c3c6 42bc e6af 10be
000002e0: 5c0e 9abc 17e9 053d 7fcd 083d 0b9d 50be
000002f0: 1a0f 48bd 1115 7c3e b6cb 2ebd e6ea fabd
00000300: 5e5b 1abd 7a90 7e3e bd44 fc3d 9bd2 2abd
00000310: 6850 29bd c518 b83d f7bb c23d bb41 3abd
00000320: ef1f 2abd 06c2 c73d 2f89 6c3d c51c 70bd
00000330: d56c e83c bb67 a93d 1b3f 2a3d fb0c 55be
00000340: 5d28 ddbd f0bb f53d 6d45 213e 0389 02be
00000350: 933b 8ebe 18fe 86bd 128b 743e e461 16bd
00000360: d741 83be 64b7 35be 3295 0c3e dc07 8f3e
00000370: 1be8 1fbe 868b 0abe 8fd1 2a3d 5703 623e
00000380: 2e0e 3f3e 9f40 86bc 9339 b3bd 3eae eabc
00000390: d517 2dbe a8d8 293d 7819 2abd b4fe 2ebd
000003a0: cee9 06be 36c3 f3bd fcd0 0c3e 4100 cabd
000003b0: c97a 9abe f9fc f3bd 0aaf b23d b4c3 803e
000003c0: 22ad 4ebe 7ef6 78be b085 1dbd 1293 243e
000003d0: 8782 883e 44ef 35be ca96 ffbd 09dd 133e
000003e0: 72dc 913e 9e1f 8d3e d571 2abd 6922 eabd
000003f0: 2a75 5cbe 5e1b ecbc 7b26 dc3d b255 79be
-0.025343718 0.038688548 0.042120405 0.043250784 0.007821702 0.0906678 0.13432844 0.12455922
0.14958522 0.0841993 0.12285246 0.18160324 0.20273317 0.11021273 0.15717824 -0.010346632
0.16652203 0.20809275 0.11243841 0.12457432 0.041781213 0.09300896 0.25378796 0.2911137
0.29116014 0.11494992 0.12459307 0.12628508 0.12474687 0.118395835 0.1249745 0.19786532
0.17056867 0.15018392 0.12483852 0.19175677 0.1878923 0.15719289 0.129287 0.18013653
0.20805499 0.20868239 0.13852553 0.167426 0.18665539 0.08642738 0.12928376 0.20829003
0.17110528 0.14800331 0.07894277 -0.077488065 -0.041441433 -0.01986058 -0.039046668 0.044490837
0.033586804 0.018938141 -0.070078254 -0.018867493 0.123074554 -0.052727062 0.11387027 -0.002376959
0.030846884 -0.12999214 0.0071549825 0.11557897 0.117552124 0.19044238 0.07298758 -0.074689046
-0.039400544 0.06557209 0.20842752 0.12481004 0.041559447 -0.08864716 -0.048435673 -0.12297387
-0.0018939973 0.03849137 0.044556264 -0.02148394 -0.0366792 -0.038410146 -0.061561774 -0.0003239147
0.050266214 -0.1083775 -0.03456707 -0.033396427 -0.08671873 0.041596316 -0.08944116 0.035039
-0.032180097 -0.0051185847 -0.13455456 -0.033396106 -0.12496192 -0.06296446 -0.075418934 -0.07194715
-0.18835814 -0.023373673 -0.0036103688 -0.042443488 -0.0035923093 -0.09326278 -0.04066354 -0.05227048
0.024884202 -0.019963829 -0.041596483 0.009286988 -0.03764681 -0.042908054 -0.015666207 -0.062772654
0.047160316 0.16878413 0.12489622 -0.025102021 -0.12806909 0.041481316 0.068594664 0.05213143
0.067873515 0.041904893 -0.105204046 -0.024468038 0.006137127 0.04171311 0.040462967 -0.13642928
-0.20787957 -0.12643917 -0.055710696 -0.041041154 -0.13162668 -0.20521979 -0.22500633 -0.19323596
-0.08195269 -0.04124033 -0.112466194 -0.17628674 -0.21788011 -0.119912654 -0.15584596 0.031047415
0.05935794 0.04163522 -0.111509115 -0.0405423 0.12524024 -0.014118347 -0.18180177 -0.041565754
0.11474477 -0.09177249 -0.13284811 -0.07805737 -0.020562401 -0.017969973 -0.12454872 -0.01572636
-0.007323697 -0.11815865 0.033737835 0.013943914 -0.02623858 -0.029533738 -0.12486926 -0.13613804
-0.032360647 0.07413976 0.041467294 -0.10425397 -0.043622367 0.11516742 -0.011888209 -0.141296
-0.018805675 0.032692995 0.0333991 -0.20372407 -0.048842527 0.24617411 -0.042674743 -0.122518346
-0.03768479 0.24859801 0.12317798 -0.041704755 -0.041336447 0.089890994 0.09508508 -0.04547284
-0.04153436 0.09753804 0.057748016 -0.058621187 0.028372208 0.08271738 0.04156409 -0.20805733
-0.10798714 0.11998737 0.1574914 -0.12747578 -0.27779827 -0.06591433 0.23881176 -0.03671445
-0.2563617 -0.17745739 0.13728788 0.27935684 -0.15615885 -0.13529786 0.041703757 0.22071587
0.18657753 -0.016388236 -0.08751216 -0.028647538 -0.16903622 0.041466385 -0.041528195 -0.042723373
-0.13175127 -0.11902468 0.13751596 -0.0986333 -0.30171803 -0.11913485 0.08724792 0.2514931
-0.20183232 -0.2431278 -0.038457572 0.16071728 0.26662084 -0.17767054 -0.124799326 0.14439787
0.284885 0.27563184 -0.041612465 -0.114323445 -0.2152907 -0.028821643 0.10749527 -0.24349096

conv2.0.bias f4 [16]
00000000: 8e70 553e 51e0 1f3e 6c75 a0be 378d 4ebe
00000010: 99e1 e1be 3c84 c3be d69c 3abf 98e2 f93e
00000020: ec40 fa3e c65b f83a 1ecc d5bd 4357 f8bd
00000030: 586e 6c3f 66ac dfbb bb59 043e f554 babc
0.20843717 0.15612914 -0.31339586 -0.20171057 -0.4411743 -0.38186824 -0.7289556 0.4880569
0.48877656 0.0018948249 -0.10439323 -0.12126019 0.9235587 -0.0068259714 0.12924854 -0.022745589

fc1.0.weight f4 [120, 400]
00000000: 3ebe 843d 5fed 5b3c dd54 763c 8d03 223d
00000010: 2022 9b3d ba58 c1ba 7b88 6ebc 3cc8 52bd
00000020: 827e c2bb 9bd7 9c3d 453f 093c f861 713c
00000030: fb3a 8dbd 15cf 883a 5625 d63d c131 f83c
00000040: 68cd 703c 474d c7bd b212 97bd 88db 973d
00000050: 0f1c c93d d62f 9e3c 9209 41bd 02ee 23bd
00000060: 503a a03d b216 013d bd2b b9bc 2e13 92bd
00000070: 1af6 1ebd db48 553b e90a b03d 57f6 2ebc
00000080: 1834 a3bc b807 c5bc ee8d 24bb 45e6 373d
00000090: 4c24 97bb bc45 b4bc 8007 9d3a 048e 513d
000000a0: ec14 00bc 1888 24bd fee2 233d 1839 05bc
000000b0: 3bed 8ebc 3b80 f13c c3d0 c93c ca06 a63c
000000c0: 8e2f 9a3b e193 023b 8a09 2e3b b553 40bd
000000d0: 8454 e13c 1468 8fbc 047c 123c 1afa dcbb
000000e0: 5736 efbc d514 7f3c b2d4 623c a429 d0bc
000000f0: a66c babc 0734 e23c c2a3 313d 20a5 d1bc
00000100: 5b4b acbc 5311 2fbd c5f1 a7bc 66bc d13c
00000110: aff7 8a3c fee9 ccbc fdbc 733c 178c 8b3b
00000120: 1a06 f53c 8a34 303c 22b4 693c 7da8 f53c
00000130: 0024 83bc 9603 183c 2a71 9cbb f1ba a2bc
00000140: 8df3 d53b 37b3 3ebc d411 0cbc 202b 76bd
00000150: 2402 853c c1f3 a5bc 8a00 4e3b 4165 b3bc
00000160: 0ac0 87bd 3a8f 4dbd c608 03bc 8d01 87bd
00000170: f408 6ebc 1d35 78bc b82c b8bc dc05 7bbb
00000180: 0ab4 7d3d 4f24 923d fcc5 973d 3508 3a3d
00000190: ba3f 03bc b7b2 e2b9 2382 163d fffd d8bc
000001a0: b1d7 db3c b248 b93b c886 1abd f9c4 043d
000001b0: ea5c f73c ffe8 573c 79bd 12bd 96b0 1f3d
000001c0: 0403 12bc 1c13 09bd ec9b 67bc 94f4 babc
000001d0: d9ff cbbc 8759 2b3c 860b 273c 0c34 5abd
000001e0: d935 c43c acbf a03d 716a 963d 4679 393d
000001f0: 5ab5 5abd 09c2 de3c eb86 653c 750c 94bc
00000200: ad8e 86bb 49fa f6bb c6f7 283d 36b2 b4bb
00000210: 459d 7cbd dd26 9dbc 5a5f 753c 9808 f83c
00000220: 5557 2e3c 043f 0abb b98b 1f3d 234b 6abc
00000230: d250 bc3c 6fbb b4bb 1098 873d ce74 c9bc
00000240: d93a ee3c c78a 433d c5d5 063d 8925 52bb
00000250: 0022 75bc d16a ec3c b1f2 4a3d f101 81bc
00000260: 18e7 75bb f397 13bc daad 7ebc ef2e 6dba
00000270: ae3a bfbd b4b5 9abd e5e7 77bd 575a 75bc
00000280: fcd3 5a3c 85bd 60bd 4265 b23b ee81 f3bc
00000290: a2aa 213d 8be8 6dbc f6b0 91bd fa36 57bd
000002a0: 79b1 e43c e55a 693c 37b4 803d e7a6 373c
000002b0: c838 e1bc 3f58 6cbc c6a4 03b7 0b84 623d
000002c0: 9d44 aabc fd2c 4c3c 222a 253c f503 e0bc
000002d0: a351 da3c 75c1 ae3c 8de6 50bd e963 94bc
000002e0: f642 363d 9cc3 6d3d eddb 3fbd fb3d 1b3c
000002f0: 4371 1b3d 4868 873c 47f7 3c3d 8829 c9bc
00000300: b7d5 cf3b e60d 10bd 37a0 59bc e76a f03d
00000310: bd29 963c e66b 7b3d 8445 5c3d a405 163d
00000320: f95d 4c3c d0e8 983c accd e0bc 16b8 dd3c
00000330: 3fd1 f7ba 5776 133d 5923 c73c f224 3abd
00000340: 28b6 87bd 9d9b 21bd ce60 74bc 2653 bf3a
00000350: 1489 3cbd abfb 91bd 746b a7bc 8c5f 35bd
00000360: 12c5 fabc 2b80 9739 98a7 09bc 7ea8 96bc
00000370: 7921 6fbc c1ea ec3b 1238 f63b e29b e2ba
00000380: 8ee8 4d3c c7ab 153d e3d8 ce3c b423 033b
00000390: 0056 153d 45d2 81bb 6fa8 80bc 6017 7f3a
000003a0: c2ae fcbc 7169 803c a11b d6bc 99b8 24bd
000003b0: a113 a13c 27d0 353d 8e68 f03c 046a 2cbc
000003c0: f2f3 f33b 04d6 14bd 9f97 85bc f7b2 9cbb
000003d0: 0c7b 2e3c c7fe 6c3c e5d5 6f3b ba6f 813b
000003e0: 205b a4bb 88a6 a4ba 52de aa3d a65a a6bc
000003f0: ad69 bdbc 5345 033c 3a7c 8d3d 316a 4d3d
0.06481598 0.013423293 0.015034881 0.039554168 0.07574868 -0.0014751174 -0.014558907 -0.05146049
-0.005935491 0.07658311 0.008376901 0.01473283 -0.06896015 0.0010437692 0.1045634 0.030297162
0.01469741 -0.09731536 -0.07376613 0.07414919 0.09819805 0.01930992 -0.047128268 -0.040021904
0.07823622 0.031515785 -0.022603864 -0.071325645 -0.03880892 0.0032544646 0.08595831 -0.010678849
-0.019922301 -0.024051532 -0.002510901 0.044897337 -0.004612481 -0.022005908 0.0011980385 0.051160827
-0.007817488 -0.04016885 0.0400114 -0.008131288 -0.017447105 0.02948009 0.024635678 0.02026691
0.004705376 0.0019924568 0.0026555979 -0.04695483 0.02750612 -0.017505683 0.0089407 -0.0067436816
-0.029200716 0.015568932 0.013844656 -0.02541048 -0.022756886 0.0276127 0.043369062 -0.025591433
-0.021032026 -0.04274113 -0.020501027 0.02560253 0.016963808 -0.02501392 0.014876601 0.0042586434
0.029910136 0.010754714 0.014264138 0.029987568 -0.016008377 0.009278199 -0.0047742324 -0.019864531
0.0065292777 -0.011639408 -0.008549172 -0.06009972 0.016236372 -0.020257832 0.0031433427 -0.021898868
-0.066284254 -0.05018542 -0.007997697 -0.06592093 -0.014528502 -0.015149382 -0.022482261 -0.0038303053
0.061939277 0.071358316 0.074108094 0.045417983 -0.008010799 -0.00043239232 0.0367452 -0.026488302
0.026836248 0.005654418 -0.037726194 0.03241441 0.030195672 0.013178109 -0.035825226 0.038986765
-0.008911852 -0.03346549 -0.014136296 -0.022821702 -0.024902271 0.010458357 0.0101956185 -0.053272292
0.023951458 0.078490585 0.07344521 0.04528167 -0.053395607 0.027192133 0.014009218 -0.018072346
-0.0041063637 -0.0075371605 0.04125192 -0.0055144085 -0.06167342 -0.01918357 0.014976347 0.030277535
0.010640939 -0.002109469 0.03895161 -0.014300141 0.022987757 -0.005515508 0.066208005 -0.02459183
0.029080795 0.04773977 0.03291871 -0.003206583 -0.0149617195 0.028859528 0.049547855 -0.015747996
-0.0037521776 -0.0090083955 -0.015544379 -0.0009047826 -0.09337364 -0.07554188 -0.060523886 -0.014975152
0.013356205 -0.05486824 0.0054442 -0.029725041 0.03946937 -0.014520775 -0.07113831 -0.052542664
0.027916657 0.014242862 0.06284373 0.011209226 -0.027492896 -0.014425336 -7.846573e-06 0.055301707
-0.02078467 0.012461898 0.010080846 -0.027345637 0.026650256 0.021332482 -0.05100112 -0.018114047
0.044497453 0.058047876 -0.046840597 0.0094752265 0.03794981 0.016529217 0.04613426 -0.024555936
0.0063426155 -0.035169505 -0.013282827 0.1173914 0.01833045 0.061382197 0.053777233 0.036626473
0.012473577 0.018665701 -0.027441822 0.027065318 -0.0018906965 0.03600153 0.024308847 -0.04544539
-0.066265404 -0.039455045 -0.014915658 0.0014596924 -0.046029165 -0.0712808 -0.02043698 -0.044280574
-0.030611549 0.00028896457 -0.008401774 -0.01839089 -0.014595383 0.0072301333 0.0075140083 -0.0017288888
0.012567652 0.036540773 0.025249904 0.0020010294 0.03645897 -0.0039618337 -0.015705315 0.0009730961
-0.03084505 0.015675278 -0.026136221 -0.04021511 0.01966268 0.044387963 0.02934673 -0.010523323
0.007444852 -0.036336914 -0.01630765 -0.0047820765 0.010649454 0.0144650405 0.0036595997 0.0039500864
-0.0050157458 -0.0012561837 0.083431855 -0.020306896 -0.02312168 0.008012134 0.0690846 0.0501501

fc1.0.bias f4 [120]
00000000: db11 84bd c3e0 7d3d 3c9b e43a ff77 4e3e
00000010: 2649 0ebd 4c3f c83d 58b6 733d 77b2 023d
00000020: 9ae1 1fbd de29 5bbb ad43 523c 0702 833d
00000030: e45b d13c 9766 6fb9 456b 41bc db37 1f3e
00000040: 76e8 a0bd 7643 e83c 1122 47bc b6c8 a53d
00000050: 940c b23c 942d c1bb 17e7 c1ba ef25 143d
00000060: 4b65 99bc c7fc 283e 551b 623d a371 a33d
00000070: b427 ba3d c6a2 d339 3a0e 863d 5a36 8cbc
00000080: 1d6b e23d 5729 fcbb e1bf 8dbc a1a9 b0bd
00000090: cde9 173c 0f30 55bd 6fc3 4ebd 9197 083d
000000a0: f280 e6bc e099 273d 25c5 ba3d bc3d 01bd
000000b0: 92eb e33b 0d1a 36be b18b 7abd 9dbb 023d
000000c0: 7e53 9c3c 1ab3 4dbd 7961 193c ccbe 93bc
000000d0: 06be a13d 02e0 47bd 3a0e 1dbd 9e00 28bd
000000e0: 4fbc c93d 40b0 ef3c ecf3 27bd 8774 8e3c
000000f0: d394 493d b4ac 023d 73be 20bd 121d b6ba
00000100: e2ba 9c3b 731c 65bd ff0b 6c3d 93b6 86bb
00000110: c101 51bd 335a 973c ef64 323d a680 9c3c
00000120: 5898 8b3c 4901 923d cb7d 05bd a1e8 debc
00000130: 45a0 e23c 078b af3c 4f16 7f3d 687a 9dbc
00000140: 77de 9fbc 3353 b6ba b6d1 403c 6df9 0f3a
00000150: a078 58bd c173 403d eb0c 4cbd 17df c33c
00000160: fa02 7d3d b7c1 003d d140 963c 2d31 43bd
00000170: 159a 33bc 8f86 e2bb 058b e5bc 06a0 933d
00000180: 5707 63bc d5be 3f3d fbe2 c7bc 4793 a33d
00000190: 198c 6a3d 9c76 d5bb e9e4 bd3d cbad 233d
000001a0: 6699 efbd b3e0 08bd 4b59 01be 8bc3 1d3e
000001b0: e1d8 edbd 3284 d0bc 296e 1ebd 660b 7b3c
000001c0: 8730 9ebd dbf7 2bba 8afe d63c ab9c 883d
000001d0: e7d5 273d b815 673d c27a 413d 20d6 e2bc
-0.06448718 0.061981928 0.0017441283 0.20162962 -0.03473773 0.09777698 0.05950007 0.03190848
-0.03903351 -0.0033441703 0.012833518 0.06396871 0.025556512 -0.00022831034 -0.01180536 0.15548651
-0.078568384 0.02835248 -0.012154118 0.08094923 0.021734513 -0.005895326 -0.0014793602 0.03616899
-0.018725058 0.16502677 0.055201847 0.07980659 0.09089604 0.00040366332 0.06545682 -0.01711576
0.110555865 -0.007695358 -0.017303409 -0.08626104 0.009272051 -0.052047785 -0.05047935 0.03334767
-0.028137658 0.04091823 0.091196336 -0.031553015 0.0069555724 -0.17783375 -0.061168376 0.031917203
0.01908278 -0.050219633 0.009361618 -0.018035315 0.07897572 -0.048797615 -0.038343646 -0.041016214
0.0985037 0.029258847 -0.041004106 0.017389549 0.049214195 0.031902984 -0.039244127 -0.0013894162
0.0047830204 -0.055935334 0.057628628 -0.00411112 -0.051027063 0.018475628 0.04355329 0.019104313
0.017040417 0.071291514 -0.03259067 -0.027210535 0.027664313 0.021428598 0.062277135 -0.019223407
-0.01951526 -0.0013910293 0.011768749 0.00054921844 -0.052849412 0.04698539 -0.049817007 0.023910088
0.061770417 0.03143474 0.018341454 -0.04765432 -0.010962029 -0.0069130133 -0.028020391 0.072082564
-0.01385673 0.04681285 -0.024400225 0.07987075 0.057262514 -0.0065143835 0.09272177 0.039960664
-0.1169918 -0.033417415 -0.12631719 0.15406625 -0.11613632 -0.02545366 -0.038679276 0.015322542
-0.077240996 -0.00065600657 0.02624442 0.06670507 0.040975478 0.056417197 0.04723621 -0.027689993

fc2.0.weight f4 [84, 120]
00000000: 2cfb bf3d 42d8 c33d 3afe 48bd 624a 8abc
00000010: 5df5 d1bd 0f45 393d df57 9cbd 751d d13c
00000020: 80c6 2c3d 3b1a 443d a3f9 bbbb 8647 9b3d
00000030: 63a3 283c fb0e 40bd 0fca a63c 3f71 83bd
00000040: 7b0c 733d f35f 443d e3bc e5bd f3d6 213d
00000050: f072 4a3d 5bc6 62bd b213 b3bb 76c6 a6bd
00000060: 00f0 9b3d fbec 0c3d ed65 2e3d 9541 7c3d
00000070: da06 80bc 48d6 9e3d 6ddb 783c 5a99 6abd
00000080: fa3a 5ebc bb68 d83c 76ab f4bb db0d 3fbd
00000090: b42e 15bc ce39 bbbd 2e6c 5cbd d735 a6bc
000000a0: ed03 f8bc 59df 8d3d 65dc 9fbc d0d5 d9bd
000000b0: b284 06be d591 743c 77da e7bd 0aa9 763c
000000c0: 0f58 22bd d01e 2dbd 6df6 d2bd 0aaf 94bd
000000d0: 8d64 313d 14ec 8c3d 6fb5 fa3d c5cc 6bbd
000000e0: 1c8d 76bb eafd d23c fc3f 24bd df59 173d
000000f0: a542 41bd 9adb 863d 8a92 7c3c 619f 183e
00000100: cfb4 e5bd f782 87bd b069 c4bd b180 2b3d
00000110: 13a1 553d 418a 703c 5ca3 423d 3f67 cd3d
00000120: f0c1 0abe 1710 1f3d eafa 12bc 15fc 8e3d
00000130: d9a8 19bc 719c 1dbd 5fcd 723c c406 89bc
00000140: 87c3 123d 751d c1bc 509b 943d e826 7fbc
00000150: 319c 41bd cc73 4bbd 293c 8e3d 9d3b 34bc
00000160: 9530 993d 1697 d63d 40e3 b13a 160d b23c
00000170: 9703 dbbb a2b1 df3d 8013 b93c 3e49 a33d
00000180: e872 bbbc bbe0 993d d89b ecbb 8bfe 473d
00000190: 176b 35bd 14cf 853d 3cdd 3fbd 557f a5bd
000001a0: 45eb 7dbd 94d2 9b3d f6e0 9a3c 6daf 81bc
000001b0: 276a 023e 4ff1 8bbd 8db3 07bc 75f1 22bd
000001c0: 2206 35bd cdce 783d 7e77 0dbd eae2 623b
000001d0: 6c6e ed3d 4ab7 23bd 7783 e83c 8510 ef3c
000001e0: 7163 10bd 9f3b 93bd 56e0 433d 66f8 b83d
000001f0: 1f9e d73d eec4 04bd 76b7 823b 9b3c 723c
00000200: 0fdc 24bd 2f06 d03d 65d7 293d 7aad a83d
00000210: 8d49 d2bb 0cbb 07bd 21ae 233c c290 85bc
00000220: 10d0 153d 31f5 c33d b40c cdbd e287 43bd
00000230: be69 023d a870 52bd 7059 d0bd 6df8 cf3d
00000240: a4e3 b73d 95f5 cb3d dcea a3bd a761 5abd
00000250: 2af9 1c3c 8686 35bd 1dbc ce3d 14c4 0d3d
00000260: 6ead c93d 3ace 3f3d 8a30 19bd b7f0 003d
00000270: 1529 c1bd bd97 59bb 17ac d03d 411d a83c
00000280: 9aee 0bbd 7e7e 743c c611 103e 4943 803c
00000290: 4835 a63c 62e7 443b 58e3 a33d 056a a03d
000002a0: e497 88bd ba87 a8bc 35b9 d33b 35cf 17bc
000002b0: 98ac a4bc e3fd ddbd 0c5a 90bc c385 10be
000002c0: 8669 003d 6d58 88bd ba8c d43b 06a4 0ebe
000002d0: ed7a 3ebd 0628 a53d d0f0 a9bc d386 98bd
000002e0: 7574 53bd 85ed 0abd 9e38 2dbd a9cd 603d
000002f0: dba5 0abc 7ee1 8b3d f6eb 343d 7701 263e
00000300: 20a0 1bbd 6cb1 17bd 3f31 103c a1da 103d
00000310: aaa1 123d b2e4 ad3d 56a0 393d 0713 87bc
00000320: 3f7e 0a3d cf5c 98bd acb4 e9bc 6c59 53bd
00000330: 0f38 a03d 1e07 363c 5d3c b7bc bc1f b0bd
00000340: e4b1 b5bc e996 aa3d d248 773c 59b5 8cbd
00000350: cc56 6cbd 7f45 053d 3a41 b43d ef94 d03c
00000360: 0195 f63c 72bd 3cbd 7e88 953d f627 cb3d
00000370: a451 993d d4c5 9f3d e982 aabc c04c 793d
00000380: 247e 78bd 7cfe 0b3e 6e9d 31bd 9273 773c
00000390: c90f 483b a4ff 29bd 3451 f63c 77c1 fbbc
000003a0: 3221 d5bd d614 e03d 2a02 fd38 8d62 d23d
000003b0: bc1e e73d bedd a5bd e5e9 1f3d c1f0 bfbc
000003c0: 8097 633d 3c70 153c b22b 3d3d 6145 b1bd
000003d0: 62af 7e3c df8f 67bc 45b9 17bd 5fe0 813d
000003e0: 55bf a03d 8b58 cc3d d7f1 35bd 084f 1fbc
000003f0: 9cae c3bd 6562 d23c 6d34 d23c 19ea ac3d
0.09374079 0.09562732 -0.049070574 -0.016881172 -0.102518775 0.045231875 -0.076339476 0.025526742
0.04218149 0.047876578 -0.005736546 0.075820014 0.010292861 -0.046889286 0.02036002 -0.06418084
0.059338074 0.047943067 -0.11217668 0.039511632 0.04942602 -0.055364948 -0.0054649943 -0.08143322
0.07614136 0.03440569 0.042577673 0.06158598 -0.015628267 0.07755715 0.015189034 -0.057275154
-0.013563866 0.026417127 -0.007466729 -0.046644073 -0.009105373 -0.09141885 -0.053814106 -0.020289345
-0.03027531 0.06927366 -0.019514272 -0.106364846 -0.13136557 0.014927347 -0.11320966 0.0150549505
-0.03963476 -0.042265713 -0.10300908 -0.072599486 0.043308783 0.06880966 0.12241637 -0.05756833
-0.0037620729 0.025755841 -0.040100083 0.036950942 -0.047182698 0.065848544 0.015415797 0.14904548
-0.11216127 -0.066167764 -0.09590471 0.041870777 0.052155565 0.0146814 0.047519073 0.10029458
-0.13550544 0.038833704 -0.008970955 0.069816746 -0.009378635 -0.038479272 0.014819472 -0.016726859
0.035831 -0.023573617 0.07256186 -0.015573241 -0.047268096 -0.04967098 0.069450684 -0.011000541
0.074799694 0.10478036 0.0013571754 0.021734755 -0.0066837776 0.10922553 0.022592306 0.07972954
-0.02288194 0.07513567 -0.0072207265 0.048826735 -0.044291582 0.06533638 -0.046841845 -0.08080927
-0.06199195 0.07608524 0.018906098 -0.01583072 0.12735806 -0.06833135 -0.008282554 -0.039781053
-0.0441953 0.060744096 -0.034537785 0.0034620115 0.11593327 -0.03996972 0.028383 0.029182682
-0.035251085 -0.07189106 0.047821365 0.09031753 0.10528206 -0.03241437 0.0039891554 0.014784957
-0.040248927 0.101574294 0.04146518 0.08236213 -0.0064174593 -0.033137366 0.009990246 -0.016304377
0.036575377 0.09568251 -0.100121886 -0.04773701 0.031839125 -0.05137697 -0.10173309 0.10154805
0.08978966 0.099589504 -0.0800378 -0.053315785 0.00958089 -0.044317745 0.100944735 0.034610823
0.09847532 0.046827532 -0.037399806 0.031479564 -0.09431664 -0.0033202015 0.101890735 0.020521762
-0.034163095 0.014922736 0.1406928 0.015657084 0.020289078 0.0030045141 0.08002347 0.078327216
-0.06669596 -0.020572532 0.0064612874 -0.009265711 -0.02010183 -0.10839441 -0.017621063 -0.14113526
0.031350635 -0.06657491 0.0064865025 -0.13929757 -0.04650395 0.080642745 -0.020744711 -0.07447591
-0.051624734 -0.033917923 -0.042290322 0.054883633 -0.008462395 0.068301186 0.044170342 0.16211496
-0.037994504 -0.037034437 0.008800804 0.03536475 0.035798706 0.08490886 0.045318924 -0.016488565
0.033811804 -0.07439577 -0.028528534 -0.05159895 0.07823192 0.011110095 -0.02236765 -0.08599803
-0.022179551 0.08329565 0.015093045 -0.06870527 -0.057699963 0.03253698 0.088015035 0.025461642
0.030100347 -0.046079107 0.073014244 0.09919731 0.07486275 0.078014046 -0.020814376 0.06086421
-0.060667172 0.13671297 -0.043363027 0.015103238 0.0030526987 -0.041503564 0.030068018 -0.0307319
-0.10406722 0.10941474 0.00012064383 0.10272703 0.11285159 -0.080989346 0.03904142 -0.02343023
0.055564404 0.009120997 0.04618425 -0.08655811 0.015544744 -0.014133423 -0.03704192 0.063416235
0.07848994 0.09977826 -0.04442009 -0.009723432 -0.095547885 0.025681684 0.025659764 0.08443088

fc2.0.bias f4 [84]
00000000: d09d 58bd 9a13 003e 4e53 ea3b 7cf5 8d3d
00000010: 09fe b2bd 4c3a 4abd 0a32 20be b07c 9fbd
00000020: 4827 b6bd 98f2 3c3d 00cc 633d eb86 a3bd
00000030: 06c7 a8bd 3583 b5b9 ed8a a7ba b219 e4bd
00000040: 77a7 103e 3740 763b c948 0e3e 6320 853e
00000050: 6bcf bcbb 8c59 d6bd 57a9 87bd 273a b2bd
00000060: b875 5f3e 7179 d6bc 0ecf 163d 05a7 b23d
00000070: f376 25bd d25b 253d 4a45 153d 2f27 a4bc
00000080: be82 3d3a ed32 86bd 0999 debc bb2f a13d
00000090: 0bf5 933d 7e54 723e 432c 6c3d 0ac9 25bd
000000a0: 2bdd e9bd 3716 49be 5181 19be 932c 18bd
000000b0: 7ffc 583e a6bb a73d 6ab9 10be c465 383e
000000c0: e102 9cbd d1a9 3b3d cbef cb3d dda8 dd3d
000000d0: 6d58 5b3d 3954 9fbd 160a ca3d 2360 0d3e
000000e0: db42 693d 7f76 bbbd 9efc f7bd 81c0 49bd
000000f0: 515b 64bd 7e97 2cbd 3058 a5bd aa96 c4bc
00000100: efd6 40be f2af 113d aec8 78bd e97c 7c3d
00000110: 4e1c 143e 0ac1 be3d 14cb f7bd ff69 4e3d
00000120: 510c f93d 4330 903b cae2 d5bd 28dd 0dbe
00000130: 7408 c03d f5b8 523e dfdc 10be 18b6 f2bc
00000140: 90a5 333d 1386 c1bc 8e68 4c3d fd05 623d
-0.052884877 0.12507477 0.007151044 0.06931588 -0.087398596 -0.049372002 -0.15644088 -0.07787454
-0.08894211 0.046129793 0.05561447 -0.07984718 -0.08241086 -0.00034620767 -0.0012782492 -0.111377135
0.14126383 0.0037574896 0.13894953 0.26001272 -0.005762031 -0.104662985 -0.06624096 -0.08702498
0.2182225 -0.026180955 0.036818556 0.08723263 -0.040396642 0.04037077 0.036443032 -0.020038215
0.000722926 -0.06552682 -0.027172582 0.07870432 0.072244726 0.23665044 0.0576594 -0.04047493
-0.114191376 -0.1963738 -0.14990737 -0.037151884 0.2119007 0.08190088 -0.1413323 0.1800757
-0.076177366 0.045816246 0.09957846 0.10823224 0.053551126 -0.07779736 0.09865205 0.13806204
0.056948524 -0.09153461 -0.1210873 -0.04925585 -0.05575115 -0.04213666 -0.08073461 -0.023997623
-0.1883199 0.035568185 -0.060738258 0.06164256 0.14463922 0.09314163 -0.12099281 0.050394055
0.12160552 0.0044002845 -0.10443647 -0.13853896 0.09376612 0.20578368 -0.14146756 -0.029627845
0.043859065 -0.023623502 0.0499044 0.055181492

fc3.weight f4 [10, 84]
00000000: aa2e 563d 1476 14bd 0472 da3c ed0a c7bc
00000010: 7654 c6bd 230a 6a3c 6f04 463e f03e 0e3e
00000020: d3c2 2a3e 8c69 e13c 6411 08bc 8eb2 dfbc
00000030: 189d 0b3e f55a 473c 6afa 583e f513 323d
00000040: 1d17 49bd 7566 303d 7cf5 16bd 873b c7bd
00000050: 5b64 8ebc 23d9 633d 29fd fc3b 14db 563d
00000060: 7bff df3d 46ef 783d acac 5e3d 06e4 16be
00000070: fd3a 65ba 991d 203e 2210 1b3d 32f6 0a3c
00000080: 3621 94bd f64f 02be 8daf 983d 956c 6dbd
00000090: 61cf 923d d590 c2bd d4fc abbd f52d 06be
000000a0: ea59 a13c 8c86 cc3d 9cf6 b0bb 3500 f7bd
000000b0: 3bd1 a53d 0163 d1bc 93a9 ad3d dbd6 1abe
000000c0: 6f6d b1bd a719 9bbd ae57 65bd 6129 9dbd
000000d0: 3ff0 43bd 0967 eb3d a16a 9abd 332a 913d
000000e0: 095c 02bd c3c1 aa3d 4c5c c03c 9790 f9bc
000000f0: b387 0dbe a98e 463d 1ebb c73d cb40 1c3d
00000100: 1923 a23d 54c0 003c 3b8a e63c c382 333d
00000110: 7af2 3b3d 284a ea3d f306 883e 08d6 ebbd
00000120: 3d77 ebbd 5b8d 743d c6c1 893c 7d60 6dbd
00000130: 92ed 883d 4b52 773d 5288 4a3e 3136 32be
00000140: e034 04be f9b2 c93d b2d0 103e f79a a8bd
00000150: 7e6c 6dbd f466 23be 581e 8fbd 53d1 c83d
00000160: e7f0 703c b36a a3bc f633 b43d f49a e93d
00000170: c21c 5ebe a88c 5b3c 2c35 813d cb04 84bd
00000180: 9e5b b73d bffb 8b3e e0f8 fcbd bf58 9abd
00000190: 9ff7 e8bd 7ed1 ed3d f99d f9bc 3f7c abbd
000001a0: a71d f53d 21b3 0bbc 4a04 a3bd 87d0 38be
000001b0: 3dd4 a7bd 2c8d 9bbd c0bf 573d 6fda 2dbc
000001c0: f458 693d 2279 da3d d668 5bbd 95f1 f5bd
000001d0: 45e5 d53d fa21 723e b2ce f1bc 3162 0e3e
000001e0: a931 823d 4ebd 37be cb95 2e3e 59d6 a83d
000001f0: d3cb d5bc b842 303e 0fc6 f73c 53d2 5cbb
00000200: 34c1 50be 0349 debd eabc 0d3d d861 a6bd
00000210: 603c dc3c abcf 4e3d f316 ca3d d5c6 37be
00000220: 0b46 853c 9f18 01be 0d2f a4bb 03b0 9dbd
00000230: 54b5 37be a88e 9c3d b2b8 843e 9085 713d
00000240: e0e7 193d 793f d53c f06a 62bc 518d 043e
00000250: 1d25 cf3d 7c04 43bd 5f47 23bc c826 963d
00000260: 2c23 c0bd 89c7 44be 7188 eabc dfdc 2d3d
00000270: 24bd 2bbd eed1 d33d 2144 bc3c ecf6 813d
00000280: 1526 0ebc 1a82 87be 3a85 5abe 3932 ba3d
00000290: 4356 30bd 3bfb fbbb 43b1 d9bd deca e2bd
000002a0: e198 7cbd 4a60 0b3e 0773 893d d66a 003e
000002b0: e8e0 c6bd 05d1 85bb ddfa 0abd 94a0 78bb
000002c0: 7b11 34bc bd0f cbbd 0626 ed3c bc75 8fbd
000002d0: f221 9b3d c9ff cbbd 4b25 02ba baf6 5a3d
000002e0: 545f 8bbd 1f77 cbbc f370 5c3b e159 313e
000002f0: 2151 f9bd 0288 063e 3f49 1f3d 7fe2 1bbd
00000300: 90f6 6a3e 9052 01bb 4c5e 0c3e e4bb c6bd
00000310: 074f b1ba 9bf4 7bbc e105 ba3d 4376 20bd
00000320: 1d4f 24bc 6c9a 1fbd fe96 84bd 44f3 d73d
00000330: e199 563e e236 c23d 9ddf 763d 5d84 d1bd
00000340: 6bca e23d 636d edbd e095 acbd 4d0e 75bd
00000350: cfd7 5d3d be15 2dbc 540d 1ebe b76a 8fb9
00000360: 2d1b 51bd 6963 bbbd 29be 30bd 8f75 e73d
00000370: 7478 743e 53c2 193d ac68 27bc c651 b03d
00000380: 6380 c13d 29b5 a5bc 7968 93bd e929 d0bc
00000390: 00cf 7a3c 06b6 9e3d 2916 0ebd 56e2 a9bd
000003a0: 84ca 02be de04 f93d 2be6 c8bc 1534 e13b
000003b0: 9ecd 0b3e c847 d93d d0a9 52bc 8d23 8cbd
000003c0: 81ea c43d b811 a5bd 4210 30be 6c2b 023d
000003d0: 8a29 acbd ceb8 66bc c6d5 503d 6b3a a7bc
000003e0: f78c 42be 1d83 bcbc 9468 82bd 0728 093e
000003f0: adb1 dabd 160c 27ba d7c7 60bd 4c1d 1dbc
0.052290596 -0.03624542 0.026665695 -0.024297202 -0.096840784 0.014284643 0.19337629 0.13891196
0.16675882 0.027516149 -0.0083049275 -0.027306821 0.13634145 0.012167682 0.21189275 0.043476064
-0.04909431 0.04306646 -0.036855206 -0.09728151 -0.017381838 0.055627 0.0077206087 0.052455023
0.10937401 0.060775064 0.05436389 -0.14735422 -0.00087444467 0.1563629 0.037857182 0.008481549
-0.07232897 -0.12725815 0.07455359 -0.05796488 0.07168461 -0.09500281 -0.083978325 -0.13103469
0.019696195 0.099866 -0.005400492 -0.12060586 0.08096548 -0.025559904 0.08479609 -0.15121023
-0.08663451 -0.07573252 -0.05599182 -0.07673908 -0.04783654 0.11494262 -0.07539869 0.07088127
-0.031826053 0.08337738 0.02348151 -0.030464454 -0.13821296 0.048475895 0.09752487 0.03814773
0.079168506 0.007858355 0.028142085 0.043825876 0.04588554 0.114399254 0.26567802 -0.115154326
-0.11497352 0.05970512 0.016816031 -0.057953347 0.06685938 0.060381215 0.19778565 -0.17403485
-0.12910795 0.098485895 0.14142111 -0.08232682 -0.057964794 -0.15957242 -0.069882095 0.098055504
0.014705873 -0.01994834 0.08798973 0.11406508 -0.21690658 0.013400234 0.0630897 -0.06446227
0.089530215 0.27340505 -0.12352157 -0.07536458 -0.11375355 0.11612223 -0.030470835 -0.083733074
0.11968546 -0.008526594 -0.079598024 -0.18048297 -0.08194778 -0.07595286 0.0526731 -0.010611161
0.056969598 0.106676355 -0.053566776 -0.12008969 0.1044412 0.23645774 -0.029517505 0.13904645
0.06357128 -0.17943308 0.17049329 0.082440086 -0.026098168 0.17212951 0.030245809 -0.00336947
-0.20386201 -0.1085377 0.03460399 -0.08124131 0.026884258 0.050491016 0.098676585 -0.17946942
0.01626875 -0.12607048 -0.0050104917 -0.07699587 -0.17940265 0.07644397 0.2592216 0.058965266
0.03757465 0.026031243 -0.013819441 0.12944533 0.10114501 -0.0476117 -0.009965747 0.07331616
-0.093817085 -0.19216742 -0.028629513 0.042446967 -0.041928425 0.10342775 0.022981705 0.06345925
-0.008676072 -0.26466447 -0.21339884 0.090916105 -0.043051016 -0.007689861 -0.10629513 -0.1107385
-0.061669234 0.1361095 0.06711393 0.12540755 -0.09710866 -0.004083755 -0.033930648 -0.003793751
-0.010990496 -0.09915111 0.028948795 -0.07004878 0.07574834 -0.099608965 -0.00049646635 0.053457953
-0.06805292 -0.024837075 0.003363666 0.17319442 -0.12173677 0.1313782 0.038888212 -0.0380578
0.22945619 -0.001973305 0.13707846 -0.09703806 -0.001352758 -0.015378143 0.090831526 -0.039175283
-0.010028628 -0.038965628 -0.06474112 0.10544446 0.20957138 0.09483124 0.060271848 -0.102303244
0.110737644 -0.115931295 -0.08427024 -0.05982809 0.05416089 -0.010564266 -0.15434772 -0.00027354594
-0.051051307 -0.0914982 -0.0431501 0.113017194 0.23874074 0.037538838 -0.010217827 0.08609347
0.09448316 -0.020227985 -0.07197661 -0.02541061 0.015308142 0.07749562 -0.034689102 -0.08295123
-0.12772566 0.121591315 -0.024523815 0.0068726637 0.13652655 0.10609394 -0.012857869 -0.06842718
0.096150406 -0.0806002 -0.17193702 0.03177969 -0.084063604 -0.014082147 0.05098512 -0.020413598
-0.18999086 -0.023011738 -0.06367603 0.13394175 -0.1067842 -0.00063723454 -0.054878082 -0.009589504

fc3.bias f4 [10]
00000000: e889 d4be 9ee4 efbe f708 5a3e 31c6 81bc
00000010: 47cb 313f 83d7 45be 7849 433c 3568 b7be
00000020: 7087 4d3e 80b2 83be
-0.41511464 -0.4685411 0.21292482 -0.015841575 0.694508 -0.19320492 0.011919372 -0.3582169
0.20071197 -0.25722122
