checkpoint/best_LeNet5_relu6_quantized_4_bits.ckpt (torch, 274509 bytes, 19 tensors)

conv1.0.weight f4 [6, 3, 5, 5]
00000000: fe5c acbd b663 7c3d b12b 16bc d345 cabd
00000010: 7c91 a73d 77b0 26bd d21c ce3d 6d4f 60ba
00000020: 4e25 12bc b4e6 e53c 5d4d 07bd 8906 71bc
00000030: 3101 293c 0e3a dc3d 9efe 863c ce14 c7bc
00000040: a17f 40bd 94e4 cf3d 3225 a0bd 7f65 a9bd
00000050: c8a4 133d 477e f5bd 0ef6 353c fcda 82bd
00000060: 3e39 683c 3ebe dabc 47c7 e93d e4cd e83c
00000070: 4eef e2b7 89ec 36bc 0744 dbbc 782c d43c
00000080: 17d5 ac3d 49a4 47bc 686c c23d a9eb 6f3d
00000090: 0f59 bfbc 92d3 85bd 0cd9 64bd cd5a b83d
000000a0: 8abe ea3d 483a 6e3d ea98 903d fdbb bd3c
000000b0: 1de4 ec3c abdc d53c 41f0 18bd 1e21 d0bc
000000c0: 044a 61bd 3718 a0bd e270 81bc 8d3d dc3d
000000d0: 339c 383d 531e cc3d 20f8 153d 45ca 1c3d
000000e0: 3105 de3d 45ac ac3d eee2 c5bc 7281 58bd
000000f0: 19f0 443c 45d4 c8bc 1fd7 063e 9686 ae3d
00000100: 4e9a 033e d7d4 4cbd be71 4f3d 882b 43bc
00000110: 8d51 023e 73bc 063e 0e63 e33d 7d76 0b3e
00000120: e9c7 b7bd 58c0 1dbd 64a4 a83c 34ac ea3c
00000130: 2b54 46bc 9378 543c e80c 493d 1d50 bdbd
00000140: 6451 cdbd 962d 903c fac1 9bbd 7a30 db3d
00000150: 8a99 0c3d 9c73 a6bd 41f6 853d 0398 773c
00000160: 3bab c4bd a95f acbd d906 49bd b98f c83d
00000170: 4513 0fba 4790 ebbd 395b 843c 9164 8fbd
00000180: 0d3c 22bc 127c 15bb f881 cd3d 1002 7bbb
00000190: 8a5d 3b3d 2b05 84bd 4ad0 363d 7684 3fbd
000001a0: 379f d2bd 0e51 523d 6e22 8fbd 56df e93d
000001b0: 0a68 b73d 1872 c2bd 0b07 a2bd 679c dbbc
000001c0: bd6f d53d bbc0 803d 2011 d8bd 4c28 973d
000001d0: cc9d 9abd 8fa2 81bd 8ff9 c0bd 8f2d af3c
000001e0: f091 ad3d 9d57 21bd fc3f ff3c 3bc6 9a3d
000001f0: 1b65 2b3d fd39 d7bd bb24 ca3d a5d3 ba3d
00000200: a255 d83d 8636 86bd c0a9 b43c 453b adbd
00000210: 8f1e ddbc 90be bb3c b433 d23d eebc 91bd
00000220: 2df1 073d e976 6abd 9e17 fabb 29c0 6ebd
00000230: 29d8 a0bd e46c 1d3d 27e8 cf3d 2406 c13c
00000240: 9fad e0bd b62b a6bd 3967 f53d 4791 483c
00000250: 3263 f3ba 104e 7d3d 97d0 d23b 69ab c5bc
00000260: e168 62bd 6ef2 e6bd ed41 0ebd 7a78 2a3d
00000270: 9f3b c5bc befa 813c fd67 4bbd 9e40 e1bd
00000280: 36d1 f7bc f812 c0bd 8f2a c8bc c11d 75bd
00000290: 8b2b 983d 027f 99bd 7fc2 ff3a 7f52 3c3d
000002a0: 0b78 6f3d d7d9 c6bd 5a89 a13d 7ff8 f3bd
000002b0: 624f 463d 1f7d bebc 6b5e a63d 5cac 663c
000002c0: 91b6 9fbd e397 fb3c 03b0 b03d 3c73 913c
000002d0: 5716 10bd e3d8 f5bd 5d13 e1bb 02ae c63d
000002e0: b1dd 56bd d1ee 89bd b240 e9bd 5e75 a3bd
000002f0: 0b92 e43b 24a6 f6bd 8701 d2bd d42b 66bd
00000300: 1164 e4bd 21fe b73d 364f a8bc 8198 eebd
00000310: a8c5 4f3d 113f b13d 4fbb d2bb e63d 6cbc
00000320: 4307 a53b 7063 b4bc 7639 96bd a5ac 9ebd
00000330: 6084 b53d 6105 4b3d 3d75 c6bc 4ac3 85bd
00000340: ce84 48bc e572 c8bd 7b36 8bbd 9fe4 a6bd
00000350: d541 db3b e2ec f8bd 6476 abbd e93c c4bd
00000360: df67 c4bd 9415 d5bd abbf 793d 8bd9 b03c
00000370: 7f8a f2bd 3e1d a7ba ca74 43bd 455e 41bc
00000380: 51c2 61bd e0e9 433d 594f 83bd 3d70 9ebd
00000390: 707b 9abc 9528 633d 675f 093d e1df 42bd
000003a0: a65c 8b3d 2238 15bc 0b58 463d 985b cf3d
000003b0: 4742 e63d f7d6 10bd 7aaa 32bd 7f66 72bc
000003c0: 4dc8 de3d 3f93 c03d d9dd b4bd f823 8d3d
000003d0: b06c a33d 061e cdbd ef39 efbd 9d41 b43d
000003e0: 7c7a 68bc 0908 62bd 2c95 e93d 6fd7 cb3b
000003f0: 2cb3 873d 5081 71bd 4e6d 7ebc a608 9a3d
-0.08416174 0.06161853 -0.00916569 -0.09876599 0.08182046 -0.040695634 0.10064091 -0.0008556757
-0.008920027 0.02806411 -0.033032764 -0.014711031 0.010315225 0.107532606 0.016478833 -0.024301913
-0.046996716 0.1015102 -0.078195944 -0.08271312 0.03604582 -0.11986976 0.011106027 -0.06389424
0.014173804 -0.026702043 0.11414962 0.028418489 -2.7052734e-05 -0.011164793 -0.026765836 0.02590011
0.08439081 -0.012185165 0.09493333 0.058574352 -0.023357896 -0.065344945 -0.055871055 0.09001694
0.11462124 0.05816105 0.07060416 0.023160929 0.028917367 0.0261062 -0.0373385 -0.025406417
-0.055002227 -0.078171186 -0.015800897 0.107539274 0.04507084 0.099667214 0.036613584 0.038278837
0.10840834 0.08431295 -0.02415606 -0.052857824 0.012020134 -0.02451528 0.13168 0.08521764
0.12851831 -0.050007667 0.050645582 -0.011912234 0.12726422 0.13157825 0.111028776 0.13619418
-0.08973677 -0.03851351 0.0205862 0.028646566 -0.012105028 0.0129682 0.049084574 -0.09243796
-0.1002529 0.017599862 -0.076053575 0.107026055 0.034326114 -0.081275195 0.0654111 0.015111926
-0.09602972 -0.08416683 -0.049078796 0.09793038 -0.00054578885 -0.11502128 0.01615678 -0.070016034
-0.009902013 -0.0022809547 0.10034555 -0.003830079 0.045743503 -0.06446298 0.044632234 -0.046757184
-0.10284274 0.05134683 -0.06988989 0.11419551 0.08955391 -0.09494418 -0.079114996 -0.026807977
0.10421703 0.062867604 -0.10550141 0.07380733 -0.075496286 -0.06329834 -0.094225995 0.021384029
0.08475101 -0.039390195 0.03115844 0.07557341 0.04184447 -0.10509107 0.09870287 0.09122399
0.10563208 -0.06553368 0.0220536 -0.084585704 -0.02699211 0.022918016 0.10263768 -0.071161136
0.033188988 -0.057242308 -0.00763221 -0.058288727 -0.07853729 0.038433924 0.101517014 0.023562498
-0.109706156 -0.08113806 0.11982579 0.012241668 -0.0018568991 0.061842024 0.0064335573 -0.024129586
-0.0552758 -0.112767085 -0.03473084 0.0416188 -0.024076281 0.015866634 -0.049659718 -0.10998653
-0.030251127 -0.09378618 -0.024434356 -0.05984283 0.0743018 -0.07494928 0.001951292 0.045977112
0.05846409 -0.097095184 0.07887526 -0.11912631 0.04841555 -0.023253022 0.081234775 0.01407918
-0.07798494 0.030712074 0.086273216 0.017755143 -0.035177555 -0.120042585 -0.0068687634 0.09701158
-0.052457515 -0.06735004 -0.11389293 -0.079813704 0.0069754175 -0.120434076 -0.102541976 -0.05619414
-0.11151899 0.08984018 -0.020545583 -0.116501816 0.05072561 0.08654607 -0.0064310203 -0.014419055
0.005036266 -0.022020072 -0.073351786 -0.07747773 0.08863139 0.049565677 -0.024225825 -0.06531389
-0.012238694 -0.097875394 -0.06797501 -0.08149075 0.0066911974 -0.12154557 -0.083721906 -0.0958193
-0.09590124 -0.10404506 0.060973804 0.021588108 -0.11842822 -0.0012749804 -0.0477188 -0.011802261
-0.055116955 0.047830462 -0.06411619 -0.077362515 -0.018857688 0.055458624 0.03353825 -0.04757679
0.06804781 -0.009107621 0.048423808 0.10124892 0.1124311 -0.035361256 -0.04361961 -0.014794945
0.10878048 0.09403085 -0.088313766 0.06891626 0.07979715 -0.10015492 -0.11680972 0.08801577
-0.014189359 -0.055183444 0.114054054 0.00622075 0.06625971 -0.058961213 -0.01552899 0.07521181

conv1.0.bias f4 [6]
00000000: 9508 9e3c c538 a8bd 5e1d 143d 3006 58bd
00000010: 2401 a13d 0a7f 72bd
0.019291202 -0.08213953 0.03616082 -0.052740276 0.07861546 -0.059203185

conv2.0.weight f4 [16, 6, 5, 5]
00000000: 6316 51bd cb32 3d3c 74e4 9e3d 6819 21bd
00000010: ff2c 86bd a971 0ebd 2cc2 5bbd eb77 00bd
00000020: 9366 49bd ed6f 1abd aacf 0cbd c02d 50ba
00000030: 2d6b a0bd 8428 513d b783 45ba 4735 713c
00000040: 4b60 7b3d 70a3 18bd 8e88 76bd 7669 bc3c
00000050: 197f ba3c 83fa eabc 9525 a73d 5604 51bd
00000060: d4b2 b43b e0cd 98bd ddff 9fbc 1a69 14bd
00000070: 575a 07bd 88d9 223d 11db fe3b 1605 6abd
00000080: a8e8 353d 1289 4e3d 8271 5f3c a7e6 333d
00000090: 0cad 163d 7cbc 15bd 6017 2f3d 4921 d73c
000000a0: 91c7 56bc 4477 9abc 08b9 3abd 3c5d e73c
000000b0: f8b3 66bc 3831 7d3d bac8 b8bc 9ec2 83bc
000000c0: f1d0 6cbd f172 963d 4e85 b6bc 09f5 99bd
000000d0: 9d56 80bd a1d4 133d 5d45 57bd 3a91 15bd
000000e0: a89a b93b ca83 623d 88dd a93c 8877 913d
000000f0: 86fd 973d 0ded 123d 5092 89bd 45c4 813d
00000100: b1fb c7bc 8619 a8ba 6a00 2dbd 6714 a63d
00000110: f964 85bd 907d 173d 1d6e 893d 7fd0 dbbc
00000120: 36aa 71bd 4441 473d c382 11bc 3f66 123d
00000130: 2c25 3e3d b4e6 063d bd80 273d d0f3 683c
00000140: de31 b33b a42e b2bc 73bf 71bd 8859 5c3d
00000150: 7b02 6fbd 5c72 6d3c b14e ea3c 3fae 93bd
00000160: 9733 913d 1d41 74bc 0d3b 3fbd bb0a 5fbd
00000170: 5652 64bd 5643 8bbc 127f 9ebd 8090 54bd
00000180: 7aa3 453d 5748 52bd 27cf 62bd 8024 d13c
00000190: 732e 3f3b 2f26 283c e23c 0b3c 74a0 893d
000001a0: 8369 263d 8fdb 153c c7e2 92bd e48e 6b3d
000001b0: f4d1 963d b042 eb3a 2479 e5bc 9f40 b03c
000001c0: da60 a03d 2d3b e3bc 7cf0 8b3b 54aa 583d
000001d0: 3262 ec3c 6a4a 2ebd 160a 6b3d d5c0 bf3b
000001e0: d0c4 3abd 0bb6 863d 41a4 223d 508e 95bd
000001f0: 7550 233d 99b4 fd3c f4c5 59bd d9e7 d73b
00000200: edbd 77bd 5dae 4bbd 742a 82bc 2fdf f23c
00000210: cf16 a33d 5711 9f3d b9a6 9e3d b5bc 8abd
00000220: 7634 e9bc 40c6 fabc 8f9c 243d a922 513c
00000230: 17eb 46bc 3cc7 72bd d547 2c3d 7759 b03c
00000240: 79f0 79bd 9d4d 73bd 122e a63c 4405 e4bc
00000250: a656 c33c e298 31bd 460a 93bd fad7 8ebd
00000260: 6681 8e3d 0b1b 86bd 3e12 973b 77f7 1b3d
00000270: 4312 363d cfab 8dbd bd43 8bbd 2536 e43c
00000280: a4f9 5b3d 52c9 833d 9074 21bd e3ab 7f3d
00000290: 1b83 acbc 17d4 0fbd b546 b6bc 6c7d 87bd
000002a0: 4f9a b53c 7870 83bd ab11 96bc 549e 63bd
000002b0: 9b8b 723d c556 71bd 8c89 1c3d ab50 873d
000002c0: ced9 79bb 30bf 9b3d 16fc 89bd 843f f83c
000002d0: cea8 4dbd 3cf4 883d c4b5 3fbc 5157 1f3d
000002e0: 9cfa 663d 5ce4 94bc d386 62bd 6346 4abd
000002f0: 2a47 1bbc 477a 38bd 599b 51bd 81d1 9a3d
00000300: ce75 b8bc bcbf c3bb 93c3 34bd 3312 d2bb
00000310: 319c 9ebb acc8 85bd a95c 35bd 6b37 75bd
00000320: 1417 2f3b 2a9d 23bd 6ffb 853c ab3d 30bd
00000330: bbff f1bc 01f1 88bd f1f6 9cbc 0846 b13c
00000340: 90de 66bd 3896 59bd e1d6 5dbc 8a01 23bd
00000350: b6a9 6cbd 75b0 753c 1fd9 9fbd b84b 94bc
00000360: a6bf 26bc 4d17 823d 5237 da3c 0cf3 2ebd
00000370: d2d0 16bc 2839 82bb 8d08 a3bd 749d 49bc
00000380: ba57 90bd b140 753d db72 d0b8 9ca9 263c
00000390: fb5c 68bd 0c8b 76bd 2af0 a0bd f985 cb3c
000003a0: 06e4 383d bd8d 4e3d d74e 75bd dd38 a2bd
000003b0: 0c75 a73c aded 2fbc ca6b 7a3d f933 9ebd
000003c0: b83d c13b fb02 1fbc 7667 dc3c f709 b4bc
000003d0: 785d 16bd f1d2 003c cba4 893d 2eb1 72bd
000003e0: 1188 82bd 4640 9ebc 8426 adbc 6302 383c
000003f0: e6b0 94bd 232d 46bd 4aa7 90bd 3baf c5bc
-0.05104674 0.0115477545 0.07758418 -0.03933087 -0.06551551 -0.034776364 -0.053651974 -0.031364363
-0.049170088 -0.037704397 -0.03437773 -0.00079413876 -0.07832942 0.05106403 -0.00075345807 0.014722175
0.06137113 -0.03726524 -0.060188822 0.022999506 0.022765683 -0.028683906 0.08161465 -0.051029526
0.005514482 -0.074611425 -0.019531185 -0.036233045 -0.03304514 0.039758235 0.0077775796 -0.057133757
0.04441133 0.05042369 0.013637902 0.04392114 0.036786124 -0.036556706 0.0427469 0.026260989
-0.013109104 -0.018855698 -0.045586616 0.0282427 -0.014080994 0.061814517 -0.022556651 -0.016084012
-0.05781645 0.07346142 -0.022280362 -0.0751744 -0.0626652 0.03609145 -0.052556384 -0.036515452
0.0056641884 0.055301465 0.020735517 0.07102877 0.07421403 0.0358706 -0.0671736 0.063362636
-0.024412008 -0.0012824989 -0.042236723 0.0810936 -0.065134 0.03698498 0.067104556 -0.026832817
-0.059000216 0.048646227 -0.008881274 0.03574204 0.04642217 0.03293486 0.04089426 0.014218286
0.005468591 -0.021750756 -0.05902047 0.05379632 -0.058351975 0.014492597 0.028601976 -0.07210969
0.07089918 -0.014908102 -0.046687175 -0.054453593 -0.055742584 -0.016999882 -0.077390805 -0.05189562
0.048251607 -0.05133852 -0.055373337 0.0255301 0.0029171973 0.01026301 0.008498402 0.06720057
0.040627968 0.009146585 -0.071721606 0.057509318 0.07364264 0.0017948952 -0.028011866 0.021515189
0.07830973 -0.027738178 0.0042706113 0.052896813 0.028855417 -0.042551436 0.057382666 0.005851845
-0.04559785 0.06577691 0.039707426 -0.073025346 0.03987165 0.030969905 -0.0531673 0.0065889177
-0.06048386 -0.049726833 -0.015889384 0.029647438 0.07963335 0.07766979 0.077466436 -0.06774274
-0.028467398 -0.030612111 0.04018837 0.012764611 -0.012141011 -0.059272036 0.042060692 0.021527035
-0.06102035 -0.05940019 0.02028564 -0.027834542 0.023845028 -0.04335869 -0.07179694 -0.06974788
0.069582745 -0.06548127 0.004610329 0.038077798 0.04445101 -0.069175355 -0.068000294 0.02785785
0.053704873 0.06434883 -0.039417803 0.062419783 -0.02105861 -0.035114374 -0.022250513 -0.06615719
0.022168307 -0.06417936 -0.018318972 -0.055570915 0.05921517 -0.05892064 0.038217112 0.06607183
-0.0038124206 0.076048255 -0.06737535 0.030303724 -0.050209813 0.06687209 -0.011701051 0.03890163
0.056391343 -0.018175296 -0.05530436 -0.049383532 -0.009477416 -0.045038488 -0.05117354 0.07559491
-0.022517111 -0.0059737843 -0.044131827 -0.006410861 -0.004840397 -0.06532416 -0.04427782 -0.059867304
0.0026716636 -0.039944805 0.016355244 -0.04302756 -0.029540887 -0.06686593 -0.01916072 0.021639839
-0.056364596 -0.053121775 -0.013540001 -0.03979639 -0.057779036 0.014995684 -0.078050844 -0.018102512
-0.0101775285 0.063521005 0.026637707 -0.042712256 -0.00920506 -0.0039740987 -0.07960615 -0.012305606
-0.070479825 0.059876148 -9.9396064e-05 0.010172274 -0.056729298 -0.0601912 -0.07858308 0.024844157
0.045139335 0.05042814 -0.05988964 -0.07921002 0.020441554 -0.010737819 0.061137952 -0.07724757
0.00589725 -0.0097053 0.026904803 -0.021977408 -0.036710232 0.007862792 0.06720885 -0.059251003
-0.06373609 -0.019317757 -0.02113653 0.011231038 -0.07260303 -0.04838289 -0.07063158 -0.024131408

conv2.0.bias f4 [16]
00000000: 188a 603d 7d2b 993d 8f44 873d edd9 823c
00000010: ec60 223c 9601 69bb 1e03 54bd 35d8 80bd
00000020: ca13 073d b31c 3c3d df1d 2fbd d3f6 913d
00000030: aeca 823d 18d2 723d 1f27 9a3a 6d74 b4bc
0.054819196 0.07478998 0.066048734 0.015973056 0.009910803 -0.0035553924 -0.051760785 -0.06291238
0.032977857 0.045925807 -0.042753097 0.07127156 0.06386314 0.059282392 0.0011760927 -0.022028172

conv2.0.weight_fake_quant.scale f4 [16]
00000000: f4b8 323c 0ea4 303c b954 343c cca2 323c
00000010: 1409 323c 3c69 3b3c 3ca7 383c 0c0b 313c
00000020: 88d4 323c 572d 2f3c 4b21 323c 0169 3d3c
00000030: b017 373c d45a 333c 7b3c 3b3c 4b0e 323c
0.010908354 0.010781301 0.011006528 0.010903072 0.010866422 0.011438664 0.0112703405 0.010805856
0.010914929 0.010691962 0.0108721955 0.011560679 0.011175081 0.010946948 0.011427994 0.0108676655

conv2.0.weight_fake_quant.activation_post_process.min_val f4 [16]
00000000: 9b97 9fbd cd99 a5bd 6d0f a9bd 5e03 a6bd
00000010: 82e8 a6bd 1f3b aebd fd47 a6bd 995d a2bd
00000020: 3d52 a7bd e0ca a2bd 36ff a6bd 7092 b1bd
00000030: 6b45 9fbd 2625 a8bd df5c a4bd 1f7d a5bd
-0.07792588 -0.08085976 -0.08254895 -0.08106111 -0.08149816 -0.0850737 -0.081191994 -0.079280086
-0.081699826 -0.079488516 -0.081541464 -0.08670509 -0.07776912 -0.082102105 -0.08025526 -0.080805056

conv2.0.weight_fake_quant.activation_post_process.max_val f4 [16]
00000000: 648d a73d f7b1 a33d 0b09 a73d 9f78 a73d
00000010: 92cf a53d a8b2 af3d c81c ad3d 5bfa a53d
00000020: 3fa7 a73d 813a a43d 22c5 a13d 8fd0 ad3d
00000030: 34a6 ab3d 3577 a43d b388 af3d 66ed a63d
0.08181265 0.079929285 0.08156022 0.081773035 0.080962315 0.08578998 0.08452755 0.08104392
0.081861965 0.08018971 0.07898928 0.08487045 0.0838131 0.080305494 0.08570995 0.08150749

fc1.0.weight f4 [120, 400]
00000000: 968c dcbc ea46 f9bc 28c0 0b36 ccac 1f3d
00000010: 8269 4abd e873 23bd edd8 a03c 8e64 213d
00000020: 3b20 16bc 7cf8 cc3b cc84 8cbb 4070 c63c
00000030: 8abe cf3a 8b67 f33c 1647 d2bc 8843 463d
00000040: 3c5a 333d 0c89 883b 2edf 15bd ebaa 903c
00000050: 0abf 45bd 222e 02bc 04bb fbbb b5d5 f43c
00000060: 6dbf 113b 6ab7 7cbc 5708 1cbd bc35 25bd
00000070: c99b f8bc 8588 c93c 811d 70bc 6ebd c3bc
00000080: 43a3 9a3c efd6 b73b d7b7 3e3d 8109 593c
00000090: d5f1 d43c a2ce cc3c b2b0 4ebc f6d4 623c
000000a0: 6cb7 a13c aa04 813c a101 763c 3947 3d3d
000000b0: 3b0d 16bd 63d8 323d fad7 82ba 91a1 5dbc
000000c0: 011d 26bd 707b 47bd b03b 90bb e768 1e3d
000000d0: 6a8c eb3c bfd8 c3bb fb4a 57bc bf59 e63c
000000e0: dcac 29bc be9e 9e3c 2023 8dbc ca0d 753c
000000f0: 6043 0bbd 087f 61bc 13ae 0cbd ea06 973c
00000100: 8d17 0fbc 6ecf 3dbd fd0b ff3c 7e8a debc
00000110: b428 343c f48a 4a3d d3b6 ddbc 6c24 18bd
00000120: 5e64 86bc 9e27 fb3a b14a e3bc 1f5c ff3c
00000130: c43d a9bc 12d2 bd3c a913 34bd 449f 063d
00000140: 5395 1fbc 24ca 213d b37a 29bd 5018 96bc
00000150: 4970 32bd 4404 9dbc 6a51 3dbb 57f4 eb3c
00000160: 1ecb 883c e679 df3c 093c bebc 0524 ecbc
00000170: 4751 21bd a43f 90bc f301 2ebd 76ef 303d
00000180: 3d89 283d f63f efbb 2a5c 123d 645e ca3c
00000190: 0c05 663a 9984 0a3d 4f13 34bd 9631 53bc
000001a0: 14bb 36bc b09c 8ebc 50ef ad3c d600 923b
000001b0: 3c9c 633c 46e0 2f3b 5a79 4ebc 70a2 54bb
000001c0: 0f8f babc 2667 da3c 6723 3abc 3bfa c5bb
000001d0: d640 593b 5f22 1ebb 9b69 b33c 5eba 4a3d
000001e0: bdef 433d 9e4f 2c3c 6e61 493d bf7a e53c
000001f0: 1ca6 c1bc 4a02 443d 93d0 383d 1f6c 4d3d
00000200: e60d 503d db62 ec3c b5bc 193d 2204 f13c
00000210: 79ee 05bd c7e3 373c e729 0fbd 2f8b 97bc
00000220: 08aa 55bc aedc a23c 52c4 053d 541d 1dbd
00000230: 94e9 4e3d f3d5 183c 97fc 443c 107e 87bc
00000240: 96e6 36b9 f6b5 183d 06e8 ad3c 00e7 0cbd
00000250: 31cb 09bd 8e06 ea3c abf3 1a3d fa5c a0bc
00000260: 43b6 47bd f733 3dbc 485c 5a3c d320 3dbd
00000270: b8c0 8ebc 91d2 15bc 4b2a eb3c 5886 423d
00000280: ab9c fcbc 9566 e1bc f64a 8cbc 126d 6bbc
00000290: c4f6 c3bc 73ba 27bd 19ad 72bc d7e9 dd3c
000002a0: ba7c 8dbc fc8b 3bbd 358a 94bc acb5 103d
000002b0: 8fbe 3cbc 0c6a 473d acb2 f73b c477 3b3d
000002c0: 13e1 cebc 85c3 003d 161f 783c f6ea 1dbd
000002d0: fa70 1fbc 9d78 e5bc 7998 29bd 1ed2 d53c
000002e0: 4cb9 b2bb 4703 82bc 5207 f0bb 1d02 2e3c
000002f0: 552f 69bc 3906 6a3c cf7c 55bc 9505 063d
00000300: 4be3 4cbd 3d89 603c 1c0b 49bd 863e 33bc
00000310: 03de 0abc aa0b 21bd 3894 05bd c920 f3bc
00000320: ff2c 263d 7734 a7ba 5ec1 e33c 6313 833c
00000330: 62e7 a9ba 6c95 bf3c 3ff5 02bd ee0c 1d3d
00000340: 4847 253d b110 093d da29 2bbd 29f9 853c
00000350: 96ec 22bd fb2e 88bc b1c2 433d 17b8 e43c
00000360: 9a17 c33c 6956 99bc aa76 25bd af0b 7dbb
00000370: 81d4 27bc fcb8 c43c d212 483d 767c 813c
00000380: c4c5 243d 476a 943c 8ea0 333d c8b0 013d
00000390: 5d97 24bd 41d1 59ba 5b54 f13b c930 873c
000003a0: 55f3 213d 7070 d83c 4a56 9b3c 3c4a 8cbc
000003b0: a2b1 c4bc 40c7 cf3c 1ebb 6e3c e33b f93b
000003c0: c2c9 b9bb 7d75 043d 5348 f0bc 01dc 453d
000003d0: c4bc 1dbd 03d5 26bd 8774 913c 14f7 85bb
000003e0: fd51 15bd 43c4 213d ff63 673c 8a06 3cbd
000003f0: 4a94 2c3d d47f a2bc a80d cfbc 9150 e13c
-0.026922505 -0.030429322 2.0824464e-06 0.03898315 -0.049417026 -0.03990546 0.019634688 0.039402537
-0.009162958 0.0062552076 -0.0042882916 0.024223447 0.0015849632 0.02971246 -0.025668662 0.048404247
0.043787226 0.004166728 -0.036589794 0.017659625 -0.048277892 -0.007945569 -0.007682206 0.02988706
0.0022239343 -0.015424589 -0.03809389 -0.04033445 -0.030347722 0.02460123 -0.014655472 -0.023894038
0.018876677 0.005610339 0.046562042 0.013246895 0.02599422 0.025000874 -0.01261537 0.013844719
0.019740783 0.015749294 0.015015037 0.0462105 -0.03663371 0.043663394 -0.0009982579 -0.01352729
-0.040555004 -0.048701704 -0.0044016466 0.03867426 0.028753478 -0.005976766 -0.013140435 0.028118966
-0.010356154 0.019362804 -0.017228663 0.014956901 -0.0339998 -0.013763197 -0.034345698 0.018435914
-0.008733642 -0.0463404 0.031133646 -0.027165648 0.0109960325 0.049448922 -0.027064716 -0.03714411
-0.01640528 0.0019161587 -0.027745577 0.031171856 -0.020659335 0.023171458 -0.043964062 0.03286673
-0.0097401915 0.039499417 -0.04137678 -0.01832214 -0.043564115 -0.019167073 -0.0028887638 0.028803034
0.016698416 0.027279805 -0.023221986 -0.02882577 -0.039384153 -0.017608471 -0.042482328 0.043197118
0.041146506 -0.007301326 0.035732426 0.024703212 0.0008774556 0.03381786 -0.043963727 -0.01289024
-0.011153001 -0.017408699 0.021232277 0.004455666 0.01389223 0.0026836558 -0.012602175 -0.0032445453
-0.022773294 0.026660513 -0.01136098 -0.0060417927 0.0033150217 -0.0024129373 0.021900943 0.04949414
0.047836054 0.010517029 0.04916518 0.028012631 -0.023638777 0.047853746 0.045120787 0.05015194
0.050794505 0.028855732 0.03753348 0.029420916 -0.03269813 0.01122374 -0.03495207 -0.018498985
-0.013041027 0.019880619 0.03265793 -0.038358048 0.050515726 0.009328353 0.012023113 -0.016539603
-0.00017442773 0.037282906 0.021228801 -0.034399986 -0.033641044 0.028567579 0.037830036 -0.019575585
-0.048757803 -0.011548034 0.013327666 -0.04617388 -0.01742588 -0.009144441 0.02870669 0.0474914
-0.030836424 -0.027514735 -0.017125588 -0.014369266 -0.023921378 -0.040949296 -0.0148117775 0.027089043
-0.017271388 -0.045787796 -0.018132308 0.035329506 -0.011520042 0.04868512 0.007559141 0.045768514
-0.025253808 0.031436462 0.01514413 -0.038554154 -0.009731526 -0.028011614 -0.041405175 0.026101168
-0.005454218 -0.015870703 -0.0073250914 0.010620621 -0.014232476 0.01428371 -0.013030245 0.032720167
-0.05002145 0.013704595 -0.04908286 -0.0109402 -0.008475783 -0.039317764 -0.032612056 -0.02967872
0.040570255 -0.0012756725 0.027802166 0.016000455 -0.0012962634 0.02338668 -0.031972166 0.03834241
0.040351182 0.033463184 -0.04178796 0.01635416 -0.039776407 -0.016623965 0.047793094 0.027919812
0.023814965 -0.018717961 -0.04039637 -0.00386117 -0.010243536 0.024013989 0.048846073 0.015806418
0.040227666 0.018117083 0.04385429 0.031662732 -0.040183414 -0.00083090743 0.0073647923 0.016502755
0.0395387 0.026420802 0.018962044 -0.017125241 -0.024010483 0.025363564 0.014570979 0.007606016
-0.0056698034 0.032338608 -0.029331362 0.048305515 -0.0385101 -0.040730488 0.01775576 -0.004088292
-0.036455143 0.03949381 0.014122962 -0.045904674 0.042133607 -0.019836344 -0.025275066 0.027504237

fc1.0.bias f4 [120]
00000000: 2bd1 08bd 02db 38bb 6609 d83c e9dd 42bd
00000010: a358 2abd 627e 393d 6fe6 80bc f0a4 1abd
00000020: e434 ef3c 4a0d 243c bd46 1bbc d1f7 053c
00000030: a254 39bc a616 96bc 9dc0 043d 4903 173d
00000040: adc0 e43c 16bd dd3c b72a c0bc 9795 08bd
00000050: 5eb8 a93c 8ddc 3abd 9444 493d 771f 13bc
00000060: e7b7 233c 07b7 b93b 976f 3fbd aacc 633c
00000070: 1c35 e2bc 418a 5fbc f01c 6b3c d317 25bd
00000080: 3b22 0c3d 67cf 013c e97c 2cbd ffe6 95bc
00000090: ed1b a83c 0b0a ddb7 00d9 abbc f01b 623d
000000a0: 4114 bfbc 7334 9fbc 7397 c83c 381c d9bb
000000b0: 932c bfbc b534 4a3c 6469 29bc e3ca 093d
000000c0: 7ec8 003d 2a68 fb3b 7c35 2e3d 0b42 ecbc
000000d0: 63af cbbc 4083 1d3c 385d 12bc b8fc 29bd
000000e0: 0d97 193d 729e af3b 1243 36bd 0c57 3f3d
000000f0: 2f2c f73c 5285 d3ba eaba 72bc f82e 25bd
00000100: 3fed 433d cd2c 0a3d 5ff8 313a 247e 0dbd
00000110: f3f6 043d 41de 893b ac3c 773c f2f8 e4bc
00000120: f963 8fbc 5e56 1e3a 5abe 4e3d 3e5a c5b8
00000130: 1b32 1ebd ca32 133d 5a06 4bbd 5378 593c
00000140: 719c 23bd c2c7 bd3a 6473 a63c a170 b8bc
00000150: affb a0bb cda4 ccbc ef57 203d e04f bcbc
00000160: 64b1 043c 5c27 88bb fc50 933b 6230 363d
00000170: 3e68 1a3d a75e efbc b21b 90bc 09a8 863c
00000180: 5565 143d d9b9 653c b25a ab3c 25f5 b9bc
00000190: dc67 c33b 4e87 34bc e4e8 7f3c b61e 003c
000001a0: 2c4d ecbb bf75 e2bc 9697 b0bc 19cf 1bbd
000001b0: b5bf 173d a484 09bd c7bb 11bd c122 d6bc
000001c0: 665b 17bd 843d 133d 12eb 633c 365f 5abb
000001d0: bf32 453c d58c c7bc 4f57 1fbd 4daf 1a3d
-0.033402603 -0.002820671 0.026371669 -0.04757491 -0.041588437 0.045286544 -0.01573488 -0.037754953
0.029200025 0.010012934 -0.009477315 0.00817676 -0.011311682 -0.018321346 0.032410253 0.036868367
0.027923906 0.027067702 -0.023457868 -0.033345785 0.020717796 -0.04562049 0.049137667 -0.00897967
0.009992576 0.0056675705 -0.04673728 0.013903776 -0.027613215 -0.013643802 0.014350161 -0.040305924
0.034212332 0.007922984 -0.04211131 -0.018298624 0.020521129 -2.634993e-05 -0.020977497 0.055202425
-0.023325088 -0.01943419 0.02448628 -0.0066256784 -0.023336684 0.012341668 -0.0103400685 0.033640753
0.031441204 0.0076723294 0.042531475 -0.028840085 -0.024863904 0.009613812 -0.008933358 -0.041500777
0.03749757 0.0053594643 -0.044497557 0.046713874 0.030172436 -0.0016137755 -0.014815072 -0.040327996
0.047833677 0.03373413 0.00067890243 -0.034544125 0.03246207 0.004207403 0.015090149 -0.027950738
-0.017503725 0.00060400914 0.050474502 -9.410501e-05 -0.038622003 0.035937108 -0.049566604 0.013273316
-0.039944116 0.0014479088 0.020318694 -0.022514643 -0.0049128155 -0.024980927 0.03914636 -0.022987306
0.008098934 -0.0041550826 0.004495738 0.044479735 0.03769707 -0.029219938 -0.017591331 0.016437547
0.03622945 0.01402136 0.02091727 -0.022699902 0.0059633087 -0.011018587 0.01561949 0.007819822
-0.007211348 -0.027644036 -0.021556657 -0.0380393 0.03704806 -0.03357376 -0.03557947 -0.026139619
-0.0369524 0.035947338 0.013911026 -0.003332091 0.012036025 -0.024359146 -0.038901623 0.037764836

fc1.0.weight_fake_quant.scale f4 [120]
00000000: f088 dc3b 9ee3 d93b 75be e03b 5552 db3b
00000010: 09d9 de3b b539 dc3b 0461 df3b 9202 db3b
00000020: ba5d d93b d80a db3b 64ac dc3b 9511 e53b
00000030: 7162 d93b c1d1 e33b 0c04 de3b c800 da3b
00000040: 3bc6 e03b 4771 de3b 1f82 e53b f77b df3b
00000050: 970f d93b 9c27 db3b 02e6 dc3b be46 da3b
00000060: 6e18 da3b 50ea dd3b 3e5d d93b ce53 de3b
00000070: fea4 d83b c6f6 d93b 2503 db3b c3ee da3b
00000080: b2fa d93b 0a6d dc3b 3891 da3b 1ab1 d83b
00000090: 5b9c e23b e45f d93b de81 da3b 5c67 df3b
000000a0: 07aa d93b e850 da3b 2785 db3b 2e1c da3b
000000b0: fd1d e33b afa7 db3b 6e53 de3b 9e4a de3b
000000c0: 96e9 d93b 8044 da3b 6ab6 da3b ff7a da3b
000000d0: f4d8 de3b 4bc2 d93b 6814 d93b 29ff da3b
000000e0: a40b dc3b 3c31 de3b b42b dc3b c1f3 da3b
000000f0: b154 da3b 7e8a de3b 0163 db3b 75d3 e53b
00000100: 4eb7 d93b 9b3d de3b 7469 da3b 2cbe d93b
00000110: faee db3b db4f dd3b 18ee da3b ccf3 d73b
00000120: f3d8 db3b a755 e33b 9c3e dc3b c8ae e93b
00000130: 2645 da3b 5ec3 dc3b 5e69 da3b b416 d93b
00000140: 9634 db3b 9eab d93b 69e7 d93b 39b5 d93b
00000150: 6f37 e03b b6dc d93b 91ff de3b 39dd db3b
00000160: cfa3 ea3b 9b87 e33b 05da db3b 3ba7 dd3b
00000170: 666d d93b c957 da3b 9e56 da3b d53e db3b
00000180: 036e e03b 4986 d93b 106c da3b 8125 e83b
00000190: f941 da3b a505 e83b ea69 d93b 0790 da3b
000001a0: c8c5 db3b 8583 d93b 5317 dd3b a6dd d73b
000001b0: ee55 d93b 4aa4 d93b 7710 da3b e851 d93b
000001c0: 7ffd d93b c9bf da3b 38e3 d93b 03ff e23b
000001d0: accd dd3b 191c da3b e62a da3b 2737 db3b
0.0067301914 0.0066494485 0.0068586417 0.0066931644 0.006800775 0.0067207464 0.006816985 0.006683656
0.0066334875 0.0066846423 0.0067344178 0.0069906213 0.0066340496 0.006952495 0.006775385 0.006652925
0.0068595684 0.006788406 0.007004037 0.0068201977 0.006624173 0.0066880714 0.0067412863 0.006661265
0.0066557443 0.006772317 0.00663343 0.0067848926 0.0066114655 0.006651732 0.0066837245 0.0066812946
0.0066521997 0.0067268657 0.0066701435 0.006612909 0.0069156117 0.0066337455 0.0066683134 0.0068177413
0.0066425833 0.006662477 0.0066992226 0.0066561913 0.006931065 0.006703339 0.006784848 0.0067837974
0.00665016 0.006660998 0.0066745775 0.0066674943 0.006800765 0.006645476 0.006624747 0.0066832495
0.006715255 0.0067807715 0.006719077 0.0066818898 0.006662928 0.006791412 0.006695152 0.007013733
0.006644166 0.0067822463 0.006665403 0.0066449847 0.006711838 0.0067539043 0.006681215 0.006590342
0.006709212 0.006937701 0.006721331 0.0071314313 0.006661075 0.006737157 0.006665393 0.006625021
0.0066896183 0.006642773 0.0066499007 0.006643918 0.0068425457 0.0066486252 0.0068053682 0.0067097214
0.007160641 0.0069436557 0.0067093396 0.00676432 0.0066353558 0.006663297 0.0066631576 0.00669084
0.006849052 0.0066383225 0.006665714 0.007084549 0.0066606966 0.007080751 0.0066349404 0.0066700014
0.006706927 0.006637993 0.006747165 0.006587702 0.006632558 0.0066418992 0.006654795 0.0066320784
0.0066525335 0.0066756946 0.006649401 0.0069273724 0.0067689028 0.0066561815 0.006657946 0.0066899243

fc1.0.weight_fake_quant.activation_post_process.min_val f4 [120]
00000000: 99cb 4cbd 6345 4cbd 678d 4abd 8435 4cbd
00000010: 78eb 50bd 832f 4cbd f36a 51bd 6852 4dbd
00000020: dec7 4bbd da1f 4bbd 141f 4cbd 7bc0 56bd
00000030: 49cc 4bbd a494 55bd a22f 48bd bb60 4cbd
00000040: d7b9 52bd 6b97 4bbd 174c 50bd 3784 51bd
00000050: 2fc0 44bd ff91 4bbd ea47 48bd 51a2 4cbd
00000060: e676 4cbd aa0b 50bd 0925 4bbd 906e 50bd
00000070: ad1a 4bbd c7c3 4bbd f252 4dbd 9e09 4cbd
00000080: 065b 4cbd d6b5 4cbd a509 4cbd 0826 4bbd
00000090: 1f27 4dbd d5ab 4abd 0c63 4cbd e670 51bd
000000a0: 6c42 49bd 437b 4cbd 84d9 4bbd b8a5 4abd
000000b0: d639 4dbd 33ed 4dbd 4915 4cbd 200d 4cbd
000000c0: fc4a 4cbd 416c 4abd 030b 4dbd 4ed3 4cbd
000000d0: 64eb 50bd 2626 4cbd a639 4bbd 323c 4abd
000000e0: e94a 4ebd 284e 50bd 63c0 4abd 8444 4dbd
000000f0: 65af 4cbd d5a1 50bd d0ac 4dbd 5420 50bd
00000100: c7ed 4bbd c159 50bd dcc2 4cbd 4922 4cbd
00000110: 0a30 4ebd cd44 4dbd 1239 49bd 8f74 4abd
00000120: 631b 4ebd 82e0 4ebd 8280 4bbd db13 5bbd
00000130: d3a0 4cbd 27f7 4ebd c7c2 4cbd 0970 4bbd
00000140: 8992 4bbd e310 4cbd f248 4cbd fef6 4abd
00000150: f733 52bd ea3e 4cbd 0edc 50bd 651f 4ebd
00000160: 91f9 5bbd 88c8 4cbd 6e14 4abd c7cc 4fbd
00000170: 6acf 49bd 4cb2 4cbd 33b1 4cbd e78a 4dbd
00000180: 0b64 4dbd e4ed 4bbd 4ec5 4cbd bca2 50bd
00000190: d99d 4cbd 4a85 59bd 4bd3 4bbd f464 4cbd
000001a0: 6b09 4ebd 4ceb 4bbd 7c92 49bd b628 48bd
000001b0: 546b 4abd 050a 4cbd 6f6f 4cbd 118f 49bd
000001c0: f1c0 4bbd 12f4 4cbd c872 4bbd 12cf 54bd
000001d0: 27c1 4bbd 577a 4cbd e179 4cbd b483 4dbd
-0.049998853 -0.04987086 -0.049451258 -0.049855724 -0.05100581 -0.04985 -0.051127385 -0.050127417
-0.049751155 -0.049590923 -0.049834326 -0.052429657 -0.04975537 -0.052143708 -0.04887355 -0.049896937
-0.051446762 -0.04970495 -0.050853815 -0.05115148 -0.048034843 -0.04969978 -0.048896708 -0.049959484
-0.049918078 -0.050792374 -0.049595866 -0.05088669 -0.049585987 -0.049747255 -0.05012793 -0.04981386
-0.049891494 -0.0499781 -0.049813885 -0.049596816 -0.050086137 -0.049480278 -0.049899146 -0.05113306
-0.04913561 -0.04992224 -0.049767986 -0.049474448 -0.050103985 -0.05027504 -0.049824987 -0.049817204
-0.0498762 -0.049419645 -0.05005933 -0.050006203 -0.051005736 -0.04984107 -0.049615525 -0.049373813
-0.05036441 -0.050855786 -0.04949988 -0.05011417 -0.049971957 -0.050935585 -0.050213635 -0.05081208
-0.04978731 -0.050866846 -0.04999052 -0.049837384 -0.050338782 -0.05011444 -0.049126692 -0.049427565
-0.050319087 -0.050507076 -0.0496831 -0.053485733 -0.04995806 -0.05052867 -0.04999044 -0.049667392
-0.049700294 -0.049820792 -0.049874254 -0.049551956 -0.05131909 -0.049864687 -0.05099111 -0.05032291
-0.053704802 -0.04999593 -0.04933589 -0.0507324 -0.04927007 -0.049974725 -0.049973678 -0.050181296
-0.050144237 -0.049787417 -0.049992852 -0.050936446 -0.049955223 -0.05310563 -0.04976205 -0.049900964
-0.05030195 -0.049784943 -0.049211964 -0.04886695 -0.049418762 -0.049814243 -0.04991096 -0.049208704
-0.04974455 -0.05003745 -0.04967001 -0.05195529 -0.04974475 -0.04992136 -0.04992092 -0.05017443

fc1.0.weight_fake_quant.activation_post_process.max_val f4 [120]
00000000: 60c0 4e3d 74d2 4b3d 8db2 523d 2f9d 4d3d
00000010: 16af 4c3d 1976 4e3d 1fb9 4c3d 264f 4c3d
00000020: a3a3 443d 2a5a 4d3d 9de1 4e3d f71f 4c3d
00000030: 9403 4b3d 3dfe 513d cb23 503d 319a 483d
00000040: cb55 4c3d 328a 503d fc29 573d 45f9 493d
00000050: 9d7e 4b3d 2275 4d3d a117 4f3d b268 4c3d
00000060: 0475 4b3d 1891 4c3d 69c7 4b3d d767 4b3d
00000070: bbeb 4a3d 5957 4c3d afe4 483d d63f 4d3d
00000080: b9b6 4b3d 39a6 4e3d 24e8 4c3d f357 4a3d
00000090: 9572 543d e5c9 4b3d bfd9 4c3d 26d9 4e3d
000000a0: 660f 4c3d d9ab 4c3d d4cc 4d3d 6a7a 4c3d
000000b0: 1cec 543d 67cb 4b3d 366e 503d f365 503d
000000c0: f7f9 4b3d 37a0 4c3d d9c8 4c3d 9d9a 483d
000000d0: 732e 4c3d 7918 4c3d 2183 4b3d 364f 4d3d
000000e0: e482 4c3d 201b 4c3d f868 4e3d 54ba 4c3d
000000f0: 1d48 4b3d 398d 4c3d a76d 4d3d 3d76 573d
00000100: d81b 4c3d b641 4c3d 25a1 4a3d 0380 4b3d
00000110: 8039 4c3d dd7a 4f3d 363f 4d3d c407 493d
00000120: 3658 4a3d 4c20 553d b27a 4e3d f782 543d
00000130: bb93 4b3d 32c4 4b3d 760d 4a3d 4885 4b3d
00000140: 4c81 4d3d 001d 4b3d f241 4c3d e519 4c3d
00000150: 860f 4c3d d2b8 4b3d 970f 513d bc97 4c3d
00000160: a608 583d 214f 553d 641c 4e3d 7d55 4b3d
00000170: 8fd6 4b3d e798 4c3d 149c 493d f46e 4d3d
00000180: 2267 523d b2db 4a3d a17a 4c3d 28a3 593d
00000190: 2cb3 4b3d 37e4 523d bb2f 493d 06e7 4c3d
000001a0: a9de 4b3d 21b0 4a3d dd45 4f3d cb5f 4a3d
000001b0: 8ec0 4b3d 0577 4b3d 0650 4b3d c9bc 4b3d
000001c0: a65d 4c3d cc13 4d3d 0445 4c3d d9e3 4c3d
000001d0: d1f0 4f3d c629 4c3d 3788 4c3d e67a 4d3d
0.05047643 0.04976125 0.05143981 0.05019873 0.049971662 0.050405595 0.049981233 0.04988017
0.04800762 0.050134815 0.05050813 0.04983517 0.04956396 0.05126785 0.050815385 0.048975173
0.049886506 0.050913043 0.052530274 0.049309988 0.049681295 0.050160535 0.050559644 0.049904533
0.04967214 0.04994306 0.04975072 0.049659576 0.049541216 0.04988799 0.049046215 0.050109707
0.049734805 0.05045149 0.050026074 0.04940028 0.051867086 0.04975309 0.050012346 0.050500058
0.049819373 0.049968574 0.050244167 0.04992143 0.051982984 0.049754526 0.050886355 0.050878476
0.049798932 0.04995748 0.04999623 0.048975576 0.049848985 0.049828026 0.0496856 0.05012437
0.049929515 0.049830556 0.050393075 0.049982384 0.04962932 0.049939368 0.0501534 0.052602995
0.04983124 0.049867354 0.049470086 0.04968263 0.049859524 0.05065428 0.05010911 0.04907967
0.04940053 0.052032754 0.05040998 0.05188271 0.049701434 0.049747653 0.049329244 0.049687654
0.050172135 0.049588203 0.049867578 0.049829382 0.04981949 0.049736805 0.05104026 0.049949393
0.052742623 0.052077416 0.050320044 0.049642075 0.049765166 0.049950507 0.049221113 0.05015464
0.051367886 0.049525924 0.049921636 0.053134114 0.04973142 0.051487174 0.049117785 0.05002501
0.049772892 0.049484376 0.050603736 0.04940776 0.04974418 0.049674053 0.049636863 0.049740586
0.049893998 0.050067708 0.049870506 0.05002198 0.05076677 0.049844526 0.049934592 0.050166033

fc2.0.weight f4 [84, 120]
00000000: 8a75 a63d e67e 9a3d 93e6 d43c 564b 9d3d
00000010: aa3e 873a 8924 80bd e5fc b03d e0b9 7a3c
00000020: 4e11 9d3a 6f5c 51bd 923c 983c 247c 74bc
00000030: 95b1 d23a 0cc8 26bd b4f2 033d 9ca5 8fbd
00000040: 7ebd 72bc e53b 90bd 3c67 9a3b c265 5cbc
00000050: 227c 953d 85af 293d 5db4 143d 9ce2 303d
00000060: 02b5 043d 88a6 05bd 307d 8bbc 50f9 3f3d
00000070: d03a 55bd 25f9 aabd 232c 8a3d cf27 73bc
00000080: e829 74bd 6a7a 8dbc 41f6 473d 2b82 9fbd
00000090: d3e8 22bd 66ad 38bc 89f0 843d 409b 703b
000000a0: 7999 843d 37f7 56bd 8859 af3d 0a48 9c3d
000000b0: 119c 2c3d 74c4 ac3c 13e5 10bd d1cb 833d
000000c0: 875f 653b 7bca 883c 0df1 6ebc 3248 d4bb
000000d0: 4d3e b63a 7e41 a5bd 1c76 63bc 9553 c03a
000000e0: e5b5 143d e893 003c 4113 ccbc ce8c a7bd
000000f0: 1478 02bd d82d 8b3d bc32 bc3c b0e6 3c3c
00000100: 7b7a 773c cef1 983d e736 afbd 644d 7a3c
00000110: 467b f63c dfa0 8dbc 3d8f 9b3d 2de7 6bbd
00000120: d9fb 6dbd b2ff a3bd 8e5a dfbc efe8 93bd
00000130: 86f0 a03c 68ff 13bb 9a7e 08bd 65b3 1dbc
00000140: 41ba 153d 503a 463c 38c5 b5bd 2a8a b0bd
00000150: e86a dfbc a626 883c 7802 97bd e56b 8c3d
00000160: ffd1 46bd b640 00bb 92dd 4abd cce1 68bc
00000170: b4e3 03bd ed94 4c3d 35e3 edbc c883 3ebc
00000180: 9125 0a3d 6124 863d 0fef 0b3d 0508 b5bd
00000190: 34c5 a1bd 1004 c33c 8397 88bc bd77 933d
000001a0: 097e 7fbd cf63 37bd 5901 96bd 23e8 2d3d
000001b0: d176 b2bd e6c1 8dbd 0db0 323d 96bf 083d
000001c0: 0397 33bd d0b7 4ebd f658 aa3b e32e b0bd
000001d0: ae3a 85bc 4aef bbbb 1455 d4bc e95d 8d3d
000001e0: 24dc 46bd 31ea b3bd 1b32 b5bd f6eb ad3d
000001f0: 855a 73bc b6cc 70bd cb46 973c 79fc 983d
00000200: c84e b3bd ad9d 943d cd17 88bc 678b b73d
00000210: 4500 98bd 5cd1 193c cbb3 b3bd 13d8 91bd
00000220: 3875 45bd e679 e7ba e10b 123d 74c4 cd3c
00000230: 32e8 de3c 005f ab3d 0253 213d 1a90 beba
00000240: 7afe f23b d480 b43d aafa 5d3d 1f59 2a3c
00000250: 2191 a23d 0faf e33c 5192 53bd 2826 3cbd
00000260: 0d3c 9dbd a548 8ebb dadb b63d f693 bfbc
00000270: 2d6c 43bd 26eb 33bc 67a0 ab3d e1b1 053d
00000280: 202b b83d 65ff 89bd 1da9 5e3d f07c dbbc
00000290: 071a 4cbd 1eb6 a6bd b371 75bd 6d24 05bd
000002a0: a08c 34bd 89bc a9bc 4242 233d 99d4 a8ba
000002b0: 470d 873d 23fa 6cbd 2c95 e3bc effe a43d
000002c0: 3a7f c0bc 4e71 14bc 5eb8 0ebc fd55 a0bc
000002d0: 94ed 133d 415c a8bc 4b46 68bc 0ef2 f8bc
000002e0: d0a6 543d 3ecb 02bc 9c4e 863c e9fc 513c
000002f0: 3780 95bd d2c4 a13d e7b6 24bb 46f9 b83d
00000300: 8ce2 8abd 5ced c93c 558c 743d 67f1 91bd
00000310: c426 ba3d ca4f b23d 0256 573d 8c9b 2b3d
00000320: e6cd a5bd 064d ebbb 6299 503b 1227 4d3d
00000330: 2436 073d 469c 4f3d 737e 40bd c56f 1bbc
00000340: 2556 11bd fc2e 95bb 2896 3bbc 1d12 9b3c
00000350: 4c9c 873d 03ef 33bd 3a36 ee3b 1013 a13c
00000360: 70ee a43d 0c87 813c 373c 6dbd 54de a0bd
00000370: d4aa 5fbd 865a 49bd f0ad 1e3d cb0a 0fbc
00000380: a076 b2bc 585c 43bc 6261 053d e6c0 3b3d
00000390: 102a 36bd 09fb b73d 75be 7b3d e041 51bd
000003a0: 059a 903d ca72 643d b6cf 683d 551f 3ebc
000003b0: 53e2 e5bc f716 d8bc 4aca 3e3d 1ea2 bebc
000003c0: 5b60 01bd 82ec 2c3d 72da 2abc 8a48 843d
000003d0: 6c27 ec3c c9e1 893d 9ce4 003d cadb 55bd
000003e0: 1b02 8fbd f6a2 703c cd57 cbbc 0148 66bd
000003f0: 2c3d ccbc 3323 1c3d 15b3 a7bd 8176 143d
0.081278875 0.07543735 0.025988853 0.07680385 0.0010318358 -0.062569685 0.08641986 0.015303105
0.0011983307 -0.051113542 0.01858357 -0.014922176 0.0016074652 -0.040718123 0.03221388 -0.07014009
-0.014815686 -0.07042674 0.0047120135 -0.013451995 0.07299067 0.041427154 0.03630482 0.04318486
0.032399185 -0.03262952 -0.017027467 0.046868622 -0.05205804 -0.08348302 0.067467 -0.014841034
-0.059610277 -0.017270286 0.04881883 -0.077884994 -0.03977282 -0.01127181 0.06491191 0.003671363
0.06474585 -0.052481856 0.085619986 0.07630928 0.042141024 0.02108977 -0.035374712 0.06435359
0.0034999566 0.016698113 -0.014583838 -0.006478333 0.0013904065 -0.08069132 -0.01388314 0.0014673347
0.03630628 0.007847764 -0.024911525 -0.08181153 -0.031852797 0.067958534 0.02297341 0.01152961
0.015104885 0.074679956 -0.08555394 0.01527724 0.030088078 -0.017288623 0.0759568 -0.057593513
-0.05810151 -0.080077544 -0.02726486 -0.07222163 0.01964594 -0.0022582654 -0.03332386 -0.0096252905
0.03655458 0.012098864 -0.08875507 -0.08620103 -0.027272657 0.016619992 -0.07373518 0.06856517
-0.04854011 -0.001956982 -0.049527712 -0.01421399 -0.032199576 0.049946714 -0.029039005 -0.011628099
0.033727232 0.065499075 0.03416353 -0.0883942 -0.07898942 0.023805648 -0.016673809 0.07200573
-0.062376056 -0.04477292 -0.07324476 0.04245771 -0.08714069 -0.06921749 0.043624926 0.033385836
-0.043845188 -0.050468266 0.0051985933 -0.08602693 -0.016263332 -0.0057353126 -0.025919475 0.069026776
-0.048549786 -0.08784903 -0.088474475 0.084922716 -0.0148531245 -0.058788978 0.018466374 0.0747003
-0.08755261 0.07256637 -0.016612912 0.08962136 -0.074219264 0.009388294 -0.08774527 -0.07121291
-0.04820749 -0.001766023 0.03565586 0.02511809 0.027210329 0.08367729 0.039385803 -0.0014538795
0.00741559 0.088136345 0.05419413 0.010397225 0.079378374 0.027793435 -0.05165321 -0.045934826
-0.076774694 -0.004342156 0.08928652 -0.023385983 -0.047710586 -0.010981357 0.08380204 0.03264034
0.089926004 -0.06738166 0.054360498 -0.026792973 -0.04982951 -0.08140205 -0.059922885 -0.03250544
-0.044079423 -0.020719783 0.03985811 -0.0012880742 0.06594329 -0.057855736 -0.027781092 0.08056437
-0.023498166 -0.009060217 -0.008710949 -0.019572252 0.036115244 -0.020551803 -0.014176915 -0.030388858
0.051916897 -0.007983027 0.016394906 0.012816646 -0.07299846 0.078988686 -0.0025133432 0.0903192
-0.06781492 0.024649315 0.059704144 -0.07126122 0.09089425 0.08706625 0.052572258 0.041896388
-0.08095913 -0.007180813 0.0031829705 0.05008609 0.033010617 0.050686143 -0.04699559 -0.009487097
-0.035482544 -0.00455272 -0.011449374 0.018929536 0.06621608 -0.04392911 0.007269648 0.01966241
0.08053291 0.015811466 -0.057918753 -0.07854906 -0.054606274 -0.049158596 0.0387401 -0.008730601
-0.02178508 -0.011923872 0.032563575 0.04583826 -0.044473708 0.08983428 0.06146093 -0.051088214
0.07060627 0.055773534 0.056838714 -0.01160415 -0.028062021 -0.026378138 0.046579637 -0.023270663
-0.031586032 0.04221774 -0.010428058 0.06459148 0.028827392 0.06732518 0.03146802 -0.05221156
-0.069828235 0.01468729 -0.02482214 -0.056221012 -0.024931513 0.038119506 -0.08188454 0.036245827

fc2.0.bias f4 [84]
00000000: cc39 b6bc ba2b 69bd 1c42 93bd e5a9 b3bd
00000010: 6a5b 7a3d 9b77 c03d efe0 83bd 44a3 503d
00000020: 915c acbd 9af0 f8bc b9df 61bd dae4 b83c
00000030: 3e04 39bd d21a c23c 049a b33d ca82 c73c
00000040: b839 88bd 3af2 f13c 650f 533d fde7 143d
00000050: 0d1b 8fbd 53cf 92bd 182a 553d 10e2 1dbd
00000060: dbe1 2fbc ae6d 783d cf3a a0bd 018e 2abd
00000070: b850 80bd b626 0c3d d732 4c3c 0b3b ecba
00000080: 4fc7 7a3d 503d a6bd 90d1 3e3d 526e a73d
00000090: a7e9 02bd ec39 3e3d b99d 143d 36ff 3e3b
000000a0: ab9a a93d 1ce9 bd3c 8fb2 ac3b 18bc ae3d
000000b0: e5ad 32bc f6bf 8a3d 5eb5 c3bc 5ab5 aabc
000000c0: 13a7 3c3c 7b9c 5bbd af59 f93c 326d 72bd
000000d0: 9591 253d 9718 573d 4062 63bc 84ba 5abd
000000e0: 5a9b 3e3d 3609 a33d a127 c43d 0b11 5dbd
000000f0: a3c7 473c 317a 9cbd 6ae8 4fbd efe2 3bbd
00000100: 0622 a9bd 7d6b f63c dd1b 893d 394b 4c3c
00000110: 7e1f 803d 8ffe 5abb 6e37 263d c192 fdbc
00000120: fa25 9f39 50e6 7d3d 0e6e 903d c4f1 98bd
00000130: 4595 983d 7ea1 963d a035 9d3d b668 abbd
00000140: 0cef d3bc 3f11 92bd f68c a73d 09b6 123b
-0.022244357 -0.056926467 -0.07190344 -0.08772639 0.061122335 0.09397813 -0.06439387 0.050936952
-0.08416093 -0.030388165 -0.055145 0.022570062 -0.04517006 0.02369443 0.087696105 0.024354357
-0.06651634 0.029534448 0.051528353 0.036354054 -0.069875814 -0.0716845 0.052042097 -0.038545668
-0.0107350005 0.060651474 -0.07823717 -0.04163933 -0.06265396 0.034216605 0.012463293 -0.0018022967
0.06122523 -0.08117163 0.046586573 0.08175339 -0.03196111 0.046441957 0.03628323 0.0029143817
0.08281454 0.023182444 0.0052703093 0.0853197 -0.0109057175 0.06774895 -0.023890194 -0.020838428
0.011514443 -0.05361603 0.030438272 -0.059186168 0.04042204 0.052513685 -0.013878405 -0.05340053
0.046534874 0.07960741 0.09577871 -0.05397133 0.012193593 -0.07640494 -0.050758757 -0.045870718
-0.082584426 0.030080551 0.066947676 0.012469106 0.06256007 -0.003341589 0.040580206 -0.030953767
0.00030355138 0.06198722 0.07052241 -0.07467988 0.07450346 0.07355021 0.07676244 -0.083695814
-0.025870822 -0.07132196 0.08181183 0.0022386333

fc2.0.weight_fake_quant.scale f4 [84]
00000000: 67e7 413c 3ab4 463c 7496 463c 0a16 473c
00000010: f2d3 463c a524 453c ec11 473c a500 463c
00000020: 536c 473c 3a3f 473c 2def 463c 67c7 453c
00000030: bc12 463c 7d1d 483c 4d18 453c 73f9 453c
00000040: 5654 473c a877 453c 47c2 483c 9cb6 483c
00000050: dc10 473c 4c1f 403c 2456 463c e3a5 483c
00000060: b496 483c 220f 463c 63fb 463c 0a0a 473c
00000070: c1e8 3f3c 538b 473c 527e 453c 0758 453c
00000080: ecae 443c bd19 463c 2c93 473c 5094 453c
00000090: 0877 463c d630 463c c2a8 463c 3c1d 473c
000000a0: 288a 463c 4368 463c d273 453c 83a3 463c
000000b0: 850d 473c d50f 453c d68d 3c3c 0d2a 473c
000000c0: 0f78 473c 17ca 463c 9960 4a3c 54b9 413c
000000d0: 6550 4e3c 290f 473c 248a 493c 381b 453c
000000e0: 78eb 483c 00bb 4c3c f31c 433c c162 483c
000000f0: c162 443c d199 443c ed2d 473c dc58 473c
00000100: e32d 443c 24c2 483c 73ba 483c 954a 453c
00000110: 6407 423c 4d02 4a3c 774f 493c 2d9a 463c
00000120: 208b 463c 7240 453c 7db9 473c d8aa 463c
00000130: df7a 453c 03e6 473c 7083 4b3c 7899 453c
00000140: 3808 443c 99ab 463c 4161 423c 2313 473c
0.011834956 0.01212793 0.012120832 0.012151251 0.012135493 0.0120326625 0.012150269 0.012085115
0.012171823 0.0121610705 0.012141985 0.012071467 0.012089428 0.012214062 0.01202972 0.012083399
0.012166103 0.012052454 0.012253351 0.012250569 0.012150016 0.011726212 0.012105498 0.012246582
0.012242962 0.012088569 0.012144896 0.01214839 0.011713208 0.012179214 0.012054043 0.012044913
0.012004595 0.012091097 0.012181085 0.012059286 0.01211334 0.012096604 0.012125196 0.012152966
0.0121179 0.012109819 0.0120515395 0.012123945 0.012149219 0.0120277 0.011508426 0.012156022
0.01217462 0.012133143 0.012352132 0.011823971 0.01259241 0.012149611 0.012301002 0.012030415
0.012263171 0.012495756 0.0119087575 0.012230576 0.011986435 0.011999563 0.012156946 0.012167182
0.011973831 0.012253318 0.012251484 0.0120417075 0.011842582 0.01232965 0.012287012 0.012121719
0.012118131 0.012039291 0.01219022 0.012125693 0.0120532205 0.012200835 0.012421474 0.012060516
0.01196485 0.012125873 0.011864007 0.012150559

fc2.0.weight_fake_quant.activation_post_process.min_val f4 [84]
00000000: f0c8 b5bd 97d8 b4bd e244 b4bd a9a4 babd
00000010: b266 babd 5ad2 b8bd cda0 babd 9aa0 b9bd
00000020: 20f3 b7bd 1ec7 b3bd 3a80 babd f06a b9bd
00000030: 90b1 b9bd 3fcd b7bd c8c6 b8bd 629f a1bd
00000040: f873 babd 2d20 b9bd 1102 babd 6ea2 b8bd
00000050: e2c4 b9bd b126 b3bd c1f0 b9bd 3bb5 babd
00000060: 480d bcbd f9ac b6bd 111b b7bd 6999 babd
00000070: 0862 b1bd 5f7c b9bd 81f6 b5bd 4e85 b5bd
00000080: 9b1c b5bd bd43 b9bd f919 bbbd 0a3b b9bd
00000090: 06e9 b9bd c8cd b9bd 353e babd 68ab babd
000000a0: 8521 babd be01 babd d3ba b8bd 4a39 babd
000000b0: ac9c babd 9338 b6bd f8c4 b0bd 27f5 b6bd
000000c0: 8d00 bbbd 755d babd 2086 b9bd 6fa1 b4bd
000000d0: 5e6b c1bd 776e b9bd bc6d b3bd 84c9 b8bd
000000e0: cbee b5bd 1b0f b7bd 35c5 b6bd f15f b4bd
000000f0: 941c b8bd 429e b1bd 0ebb babd 4ee3 babd
00000100: 0638 b4bd 0136 bcbd 3db2 b9bd ebf5 b8bd
00000110: 0cb1 b3bd f480 b7bd 7fba bcbd e9fb b9bd
00000120: 78dc b5bd 6aec b8bd e53d bbbd df0c babd
00000130: 3023 b9bd adcb b9bd 38cb bebd a1b8 b5bd
00000140: 7dab b6bd f61c b9bd 01cd b1bd f0a1 babd
-0.088762164 -0.08830374 -0.08802201 -0.09113438 -0.09101619 -0.090244964 -0.091127016 -0.090638354
-0.08981919 -0.08778213 -0.091064885 -0.090536 -0.090670705 -0.089746945 -0.090222895 -0.07891728
-0.091041505 -0.0903934 -0.090824254 -0.09015356 -0.090707555 -0.08747614 -0.09079123 -0.09116598
-0.09182221 -0.08919711 -0.089407094 -0.09111292 -0.08661276 -0.09056925 -0.088849075 -0.088633165
-0.08843347 -0.09046123 -0.09135813 -0.09044464 -0.09077649 -0.09072453 -0.09093896 -0.091147244
-0.090884246 -0.090823635 -0.09020009 -0.09092958 -0.09111914 -0.088975094 -0.08631319 -0.08933478
-0.091309644 -0.09099857 -0.090587854 -0.088198535 -0.09444307 -0.090542726 -0.087611645 -0.09022811
-0.08883437 -0.08938428 -0.08924333 -0.08807362 -0.08989826 -0.086727634 -0.09117709 -0.09125386
-0.08799748 -0.09189988 -0.090671994 -0.0903128 -0.087740034 -0.08960143 -0.09215259 -0.09081251
-0.08879942 -0.090294674 -0.09142665 -0.09084486 -0.090399146 -0.09072051 -0.09316105 -0.08873106
-0.089194275 -0.09038727 -0.086816795 -0.091129184

fc2.0.weight_fake_quant.activation_post_process.max_val f4 [84]
00000000: dadd b03d f648 ba3d 0c2d ba3d 023e ba3d
00000010: f559 ba3d a9a7 b83d 5765 b63d 8407 b33d
00000020: 8df5 ba3d 46cb ba3d 7075 b93d f573 ac3d
00000030: 6e26 b73d a59b bb3d 5fe2 b33d db99 b93d
00000040: 10df ba3d b839 b43d 2236 bc3d 322b bc3d
00000050: ce9f ba3d 571d b43d 98ae b93d 841b bc3d
00000060: 3c9a ba3d 2fae b93d ac8b ba3d 34fd b33d
00000070: 34ea b33d 9d12 bb3d 6c26 b93d 8602 b93d
00000080: fd63 b83d 21b8 b93d 8d05 b83d cdb1 b33d
00000090: 970f ba3d 8e95 b23d d9c4 b63d 06a3 ba3d
000000a0: 6c2b b93d a91f b73d 941c b93d a310 b23d
000000b0: 52cf b33d d7be b83d 1f2b b03d 6cb7 ba3d
000000c0: c9fe b93d ad3b b73d 8fba bd3d be9d b53d
000000d0: 0774 b83d 369e ba3d 81f1 bc3d 196f b83d
000000e0: c05c bc3d 4fef bf3d 23eb b63d 94dc bb3d
000000f0: 77de b63d 3350 b83d 62b1 b73d a2b1 b93d
00000100: 04eb b73d 73e0 ba3d cb2e bc3d 3ad2 b83d
00000110: ede6 b53d 2862 bd3d bf6a b93d 8a30 ba3d
00000120: 6d22 ba3d 4332 b83d e744 b83d 2a40 ba3d
00000130: 3456 b63d a267 bb3d cc32 bc3d e03f b93d
00000140: b4c7 b73d df40 ba3d 2c3b b63d d9ee b63d
0.08636065 0.090959474 0.09090623 0.09093858 0.09099189 0.09016354 0.08906048 0.08741668
0.09128866 0.091208026 0.090556026 0.084205545 0.08942877 0.09160546 0.08783411 0.09062549
0.09124577 0.088000715 0.091900125 0.09187926 0.091125116 0.08794659 0.09066504 0.09184936
0.09111449 0.09066426 0.091086715 0.08788529 0.08784905 0.091344096 0.090405315 0.090336844
0.09003446 0.09068323 0.08985434 0.08774147 0.09085005 0.087199315 0.089242645 0.091131255
0.09041485 0.089415856 0.09038654 0.086945795 0.087797776 0.09020775 0.08601975 0.09117016
0.090817995 0.08946929 0.09264099 0.088679776 0.090065055 0.091122076 0.09225751 0.09005565
0.09197378 0.09371816 0.089315675 0.09172931 0.089291506 0.08999672 0.0896938 0.09067084
0.089803725 0.091248415 0.091886126 0.090244725 0.08881936 0.092472374 0.09053563 0.09091289
0.090885974 0.08993962 0.08997517 0.090942696 0.08903161 0.09150626 0.09189376 0.09045386
0.08973637 0.090944044 0.08898005 0.08932275
