checkpoint/best_LeNet5_hardtanh_quantized.ckpt (torch, 271170 bytes, 25 tensors)

conv1.0.weight f4 [6, 3, 5, 5]
00000000: d7ef bf3d 1e76 ba3c 330e 123e 2a5d 003d
00000010: 8665 143e b619 153d d615 29be eb60 633e
00000020: f1e6 97be 68fc e13d 7c59 103d ef3c 16be
00000030: 538c d23e b7da debe 1dfa ab3e c518 d5bc
00000040: 54c8 debe 8d54 b63e 577d d4be b6a3 01bb
00000050: 32d9 a9bd 0322 5bbe b3df 2a3e 21a1 c5be
00000060: 35e5 213e 0da8 0bbd 8384 8cbd d049 e8bc
00000070: 79a5 45be ff43 aabc c387 033d a367 a2bd
00000080: 70db 633e c48c 93be dc49 cb3d e75b e83d
00000090: 941d 683c 95d3 f63e 3b27 afbe 4d26 883e
000000a0: ffc7 c43d 27c3 cabe 8b89 f43e f13a b5be
000000b0: 9cf2 753d 4d24 06bd 7acb febd 0602 973e
000000c0: 26f6 94be 76a9 233e dced 643c 3ea7 14bd
000000d0: abe5 cd3d eb48 d23d 161c 34bd ff69 6fbd
000000e0: 1559 12be 06fd 183e 9981 80be a32d cc3d
000000f0: b6ca 94bd 209d abbd faed f63e 6b76 b3be
00000100: 8f7a 963e f100 d8bd 277f b0be 9496 833e
00000110: 5ea6 b6be 45f4 163d 09a6 33bd dcca e0bd
00000120: 77f3 903e ff7d 85be cb63 853e a6ee acbd
00000130: faaa c0bd 60e5 8e3e 27a4 3c3e 44a8 a63d
00000140: f0e2 a3bd 81b1 e43d e370 4a3e a726 173e
00000150: 9094 c6bd 40ff 253e 583f 85be 7cf1 d9be
00000160: 8493 3cbe 418a 0bbe c308 f03d e09b 90bd
00000170: 8606 a9bd cbf8 3ebb aaf3 7a3e bf43 2f3d
00000180: 2d9e a33d 7328 143e 35ae 4e3e b015 6b3d
00000190: 4feb b1bd 11d3 c13d f018 713e 41c8 b03d
000001a0: 99bc 4e3b 831c 38bd 6132 fa3c a0c6 d23d
000001b0: 55e1 d53d cefb 953d 64ec 56bd 0409 5dbe
000001c0: 031e c6be 099b bfbe 22d7 7ebe 49cb f13d
000001d0: 2458 033d 72ff e9bd ffe4 dabd 126f 87bd
000001e0: a930 aabd 87bb 103e c260 863d 7b2e d83d
000001f0: f517 07be 6d95 113e 23a9 7d3e c9c7 953c
00000200: 8110 3c3e e8b3 d53d b4a2 2b3e bf22 373e
00000210: b597 793e 5bfa 143e 02d9 4e3e 110a 49be
00000220: 9ac4 e3bd cb6d c1bd e830 64be a1fa 10be
00000230: 4139 9ebd 94ff a2bd bfea c1bd a4fd adbd
00000240: ebb2 3cbd 514b e7bd 0ca9 47be 4b7a 823b
00000250: ffc9 debd ab8f 16bd 007c edbc c702 223d
00000260: 7fde 783e 478d 763e cde1 ef3d 0e9d bd3d
00000270: 640e 9d3e 35dd 543e eb87 ac3e 4806 a33e
00000280: 9c7a 88bc 9651 7f3e 964f 9738 4ca4 be3d
00000290: 2832 963e 28cd e8bd 858b 9b3d 6426 b9bc
000002a0: 6013 c23d 960b 7e3c a8fa 09be 3eb2 0fbe
000002b0: 15c1 e7bd f6d9 aebd e43c 35be f30a 88bd
000002c0: 8b5e d4bd cffd 5dbe abc5 90be 4f6e dbbd
000002d0: 41eb e1bd 3e67 e1bd a834 edbe 8ea2 bebe
000002e0: 85cd 98bd 83b7 b9bd 5814 04bd 28bf edbe
000002f0: d8cc aebe a919 14be 9980 383d efbf e5bc
00000300: 7aa8 85be 6465 1abe aad7 f63d 9a51 183d
00000310: 4a8d 4e3d da1c 4c3d 599f 473d 0282 0d3e
00000320: 1c36 1d3e 15d8 0b3e 51df 31bd ee91 d2bc
00000330: 7ef0 cb3c f53c 5c3e 8bbd 8e3e 798c 78be
00000340: 0912 24be e002 9f3c 895e 6e3e f17f 613e
00000350: 45f3 80be d4a2 14be 358e bc3d f79e 1d3e
00000360: e816 4b3e 5d56 2cbe 16ad 17be 806f 1fbd
00000370: 6f29 ef3d 3f18 fb3c b20a 253d 84e2 8a3b
00000380: 37d5 fe3c 3987 0dbd eafd 233d 6ce1 0fbd
00000390: bd1e 11be cdd3 c83d fa45 dcbd 9d86 cebe
000003a0: 79ea 503d 5a27 95be b13c 083d 92aa f33e
000003b0: e66d de3d a92b b33e 942f 77be e6c1 033e
000003c0: b946 f63d f39c 04bb 8c0e 7e3e bdf1 98be
000003d0: ef50 c23d 2a39 fdbc 964f 7d3c 1943 803e
000003e0: 3acf b6bd 6faf eebc 36c1 91be 3db4 ba3d
000003f0: 3bff 5c3e 0d87 003d f37d 9f3c 81b8 93be
0.09371918 0.0227614 0.14263229 0.03133885 0.14491853 0.036401473 -0.16512236 0.2220494
-0.29668382 0.11034471 0.03524159 -0.14671682 0.41122684 -0.4352624 0.3358926 -0.026012788
-0.43512213 0.35611382 -0.41501877 -0.0019781417 -0.0829338 -0.21399693 0.16686897 -0.38599494
0.15810092 -0.034095813 -0.06861212 -0.028355509 -0.19301404 -0.020784376 0.032111894 -0.079299234
0.22251678 -0.28818333 0.09926197 0.11345654 0.014167208 0.482083 -0.34209618 0.2659172
0.09608459 -0.39602014 0.47761187 -0.3539653 0.060045823 -0.032749463 -0.12441154 0.2949373
-0.29094046 0.15982613 0.013972726 -0.036292307 0.10053571 0.10267814 -0.043972097 -0.058450695
-0.14291795 0.14940271 -0.25098875 0.09969642 -0.072652265 -0.083795786 0.48228437 -0.35051283
0.2939038 -0.105470546 -0.3447201 0.2570082 -0.35673803 0.036854047 -0.043859515 -0.10976192
0.2831075 -0.2607269 0.26052698 -0.08443956 -0.09407611 0.27909374 0.18421994 0.08137563
-0.08002269 0.11166669 0.19769625 0.14760838 -0.09696305 0.16210651 -0.2602489 -0.4256705
-0.18415648 -0.13626958 0.11720421 -0.07060981 -0.08253197 -0.0029139991 0.24507013 0.042789217
0.07989154 0.14468555 0.20183642 0.05739373 -0.0868746 0.09464086 0.23544669 0.086319454
0.0031545518 -0.044949066 0.0305416 0.10291791 0.10443369 0.073234186 -0.052471533 -0.2158547
-0.38694772 -0.3742297 -0.24886754 0.11806352 0.03206648 -0.114256755 -0.10688209 -0.06612982
-0.083100624 0.14134036 0.06561424 0.105557404 -0.13192733 0.14217158 0.24771552 0.018283742
0.1836567 0.10434705 0.16761285 0.17884348 0.24374278 0.14548628 0.2019997 -0.19632746
-0.11121483 -0.094447695 -0.22284281 -0.14158107 -0.07725764 -0.07958904 -0.094686024 -0.08495644
-0.046069067 -0.11293662 -0.1949808 0.0039818636 -0.108783714 -0.036758106 -0.028989792 0.03955343
0.24303626 0.2407733 0.1171299 0.092584714 0.30675042 0.20787509 0.33697447 0.3184073
-0.016660027 0.24933466 7.215065e-05 0.09308681 0.2933514 -0.113672554 0.075949706 -0.022601314
0.09476352 0.015505692 -0.13474524 -0.14032838 -0.11316124 -0.085376665 -0.17699009 -0.066427134
-0.10369595 -0.21678852 -0.2827581 -0.10714399 -0.11031199 -0.1100602 -0.46329236 -0.37233394
-0.07461075 -0.09068205 -0.032245964 -0.46434903 -0.34140658 -0.14462914 0.045044515 -0.028045623
-0.261051 -0.1507774 0.120528534 0.037187196 0.050427713 0.049832202 0.04873595 0.13819125
0.15352672 0.13656648 -0.04342586 -0.02570435 0.024894949 0.21507628 0.27878985 -0.24272336
-0.16022505 0.01941055 0.2327825 0.22021462 -0.251856 -0.14515239 0.09206811 0.15392672
0.19832957 -0.1682982 -0.14812121 -0.038924694 0.11677825 0.03065121 0.040293403 0.0042384285
0.031107528 -0.034552786 0.040037073 -0.03512709 -0.14171882 0.09806023 -0.107555345 -0.40337077
0.05100486 -0.29131585 0.033261005 0.47591072 0.10860805 0.34994248 -0.24139243 0.12866935
0.12025208 -0.002023515 0.24810237 -0.29871932 0.09488093 -0.030911047 0.015460869 0.2505119
-0.08926244 -0.029136388 -0.2846772 0.09116409 0.21581738 0.031378794 0.019469237 -0.28851703

conv1.0.bias f4 [6]
00000000: 6255 07bf f044 a0bf c79c 39bf ba76 19be
00000010: 86ec 16bf 42c4 8bbe
-0.5286466 -1.2521038 -0.7250485 -0.14986697 -0.58954656 -0.2729817

conv1.0.weight_fake_quant.scale f4 [6]
00000000: b097 833d d831 683d 9fab 7d3d 2fe0 813d
00000010: 5920 653d 3bff 973d
0.064254165 0.05668816 0.06193125 0.06341588 0.055939052 0.07421728

conv1.0.weight_fake_quant.activation_post_process.min_val f4 [6]
00000000: 7348 dfbe baae d9be e4d0 edbe ede7 cdbe
00000010: 5c1e b6be 477f 0ebf
-0.43609962 -0.42516118 -0.46448433 -0.40216008 -0.35570037 -0.5566296

conv1.0.weight_fake_quant.activation_post_process.max_val f4 [6]
00000000: 69bc f63e 2ca8 8e3e 2c44 ac3e 5784 f33e
00000010: 53ce d63e 91a7 043f
0.4819062 0.2786268 0.3364576 0.47561905 0.41954288 0.51818186

conv2.0.weight f4 [16, 6, 5, 5]
00000000: 0da3 023d 694c 143d 78d8 00bd 8c63 f9bd
00000010: b6aa 8fbd 81bf 0f3d 9c7d 97bd ad90 0cbe
00000020: f0ab 06bd 1653 523c bd8d 61bd 708f 81bd
00000030: 18fa 10bd 3deb d03c 2a98 f03b 4911 9bbd
00000040: 87ac 75bd c8de 343d 0f10 753d 51a2 5c3d
00000050: 0039 83bc 8b3c 723d c10f 6a3d db30 16bd
00000060: 79a4 0cbd 3c63 3dbc e877 143c af15 55bc
00000070: 8b29 94bc 5521 f83d 1b01 ae3d 4039 abbd
00000080: fac8 3dbd f009 543d c948 d33d be47 a8bd
00000090: 16ca a2bd 6e5a c33d 5d51 ad3d 67f2 54bc
000000a0: 978f c0bd b838 c13d e8e6 5a3d 3428 a9bd
000000b0: 3dd9 61bc 744f e93c 5635 fe3b 020e 84bd
000000c0: f267 693b 187d 5ebd 4132 0fbd e22b 163d
000000d0: 7b91 5a3c 84af 423c 2081 ab3d 9089 acbb
000000e0: b101 acbc 594c 023d bb10 ac3d 82c0 a53d
000000f0: 6bed 153d 6c2c e2bc af3b d23d b4a9 033e
00000100: e81f 80bd e695 fbbc 4f7a 043e 78e7 013e
00000110: 6533 02bd a416 6fbc 725f 253e ce5c 293e
00000120: 833a 8cbc 0a8f eabc ba20 173d 45c8 1bbb
00000130: b68d a8bd 16e7 bd3a a99e 1b3d a080 e03c
00000140: c4ef 8bbd ddd6 5e3c a2fd 8f3d e174 a03c
00000150: 9e15 e0bd c110 6fbd 319d 9c3d 1756 353d
00000160: 52d9 36be faae babd c57f 8c3d 2c43 2b3d
00000170: 8892 07be 6c4b 24be 1404 a1bc a6f6 ac3d
00000180: 3c15 aebd be4c 1ebe 1b04 2cbc b8a9 86bc
00000190: eef4 e53d 7fab 43bd 9734 2dbd 50f0 513d
000001a0: afb3 c83d 4bae 77bb ce90 d53c f1c3 a53d
000001b0: de1c 7c3d 5b32 14bd 9277 99bc e46f 063e
000001c0: 84a7 a13d 881b 7dbd 2810 3abd 7144 3b3d
000001d0: 4074 343d 3c85 07bd e97d 38bd 8b66 88bd
000001e0: b781 0e3d c3bb 56bd 56c9 c4bc 63b7 81bd
000001f0: d29c 74bc 226c 133d 7598 033d ffc6 433d
00000200: db47 8cbc 0f2d 1dbc 785a 20bb ac89 153d
00000210: a2b4 54bc 7a8f 67bd 3e2d 11bc 562a b83c
00000220: 6c5e 5abc 5e2a c3bd 718e f73b 7ac6 fa3d
00000230: 7ba6 e8bb f0aa ecbd 7d19 36bc 115a 033e
00000240: c3b1 ad3d 6c4b 7bbd ba55 c53b c705 be3d
00000250: 637a 623d 1abb 1f3c f39e ed3d 0ff8 ea3d
00000260: a869 f63d fe6e 023e f352 923d 0bd1 c73c
00000270: d121 9d3d c198 1f3d a2ff 933d 107d 973d
00000280: 347d 23be cd3b c6bd 2eb7 64bd 7a46 8ebd
00000290: f58f babd deb9 7abe 4b20 b7be edeb b7be
000002a0: e690 95be 42f5 34be 12a8 c83a 7ed4 c2bd
000002b0: 105b 26be e631 cabd e696 c8bc c4d2 e03b
000002c0: 1f99 8abc 076c 383d 1110 123c d0e5 9bbd
000002d0: 6284 78bd c18e 303d 97c9 833d 3382 91bc
000002e0: 4245 f0bd fe54 a1bc 2200 153e 85f1 023e
000002f0: 4d58 c3bb 9c8d bebd 6f7a f73c 09f1 013e
00000300: 7ced db3b 24f4 40bd c459 2c3d 7ade 823d
00000310: 1761 b7bd d0d4 cbbc 5e3c d6bc 9bb3 e13d
00000320: c054 34bd a9e0 8fbc 49ae 06bd a097 20bd
00000330: ec10 123c ade5 913d 4d4e c23c 6c83 f63d
00000340: 741e df3d 5d93 86bd f8a0 983d 003a 183e
00000350: 72a7 2c3e 3a62 123d 878c a3bd 6abe 293a
00000360: 053b 90bd bb3b d6bd f6cb 02be ed61 f4bd
00000370: c7c5 e4bd c13a f4bd 29e5 d0bd 4af1 8fbd
00000380: 371e b6bc ee4e 4ebd 6520 cdbc 0407 c4bc
00000390: 1032 8dbd f6a7 e5bc 2b73 d43c 58cb 9dbd
000003a0: 2d96 11bd a34d 8fbd 9b6e d4bc 9897 be3c
000003b0: 53e8 f9bd 1473 2bbe eb73 23be 91b4 96bd
000003c0: cb96 f3bd 70f7 3ebe d319 2dbe b411 17be
000003d0: afd0 b13c 03ab 23be 2d5f a3bd 6b29 a63c
000003e0: eddc bc3c 0f91 343d c461 3f3d 0f2c e63d
000003f0: 6ea2 eb3d ab8f 9f3d abf0 8b3d c5d5 983c
0.03189378 0.036205683 -0.03145644 -0.1217719 -0.070149824 0.03509474 -0.07397005 -0.13727064
-0.032878816 0.012837192 -0.055066813 -0.06326187 -0.035394758 0.025502795 0.007342358 -0.07571656
-0.059978988 0.044157773 0.059829768 0.053865734 -0.01601839 0.05913977 0.05714393 -0.036667686
-0.03433654 -0.011559304 0.009061791 -0.013005658 -0.018086215 0.121157326 0.084963046 -0.08360529
-0.046334244 0.05176729 0.10316617 -0.08216809 -0.07948701 0.095387325 0.084627844 -0.012997246
-0.094023876 0.09434646 0.053442866 -0.08259621 -0.013784704 0.028480269 0.007757823 -0.06447984
0.0035614935 -0.054318517 -0.034960035 0.036662944 0.013340349 0.0118826665 0.08374238 -0.005265422
-0.0209969 0.031811092 0.084016286 0.080933586 0.036603373 -0.027609073 0.1026529 0.12857705
-0.06256086 -0.030711126 0.12937282 0.12685955 -0.031787295 -0.0145928 0.16149691 0.16539308
-0.017117744 -0.02863266 0.036896445 -0.0023770493 -0.08230154 0.0014488425 0.037993107 0.027405083
-0.06832841 0.013601032 0.070307985 0.019586982 -0.10941623 -0.058365587 0.076471694 0.044271555
-0.17856339 -0.091154054 0.068603076 0.041812107 -0.13239491 -0.16044396 -0.019655265 0.08445482
-0.08500144 -0.15458962 -0.010499026 -0.01643835 0.11228357 -0.047770973 -0.04228648 0.05125457
0.09799897 -0.0037793096 0.026070025 0.080940135 0.061550967 -0.036180835 -0.018733773 0.1312862
0.07893279 -0.061793834 -0.045425564 0.045719568 0.044056177 -0.033086047 -0.045041952 -0.066601835
0.034791674 -0.052425157 -0.024021786 -0.06333806 -0.014929967 0.035991795 0.032127816 0.0477972
-0.017124107 -0.009593262 -0.0024467986 0.036508247 -0.012982519 -0.056533314 -0.008860884 0.022481125
-0.013328176 -0.09529565 0.007554822 0.12244888 -0.007099924 -0.11556041 -0.011114475 0.12827326
0.08481171 -0.061351225 0.0060221823 0.09278446 0.0552925 0.009749198 0.11602583 0.11473095
0.12031871 0.12737653 0.071447276 0.024391672 0.076724656 0.038964037 0.072264925 0.07396901
-0.1596573 -0.09679375 -0.055838756 -0.06947036 -0.09109489 -0.24484965 -0.35766825 -0.35922185
-0.2921211 -0.17671683 0.0015308878 -0.09513186 -0.16245675 -0.098727986 -0.024486016 0.0068610627
-0.016918717 0.045024898 0.008914963 -0.07612193 -0.060673125 0.04310489 0.064349346 -0.01776228
-0.1173196 -0.019693848 0.14550832 0.12787445 -0.005961454 -0.093043536 0.030209748 0.12689604
0.00671166 -0.04710783 0.042077795 0.0639009 -0.08954065 -0.02488175 -0.026151832 0.11020585
-0.044026136 -0.017563181 -0.032881055 -0.0392071 0.008915167 0.07123885 0.023718977 0.120367855
0.1089448 -0.06571076 0.07452577 0.14865875 0.1686075 0.035738207 -0.07985788 0.0006475212
-0.07042507 -0.104606114 -0.12773117 -0.1193274 -0.111705355 -0.11925269 -0.10199959 -0.07028444
-0.022231204 -0.050368242 -0.025039861 -0.023929127 -0.06894314 -0.028034192 0.025933823 -0.077048
-0.03554361 -0.0699723 -0.025931647 0.023265645 -0.122025155 -0.16743118 -0.15962188 -0.07358659
-0.11893996 -0.18649077 -0.16904382 -0.14752847 0.021705953 -0.15983205 -0.07977138 0.020283422
0.023054564 0.04408365 0.046724096 0.11238872 0.115055904 0.07791074 0.06833013 0.01865662

conv2.0.bias f4 [16]
00000000: 7e8f d0be 7341 d8be e785 17be b336 163d
00000010: a1e5 533e 2258 d7bb e84a 80bd 7500 c5be
00000020: a3e0 3fbf 8677 1bbf 02f4 ef3c 486e 36bf
00000030: 4984 ccbe b127 d53d 8ff7 0abe 7776 35bf
-0.40734476 -0.42237434 -0.14797173 0.03667326 0.20693065 -0.0065717855 -0.06264287 -0.3847691
-0.74952143 -0.60729253 0.029291157 -0.71262026 -0.39944676 0.10407961 -0.13570999 -0.7088389

conv2.0.weight_fake_quant.scale f4 [16]
00000000: f100 c33c bc2d 443d 07c2 c23c 7423 0f3d
00000010: b9d9 1d3d e7a3 db3c c409 e83c cebc fa3c
00000020: e9f1 193d 6663 0e3d 1cbf bb3c 42be 5e3d
00000030: ec93 d83c 795b d23c 9d6e fd3c ea1e 023d
0.02380416 0.04789518 0.02377416 0.03494592 0.038537715 0.026811553 0.02832497 0.030607607
0.03758422 0.034762762 0.022918276 0.054380663 0.026437722 0.025678383 0.030936534 0.031767763

conv2.0.weight_fake_quant.activation_post_process.min_val f4 [16]
00000000: e1d0 36be e0ea b7be e695 36be 7e72 06be
00000010: 1dfc 93be 63de 3fbe 2789 59be 0607 67be
00000020: 0719 65be 2f7d 85be 2a03 30be 5dd2 d0be
00000030: b7da 48be c135 45be b297 6dbe b818 10be
-0.17853118 -0.35921383 -0.17830619 -0.13129613 -0.28903285 -0.18737178 -0.21243726 -0.22561273
-0.22372828 -0.2607207 -0.17188707 -0.40785494 -0.19614683 -0.19258787 -0.23202398 -0.1407193

conv2.0.weight_fake_quant.activation_post_process.max_val f4 [16]
00000000: 89ee 283e e875 2c3e a987 1f3e 3c31 863e
00000010: e2b2 8f3e a8e9 4d3e a26a 233e 0011 6b3e
00000020: ca52 903e 741b 533e 338c 2e3e 1800 413e
00000030: ad0a 4b3e 6897 103e 5f52 153e f6f9 733e
0.16497244 0.16841853 0.15579094 0.26209438 0.28066164 0.20108664 0.15958646 0.22955704
0.28188163 0.20615941 0.1704567 0.18847692 0.19828291 0.14120257 0.14582203 0.23825821

fc1.0.weight f4 [120, 400]
00000000: 1a61 79bc ff86 18bd 03cc e0bc c0b0 8c3c
00000010: 76d5 c8bc 7333 96bc 032f 8c3d d9a7 fe3c
00000020: adcc bc3c a810 d3bc f0ec d0bb 7bb1 fc3b
00000030: 7fcd c43c 7cb0 d83c 9a54 cabc 01a5 a1bb
00000040: c3b1 d2bb ce09 063d 36c2 3ebc 2d02 d5bc
00000050: 855e 46bc 4a02 a8bc 8e7f 9abd b46c 5f3c
00000060: 1371 793a 355d 9dbd d58e a1bc 8dbb 45bc
00000070: cc3a 3cba a109 6ebd 60c8 c7bc 2cab 13bd
00000080: 8708 32bd f8be 18bd 1d5e 01bc 0a81 81bc
00000090: 1c65 883b 00dd 543c bbd0 633c a9a2 273d
000000a0: b93c 38bd a542 343d 6133 53bb 5a7b 953d
000000b0: 0330 923c d6e1 e2bd 4626 03bd 81b7 01bd
000000c0: 5eb2 c8bc 05c3 7bbd a3f6 103d dd35 fb3c
000000d0: 66d2 583d 1421 1a3d 4017 553d 93a6 8dbc
000000e0: 25f6 33bd d89b a2bc ce2b e73b 26f3 a0bc
000000f0: 962a ca3a 5fcd f7bc af3f 333b 6c07 47bd
00000100: a698 a2bc 910a 8cbc 8042 603c aca9 a4bc
00000110: 7d6f a73c 94d2 39bb ce88 a8bb 6832 d9bc
00000120: ea78 45bc 87ad 93bd fbed 01bd c423 b33c
00000130: 2763 473d 0abb 5dbc 8f58 143c 1694 b93c
00000140: 3461 c53c 7d19 e6bc 9853 7c3d 851c 7a3d
00000150: fce5 753b 2414 6cbc 79c2 5fbd bcbc fe3c
00000160: 52c6 17bd 25a8 30bd e708 0e3c ba18 0dbd
00000170: 22b6 e8bc f431 473b 6479 693c 58ab 5f3c
00000180: da22 193b fd2a aabc 1f8b 89bc 7c17 a93c
00000190: 2ab1 72bd 70fe 63bd 9242 dbbb 665e 91bc
000001a0: 18f6 f4ba 86dd ecbb ed51 423b 7019 8d3a
000001b0: 6d79 3ebd dd45 e6bc b7b1 0d3d 3a8c ff3c
000001c0: ac70 113c 73b8 813b aeef abbb 0879 c33d
000001d0: 6a81 723d 2573 c33d 5e5e 9c3c e3b9 4a3d
000001e0: 5f9b 6f3d e775 a33d 0521 af3c 0fd7 633d
000001f0: 0c8e 373d f6a1 083d 8f4d 18bd 74c8 d53b
00000200: 8eb4 06b7 a772 803d fe4e db3c e613 2d3d
00000210: a80c 64bb 1d1c 1b3d ba26 a13c 0c5b 0d3d
00000220: 9b35 d6bb 0875 1f3d 1c60 58bd 97d5 64bd
00000230: 8c74 5b3c d89e 82bc ce8e 10bb 057a aabb
00000240: 1f67 0abd f77a 15bd f71b 97bc 62dd f33b
00000250: e7a1 58bd 6050 2dbd 4251 9c3a cc5f f73c
00000260: 9a41 8b3c 9a71 333c 525d aabc c001 553d
00000270: 0513 fe3c 9e30 163d ea25 1e3c 070c 183c
00000280: 26b2 503c c103 bc3d a99d d13d 0a0c 9d3d
00000290: 390b 623d 2299 de3c 9b23 1a3d dd43 2b3d
000002a0: 3464 873d 8733 b33c 31b5 5a3b caa0 963c
000002b0: 3080 843b 041c d83c be8e 0ebd 6b47 f23c
000002c0: b04b 183c 7761 93bd 5b8a 85bc 13df ac3b
000002d0: f33f b7bc 7744 cdbc 8681 5d3d a260 4d3d
000002e0: f5df c2bc 34b3 67bd b090 bdbc 0f80 1a3d
000002f0: be21 183c 0d20 71bd 9adc 0fbd 130c 0fbc
00000300: ccc1 ccba 2b77 043c e13c 72bc 72ce ba3c
00000310: 783f a63d 11ff b23c 8855 f53c 2bcc 843d
00000320: 8552 e43c aa43 5cbb 0599 6e3d 3396 e3bc
00000330: aab9 10bd 72ad d23c e408 59bd 51e8 28bc
00000340: be08 453b 2739 89bc 44dc a03c a49d 50bd
00000350: 6142 dfbc 6c3c 1cbd 845a 413c 034c e23c
00000360: c63a 9ebc a8f4 c7bc 4149 f03c 48e7 18bd
00000370: 092d 15bd e88e 5ebc 8f90 34bd 617b 46bd
00000380: 9fb7 74bc 58a1 c8bc 930d b3bb 4110 383d
00000390: 2243 c8bc be34 d3bc 720b d3bc 3eb9 c7bc
000003a0: dbc6 003c 64ef 20bc 26fe 783c 7fec d03c
000003b0: 2c06 c5bb 1faa 983c ad10 a83c cf86 16bd
000003c0: 3a50 74bc 6490 a2bc 6725 28bc 343c fd3c
000003d0: ff17 82bd 53ae 1abd 6c24 87bc 41d9 b2bd
000003e0: 908a 88bd 841a 88bd fb7e 33bc ee71 84bc
000003f0: 43da a9bc 925e af3c 2054 98bc 84c4 4eb9
-0.015220905 -0.037238117 -0.02744103 0.017174125 -0.024515849 -0.01833508 0.06844904 0.031085895
0.023046816 -0.025764778 -0.0063759014 0.007711587 0.02402377 0.026451342 -0.024698544 -0.004933
-0.0064298823 0.032724194 -0.011642983 -0.026002014 -0.012107496 -0.020508904 -0.075438604 0.013636757
0.00095154456 -0.076837935 -0.019721428 -0.012068641 -0.0007180392 -0.05811465 -0.024387538 -0.036051914
-0.043465164 -0.037291497 -0.0078959735 -0.015808601 0.004162444 0.012992144 0.013904746 0.04092661
-0.044979785 0.04400887 -0.003222667 0.07298918 0.01784516 -0.11078231 -0.032018922 -0.031669144
-0.024499115 -0.061465282 0.03539146 0.030665332 0.052935027 0.037629202 0.052024126 -0.017291343
-0.043935914 -0.019849703 0.0070547825 -0.019647192 0.0015424069 -0.030249296 0.002735119 -0.048591062
-0.01984818 -0.017094882 0.01368773 -0.020100437 0.020438904 -0.0028354274 -0.0051432615 -0.026513293
-0.012052754 -0.07210832 -0.031721096 0.02186764 0.048678543 -0.013533363 0.009054317 0.02265362
0.024094202 -0.028088326 0.06160316 0.061062355 0.0037521115 -0.014409099 -0.054628823 0.031095855
-0.037054367 -0.043129105 0.008669115 -0.03444741 -0.02840716 0.0030394765 0.014250133 0.013651691
0.002336672 -0.020772452 -0.01678997 0.020641081 -0.059250988 -0.055662572 -0.0066912854 -0.017745208
-0.0018689064 -0.007228556 0.0029650882 0.0010765027 -0.04650252 -0.028109485 0.03459331 0.031194795
0.008876961 0.0039587556 -0.005247078 0.09544569 0.05920545 0.095434465 0.019087967 0.04949368
0.058497783 0.079814725 0.02137805 0.055625018 0.0448132 0.033357583 -0.03718334 0.00652414
-8.029061e-06 0.06271868 0.026771065 0.042255305 -0.0034797583 0.037868608 0.019671787 0.034510657
-0.006537152 0.03892997 -0.052826032 -0.055867758 0.013394486 -0.015944883 -0.0022057774 -0.005202534
-0.03378975 -0.03649422 -0.018445952 0.0074421624 -0.052888777 -0.04231298 0.0011926072 0.030197047
0.016999055 0.010952378 -0.020796452 0.052003622 0.031014929 0.03666746 0.009652594 0.009280211
0.012737786 0.091804035 0.102351494 0.07668312 0.055186484 0.027172629 0.037631612 0.041812766
0.06610909 0.021875156 0.0033372159 0.018387217 0.0040436015 0.026380546 -0.0348041 0.02957507
0.009295389 -0.07196324 -0.016301325 0.005275616 -0.02236936 -0.02505706 0.0540786 0.050140984
-0.023788432 -0.056567386 -0.023140281 0.037719782 0.0092853885 -0.058868457 -0.03512249 -0.008730906
-0.0015621721 0.0080850525 -0.0147850225 0.022803519 0.081175745 0.02185014 0.029948011 0.064842544
0.02787138 -0.0033609667 0.0582514 -0.027781582 -0.035333313 0.02571747 -0.052986994 -0.010309295
0.0030065025 -0.016750885 0.01963628 -0.050931588 -0.027253332 -0.03814356 0.011801366 0.027624136
-0.019315135 -0.024408653 0.029331805 -0.037329942 -0.036419902 -0.013583876 -0.044083174 -0.048457507
-0.014936357 -0.024490997 -0.0054642647 0.044937376 -0.024446074 -0.025781985 -0.025762293 -0.024380323
0.007859911 -0.0098227 0.015197312 0.025503395 -0.0060126986 0.018635808 0.020515764 -0.036749657
-0.014911706 -0.019844241 -0.010262824 0.030912496 -0.06352233 -0.037763905 -0.01649686 -0.08732844
-0.06667054 -0.066456825 -0.0109555675 -0.016167607 -0.020733958 0.0214074 -0.018594801 -0.00019718899

fc1.0.bias f4 [120]
00000000: 03bf 673d 2c2d 2cbd e2a2 043d c3b6 b43c
00000010: ee12 14bc 8171 f43c 820f 113e 9202 053d
00000020: 2933 a7bd f9ef 043d 6b02 fc3c bb06 14bd
00000030: 5e51 123d fedb 54bd 832b 6d3d 7f4a b4bd
00000040: 094b bc3d d3cb ca3c 895d 62bd 085b 8e3b
00000050: 03d1 9ebd 3163 1e3d 966f 24be ba5c d2bd
00000060: b41c 8abd c7e0 3fbd 8551 74bc 1061 083d
00000070: e84a b3bd b233 6d3d ed66 893d 4650 8c3c
00000080: cb2e 0bbc 11a5 e03c 3c35 45bd 297f 8a3d
00000090: 93d3 8b3c 489e 63bd 9b55 083c c1cd 933b
000000a0: ff89 c5bc e34d a83d 353d e33d 0362 d1bc
000000b0: e827 88bd 97cf 13bc 0f09 1ebe 72c4 5a3d
000000c0: 6852 a13d 4a22 13bd 5a77 8f3d 4a21 2abd
000000d0: 881c 02be e099 ccbc b561 afbd 9910 1e3d
000000e0: dc5a d9bb 392b ce3b abf5 953c aa95 9a3d
000000f0: 12f4 e7bc 94aa 923c 2472 f63c bc71 84bc
00000100: a849 823c 1621 dc39 9cd4 303d e58f 8a3d
00000110: 1100 513c 6246 32bd 884b 2abb 9bec 21bc
00000120: 3fa8 b63d ab50 05bd e644 203c 37af 863d
00000130: 7f47 9f3c c767 263c 0956 f23c 0901 9a3c
00000140: 76bd 3d3b d289 22bc d372 bcba 74ad 113d
00000150: d9f1 96bd ea55 9fbd bbd9 5e3d 2ef5 86bc
00000160: 7af5 963d 410b 7b3d 2853 e33c e357 9d3d
00000170: 508a dfbc fac6 3d3b 687c 3e3c 0f14 80bc
00000180: d4bb 9b3d 090d 8fbd 3dd5 d13d 5fc9 123d
00000190: 846f 36bd a503 3b3c 0570 2e3d ef0f b73d
000001a0: 93aa 723d 6a24 523d 44ba 90bc 4bc0 75bc
000001b0: d656 89bd 2522 efbb 3c91 d3bc e13c 453d
000001c0: 255f a7bb fb92 263d 9a98 a13d 45f7 833d
000001d0: 5b50 a93b ccbb d3bc 9cf9 5c3d 0ae2 a8bd
0.056578647 -0.042035267 0.0323819 0.022059804 -0.009037716 0.02983928 0.14166072 0.032473154
-0.08164055 0.03245542 0.030762872 -0.03613923 0.03572213 -0.051967613 0.057902824 -0.088032715
0.09193999 0.024755394 -0.055264983 0.004344348 -0.077547096 0.038668815 -0.16058192 -0.102715924
-0.06743756 -0.046845224 -0.014912014 0.03329569 -0.087545216 0.05791063 0.06709085 0.017128121
-0.008495043 0.02742246 -0.04814647 0.06762535 0.01706866 -0.05557087 0.008321191 0.0045106118
-0.024113653 0.08217981 0.11095659 -0.025559431 -0.066482365 -0.009021661 -0.15433143 0.05341
0.07877046 -0.035921372 0.070051864 -0.041535653 -0.12706196 -0.024975717 -0.08563558 0.038590048
-0.0066331457 0.0062917736 0.01830562 0.075480774 -0.028314624 0.017903604 0.030083723 -0.016167514
0.015904263 0.0004198632 0.04317151 0.06765727 0.0127563635 -0.043524154 -0.0025984962 -0.009883071
0.08918809 -0.032547634 0.009782052 0.06576388 0.019443272 0.010156578 0.02958204 0.018799322
0.002895204 -0.009920554 -0.0014377482 0.03556581 -0.073703475 -0.07780059 0.054406863 -0.016474333
0.0737104 0.06129003 0.027749613 0.07682779 -0.027287632 0.002895771 0.01162634 -0.015634565
0.07604185 -0.06984908 0.1024575 0.035836574 -0.044539943 0.011414443 0.0425873 0.08938586
0.059244704 0.05130426 -0.017666943 -0.0149994595 -0.06706016 -0.0072977715 -0.02582609 0.04815376
-0.0051077777 0.040667515 0.078904346 0.06443647 0.00516705 -0.025846384 0.053948984 -0.082462385

fc1.0.weight_fake_quant.scale f4 [120]
00000000: 2d6d 713c e2e2 4b3c 29a7 333c 6a17 603c
00000010: 009f 473c 5ba1 883c 71bd 763c 2191 5b3c
00000020: f63d 993c 210f 433c 7329 533c e1c7 633c
00000030: 6457 5b3c 351e 803c 8e65 4d3c 2a67 863c
00000040: 2673 883c e8e1 3f3c cf88 6d3c 9245 913c
00000050: db77 353c d774 483c 1093 813c 3402 583c
00000060: 88f6 893c 648b 4d3c 991f 573c 44af 3c3c
00000070: 274c 883c 1818 803c d88a 913c e6e0 653c
00000080: d029 5d3c 74bc 1a3c fab2 af3c ce4b 823c
00000090: 8987 8f3c 1f4d 863c 97da 6b3c eb38 593c
000000a0: 507c 483c d87c 323c a367 7e3c a0d7 893c
000000b0: ecdb 8a3c f4da 333c cbe8 843c 50fa 3f3c
000000c0: f052 913c 0195 3f3c e3a4 983c 4618 953c
000000d0: 6a4d 6b3c bd20 273c f0bb 353c cc33 3b3c
000000e0: e8a2 633c d0a7 523c 391d 553c 248f 333c
000000f0: 5e65 383c cff1 243c cea5 2d3c c670 083c
00000100: 0e74 933c 7d89 603c 19e6 133c bdf1 2f3c
00000110: d9e3 b03c a1ed 7d3c 7046 5e3c aad0 6d3c
00000120: 8c2b 443c 2184 553c bf55 433c 9b83 513c
00000130: d2fb 1c3c 1bbe 233c 0a06 9b3c 43c0 383c
00000140: bbc9 463c ed1d 223c d5b4 7b3c bdae 2a3c
00000150: 5195 293c 66ab 173c f580 413c 3a39 653c
00000160: b3c3 af3c 01f8 383c dd6a 633c a8d9 4a3c
00000170: 78d4 5b3c 8168 933c ac52 3e3c c8b0 843c
00000180: e7e0 3a3c 9395 7b3c 1b5c a63c 77c5 353c
00000190: 86b5 4f3c 2b45 663c 01aa 5f3c 1676 803c
000001a0: a75d 223c a4be 5d3c c8eb 963c 7693 803c
000001b0: a446 563c 0880 543c 8434 433c a343 173c
000001c0: 6630 8c3c c5ab 673c c650 633c 2860 8e3c
000001d0: 969e 523c b756 5c3c ff6b 453c 666a 6d3c
0.014735502 0.01244423 0.010965147 0.013677457 0.012183905 0.016678503 0.015059815 0.013401301
0.018706303 0.0119054625 0.0128883 0.013902635 0.013387535 0.015639404 0.01253642 0.016406614
0.01665647 0.011711575 0.01449795 0.017733369 0.011075939 0.012234888 0.015817195 0.013184119
0.016841188 0.01254544 0.013130092 0.011516396 0.016637875 0.015636489 0.017766401 0.014030671
0.013498738 0.009444345 0.021447647 0.015905287 0.017520683 0.016394196 0.014395378 0.013258199
0.01223667 0.010894023 0.015527639 0.01682645 0.01695057 0.010977495 0.016224286 0.011717394
0.017739743 0.01169324 0.018633312 0.018200051 0.014361719 0.0102006765 0.011092171 0.011425924
0.01389382 0.012857392 0.0130074555 0.01095942 0.011254637 0.010067417 0.010598613 0.0083276685
0.017999675 0.013704655 0.0090270275 0.010738787 0.021593021 0.01549855 0.013566598 0.014515081
0.011973273 0.01303199 0.011922299 0.012787725 0.009581523 0.009994055 0.018923778 0.0112763075
0.012133057 0.00989483 0.015362938 0.010417637 0.010350541 0.009257173 0.011810531 0.013990695
0.021455621 0.0112895975 0.013880459 0.012380995 0.013417356 0.017994167 0.01161639 0.016197577
0.01140616 0.0153554855 0.020307591 0.011094443 0.012677556 0.014054577 0.013651372 0.015681308
0.009910024 0.013534222 0.018422976 0.015695315 0.0130783655 0.012969978 0.011914376 0.009232434
0.017112922 0.014140074 0.013874238 0.017379835 0.012855193 0.013448409 0.012049674 0.014490699

fc1.0.weight_fake_quant.activation_post_process.min_val f4 [120]
00000000: 5956 e2bd fe3c 98bd b66c a8bd f315 d2bd
00000010: 6560 91bd 2049 ddbd 9686 8ebd 9d16 c7bd
00000020: 651a c5bd cdc0 acbd dbf6 c5bd 8b03 d5bd
00000030: eda1 cdbd a238 f0bd 03c4 a1bd b9ba f8bd
00000040: e7d7 ffbd decc afbd 27fd dcbd 3831 08be
00000050: 5d20 aabd 89ed bbbd bef3 f2bd 1082 cabd
00000060: a80f b4bd adb2 c0bd 57df a2bd 8671 a9bd
00000070: c98e ffbd 87b2 b2bd 2a72 08be d782 d7bd
00000080: 3257 cfbd 5cb1 8bbd cab7 24be 224e f4bd
00000090: 108f 06be 8acf b3bd ed1c ddbd 96be bbbd
000000a0: 5111 abbd 0a55 a7bd ce1c cabd 263a 01be
000000b0: 2d2e 02be 449d a8bd 7c34 f9bd aafa b3bd
000000c0: 9a31 b2bd b09b b3bd 941a 0fbe c1c6 0bbe
000000d0: 0c4b dbbd 902d 9cbd 2b04 92bd 2761 aebd
000000e0: b968 d5bd 527d c5bd 65cb c7bd 98a4 91bd
000000f0: 84fb a3bd 6d4a 93bd 240d a1bd b9d4 60bd
00000100: 268a e8bd e0ef 91bd b7a7 8abd bead 9bbd
00000110: 9bd5 25be 2ec6 dfbd 0862 d0bd 9ff3 debd
00000120: ec7c 87bd de2b c8bd 6220 b7bd f57f afbd
00000130: 1625 93bd 3982 99bd a955 11be 5a15 98bd
00000140: ffaf a2bd b86f 97bd 87f9 ebbd 3a0e 92bd
00000150: cd37 8dbd af30 8ebd e568 b5bd a6e5 d6bd
00000160: 77c7 24be 4fff 95bd ec42 aebd 1bd3 a1bd
00000170: 14ff c8bd f831 0abe 7322 a2bd 76cb f8bd
00000180: 19a0 94bd 39dc ebbd 59f6 1bbe 1f69 aabd
00000190: 52e4 a7bd d8e0 d7bd e98e 92bd 69dd f0bd
000001a0: cc37 98bd aafa a1bd 0b7d 0dbe 7d14 f1bd
000001b0: f2c4 c8bd 5df4 c3bd 3b01 b7bd 68cf 8dbd
000001c0: 5f6d 03be 0831 d9bd 7953 bbbd 257a 05be
000001d0: ac74 c5bd fa6a aebd dfe5 b6bd bf93 debd
-0.11051626 -0.07433508 -0.0822386 -0.10258093 -0.07098464 -0.10804963 -0.06959264 -0.0972111
-0.09624175 -0.08435211 -0.096662246 -0.104010664 -0.100406505 -0.11729552 -0.078987144 -0.121449895
-0.12492352 -0.08583997 -0.107904725 -0.13300025 -0.08306954 -0.091761656 -0.118628964 -0.09888089
-0.08792049 -0.0940908 -0.07952755 -0.08273606 -0.12478406 -0.08725458 -0.133248 -0.105230026
-0.10124053 -0.06820938 -0.16085735 -0.11928965 -0.13140512 -0.08779819 -0.10796533 -0.09167211
-0.08352912 -0.08170517 -0.09868775 -0.12619838 -0.12712927 -0.08233121 -0.12168214 -0.08788045
-0.08700867 -0.087699294 -0.13974983 -0.13650037 -0.107076734 -0.07625878 -0.07129701 -0.08514624
-0.10420365 -0.096430436 -0.09755591 -0.07111472 -0.08006957 -0.0719193 -0.078638345 -0.054890368
-0.11354475 -0.07125831 -0.0677027 -0.07601498 -0.16194765 -0.10926472 -0.10174948 -0.10886311
-0.06615624 -0.09773992 -0.089417234 -0.08569328 -0.07184808 -0.07495541 -0.14192833 -0.074259475
-0.07943725 -0.073943555 -0.11522203 -0.0713162 -0.06895409 -0.069428794 -0.08857898 -0.10493021
-0.16091715 -0.07324087 -0.08508858 -0.07901593 -0.09814277 -0.13495624 -0.07916727 -0.12148182
-0.07257099 -0.115166135 -0.15230693 -0.083208315 -0.081978455 -0.105409324 -0.07156164 -0.11760981
-0.074325174 -0.079091385 -0.13817231 -0.11771486 -0.09803189 -0.09568093 -0.089357816 -0.06924325
-0.1283469 -0.10605055 -0.091467805 -0.13034876 -0.09641394 -0.08516498 -0.08930563 -0.10868024

fc1.0.weight_fake_quant.activation_post_process.max_val f4 [120]
00000000: 97d5 d13d b324 bf3d 2941 a83d dc4a af3d
00000010: 0f25 bb3d 4517 003e 9951 e73d 0ed8 cd3d
00000020: 16aa 0f3e 2ede b63d 1862 ac3d 628b d53d
00000030: 125f 9e3d 38aa d83d 348f c03d 6e01 fc3d
00000040: 807d ff3d c9e3 b33d 41b0 de3d 4eed d63d
00000050: 46ce a13d 94d4 ae3d 11a2 d63d 9e45 c93d
00000060: 1f57 013e 8efc a93d 9fad c93d 4fe4 b03d
00000070: d407 e53d 2d2d f03d 4a25 cf3d a285 cf3d
00000080: f216 b83d ac10 913d 1c2e 013e acbd c33d
00000090: 7bb1 003e 9ad0 fb3d f5a3 ab3d 5ca5 cb3d
000000a0: 8af4 bb3d 6b0e 9d3d 2881 ee3d 001c a33d
000000b0: d45b da3d e13f 9a3d 8229 df3d f427 983d
000000c0: c13d 083e 7b5a ae3d f1cf c13d c9d6 b33d
000000d0: 9398 dc3d b1ae 9c3d 3060 aa3d 8f80 af3d
000000e0: e676 a13d c840 ba3d 0a28 9f3d 3156 a83d
000000f0: 08df ac3d b2a2 9a3d 71cb a23d 72d3 7f3d
00000100: cd3c 0a3e e480 d23d b98d 873d a1f2 a43d
00000110: 3e02 bf3d c60e ee3d 12a4 ac3d 5f0e bb3d
00000120: d3e8 b73d 668c a63d 010f 983d 616b c43d
00000130: 142c 933d 68cd 823d d727 ef3d 3e34 ad3d
00000140: 1f5d ba3d 0efc 973d a78a be3d d103 a03d
00000150: fbfb 9e3d ba97 833d d5b3 9a3d f849 c93d
00000160: f179 e43d 8068 ad3d 2e34 d53d 0d2c be3d
00000170: 3017 ce3d 91ec f73d 816d b23d 7a09 b33d
00000180: d832 af3d ba28 d43d 714b 0a3e b060 9d3d
00000190: 2dba c23d e1a0 a33d 60af d13d 4a5e d73d
000001a0: fc36 873d b9e2 cf3d cff5 f63d bcd5 f03d
000001b0: 39e2 c83d 0738 c73d f619 b53d 7b5e 8d3d
000001c0: dc90 e13d 1a16 b63d b91b d53d 9aa9 c63d
000001d0: 0906 be3d 4b91 ce3d 3e15 b93d bc50 b43d
0.10245817 0.09333172 0.08215553 0.085592 0.09137928 0.12508877 0.112948604 0.10050975
0.14029726 0.08929096 0.084171474 0.10426976 0.07732977 0.10579342 0.09402314 0.1230496
0.12475109 0.08783681 0.108734615 0.10494481 0.07900672 0.0853664 0.104801305 0.098277315
0.1263089 0.08300124 0.09847569 0.086372964 0.11183134 0.117273666 0.10114534 0.1013291
0.089887515 0.07083258 0.12615246 0.095576614 0.12567703 0.12295647 0.08380882 0.09943649
0.091775015 0.07668766 0.11645728 0.07964325 0.10662046 0.07531715 0.10896589 0.074294955
0.13304807 0.085133515 0.0946349 0.087812014 0.10771289 0.07650507 0.083191276 0.085694425
0.07884006 0.09094387 0.07771309 0.08219565 0.08440977 0.07550563 0.079489596 0.06245751
0.13499756 0.1027849 0.06618828 0.0805409 0.093265995 0.116239116 0.084297314 0.091336004
0.089799546 0.081322476 0.07424737 0.095907934 0.071861416 0.063868344 0.11677521 0.0845723
0.09099793 0.074211225 0.093037896 0.07813228 0.07762905 0.06425424 0.075538315 0.098285615
0.11156071 0.084671974 0.10410343 0.09285746 0.100630164 0.12105668 0.087122925 0.08742042
0.085546196 0.103593305 0.13505341 0.07684457 0.095081665 0.079896696 0.10238528 0.10516031
0.06602284 0.10150666 0.12058603 0.117595166 0.098087735 0.09727483 0.08842842 0.06902786
0.11013958 0.08890934 0.10405678 0.09700318 0.09278495 0.10086306 0.09037255 0.08804461

fc2.0.weight f4 [84, 120]
00000000: 6538 9f3d 56f6 fd3d 1abc f33d fdc7 24bd
00000010: 36ac e8bd 6ad9 ac3d 889f 82bb b544 993d
00000020: 5023 d53d 8208 703d 66d3 533d c864 88bd
00000030: 111d 853d 9bd1 b7bd b4b3 f23d c741 b2bd
00000040: a11d b7bb e89a 3c3d 0b50 28bd a224 493d
00000050: b1cf 24be 84f2 023e db6a 40be f9f7 1cbe
00000060: b3d7 8fbd f138 e0bc 34b5 5d3d 977b 1f3d
00000070: 974e 033d a1df b93d ad4f 063e 7870 8ebd
00000080: a325 9b3b 3f3c 92bc e7b6 c53d 3620 7fbd
00000090: 9e0f f5bc 856c c4bd 0c59 d8bc 3ef9 1cbc
000000a0: b582 913d 92da 9b3d db98 c93d f70c 04be
000000b0: 8890 ed3c ee13 663d 68fe 9bbd 49c7 8d3d
000000c0: 6097 293d 22b5 543c 02fc 893d 58bc d63d
000000d0: 999c ae3d 69aa 40bd 4fc3 adbd 8cc7 e1bd
000000e0: f8a9 f63c 9ce0 edbd 37c9 093e a486 69bd
000000f0: 3498 69bd da28 b1bd 5b8e bdbd ebd3 bb3d
00000100: de8f a1bd 5a8c a8bc 657a cf3d d2c2 44bd
00000110: 9367 813d 0c87 7ebe 2e38 483d fe7e b23d
00000120: d286 87bc 3733 94bd 4aa1 c93c 510b d1bd
00000130: 92b0 e43c 547e 6b3d 2af2 a7bd b897 b3bd
00000140: 54fd cfbc 0999 2abd 0a3d 213e 9535 023d
00000150: 2800 58bd 9eef 6fbd ccd6 c73c e1d7 eebd
00000160: ccad e83d 6af1 273d 0439 553d fbbc a9bc
00000170: 9c27 ac3d 3984 863c 441e ac3c b154 8bbd
00000180: e584 923c 86f2 753d 7361 833c 6569 003d
00000190: 67b6 49bd 8d5b 893d c6d2 c4bc d532 233d
000001a0: ef19 8dbd b5f4 67bd b173 7bbc 8c24 c13d
000001b0: c973 353d a6c7 8f3d b9cb 1abe f03e 23bd
000001c0: 10a7 32bd e808 4dbd af28 673c bb96 d13d
000001d0: 85da 0fbe 1e45 e4bc b8d8 153e 7dde f3bd
000001e0: a5ae 853d bfe8 37bd 05c0 a63c 5390 1cbd
000001f0: bfb3 84bd d3b6 0d3c 2955 90bd cd58 99bd
00000200: 537f 6fbd b6b4 d5bc f333 613d e4f8 78bd
00000210: cdaa b43d 19a9 5b3d c228 883d 6e8c 2a3c
00000220: f703 a33d 458a b03d 18b1 b2bd f69a 88bd
00000230: b1b4 d4bc d14a 33bc b674 61bc 3a2f dd3c
00000240: 0a35 623c 6304 44bd be63 573d 66f8 c7bc
00000250: 5031 aebd 6f97 4cbd 28d9 f8bc 62fc 253d
00000260: cb32 1ebd 1f6b 58bc 76ec 8cbd fe0a 90bc
00000270: 3bf1 d33c bf13 5e3d e8e9 b83d d4db 823d
00000280: 2234 68bd 41cc b93c 05c0 eebc e6f7 ef39
00000290: 157d f9bb a85a 433d 7d7f 18bd 640c 853d
000002a0: a163 f3ba 5c1e 94bc e728 82bc fab7 cebc
000002b0: d151 96bc 091e 65bd 094d 983a ac41 993d
000002c0: 8149 cbbd c63e b7bc 0413 2e3d 26fc d4bc
000002d0: ded2 b3bd 2943 09bd 3bc0 8fbd ad0f 4fbb
000002e0: d557 e43d cc30 883d 2c4c c23d 6db7 aabc
000002f0: 7957 503d 5e28 8b3d 418e 94bd f08c 8dbb
00000300: cd19 1cbb 5209 54bd a785 94bd 712c 98bd
00000310: f247 7abd 0c67 03bd a3a6 8bbd 3ea5 ae3c
00000320: 384d 56bd 9349 8c3d 9f29 7fbd c9b5 6dbc
00000330: d77a 0abd 6d92 39bb fd28 c63d c4d6 45bc
00000340: 864c bdbc 66fa 633d 4504 8abd 5df4 7b3d
00000350: dfdf 2c3d bd62 593d d277 ae3c 6b4e 31bd
00000360: aa0f 9c3c b9cf ae3c 2ed7 013d 63ef acbc
00000370: 0b56 c43c a67a 8f3d 5f9d f23c d9c0 1b3d
00000380: c2ce 883d 805e 123d 2cb2 a7bd 0345 2dbd
00000390: 692e 8d3d bf6e adbd 984b bc3d a67e 9abc
000003a0: 9a55 d13d 0631 e13c 8cdc febc e03f c2bd
000003b0: 3ea2 303c 32aa d5bc befe aabd 7c3e 9d3d
000003c0: 9cf7 53bd 09b4 3e3d b881 b7bd b7cd a03d
000003d0: a45a 963b e45d f4bd 42dd 33bd 1bc3 ccbd
000003e0: ae03 01be e295 34bc 7948 163d 4f9f 623d
000003f0: 6b8c 7f3c 0cb1 933d 9427 f43c 04d2 d83d
0.07774428 0.124005005 0.11901112 -0.040229786 -0.11360972 0.08439906 -0.0039863028 0.07483808
0.10407126 0.058601864 0.051715277 -0.066598475 0.064996846 -0.08975526 0.11850682 -0.08703952
-0.005588249 0.046046168 -0.04109196 0.0491072 -0.16094853 0.12787825 -0.18790762 -0.15328969
-0.07023563 -0.027370902 0.054127887 0.038936224 0.03205737 0.09075857 0.13116331 -0.069550455
0.0047347113 -0.017850993 0.096540265 -0.062286578 -0.029914673 -0.09591011 -0.026409648 -0.009580908
0.071050085 0.07610048 0.09843608 -0.1289557 0.028999582 0.05617135 -0.076168835 0.06922776
0.041404128 0.012982639 0.0673752 0.104851425 0.085259624 -0.047037516 -0.08484518 -0.11024389
0.030110344 -0.116151065 0.13455664 -0.05701317 -0.057029918 -0.0865037 -0.09255668 0.091712795
-0.078887686 -0.020574737 0.10130767 -0.048037358 0.06318583 -0.24856204 0.048881702 0.08715628
-0.01654378 -0.07236331 0.024613041 -0.102072366 0.027916227 0.057493523 -0.08200486 -0.087691724
-0.025389351 -0.041649852 0.15745941 0.03178938 -0.052734524 -0.058578126 0.024394415 -0.116622694
0.11361274 0.041001715 0.052056327 -0.020719996 0.084059924 0.01642047 0.021010526 -0.06803263
0.017885635 0.06004574 0.016037678 0.031350512 -0.049246218 0.06706915 -0.024026286 0.0398434
-0.06889712 -0.056629855 -0.015347407 0.09430799 0.044299874 0.07020502 -0.15116777 -0.039854944
-0.043616354 -0.05005732 0.014108821 0.10233828 -0.14048202 -0.027864989 0.14633453 -0.11907671
0.065274514 -0.0448997 0.020355234 -0.038223576 -0.06479596 0.008649546 -0.07047493 -0.074876405
-0.058471035 -0.026087146 0.054981183 -0.060784236 0.0882164 0.05362806 0.06648399 0.010409458
0.079597406 0.08620123 -0.08725184 -0.066701815 -0.025965067 -0.010943131 -0.013760736 0.027000058
0.013806591 -0.047855746 0.052585356 -0.024410438 -0.08505499 -0.049949106 -0.030376986 0.040523894
-0.03862266 -0.013209133 -0.06881039 -0.017583366 0.025871864 0.05421805 0.09028989 0.06389585
-0.056690343 0.022680404 -0.029144296 0.0004577033 -0.007613788 0.04769388 -0.037230957 0.06496504
-0.001856912 -0.018080883 -0.015888644 -0.025234211 -0.01834956 -0.055936847 0.0011619638 0.07483229
-0.09926129 -0.0223688 0.042498603 -0.02599914 -0.08780454 -0.033511315 -0.07019087 -0.0031595037
0.11149565 0.06649932 0.09487185 -0.020839417 0.05086467 0.06794809 -0.07253695 -0.0043197796
-0.002381909 -0.0517667 -0.07252055 -0.074303515 -0.06110377 -0.032080695 -0.06818893 0.021319028
-0.052319735 0.06849971 -0.062295552 -0.014508673 -0.033808555 -0.0028316036 0.09675787 -0.01207513
-0.023107778 0.05565872 -0.067390956 0.06151234 0.042205688 0.05307268 0.02129737 -0.043287676
0.019050438 0.021339284 0.031699352 -0.021110242 0.02396681 0.07005815 0.029616056 0.03802571
0.06680061 0.035734653 -0.081882805 -0.042302143 0.06893618 -0.08468389 0.09194106 -0.018859219
0.10221405 0.027489197 -0.031111024 -0.094848394 0.010780869 -0.026082132 -0.083493695 0.076779336
-0.05174981 0.046558414 -0.08960289 0.07851737 0.004588442 -0.11931971 -0.04391218 -0.09998151
-0.1259906 -0.011022063 0.03669021 0.05532771 0.015597443 0.072115034 0.029804029 0.10586932

fc2.0.bias f4 [84]
00000000: 492f 633c f55f 173d c7b2 34bd 6f33 a8bd
00000010: 3f2a 093c d153 90bc 3988 09be ccdd 0a3d
00000020: ec31 2ebe 8cdd e13b 03c3 0bbe a97d 4dbc
00000030: 24ca 1c3d 28b3 5dbd 5d65 f03b 0174 d43b
00000040: 9fca bebd b412 113d ee74 3bbd 90a6 b6bd
00000050: 9a68 8bbd 18ad 81bd f415 393d 933a 22be
00000060: de5e 10bd dfcc 893c 3fdd a23d 6855 b83d
00000070: 3fd2 103d f251 4e3d 91b9 53be d8ed a23d
00000080: c25e 6abd 36fd c83c 9de7 873d cdc8 bcbd
00000090: 0686 fdb7 69ef 853c 4b5c e73c 3d85 493d
000000a0: 034b a2bd 6fff 903d 467b eabc 44f3 44bc
000000b0: f5e2 fd3c f8f2 14be 6dd8 23bd 6ff6 61bd
000000c0: 38a0 72bd a423 9e3d f667 27bd 87a7 87bd
000000d0: 01b9 83bd ac46 cbba f359 9cbd 2045 90bd
000000e0: ab70 a3bb 9189 2abd 2d29 173d f3ed d3bd
000000f0: dfa1 003d 03c2 fcbc 0d83 be3a f2b5 753c
00000100: 6b71 873c 1dd4 4e3d 8791 3c3d 76e1 6ebd
00000110: 7963 ab3d 4329 ffbc ea49 393d 8eb3 d23d
00000120: d73a 08be 0d46 a23d 9bc7 df3d 2289 f4bb
00000130: 13b3 003d 3b34 ea3d ad5e d43d 8c65 d7bc
00000140: b300 aebd 1769 60bc 021e ad3d f42e 1abd
0.013866254 0.036956746 -0.044115808 -0.08212935 0.008371889 -0.017618092 -0.13430871 0.03390293
-0.17011231 0.0068928655 -0.1364861 -0.012542167 0.038278714 -0.054125935 0.007336302 0.0064835553
-0.09315991 0.035418227 -0.04576581 -0.08918488 -0.068070605 -0.06331843 0.04518695 -0.15842657
-0.035246722 0.016821323 0.079523556 0.09000665 0.035356756 0.050371118 -0.20676257 0.07955521
-0.057219274 0.024534803 0.066359736 -0.09217987 -3.022236e-05 0.016349511 0.02824225 0.04919933
-0.079244636 0.0707997 -0.028623234 -0.01202089 0.03099201 -0.1454581 -0.04000132 -0.055166658
-0.059234828 0.07721642 -0.04087063 -0.0662375 -0.06431771 -0.0015508733 -0.07634344 -0.070444345
-0.0049877963 -0.0416351 0.036904503 -0.103481196 0.031404372 -0.03085423 0.0014534906 0.014996992
0.016533574 0.050495256 0.046037223 -0.058320485 0.08368582 -0.031147605 0.045236506 0.102881536
-0.13303696 0.079235174 0.109267436 -0.0074626366 0.03142078 0.114357434 0.103696205 -0.026293539
-0.08496227 -0.01369693 0.08452989 -0.037642434

fc2.0.weight_fake_quant.scale f4 [84]
00000000: abd8 073d 358b 733c f10e a53c 7a14 b83c
00000010: cb5f d83c 9ecd a43c 66e6 a83c 419c f13c
00000020: 2be1 b13c a937 c73c c46f bb3c 24de ed3c
00000030: 3273 823c 821b e63c 520e ab3c ca03 df3c
00000040: 7199 de3c 4291 a63c 2ec7 b43c 4f0b c53c
00000050: 0a14 b33c 3be8 9a3c b666 a93c 2bb3 cc3c
00000060: 15a3 a13c efbd e33c eb1b a93c d49f ab3c
00000070: e149 9c3c 8f30 a33c 9edc ab3c f123 c83c
00000080: 48ab be3c 75bb b33c 7e25 a23c 7a49 bf3c
00000090: aa49 c03c 5f0a a53c df34 963c 2b83 663c
000000a0: 3c40 c03c 15c2 9b3c a231 b53c 1e28 953c
000000b0: 159e be3c ccb3 d93c d989 a83c d925 d33c
000000c0: a789 dc3c 43d0 963c 5fe3 9f3c bba8 ad3c
000000d0: b972 ae3c d7fa 963c 4420 b53c 8310 963c
000000e0: cdf2 823c a661 ac3c a91c c93c f8ac 853c
000000f0: b4a6 af3c 930b b53c 0560 933c b1df a23c
00000100: b31f a23c 367e 9b3c 6ee8 a13c 0405 853c
00000110: c8bc 953c 3933 ad3c 3ac9 903c 1941 9c3c
00000120: 0bf8 b73c 3672 9c3c 4568 bd3c e996 b43c
00000130: 179e b93c cb94 b93c 3757 d53c 44f6 ad3c
00000140: f500 d23c 4e1e ad3c 2b2c a53c 3265 ab3c
0.033165615 0.0148647325 0.020148726 0.022470701 0.026412865 0.020117577 0.020617675 0.029493453
0.021713814 0.024318533 0.022880442 0.029036589 0.01592407 0.028089289 0.020880852 0.027223486
0.027172776 0.020332936 0.022067633 0.024053244 0.021860141 0.018909564 0.02067886 0.024987778
0.019731084 0.027800528 0.020643195 0.020950235 0.019078197 0.019920615 0.020979222 0.0244312
0.023275033 0.021939972 0.019793268 0.023350466 0.023472626 0.020146547 0.018335758 0.014069359
0.02346813 0.019013444 0.022118393 0.018207606 0.023268739 0.026574992 0.020573543 0.025774883
0.026921107 0.018409854 0.019517599 0.021198621 0.021294938 0.018430157 0.022110112 0.01831842
0.015984917 0.021042656 0.024549799 0.01631783 0.021441795 0.022100246 0.017990122 0.019882055
0.019790506 0.01898108 0.019764151 0.016237743 0.018278494 0.021142589 0.017674077 0.01907401
0.022457143 0.019097429 0.023121009 0.022044616 0.02265839 0.022653958 0.026042564 0.021235593
0.025635222 0.021132614 0.020162662 0.020922277

fc2.0.weight_fake_quant.activation_post_process.min_val f4 [84]
00000000: 40b6 7ebe 226f cbbd 01be 1abe 3293 2cbe
00000010: 8364 45be c480 1abe ff57 1ebe 690c 53be
00000020: 6580 20be 2ec4 3abe c7b8 2fbe 1be3 18be
00000030: eb58 f4bd c9b9 57be c629 f9bd fa3f 45be
00000040: d9af 50be 2d28 1cbe 959d 1fbe dee6 04be
00000050: bf12 01be b739 11be 8d83 febd f55c 26be
00000060: b959 ffbd 80c2 30be 1017 1ebe a81c edbd
00000070: e3e9 10be 86fd 18be d41e 21be b1a1 3bbe
00000080: 93c0 32be 6cb5 08be 8879 0abe e254 33be
00000090: 0f45 34be 868c 00be 91d1 0cbe 3fa6 c5bd
000000a0: 383c 34be 7ed6 ddbd 87de 29be 9cd5 0bbe
000000b0: 4748 23be 8f18 4cbe 3074 08be 7bf3 45be
000000c0: 0cc1 4ebe 451b 0dbe 04f6 09be 2fce 22be
000000d0: 8d8b 23be 1cc6 0cbe 3fce 29be dba0 09be
000000e0: 9dd0 edbd 8b9b 21be de8a 3cbe 51a4 fabd
000000f0: 9148 14be d9ba 29be 042a 0abe b5b1 18be
00000100: b7fd 17be 52c6 11be e7c9 17be 5c78 edbd
00000110: a481 f9bd 0560 22be 5343 d0bd 077d 12be
00000120: 8a78 2cbe 5e0f f1bd 3c2a 29be a249 0dbe
00000130: 3504 2ebe 7efb 2dbe 132d 21be addb 21be
00000140: e5e0 44be 694c 22be c22d 08be deae 20be
-0.2487421 -0.09933306 -0.15111543 -0.16853026 -0.19276623 -0.15088183 -0.15463255 -0.20610203
-0.15673979 -0.18238899 -0.1716033 -0.14930384 -0.11931022 -0.21066965 -0.12166171 -0.19262686
-0.2037958 -0.15249701 -0.15587457 -0.12978694 -0.12604807 -0.14182173 -0.12427435 -0.16246398
-0.12468285 -0.17261696 -0.15438485 -0.11577731 -0.1415172 -0.14940462 -0.15734416 -0.18323399
-0.17456274 -0.13350457 -0.13522923 -0.17512849 -0.17604469 -0.12553605 -0.13751818 -0.096508496
-0.17601097 -0.10831927 -0.16588794 -0.13655704 -0.1594554 -0.19931243 -0.13325572 -0.19331162
-0.20190829 -0.13779934 -0.13472754 -0.15898965 -0.15971203 -0.13747448 -0.16582583 -0.13440268
-0.116120555 -0.15781991 -0.18412349 -0.12238372 -0.14480807 -0.16575183 -0.1349259 -0.1491154
-0.14842878 -0.1423581 -0.14823113 -0.11595222 -0.1218293 -0.15856941 -0.10169091 -0.14305507
-0.16842857 -0.11770509 -0.16520017 -0.1379762 -0.16993792 -0.16990468 -0.1573985 -0.15806456
-0.19226415 -0.1584946 -0.13298705 -0.15691707

fc2.0.weight_fake_quant.activation_post_process.max_val f4 [84]
00000000: fc0f 213e 8152 e43d f27f 173e d97a 0c3e
00000010: ced9 4a3e cbd3 0e3e c940 0d3e 7c82 623e
00000020: 18c3 263e 1918 1c3e 2cfd 1c3e 4100 5f3e
00000030: fc97 f43d 841a c63d 6c5d 203e 8d13 513e
00000040: 44a8 033e ea98 1b3e bb7a 293e 99ba 383e
00000050: c9e2 273e 2f23 ea3d 4ad0 1e3e f8e7 3f3e
00000060: e388 173e 0f82 553e 2c8a 1e3e d6e5 203e
00000070: 4285 123e f3c4 063e 0e56 1a3e b886 113e
00000080: 5a9b 173e bd7f 283e 2603 183e d023 2c3e
00000090: 3528 063e b9b9 1a3e ae4b 0b3e f81a d83d
000000a0: c974 f23d f305 123e 3906 143e 4a82 073e
000000b0: 33b4 323e ad0f 283e 3b01 1e3e a5a0 0d3e
000000c0: 24a5 343e 3e63 0d3e 29e5 153e 6221 003e
000000d0: a5a4 123e 298b 0d3e f8e2 0c3e 7aaf 0c3e
000000e0: 4087 f53d f948 053e 5757 0c3e da28 f73d
000000f0: 48ac 243e f6e8 223e 162c ed3d 0fd9 f43d
00000100: 85ce ff3d c4a4 113e 0499 153e 6669 f93d
00000110: fb60 0c3e 51c5 0e3e a6bc 073e 8821 063e
00000120: 1953 2c3e 12ab 123e c091 313e 7a4d 293e
00000130: 490f 023e f603 2c3e c301 483e df16 233e
00000140: c918 2e3e 2469 043e 68d9 1a3e 7e5c 063e
0.15728754 0.11148549 0.14794901 0.13718738 0.19809648 0.1394798 0.13794245 0.22120088
0.1628536 0.15243568 0.15330952 0.2177744 0.11943051 0.09673026 0.15660638 0.20417614
0.12857157 0.15195051 0.16550724 0.18039931 0.16395105 0.11432492 0.15509143 0.18740833
0.14798312 0.20850395 0.15482396 0.15712675 0.14308646 0.13161068 0.1507189 0.14211547
0.14805356 0.16454978 0.14844951 0.16810536 0.13101275 0.1510991 0.13603088 0.10552019
0.11838681 0.14260082 0.14455499 0.13233295 0.17451553 0.1641223 0.15430157 0.13830812
0.17641121 0.13807389 0.14638199 0.12512735 0.1432062 0.13822617 0.13758457 0.13738814
0.119886875 0.13016118 0.13705193 0.12068339 0.16081345 0.1590918 0.11580674 0.11955463
0.12490562 0.1422301 0.14609152 0.12178306 0.1370887 0.13942458 0.13255557 0.13098729
0.16828574 0.1432307 0.17340755 0.16533461 0.12701143 0.16798386 0.19531922 0.15926693
0.17001642 0.12930733 0.15121996 0.1312122
