checkpoint/LeNet5_relu_quantized_2_bits.ckpt (torch, 274247 bytes, 19 tensors)

conv1.0.weight f4 [6, 3, 5, 5]
0	0x3d7eda55	0.062219936
1	0x3c93296d	0.01796409
2	0x3d253cff	0.040341374
3	0xbdae20d2	-0.08502354
4	0xbdada9f8	-0.084796846
5	0xbdde849d	-0.10865138
6	0xbd309d9a	-0.04311905
7	0x3d7ae83f	0.061256643
8	0xbd9934ca	-0.07480772
9	0x3ddeb699	0.108746715
10	0xbd552762	-0.05203951
11	0xbd564672	-0.052313276
12	0xbdc8260e	-0.09772883
13	0xbcdb2929	-0.026753025
14	0xbdb0a3a3	-0.08624961
15	0x3d8fe078	0.07025236
16	0x3dc009cc	0.093768686
17	0x3d4b5432	0.04964084
18	0xbd81f5ce	-0.06345712
19	0x3d8499e3	0.06474664
20	0xbdda08c6	-0.10646205
21	0xbdbea879	-0.09309477
22	0x3ce5b7d5	0.02804176
23	0x3d8ca1c8	0.06866795
24	0x3da401ed	0.0800818
25	0xbcd65ca1	-0.026167216
26	0xbc2fcacd	-0.010729504
27	0x3cfd9311	0.030953916
28	0xbd50c30d	-0.050967265
29	0x3dd81ca7	0.1055234
30	0xbd85ed1b	-0.06539365
31	0x3d74b80e	0.05974584
32	0x3cead054	0.028663792
33	0x3dcc777f	0.099837296
34	0x3d2825cc	0.04105167
35	0x3d4c889a	0.04993496
36	0x3d8344bc	0.064095944
37	0x3db64d39	0.08901448
38	0xbd7fe5c2	-0.062474973
39	0x3daaacaa	0.08333714
40	0xbdaafe41	-0.08349276
41	0xbc12ebbf	-0.008967339
42	0x3d8f4d87	0.06997209
43	0x3d82cd92	0.06386866
44	0x3d0b1aab	0.03396098
45	0xbac7bf6f	-0.0015239547
46	0x3d1c4009	0.038147006
47	0xbd0d84cd	-0.034550477
48	0xbd46eb05	-0.048563976
49	0xbc6f3333	-0.014599609
50	0x3d4adcf0	0.04952711
51	0x3dbfbae0	0.093618155
52	0x3c642fc0	0.0139274
53	0x3d1d2821	0.038368348
54	0x3c173628	0.00922922
55	0x3ca4ec75	0.020132283
56	0x3d3852c9	0.045000825
57	0xbd87e469	-0.06635363
58	0xbdd43417	-0.10361498
59	0x3df252ed	0.11832223
60	0x3d150da5	0.036389966
61	0xbd43df44	-0.047820345
62	0xbc0fa87f	-0.0087682
63	0x3dd4e445	0.103951015
64	0xbdd85fc4	-0.10565141
65	0xbd57472d	-0.052558113
66	0xbdc35d1e	-0.09539245
67	0xbd123d35	-0.035702903
68	0xbd0e971a	-0.03481207
69	0xbcea72c8	-0.028619185
70	0x3d168448	0.036747247
71	0xbde56fa7	-0.112029366
72	0xbd63cce5	-0.055615325
73	0x3ddbcf6e	0.107329234
74	0x3d2f832f	0.042849716
75	0x3d4de7c5	0.05026986
76	0x3bb95fad	0.0056571574
77	0xbd8eaccd	-0.06966553
78	0x3dbce94e	0.09224187
79	0xbd8c847e	-0.068612084
80	0x3c6fbd96	0.014632603
81	0xbdeb89c2	-0.115008846
82	0xbce86d66	-0.028372478
83	0x3dde6516	0.10859124
84	0x3c9fa562	0.01948804
85	0xbdbbe502	-0.09174539
86	0xbd390927	-0.045174744
87	0xbcb5510d	-0.022133375
88	0xbdd3686d	-0.10322652
89	0x3ce7b279	0.028283345
90	0xbc99e0c2	-0.01878393
91	0xbdd3fcc7	-0.10350948
92	0xbdc0cf4c	-0.09414539
93	0x3d2f683d	0.04282402
94	0xbd0a4964	-0.033761397
95	0x3d572c18	0.052532285
96	0xbdb4120b	-0.08792504
97	0xbc5e45e9	-0.013566473
98	0xbd1e7fb5	-0.03869601
99	0x3d974e1d	0.07387946
100	0x3baa0361	0.005188391
101	0xbbf83c9c	-0.0075755846
102	0x3cab46bd	0.020907754
103	0xbca3dac3	-0.020001775
104	0x3d92e37f	0.07172298
105	0xbd87ea19	-0.066364475
106	0x3d5f55d0	0.054525197
107	0xbd53e2d1	-0.05172998
108	0x3dc6a33f	0.096991055
109	0xbd93bb17	-0.07213419
110	0x3c9a93e1	0.018869342
111	0xbdac5bf4	-0.08415976
112	0x3dcffd5b	0.101557456
113	0xbd938969	-0.07203943
114	0x39dd327b	0.00042190016
115	0x3da15159	0.07876844
116	0xbc792db8	-0.015208654
117	0x3c508350	0.01272662
118	0xbd8f1517	-0.069864444
119	0xbce707ea	-0.028202016
120	0x3ce55160	0.027992904
121	0x3d1e8083	0.038696777
122	0x3dc63b5b	0.0967929
123	0x3d82349c	0.06357691
124	0x3d84969f	0.06474041
125	0xbdb48bb1	-0.088157065
126	0xbdddfe26	-0.108394906
127	0xbda414b8	-0.08011764
128	0x3d165fa4	0.036712304
129	0xbddfe928	-0.10933143
130	0x3d07262d	0.03299539
131	0xbd49b7c0	-0.049247503
132	0x3d18893d	0.037240256
133	0x3ddfe163	0.10931661
134	0xbd55b5d0	-0.052175343
135	0xbdc2c6b6	-0.09510557
136	0x3ae98c86	0.0017818369
137	0xbd8bba5e	-0.06822656
138	0xbd9d6f22	-0.076872125
139	0xbbe6de9b	-0.0070455796
140	0x3dad79d0	0.084704995
141	0xbccaf963	-0.02477712
142	0x3dbee976	0.09321873
143	0xbde4671e	-0.111524805
144	0x3cbd25d7	0.023089333
145	0xbd51c54f	-0.05121356
146	0xbd84881e	-0.06471275
147	0xbd8d6284	-0.06903556
148	0xbde7f648	-0.11326271
149	0xbbfc5fd4	-0.0077018533
150	0xb94f48dd	-0.00019768202
151	0xbcfce263	-0.030869668
152	0xbd4272f1	-0.047472898
153	0x3cde13c4	0.027109034
154	0xbcb58e5e	-0.022162613
155	0x3af155b4	0.0018412382
156	0x3d724416	0.059146963
157	0xbdd1d72b	-0.10246118
158	0xb99d8a62	-0.00030048477
159	0xbdb2cf9f	-0.08731007
160	0xbd47cb06	-0.048777603
161	0xbdce0621	-0.10059763
162	0xbda25923	-0.07927158
163	0x3bd32ba7	0.0064444127
164	0xbd749787	-0.05971482
165	0xbd13b00c	-0.036056563
166	0x3cfa92c6	0.030587565
167	0x3da9afbf	0.08285474
168	0xbdafa32d	-0.08576045
169	0xbdee5011	-0.11636365
170	0xbd8d1381	-0.06888486
171	0xbd2d908d	-0.042374182
172	0x3dd90c09	0.10597999
173	0x3cfaef31	0.030631633
174	0x3dda55ec	0.106609195
175	0xbd1cec71	-0.038311426
176	0xbdecc2c7	-0.11560588
177	0x3d0243c9	0.031802926
178	0xbc3116a8	-0.010808624
179	0xbdc94fc5	-0.09829668
180	0x3d75219d	0.05984651
181	0x3dcffe63	0.10155942
182	0xbda53b85	-0.08067993
183	0xbd037ce1	-0.032101516
184	0xbddae80d	-0.106887914
185	0xbdb7b852	-0.08970703
186	0x3c9fc03e	0.019500848
187	0xbd857a5c	-0.06517479
188	0xbdacd1cd	-0.08438454
189	0x3ce8bcdd	0.02841037
190	0xbd97f097	-0.07418936
191	0x3db7c63b	0.08973356
192	0xbd4a95f2	-0.049459405
193	0xbd972414	-0.07379928
194	0xbd97f06e	-0.07418905
195	0x3dbb19d0	0.09135783
196	0xbdec4a20	-0.11537576
197	0x3db74943	0.089495204
198	0x3b8e0ae7	0.0043347958
199	0x3d724757	0.059150066
200	0xbd74e3d8	-0.0597876
201	0x3def38e2	0.116807714
202	0xbb437415	-0.002982383
203	0x3d516dfb	0.051130276
204	0xbce86e0d	-0.028372789
205	0xbda69bf4	-0.081352144
206	0x3d535f07	0.051604297
207	0xbb74f8e2	-0.003737979
208	0x3cbe7727	0.023250176
209	0x3d9203c5	0.07129625
210	0xbad3ea50	-0.0016167853
211	0x3d9a67a4	0.07539299
212	0xbd851370	-0.06497848
213	0x3d9969e9	0.07490904
214	0xbd8b6dc9	-0.06808049
215	0xbddd819f	-0.10815739
216	0xbb384337	-0.0028116235
217	0x3dee1b0d	0.11626253
218	0xbc553a31	-0.013014362
219	0xbd099b7a	-0.03359554
220	0x3db08ad0	0.086202264
221	0x3ddfa2e4	0.10919741
222	0x3db4ce93	0.088284634
223	0xbd7a7718	-0.061148733
224	0x3d7cd740	0.061728716
225	0x3d09aef4	0.033614114
226	0x3c3d07a2	0.011537464
227	0xbd536614	-0.05161102
228	0x3d1205ef	0.03565019
229	0xbd3781b5	-0.044801433
230	0x3bb17394	0.0054153893
231	0x3db97eb0	0.09057367
232	0x3dc3c01b	0.095581256
233	0x3d2ccba7	0.042186406
234	0x3d93cbc2	0.07216598
235	0xbc72500f	-0.014789595
236	0x3d35f412	0.044422217
237	0xbc4a8240	-0.012360156
238	0x3d7c92d1	0.061663453
239	0xbdc6ced7	-0.0970742
240	0xbca883c6	-0.020570647
241	0x3da21cdc	0.07915661
242	0x3d9e8adf	0.07741331
243	0xbdb004d6	-0.085946724
244	0xbdac9752	-0.084272996
245	0x3de6f990	0.11278069
246	0x3dd36aa5	0.10323075
247	0x3deb949e	0.11502956
248	0xbd81d040	-0.06338549
249	0xbcea28d9	-0.02858393
250	0x3d9fe89b	0.07808038
251	0x3dd1a6d8	0.10236901
252	0x3c61f4c0	0.013791263
253	0xbd91737a	-0.071021035
254	0xbd9557a5	-0.072921075
255	0xbcc0cb67	-0.02353449

conv1.0.bias f4 [6]
0	0x3d20bddd	0.039243568
1	0xbdbb3227	-0.09140425
2	0x3d1bb35d	0.03801285
3	0x3d9bf66c	0.076153606
4	0xbd9fe811	-0.07807935
5	0xbdcd21b0	-0.10016191

conv2.0.weight f4 [16, 6, 5, 5]
0	0xbc3b231b	-0.011421944
1	0xbc80ae1c	-0.015708022
2	0x3d59f7df	0.053214904
3	0x3d6ff6e4	0.058585063
4	0xbcfc9d2e	-0.030836668
5	0x3d7ddcd1	0.061978165
6	0x3a974003	0.0011539463
7	0xbcd7ba63	-0.026333993
8	0xbcc3463d	-0.023837203
9	0xb8a4717d	-7.841268e-05
10	0xbcb41919	-0.021984624
11	0xbd8c07e2	-0.06837441
12	0x3d0e9495	0.034809668
13	0xbc9dc8fc	-0.019260876
14	0xbc8c37d9	-0.017116474
15	0xbd828a0c	-0.063739866
16	0xbda2d64d	-0.07951031
17	0xbd7375fa	-0.059438683
18	0xbc1dc5de	-0.009629695
19	0xbd9cfc2c	-0.076652855
20	0xbd8d469b	-0.068982325
21	0xbd755af5	-0.059901197
22	0xbda642a2	-0.08118178
23	0x3da29ec4	0.079404384
24	0xbc9a5fd1	-0.018844517
25	0xbbd4a66e	-0.0064895665
26	0x3cdd6d40	0.027029634
27	0xbd63f594	-0.055654123
28	0xbbfc8421	-0.0077061807
29	0xbd0d9a29	-0.034570847
30	0x3da18b3e	0.078878865
31	0x3d713475	0.058887918
32	0x3d1fc772	0.039008565
33	0xbd6f24b7	-0.058384623
34	0xbc46a1af	-0.012123509
35	0xbcf05367	-0.029336644
36	0xbd60b5b1	-0.054860774
37	0xbc4d11b9	-0.012516432
38	0xbbf80466	-0.0075688837
39	0xbca989a9	-0.020695524
40	0x3d83a940	0.06428766
41	0xbd6cfd7e	-0.057858936
42	0xbc6c4ec3	-0.014423075
43	0x3d2ebf2b	0.04266278
44	0xbd6832e1	-0.056689147
45	0x3d0612c8	0.032732755
46	0x3d1ef934	0.038811877
47	0x3c059a32	0.008154439
48	0xbc561c9f	-0.013068347
49	0xbcc1bfe5	-0.023651073
50	0xbd24d2eb	-0.04024021
51	0xbd3238e3	-0.043511283
52	0xbca1e397	-0.019761844
53	0xbd401372	-0.046893544
54	0x3d96b296	0.07358281
55	0x3abe5ce0	0.0014523529
56	0xbc71e0b4	-0.014763046
57	0xbc392d3b	-0.011302288
58	0x3bb05d51	0.005382218
59	0x3d9b539f	0.07584309
60	0x3caa5f0e	0.020797279
61	0x3ce5eb74	0.028066374
62	0x3d0beb3e	0.03415989
63	0xbd64639f	-0.05575907
64	0xbccaf523	-0.024775093
65	0x3d951fc9	0.07281453
66	0xbd89b61b	-0.06724187
67	0xbd9c6ef0	-0.07638347
68	0xbc472aa2	-0.012156161
69	0xbb2382d0	-0.0024949796
70	0xbda631bf	-0.08114957
71	0x3c6733b2	0.014111446
72	0xbca16e72	-0.019705985
73	0xbc224b12	-0.0099055935
74	0x3d23a41e	0.039951436
75	0xbcc64379	-0.024202095
76	0xbd48b33b	-0.048999052
77	0xbd13490b	-0.03595833
78	0x3c82ada4	0.015951939
79	0x3cb68205	0.022278795
80	0x3d964c58	0.0733878
81	0xbc37adf4	-0.011210907
82	0x3d55ae22	0.05216802
83	0xbd30d277	-0.043169465
84	0xbd64fa7d	-0.055902947
85	0x3d59d04b	0.05317716
86	0xbd9ec328	-0.07752067
87	0x3d2a3ee2	0.041563876
88	0xbc3e71a8	-0.011623777
89	0xbc11f460	-0.008908361
90	0x3ce9ece9	0.02855535
91	0xbd137aa0	-0.036005616
92	0x3d56eb84	0.0524707
93	0xbd3da6e0	-0.046301723
94	0x3d96bb31	0.07359923
95	0xbd365686	-0.04451611
96	0x3ba04536	0.004891063
97	0x3c842235	0.016129592
98	0x3cc4accd	0.02400818
99	0xbc88dd3c	-0.016707055
100	0xbc19e7d5	-0.009393652
101	0xbd45dfa6	-0.04830899
102	0x3d1da894	0.038490847
103	0xbd0309ce	-0.031991772
104	0x3ca707d9	0.020389484
105	0xbd0cd889	-0.03438619
106	0x3a9802ff	0.0011597573
107	0x3d87f97b	0.066393815
108	0x3d9cdbd7	0.076591186
109	0x3d06d7a5	0.0329205
110	0x3c503b40	0.012709439
111	0xbcb2b95d	-0.021816904
112	0x3d10439e	0.035220735
113	0xbd861328	-0.065466225
114	0xbda1cd55	-0.07900492
115	0x3c46a766	0.012124872
116	0xbd240d3f	-0.040051695
117	0xbda46c91	-0.0802852
118	0x3d54859d	0.051885236
119	0x3d7f77bf	0.06237006
120	0x3d5a74f2	0.053334184
121	0x3d03f5ed	0.032216955
122	0xbd050498	-0.032475084
123	0xbd5c4069	-0.053772364
124	0xbcac9e7a	-0.021071661
125	0xbca15b52	-0.019696865
126	0x3d2f6e3a	0.04282973
127	0x3c16e66d	0.009210211
128	0x3d5b4f5a	0.053542472
129	0xbd6916a9	-0.056906376
130	0xbd2c3cd4	-0.042050198
131	0x3d012de2	0.031537898
132	0xbd4215a6	-0.047383927
133	0x3c6c96f7	0.01444029
134	0x3d958569	0.073008366
135	0xbda09036	-0.07840006
136	0x3d7f39aa	0.062310852
137	0xbd317982	-0.04332877
138	0xbd198f26	-0.037490033
139	0xbd15f977	-0.03661486
140	0x3d32a647	0.043615606
141	0x3ca75bfa	0.0204296
142	0x3d64f645	0.055898923
143	0xbcfd39ea	-0.030911405
144	0x3d782a18	0.06058702
145	0xbc48a940	-0.012247384
146	0xbd8c4ac9	-0.06850202
147	0x3a86f171	0.0010295344
148	0xbc874beb	-0.016515693
149	0xbce2161c	-0.027598433
150	0x3d6fdca0	0.058560014
151	0x3d97cba1	0.07411886
152	0x3c7d8293	0.015473026
153	0xbc90f8ed	-0.017696822
154	0x3b72d60b	0.003705385
155	0x3d5efdba	0.05444119
156	0xbd9e2168	-0.077212155
157	0x3d837e8e	0.06420623
158	0xbc12be4a	-0.008956501
159	0x3d9594c7	0.07303768
160	0xbc6b02d5	-0.014343937
161	0x3d12d859	0.035850856
162	0xbd5b9f96	-0.05361899
163	0x3d5a1ba9	0.053249035
164	0xbd36c1a5	-0.044618268
165	0xbd9f3236	-0.07773249
166	0x3d9d462d	0.076794006
167	0x3c9b58a7	0.018963171
168	0x3d906256	0.07050006
169	0xbd965c9b	-0.07341882
170	0x3da4a154	0.080385834
171	0xbbb964c8	-0.005657766
172	0xbd2aaff7	-0.04167172
173	0xbd5c14d4	-0.0537308
174	0xbc96ebae	-0.018422928
175	0x3d8e3a36	0.069446966
176	0xbb989ab1	-0.0046571125
177	0x3cc74fd8	0.024330065
178	0x3d2808d9	0.041024063
179	0xbd50873f	-0.05091023
180	0xbd968f1b	-0.07351514
181	0x3d8de171	0.06927765
182	0x3d94622f	0.072452895
183	0xbd742cdf	-0.059613105
184	0x39c9f68b	0.00038521396
185	0x3d6056b5	0.05477019
186	0xbd196b6a	-0.037455954
187	0xbcaa5d8d	-0.020796562
188	0xbc751d00	-0.014960527
189	0xbcbd99c1	-0.023144605
190	0x3d6d860c	0.057989165
191	0xbd378231	-0.044801895
192	0xbd7a590a	-0.06112007
193	0x3c4de45f	0.012566655
194	0x3da4dbf6	0.08049767
195	0xbd80e2f3	-0.06293287
196	0x3d1b3131	0.03788871
197	0x3d131e42	0.035917528
198	0xbd106566	-0.03525295
199	0x3c602645	0.013680999
200	0x3d666b9c	0.056254968
201	0xbc861589	-0.01636769
202	0xbd56cce0	-0.052441478
203	0x3da31f8e	0.07965003
204	0x3d351cfc	0.044217095
205	0x3d8b2d80	0.06795788
206	0x3d2fb04f	0.04289275
207	0x3dac6644	0.08417943
208	0xbd1e39e4	-0.038629428
209	0xbd2c8415	-0.04211815
210	0x3d8484e3	0.06470659
211	0x3d3fe829	0.046852265
212	0xbb94014a	-0.004516755
213	0xba9a1691	-0.0011755993
214	0x3d65e3e9	0.056125555
215	0x3d34509c	0.044022188
216	0x3d57bf45	0.052672643
217	0xbd43cd39	-0.047803137
218	0x3d7581fa	0.05993841
219	0xbb2c938d	-0.0026333064
220	0xbd6cf1f9	-0.05784795
221	0x3da10fd1	0.07864345
222	0x3d9ac0f6	0.07556336
223	0x3d47bc71	0.048763696
224	0x3b4608d0	0.0030217655
225	0x3a592580	0.0008283481
226	0xbd3cfa10	-0.046136916
227	0x3d914856	0.07093875
228	0x3d2a42e1	0.041567687
229	0xbd9aaa8a	-0.07552059
230	0x3cf2e882	0.029651884
231	0x3ce42812	0.027851138
232	0x3ccd92b8	0.025094375
233	0xbcc65394	-0.024209775
234	0x3c49904e	0.012302471
235	0xbda251ec	-0.079257816
236	0xbc31e250	-0.01085718
237	0xbd8604c8	-0.06543881
238	0xbda1001f	-0.07861351
239	0xbd2022fe	-0.03909587
240	0xbc10c97d	-0.008837101
241	0x3cea5394	0.028604306
242	0xbcba071f	-0.022708474
243	0xbd985178	-0.07437414
244	0xbcb5f366	-0.022210788
245	0xbd3a06ee	-0.045416765
246	0x3cb146da	0.02164023
247	0x3d41fadd	0.047358382
248	0x3d8e0e51	0.069363244
249	0x3c1251d5	0.008930643
250	0x3d53dd8b	0.05172495
251	0x3d82db9b	0.06389543
252	0xbd4398de	-0.047753207
253	0x3dac3be3	0.0840986
254	0xbb0113f8	-0.001969574
255	0x3d1061bb	0.035249453

conv2.0.bias f4 [16]
0	0xbbf3bab5	-0.0074380287
1	0xbce606a4	-0.028079338
2	0x3d1641e2	0.036683924
3	0xbce6d89d	-0.028179461
4	0x3d911dba	0.07085748
5	0x3b0c50cd	0.0021410466
6	0xbd90fd39	-0.070795484
7	0xbc1fcb01	-0.00975299
8	0xbd5b15e6	-0.05348768
9	0x3d116908	0.035500556
10	0xbc0aee72	-0.008479701
11	0xbcd1d14f	-0.025612501
12	0x3c278307	0.01022411
13	0x3cfe29b4	0.031025745
14	0x3d7c0f11	0.061537806
15	0xbd62e5cd	-0.055394936

conv2.0.weight_fake_quant.scale f4 [16]
0	0x3d5daf58	0.0541223
1	0x3d65d5e6	0.056112193
2	0x3d6164ac	0.05502765
3	0x3d5c4e0c	0.05378537
4	0x3d67231a	0.05642996
5	0x3d60d957	0.05489477
6	0x3d5f691f	0.05454361
7	0x3d5fef13	0.05467136
8	0x3d5c06a8	0.053717285
9	0x3d60283f	0.05472588
10	0x3d5cdab0	0.053919494
11	0x3d5e2a12	0.05423934
12	0x3d613c6c	0.054989263
13	0x3d5efe60	0.05444181
14	0x3d5bef56	0.053695045
15	0x3d5d4b32	0.05402679

conv2.0.weight_fake_quant.activation_post_process.min_val f4 [16]
0	0xbda64382	-0.08118345
1	0xbda25cd3	-0.07927861
2	0xbda32b1d	-0.079672076
3	0xbda51427	-0.080604844
4	0xbda7c4c7	-0.08191829
5	0xbda251ac	-0.07925734
6	0xbda78ed7	-0.081815414
7	0xbda4ac50	-0.080406785
8	0xbda3d55e	-0.07999681
9	0xbda61468	-0.08109361
10	0xbda5a404	-0.08087924
11	0xbda69f8d	-0.08135901
12	0xbda4d875	-0.080490984
13	0xbda1c67a	-0.078991845
14	0xbda2c425	-0.07947568
15	0xbda5ec68	-0.081017315

conv2.0.weight_fake_quant.activation_post_process.max_val f4 [16]
0	0x3da2afd5	0.079436935
1	0x3dac606c	0.084168285
2	0x3da90b81	0.08254147
3	0x3da53a89	0.08067805
4	0x3dad5a53	0.084644936
5	0x3da8a301	0.082342155
6	0x3da4dd4f	0.08050024
7	0x3da7f34e	0.082007036
8	0x3da504fe	0.08057593
9	0x3da81e2f	0.08208882
10	0x3da07406	0.0783463
11	0x3da69d41	0.081354626
12	0x3da8ed51	0.082483895
13	0x3da73ec8	0.081662714
14	0x3da4f380	0.080542564
15	0x3da5f865	0.08104018

fc1.0.weight f4 [120, 400]
0	0xbc836aa7	-0.016042067
1	0xbd0147e9	-0.03156272
2	0xbd33b9ae	-0.04387825
3	0x3ce497cc	0.027904414
4	0xbb596342	-0.0033170735
5	0xbbaa6f3e	-0.0052012494
6	0x3c26cb85	0.010180359
7	0x3d0d63d2	0.034519024
8	0x3d12b037	0.035812583
9	0x3d2aed85	0.041730423
10	0xbd4a1a86	-0.0493417
11	0xbd081d58	-0.03323111
12	0xbd240fd2	-0.04005415
13	0xbd3579e5	-0.0443057
14	0x3d051ba1	0.032497052
15	0x3c0b1797	0.008489511
16	0xbc596bfd	-0.013270375
17	0x3b13e5ef	0.002256747
18	0x3c74a8c3	0.014932814
19	0x3d326262	0.043550856
20	0xbcd2c5a4	-0.025729008
21	0x3c0a7720	0.008451253
22	0x3d148951	0.036263768
23	0xbd11ea75	-0.035623986
24	0x3d342d52	0.043988533
25	0x3bf9d97c	0.007624803
26	0x3cb9c398	0.022676274
27	0x3cb8ed7d	0.02257418
28	0x3cf62f8a	0.030051965
29	0x3cc60847	0.024173869
30	0x3bed1b08	0.0072358884
31	0xba36407e	-0.0006952359
32	0xbd195b1d	-0.037440408
33	0x3d39c0ec	0.04535
34	0x3d028208	0.03186229
35	0x3d309362	0.043109305
36	0x3b1753c0	0.002309069
37	0x3d2fbe32	0.042905994
38	0x3c8d4093	0.017242705
39	0x3d37592c	0.044762775
40	0xbd085057	-0.033279743
41	0xbd1126df	-0.03543746
42	0x3c6b515e	0.014362661
43	0x3ce1aa9e	0.027547177
44	0xbd0f2ddc	-0.034955844
45	0x3d1a8015	0.037719805
46	0xbc3c8e56	-0.011508545
47	0xbd4c09ca	-0.049814023
48	0xbd240958	-0.040047973
49	0xbcb6ca14	-0.022313155
50	0xbc88ae68	-0.016684726
51	0xbd20d5fb	-0.039266568
52	0xbd296e3e	-0.0413649
53	0x3b17f252	0.0023185206
54	0x3d3d1320	0.046160817
55	0x3ce0280d	0.027362848
56	0xbd3a42bc	-0.0454738
57	0x3d230b7c	0.039805874
58	0xbd2b1809	-0.04177097
59	0xbd2ffe49	-0.042967115
60	0xbc98840f	-0.018617658
61	0x3d46b4e3	0.04851235
62	0xb8a9f127	-8.103466e-05
63	0xbc985872	-0.018596862
64	0xbbcdb80d	-0.006278044
65	0x3d20f347	0.039294507
66	0x3c30fed5	0.010802944
67	0xbcea3923	-0.028591698
68	0x3c74228e	0.014900817
69	0xbd117f9a	-0.03552208
70	0xbd147510	-0.036244452
71	0x3b106d62	0.0022037853
72	0xbd284396	-0.04108008
73	0xbd301c09	-0.042995486
74	0xbc6b83cd	-0.0143746855
75	0x3bba4c77	0.005685385
76	0xbd24605c	-0.040130958
77	0xbc3b6dc7	-0.011439747
78	0xbc97dfff	-0.018539427
79	0xbc9e5b5f	-0.019330679
80	0x3d43479f	0.047675725
81	0xbcf3962c	-0.029734693
82	0xbcf30912	-0.029667411
83	0x3d490206	0.049074195
84	0xbd274571	-0.04083771
85	0xbb9dfa31	-0.004821085
86	0x3b02ec1e	0.0019977163
87	0xbaef75a5	-0.0018269314
88	0xbd27e90d	-0.04099374
89	0xbcee831f	-0.029115258
90	0xba79aa68	-0.00095239887
91	0xbc85ceca	-0.016333956
92	0x3d4b579c	0.049644098
93	0xbcae6a7f	-0.021291016
94	0xbc8397ee	-0.016063657
95	0xbd435137	-0.047684874
96	0x3c160c2c	0.009158175
97	0x3cc09fa1	0.023513617
98	0xbd2e0517	-0.042485323
99	0xbc7968c7	-0.015222735
100	0xbd3fd857	-0.046837177
101	0xbce58af2	-0.028020356
102	0xbcd39c27	-0.025831295
103	0x3bc35325	0.0059608393
104	0xbd304768	-0.04303685
105	0xbcc68476	-0.024233084
106	0xbd4154ec	-0.04720013
107	0xbd2f4fd2	-0.042800732
108	0x3c24cf24	0.010059152
109	0x3d17631b	0.03695975
110	0x3c9857e0	0.01859659
111	0xbc81a399	-0.01582508
112	0x3d42deeb	0.047575872
113	0xbd2f4e1a	-0.042799093
114	0xbc9fa2fe	-0.0194869
115	0xbd1c86e5	-0.038214583
116	0xbd3f4716	-0.046698652
117	0x3bce6731	0.0062989225
118	0x3cd5a67d	0.026080364
119	0xba6c0f98	-0.0009005009
120	0x3ca047f3	0.019565558
121	0xbaa35dbb	-0.0012463847
122	0xbc43d4eb	-0.011952619
123	0x3d4c1cfb	0.049832325
124	0xbc05a0f0	-0.008156046
125	0xbc463b94	-0.0120991655
126	0xbcc58446	-0.024110924
127	0x3c2d1a7f	0.010565399
128	0xbc517b16	-0.012785694
129	0x3c7bed42	0.015376391
130	0x3c3a5f80	0.011375308
131	0x3cdeaf1f	0.027183114
132	0x3d029e66	0.03188934
133	0x3d3c7d34	0.04601784
134	0x3acb968a	0.0015532535
135	0xbcbff301	-0.023431303
136	0x3c02ed5d	0.007991162
137	0x3d418cdf	0.047253486
138	0xbcdceab5	-0.026967386
139	0xbd0263a5	-0.03183331
140	0xbd30b6f5	-0.04314323
141	0xbcf592b9	-0.02997719
142	0x3d30cdc3	0.04316498
143	0x3d316160	0.043305755
144	0x3ca76a15	0.020436326
145	0x3d04fdc9	0.03246859
146	0x3cc933d8	0.024560854
147	0xbd004d3a	-0.03132365
148	0x3d48d9a5	0.049035687
149	0x3b38aa41	0.002817765
150	0x3b0948c0	0.0020947903
151	0x3cfab103	0.030601984
152	0x3d2139ca	0.039361753
153	0x3c32fe75	0.010924925
154	0xbbd6001f	-0.006530776
155	0x3c988760	0.01861924
156	0xbd2cce71	-0.042189065
157	0xbcabc5e9	-0.020968394
158	0x3a9a4851	0.001177082
159	0xbca0e7b7	-0.01964174
160	0xba8062da	-0.0009795085
161	0xbc988bfe	-0.018621441
162	0x3d064ee3	0.032790076
163	0xbca10b33	-0.01965866
164	0x3b8701f7	0.0041201073
165	0xbcdf5f96	-0.027267259
166	0x3d01837b	0.03161953
167	0xbd330060	-0.04370153
168	0x3d3934f3	0.045216512
169	0x3d42cf15	0.04756077
170	0xbd311a5c	-0.04323803
171	0x3d426ef6	0.0474691
172	0xb7af9fa2	-2.093596e-05
173	0xbd1001ae	-0.035157852
174	0xbc391373	-0.011296141
175	0xbc958d7a	-0.018255938
176	0xbc83bbc6	-0.016080748
177	0x3bddecb6	0.006772603
178	0x3be4c986	0.0069820313
179	0x3d037ae6	0.032099627
180	0xbd479bf5	-0.048732717
181	0x3c0f9b54	0.00876506
182	0xbd4bc442	-0.049747713
183	0xbca30966	-0.019901942
184	0xbd4c1947	-0.049828794
185	0xbc82fd11	-0.015989812
186	0xbc1af610	-0.00945808
187	0xbcae3b47	-0.0212685
188	0xbba8b2b9	-0.0051482585
189	0x3c2993db	0.010350193
190	0x3cdb435d	0.02676552
191	0xba7e9b7f	-0.0009712502
192	0xbc581691	-0.013188974
193	0xbd1aad1c	-0.037762746
194	0xbcd7db89	-0.0263498
195	0x3a8330de	0.001000907
196	0xbd12de7f	-0.03585672
197	0x3cb42fdc	0.021995477
198	0x3d3a6516	0.04550656
199	0x3d436ee1	0.047713164
200	0x3c7a4405	0.015275006
201	0xbd4beb43	-0.04978491
202	0xbd15152d	-0.036397148
203	0x3c82d8c4	0.015972503
204	0x3b903374	0.004400665
205	0xbd22a256	-0.039705597
206	0x37b5d43e	2.1675714e-05
207	0xbcd7eecb	-0.026358983
208	0xbbbf7939	-0.0058433083
209	0xbcfc79c2	-0.030819777
210	0x3d406a5f	0.046976443
211	0x3c22f6ff	0.009946584
212	0x3b37532b	0.0027973156
213	0xbcddaf67	-0.027061177
214	0xbc967137	-0.018364532
215	0x3c6f1f9a	0.014594937
216	0xbd28e647	-0.041235235
217	0xbc6027c7	-0.013681359
218	0x3d2cb655	0.042166073
219	0x3d4c1565	0.04982509
220	0xbcbc1089	-0.022957103
221	0x3d43600e	0.047699027
222	0x3d19ce06	0.037549995
223	0x3b96ebda	0.0046057524
224	0xbd1f39c5	-0.038873453
225	0xbc67eab5	-0.01415508
226	0xbb0b2afc	-0.0021235337
227	0x3d0e109a	0.0346838
228	0xbc7a17de	-0.015264479
229	0x3ca47de2	0.020079557
230	0x3c11fb2e	0.008909984
231	0xbd2ef981	-0.042718414
232	0x3b882659	0.004154962
233	0xbd2a6190	-0.04159695
234	0xbcbc0f4a	-0.02295651
235	0xbbbc7f21	-0.0057524596
236	0x3c3aad5b	0.01139387
237	0xbd4c3af7	-0.04986092
238	0xbc5028a6	-0.012705004
239	0xbbef920f	-0.0073111127
240	0x3d4b741e	0.049671285
241	0x3c4768b7	0.012170962
242	0x3c4f74d4	0.012662131
243	0xbcfae522	-0.030626837
244	0xbd39ff31	-0.045409385
245	0xbd0f11ba	-0.034929015
246	0xbd0683af	-0.032840427
247	0x3cf289d3	0.029606735
248	0x3c9e5d3c	0.019331567
249	0x3c975d0e	0.01847699
250	0x3d0870c5	0.03331067
251	0x3ca4e5cb	0.020129105
252	0x3cbd052f	0.02307376
253	0xbd336fb7	-0.04380771
254	0x3c07586e	0.008260829
255	0x3c094702	0.008378746

fc1.0.bias f4 [120]
0	0xbd305634	-0.04305096
1	0xbcbf2aa3	-0.02333576
2	0x3bb5432d	0.0055316896
3	0xbc54c74c	-0.012986969
4	0x3c214506	0.009843117
5	0x3a8c17ad	0.0010688208
6	0xbd04736e	-0.032336645
7	0xbcbf15bc	-0.023325793
8	0x3d232069	0.03982583
9	0x3c7714cd	0.015080643
10	0xbc43bd09	-0.011946925
11	0xbd3a732a	-0.045519985
12	0x3c3d3796	0.011548897
13	0x3c097ff1	0.00839232
14	0x3c933a20	0.017972052
15	0x3bdd37a9	0.00675102
16	0xba2c45fd	-0.00065717084
17	0x3c71200f	0.014717116
18	0xb9981b42	-0.00029012008
19	0x3c977546	0.018488538
20	0xbd23e334	-0.0400116
21	0xbd1ba571	-0.037999574
22	0xbba9ee1f	-0.005185857
23	0x3ccbffa7	0.024902178
24	0x3d1b925a	0.03798137
25	0x3d20bd50	0.039243042
26	0xbcbef908	-0.023312107
27	0xbd3c0512	-0.045903273
28	0xbc770d10	-0.015078798
29	0xbcc9a089	-0.024612682
30	0x3c72cc07	0.014819152
31	0x3c17f41f	0.009274512
32	0x3b7304e2	0.0037081768
33	0x3ca94647	0.020663394
34	0xbd2c7107	-0.04209998
35	0x3c61f2d8	0.013790809
36	0x3d32cce0	0.043652415
37	0x3cb9ec4b	0.022695681
38	0x3ccd1992	0.025036607
39	0x3cebb23f	0.028771518
40	0xbc97ccf4	-0.018530346
41	0xbcc8492b	-0.024448952
42	0x3c5b6174	0.013389934
43	0x3c04aa89	0.008097299
44	0x3b102046	0.0021991893
45	0x3a8aff78	0.00106047
46	0xbd24acb9	-0.040203784
47	0xbc584c2d	-0.0132017555
48	0xbcbdab24	-0.023152895
49	0x3d15aa1e	0.03653919
50	0x3d107af6	0.035273515
51	0x3d2dc855	0.04242738
52	0x3cd21e77	0.025649292
53	0xbbb76496	-0.0055967076
54	0xbd491719	-0.049094293
55	0x3cbccb79	0.023046242
56	0x3d0aabf6	0.0338554
57	0xbcebece7	-0.028799487
58	0x3c9361e8	0.017991021
59	0xbc7233aa	-0.0147828255
60	0xbd483c8f	-0.04888588
61	0xbd0f2524	-0.03494753
62	0xbcca092c	-0.024662577
63	0x3cab3bd3	0.02090255
64	0xbc7e4081	-0.015518309
65	0x3c91dd55	0.017805735
66	0x3c949f34	0.01814232
67	0xbd404d39	-0.046948645
68	0xbc48e255	-0.012260993
69	0x3cc233c8	0.023706332
70	0x3d1fbeea	0.03900043
71	0x3c81fa0d	0.015866304
72	0x3d1d7395	0.038440306
73	0x3d1f9de8	0.03896895
74	0xbd08d612	-0.03340728
75	0x3c96282c	0.018329702
76	0xbd0e6f7f	-0.0347743
77	0x3ccf7712	0.025325332
78	0x3bc7ba83	0.006095232
79	0xbd1e75ac	-0.03868644
80	0x3cf89308	0.030343547
81	0x3cc2d0d0	0.02378121
82	0xbbd4d5e0	-0.0064952224
83	0xbd2b7ffd	-0.041870106
84	0x3c8e79bf	0.017392037
85	0xbd11cca6	-0.03559556
86	0x3caad372	0.020852778
87	0x3ccc7100	0.024956226
88	0x3b4527d2	0.003008355
89	0xbd4a3d8f	-0.049375113
90	0xbcf04b91	-0.029332908
91	0x3bb07738	0.0053853057
92	0xbca7084f	-0.020389704
93	0x3c71731c	0.014736917
94	0xbc532a5f	-0.01288852
95	0xbd106d09	-0.035260234
96	0x3ce84966	0.028355312
97	0x3c88c078	0.016693339
98	0xbc88f6d7	-0.016719265
99	0x3d5273b7	0.051379886
100	0x3ba43022	0.0050106207
101	0x3d0eea55	0.034891445
102	0xbcbec8b1	-0.023289056
103	0x3d0de59e	0.03464281
104	0xbb309354	-0.0026943283
105	0xba50773c	-0.00079523376
106	0x3d23a6a2	0.039953835
107	0x3caae88c	0.02086284
108	0x3cb51271	0.02210352
109	0xbc8be200	-0.017075539
110	0xbd1abb3e	-0.037776224
111	0x3b88f4b4	0.0041795615
112	0xbd114fcd	-0.035476495
113	0xbad5465f	-0.0016271583
114	0xbd36e717	-0.04465398
115	0xbcb2abad	-0.021810377
116	0xbc83f7fe	-0.016109463
117	0xbcc5be8a	-0.024138708
118	0x3bbd6a2d	0.0057804794
119	0xbd2f11cf	-0.042741593

fc1.0.weight_fake_quant.scale f4 [120]
0	0x3d08340e	0.03325277
1	0x3d0b391c	0.03399001
2	0x3d07af1e	0.03312599
3	0x3d088ba2	0.03333629
4	0x3d0846b6	0.03327056
5	0x3d07dfd0	0.03317243
6	0x3d07989e	0.03310453
7	0x3d0bd863	0.03414191
8	0x3d0934de	0.033497684
9	0x3d091953	0.033471417
10	0x3d0877e8	0.033317477
11	0x3d08e87e	0.033424847
12	0x3d087cf2	0.033322282
13	0x3d07a716	0.03311833
14	0x3d083dea	0.03326217
15	0x3d09a3dc	0.033603534
16	0x3d08cd3c	0.03339885
17	0x3d0914de	0.033467166
18	0x3d086378	0.033297986
19	0x3d0901c7	0.03344896
20	0x3d0883c6	0.033328794
21	0x3d093f06	0.03350737
22	0x3d08372b	0.033255737
23	0x3d0d33e6	0.034473322
24	0x3d0770ff	0.033066746
25	0x3d087164	0.033311263
26	0x3d08944d	0.033344556
27	0x3d08a2ea	0.033358492
28	0x3d09c97d	0.03363942
29	0x3d0b5804	0.034019485
30	0x3d0a93c9	0.033832345
31	0x3d0891aa	0.03334204
32	0x3d0ab036	0.033859454
33	0x3d07a1f8	0.03311345
34	0x3d08f4ae	0.03343647
35	0x3d09dbe4	0.03365697
36	0x3d091a6e	0.03347247
37	0x3d0912e1	0.03346527
38	0x3d09bfe0	0.033630252
39	0x3d0815d3	0.03322394
40	0x3d09ed2c	0.03367345
41	0x3d079084	0.033096805
42	0x3d064dc3	0.032789003
43	0x3d0882cc	0.033327863
44	0x3d0870a1	0.033310536
45	0x3d0a31b8	0.03373882
46	0x3d082c02	0.033245094
47	0x3d07a9f6	0.03312107
48	0x3d09ea8e	0.033670954
49	0x3d083349	0.033252034
50	0x3d085c00	0.033290863
51	0x3d07cf09	0.03315643
52	0x3d0ae18a	0.033906497
53	0x3d087256	0.033312164
54	0x3d084657	0.033270206
55	0x3d091348	0.033465654
56	0x3d086786	0.033301853
57	0x3d0889f8	0.033334702
58	0x3d0868a8	0.033302933
59	0x3d07573e	0.033042185
60	0x3d083f5b	0.033263545
61	0x3d0c7c94	0.034298494
62	0x3d084d9c	0.03327714
63	0x3d07fe40	0.033201456
64	0x3d0c8028	0.034301907
65	0x3d08d666	0.03340759
66	0x3d095b6c	0.033534452
67	0x3d096d4e	0.033551507
68	0x3d0b2786	0.03397324
69	0x3d0918d4	0.033470944
70	0x3d08d2bc	0.033404097
71	0x3d09e356	0.03366407
72	0x3d090182	0.033448704
73	0x3d06e866	0.032936476
74	0x3d08a614	0.03336151
75	0x3d098bb9	0.033580516
76	0x3d08c226	0.03338828
77	0x3d08610e	0.033295684
78	0x3d0aa644	0.03384997
79	0x3d07d06e	0.03315776
80	0x3d09aa89	0.0336099
81	0x3d0cc204	0.034364715
82	0x3d087af8	0.033320397
83	0x3d06ff73	0.03295846
84	0x3d09e437	0.03366491
85	0x3d0853bc	0.03328298
86	0x3d083beb	0.033260267
87	0x3d0958d8	0.033531994
88	0x3d084955	0.03327306
89	0x3d080578	0.03320834
90	0x3d090dee	0.03346055
91	0x3d091630	0.033468425
92	0x3d085f36	0.033293925
93	0x3d08151a	0.03322325
94	0x3d090a14	0.033456877
95	0x3d0ba9ae	0.034097366
96	0x3d084e95	0.033278067
97	0x3d08f015	0.033432085
98	0x3d08375e	0.033255927
99	0x3d08c516	0.03339108
100	0x3d07f074	0.0331883
101	0x3d072ac0	0.032999754
102	0x3d0a6596	0.033788286
103	0x3d080a84	0.033213153
104	0x3d098d5a	0.03358207
105	0x3d095b69	0.03353444
106	0x3d07ab08	0.033122092
107	0x3d09b692	0.03362138
108	0x3d08f560	0.033437133
109	0x3d07ec9b	0.03318463
110	0x3d08481e	0.0332719
111	0x3d0857b7	0.033286776
112	0x3d084fa0	0.03327906
113	0x3d097f76	0.03356882
114	0x3d08ad1c	0.033368215
115	0x3d08bb84	0.033381954
116	0x3d08b0d0	0.033371747
117	0x3d09d2fd	0.03364848
118	0x3d05a5ab	0.032628696
119	0x3d0a3d6b	0.03374998

fc1.0.weight_fake_quant.activation_post_process.min_val f4 [120]
0	0xbd4c4e15	-0.049879152
1	0xbd48fcfd	-0.049069393
2	0xbd4b25c7	-0.049596574
3	0xbd4cd172	-0.05000443
4	0xbd4bee04	-0.049787536
5	0xbd457072	-0.04820294
6	0xbd4b28c4	-0.049599424
7	0xbd51c494	-0.051212862
8	0xbd4d4faa	-0.0501248
9	0xbd4aff28	-0.049559742
10	0xbd4b12e2	-0.049578555
11	0xbd4d5cbc	-0.050137267
12	0xbd4bbbfb	-0.04973982
13	0xbd4a9db3	-0.0494668
14	0xbd4c5208	-0.04988292
15	0xbd4ad86f	-0.049522813
16	0xbd4d33da	-0.050098278
17	0xbd4d9f4d	-0.05020075
18	0xbd4c9533	-0.049946975
19	0xbd4a40d7	-0.049378242
20	0xbd4bbdf7	-0.04974171
21	0xbd4b9cde	-0.049710147
22	0xbd4b7076	-0.049667798
23	0xbd53cdd8	-0.05170998
24	0xbd4b297e	-0.049600117
25	0xbd491ce9	-0.049099836
26	0xbd4cde73	-0.05001683
27	0xbd471c6c	-0.04861109
28	0xbd4eae3b	-0.050459128
29	0xbd49851b	-0.049199205
30	0xbd4ac730	-0.049506366
31	0xbd4bbe56	-0.049742065
32	0xbd4ad81d	-0.049522508
33	0xbd4b72f3	-0.04967017
34	0xbd4d6f04	-0.0501547
35	0xbd4ec9d5	-0.05048545
36	0xbd4da7a5	-0.050208706
37	0xbd4a03af	-0.04931992
38	0xbd4e9fd0	-0.050445378
39	0xbd4a39bb	-0.049371462
40	0xbd4ee3c2	-0.050510176
41	0xbd4b58c5	-0.049645204
42	0xbd4974a4	-0.049183503
43	0xbd4ab9a5	-0.04949345
44	0xbd4c25d1	-0.049840752
45	0xbd4a4e67	-0.049391177
46	0xbd4b68a6	-0.049660347
47	0xbd4b7ef0	-0.049681604
48	0xbd492717	-0.049109545
49	0xbd4c4ced	-0.04987805
50	0xbd4c4e39	-0.049879286
51	0xbd4bb68d	-0.04973464
52	0xbd50524e	-0.050859742
53	0xbd4b2ffc	-0.04960631
54	0xbd4c6982	-0.049905308
55	0xbd4d9ceb	-0.050198477
56	0xbd4c9b48	-0.049952775
57	0xbd4ccef4	-0.050002053
58	0xbd4ab9b3	-0.049493503
59	0xbd4b02dc	-0.049563274
60	0xbd4c29e1	-0.049844626
61	0xbd4a303a	-0.0493624
62	0xbd4b6b9e	-0.04966318
63	0xbd4bfd60	-0.049802184
64	0xbd4dcf2d	-0.050246406
65	0xbd4d4198	-0.050111383
66	0xbd4c485e	-0.049873702
67	0xbd4e23f4	-0.050327256
68	0xbd49cb98	-0.049266428
69	0xbd4d316d	-0.050095964
70	0xbd4d3c19	-0.05010614
71	0xbd4ed500	-0.0504961
72	0xbd4bf049	-0.0497897
73	0xbd47db28	-0.048792988
74	0xbd4cf91d	-0.05004226
75	0xbd481f5f	-0.048858043
76	0xbd4d2339	-0.05008242
77	0xbd4c9194	-0.04994352
78	0xbd4dc191	-0.050233427
79	0xbd49dcc6	-0.04928281
80	0xbd4e7fcd	-0.05041485
81	0xbd41c213	-0.047304224
82	0xbd4cb874	-0.049980596
83	0xbd4a7f2c	-0.049437687
84	0xbd4ed652	-0.05049736
85	0xbd4ab8db	-0.0494927
86	0xbd4c37c0	-0.049857855
87	0xbd4782e9	-0.04870883
88	0xbd4b847e	-0.0496869
89	0xbd4c0833	-0.049812507
90	0xbd4c630a	-0.04989914
91	0xbd41594d	-0.047204304
92	0xbd4970e5	-0.04917993
93	0xbd4b0cc8	-0.049572736
94	0xbd4d4b78	-0.0501208
95	0xbd517e85	-0.05114605
96	0xbd4a87c8	-0.049445897
97	0xbd477855	-0.048698742
98	0xbd4c530d	-0.04988389
99	0xbd4ba2ce	-0.04971581
100	0xbd4be8ae	-0.049782448
101	0xbd4ac020	-0.04949963
102	0xbd4c1c49	-0.049831662
103	0xbd4bc7bc	-0.04975103
104	0xbd4e5407	-0.050373103
105	0xbd466bfb	-0.048442822
106	0xbd4b808b	-0.049683135
107	0xbd489f47	-0.048980024
108	0xbd4b538f	-0.049640235
109	0xbd4af33d	-0.049548376
110	0xbd4a21eb	-0.049348753
111	0xbd4c8392	-0.049930163
112	0xbd4c776f	-0.04991859
113	0xbd4e3f30	-0.05035323
114	0xbd4d03aa	-0.050052322
115	0xbd4d1946	-0.05007293
116	0xbd4d0938	-0.05005762
117	0xbd4ebc7b	-0.050472718
118	0xbd487880	-0.048943043
119	0xbd4ac1a5	-0.04950108

fc1.0.weight_fake_quant.activation_post_process.max_val f4 [120]
0	0x3d4c1c06	0.049831413
1	0x3d50d5a9	0.050985012
2	0x3d4b86ad	0.049688984
3	0x3d4a6d72	0.04942078
4	0x3d4c6a10	0.049905837
5	0x3d4bcfb7	0.04975864
6	0x3d4b64ec	0.049656793
7	0x3d4a40fb	0.049378376
8	0x3d4dcf4c	0.05024652
9	0x3d4da5fc	0.050207123
10	0x3d4cb3db	0.04997621
11	0x3d4bf225	0.049791474
12	0x3d4cbb6b	0.049983423
13	0x3d4b7aa0	0.04967749
14	0x3d4c5cde	0.049893253
15	0x3d4e75c9	0.050405297
16	0x3d4cc8b5	0.049996097
17	0x3d49f845	0.049309034
18	0x3d4bc95b	0.049752574
19	0x3d4d82aa	0.05017344
20	0x3d4cc5a9	0.04999319
21	0x3d4dde89	0.050261054
22	0x3d4c52c0	0.049883604
23	0x3d4a4b12	0.049388
24	0x3d4af042	0.049545534
25	0x3d4caa16	0.049966894
26	0x3d4c5260	0.049883246
27	0x3d4cf45e	0.050037734
28	0x3d4aa04b	0.049469274
29	0x3d510406	0.051029228
30	0x3d4fddad	0.050748516
31	0x3d4cda7f	0.05001306
32	0x3d500851	0.05078918
33	0x3d49367c	0.049124226
34	0x3d4cccc6	0.049999975
35	0x3d4d94d4	0.05019076
36	0x3d4c1459	0.049824093
37	0x3d4d9c51	0.050197903
38	0x3d4bda74	0.04976888
39	0x3d4c20bc	0.049835905
40	0x3d4b01d0	0.049562275
41	0x3d4a2e50	0.049360573
42	0x3d489210	0.04896742
43	0x3d4cc431	0.04999179
44	0x3d4ca8f1	0.049965803
45	0x3d4f4a94	0.050608233
46	0x3d4c4203	0.04986764
47	0x3d4b72e6	0.049670123
48	0x3d4edfd4	0.050506428
49	0x3d4c3d76	0.0498633
50	0x3d4c8a00	0.049936295
51	0x3d4b86ab	0.049688976
52	0x3d4ce0bd	0.050019015
53	0x3d4cab81	0.049968246
54	0x3d4bb1d6	0.049730144
55	0x3d4cee8e	0.05003219
56	0x3d4c9807	0.049949672
57	0x3d4bd13d	0.049760092
58	0x3d4c9cfc	0.0499544
59	0x3d4afef9	0.049559567
60	0x3d4c5f08	0.049895316
61	0x3d52badd	0.051447738
62	0x3d4c7469	0.049915705
63	0x3d4bd20b	0.04976086
64	0x3d52c03c	0.05145286
65	0x3d4b1eba	0.04958985
66	0x3d4e0921	0.050301675
67	0x3d4b2319	0.04959402
68	0x3d50bb48	0.050959855
69	0x3d4da53e	0.050206415
70	0x3d4bc550	0.04974872
71	0x3d4c06ff	0.04981136
72	0x3d4d8242	0.05017305
73	0x3d4a5c99	0.049404714
74	0x3d4ad410	0.049518645
75	0x3d4e5195	0.05037077
76	0x3d4cedf4	0.050031617
77	0x3d4bb769	0.04973546
78	0x3d4ff965	0.05077495
79	0x3d4bb8a5	0.049736638
80	0x3d4bcba2	0.049754746
81	0x3d532306	0.051547073
82	0x3d4c1641	0.04982591
83	0x3d49c8f8	0.049263924
84	0x3d4e49ea	0.05036346
85	0x3d4c7d99	0.049924467
86	0x3d4c59e0	0.0498904
87	0x3d4e0543	0.050297987
88	0x3d4c6dff	0.049909588
89	0x3d4accb9	0.049511645
90	0x3d4d94e5	0.050190825
91	0x3d4da147	0.050202634
92	0x3d4c8ed0	0.049940884
93	0x3d4c1fa6	0.04983487
94	0x3d4d8f1e	0.050185315
95	0x3d4b24b5	0.049595553
96	0x3d4c75df	0.049917098
97	0x3d4d681f	0.050148126
98	0x3d48f62d	0.049062897
99	0x3d4d27a0	0.050086617
100	0x3d4bb4ef	0.0497331
101	0x3d49e820	0.049293637
102	0x3d4f9860	0.050682425
103	0x3d4c0fc5	0.049819726
104	0x3d4ac7e0	0.049507022
105	0x3d4e091d	0.05030166
106	0x3d491b3a	0.04909823
107	0x3d4e91db	0.050432067
108	0x3d4d7010	0.0501557
109	0x3d4be2e8	0.04977694
110	0x3d4c6c2d	0.049907852
111	0x3d4c3b5a	0.04986129
112	0x3d4c62ed	0.04989903
113	0x3d4b3a94	0.04961641
114	0x3d4ce83d	0.050026167
115	0x3d4a95f8	0.049459428
116	0x3d4c0ec3	0.049818765
117	0x3d4cb75a	0.049979545
118	0x3d46c759	0.048529956
119	0x3d4f5c20	0.050624967

fc2.0.weight f4 [84, 120]
0	0x3d4ab99e	0.049493425
1	0x3d0d65b1	0.03452081
2	0xbcbb01d8	-0.022828028
3	0x3db301eb	0.087406
4	0x3d3d63f9	0.04623792
5	0x3d98f9a9	0.07469494
6	0xbbeaa135	-0.0071603307
7	0xbc6de211	-0.01451923
8	0x3d744a6b	0.059641283
9	0x3d310adc	0.043223247
10	0x3ca2e1ca	0.019883055
11	0x3da4089a	0.08009453
12	0x3cda64d4	0.026659407
13	0xbdbba8bd	-0.09163044
14	0xbc09639e	-0.008385567
15	0xbd8ccaa6	-0.068745896
16	0x3d96693f	0.07344293
17	0xbbe89f56	-0.0070990724
18	0xbd915750	-0.07096732
19	0x3db1d92e	0.08684002
20	0xbd6f75e8	-0.058462054
21	0x3da22a19	0.07918186
22	0xbd8b6314	-0.06806007
23	0x3d832c50	0.06404936
24	0x3d62552c	0.055257007
25	0xbc919e3b	-0.017775645
26	0xbd307d08	-0.04308799
27	0xbd808cb7	-0.06276839
28	0x3d2dd6f5	0.042441327
29	0x3dab63af	0.083686225
30	0xbd657b18	-0.056025594
31	0x3d3add46	0.04562118
32	0x3d1b15ed	0.037862707
33	0xbd42890f	-0.04749399
34	0xbd892531	-0.06696547
35	0x3db41263	0.087925695
36	0xbcab3a5b	-0.02090185
37	0xbd45fb42	-0.04833532
38	0x3d975943	0.07390072
39	0xbd938ec1	-0.072049625
40	0x3c820237	0.015870197
41	0xbcaa0c67	-0.020757867
42	0xbcf94f7c	-0.030433409
43	0x3c7c245a	0.015389526
44	0xbda9bf3f	-0.082884304
45	0xbc527e48	-0.012847491
46	0xbd00d99c	-0.03145753
47	0x3d6ded55	0.058087666
48	0x3d84bd37	0.06481402
49	0xbaa8d5ae	-0.0012881064
50	0x3cb939b1	0.022610517
51	0xbda60872	-0.081070796
52	0x3c28f7c4	0.010312978
53	0xbd6af338	-0.057360858
54	0x3d88c4bb	0.06678148
55	0x3d03ac22	0.03214658
56	0x3d8b63da	0.068061545
57	0xbcf36bbb	-0.029714456
58	0xbd6d47e0	-0.057929873
59	0xbd17fdae	-0.037107162
60	0x3d6c6f01	0.05772305
61	0xbc88b52e	-0.016687956
62	0xbd3643d8	-0.044498295
63	0xbd05e43e	-0.03268837
64	0x3dabd91c	0.0839102
65	0x3d8bebac	0.0683206
66	0xbd5de0f4	-0.05416961
67	0x3db6ec50	0.08931792
68	0xbd259509	-0.040425334
69	0x3d8c9351	0.06864036
70	0xbc9ccf71	-0.019141885
71	0xbda68f97	-0.08132856
72	0x3aba218a	0.0014200669
73	0x3cd8a855	0.026447454
74	0x3d8c9491	0.06864274
75	0x3d80256d	0.062571384
76	0x3d82e309	0.0639096
77	0xbdb80454	-0.089852005
78	0xbd4d1e0a	-0.050077476
79	0xbbef522a	-0.007303496
80	0xbd0ca0c9	-0.034333024
81	0x3cae350d	0.021265531
82	0x3cb34080	0.021881342
83	0x3dafed16	0.085901424
84	0xbd4f5ec5	-0.05062749
85	0x3d006a74	0.03135152
86	0xbc9d6333	-0.019212341
87	0xbdb448d6	-0.08802955
88	0xbba252eb	-0.0049537322
89	0xbd2a6d05	-0.041607875
90	0x3bcc9dff	0.0062444205
91	0x3cdb320c	0.026757263
92	0x3d5f0044	0.054443613
93	0xbd530338	-0.05151674
94	0xbda4a7bf	-0.080398075
95	0xbd00d15b	-0.031449657
96	0xbdb9403c	-0.09045455
97	0xbc9c45c6	-0.01907624
98	0x3d0fd90b	0.035119098
99	0x3b9bd4cb	0.0047555915
100	0xbd3704ba	-0.044682242
101	0x3d317e79	0.043333504
102	0x3cb6ad5c	0.022299461
103	0x3da83c81	0.08214665
104	0x3d80e3dc	0.06293461
105	0x3cfa8a68	0.030583575
106	0x3d5bedbc	0.053693518
107	0x3d71a594	0.0589958
108	0x3d13445f	0.035953876
109	0x3d93cf42	0.07217266
110	0xbcabed3d	-0.020987147
111	0x3da0715f	0.07834124
112	0x3b0cbd23	0.002147504
113	0x3cfdcfae	0.030982818
114	0xbda7b6ae	-0.0818914
115	0xbd935178	-0.07193273
116	0xbba93d89	-0.0051648063
117	0xbca061a7	-0.019577814
118	0x3d948f99	0.072539516
119	0xbd5092d1	-0.050921265
120	0x3d2e9f0f	0.04263216
121	0xbd2e37e3	-0.042533766
122	0xbc4d0047	-0.012512273
123	0xbdaa2827	-0.0830844
124	0xbd775902	-0.06038762
125	0x3d96fa52	0.073719636
126	0x3d8256e8	0.06364232
127	0xbd8fe4e6	-0.07026081
128	0xbcc73886	-0.024318945
129	0x3d861f53	0.06548943
130	0x3d8d745f	0.06906962
131	0x3da520f3	0.08062925
132	0x3b003af0	0.001956638
133	0x3c989693	0.018626487
134	0xbdb764e1	-0.08954788
135	0x3d2555ab	0.040364902
136	0xbd054ba7	-0.03254285
137	0xbd72ce68	-0.059278876
138	0xbd80cfe1	-0.0628965
139	0xbdb76e47	-0.089565806
140	0x3d9cdc4d	0.076592065
141	0xbd911037	-0.07083171
142	0x3da6eec4	0.0815101
143	0x3d578433	0.05261631
144	0xbdba1282	-0.09085561
145	0xbd21da3d	-0.03951477
146	0xbdb40324	-0.087896615
147	0x3beda099	0.0072518107
148	0xbd170be1	-0.036876563
149	0xbcdfc31f	-0.02731472
150	0xbcd2c2df	-0.025727687
151	0xbbc1e4f5	-0.0059171864
152	0x3be8d715	0.007105718
153	0x3d95ac7f	0.07308292
154	0x3ca5d8ae	0.020244922
155	0x3c83b9e6	0.016079854
156	0x3d98a810	0.074539304
157	0xbb15fca6	-0.0022886186
158	0x3da82a6d	0.08211217
159	0xbd4b6b67	-0.049662974
160	0xbcbc53f8	-0.022989258
161	0x3d32b166	0.04362621
162	0xbd8abfa2	-0.06774832
163	0xbd27fa13	-0.041009974
164	0xbdaae086	-0.08343606
165	0x3d2df6cb	0.04247169
166	0xbdb9d5df	-0.09073996
167	0x3d41a265	0.047274012
168	0x3d927a75	0.07152263
169	0xbd75d41e	-0.060016744
170	0xbdb6100f	-0.08889782
171	0x3d549a82	0.051905163
172	0xbcf287f2	-0.02960584
173	0x3d76f873	0.060295533
174	0x3d8f5bc8	0.06999928
175	0x3d97bfb2	0.0740961
176	0xbd95b1ef	-0.07309329
177	0x3daa8382	0.083258644
178	0xbc9b9deb	-0.0189962
179	0xbd189041	-0.037246946
180	0xbc817ab0	-0.015805572
181	0xbbaf3dd3	-0.005347946
182	0xbd29633d	-0.041354407
183	0x3d8d41f2	0.06897344
184	0x3b1bfffa	0.0023803697
185	0xbc89af0a	-0.016807098
186	0xbdabee9d	-0.08395121
187	0xbd51d28d	-0.051226187
188	0xbc17a375	-0.00925528
189	0x3cae7e10	0.021300346
190	0x3c673c9d	0.014113572
191	0xbda78af7	-0.08180802
192	0xbc0ae197	-0.008476636
193	0x3cf1d1f4	0.029519059
194	0xbd4ba32f	-0.04971617
195	0x3b6cd291	0.003613625
196	0x3d35e619	0.04440889
197	0xbb9c74a5	-0.0047746473
198	0xbce6e276	-0.028184157
199	0x3d86a98d	0.06575308
200	0x3d4e23e1	0.050327186
201	0xbc52c8a5	-0.01286522
202	0xbd345f3d	-0.04403614
203	0x3c9b8ec9	0.018988984
204	0xbd2d9694	-0.04237993
205	0x3d67d9c2	0.056604154
206	0xbd711330	-0.05885619
207	0xbc7dee60	-0.015498728
208	0xbd5624f2	-0.052281328
209	0xbd781e7e	-0.060575955
210	0x3dab6e3b	0.08370634
211	0xbb79d44d	-0.0038120926
212	0x3d294234	0.0413229
213	0xbcf62b4a	-0.030049939
214	0xbd3c8f1b	-0.046034914
215	0xbc5bab17	-0.01340749
216	0xbcde63d0	-0.027147204
217	0xbcd76c08	-0.02629663
218	0xbd28630e	-0.04111009
219	0x3d80806f	0.06274497
220	0xbc9b708b	-0.018974563
221	0x3b142eaa	0.0022610822
222	0xbcf2d395	-0.029641906
223	0x3c05b4c1	0.008160771
224	0x3d65cf52	0.05610592
225	0xbc138256	-0.0090032425
226	0x3c807396	0.015680116
227	0x3daa368b	0.083111845
228	0xbcc4b69e	-0.02401286
229	0xbdac1159	-0.08401746
230	0x3db5ffd1	0.08886684
231	0x3c465e92	0.012107508
232	0xbd95b66b	-0.07310184
233	0x3c986c11	0.018606218
234	0x3bc7e19e	0.0060998937
235	0xbd485f02	-0.04891873
236	0x3d795a6f	0.06087726
237	0xbcf43a9d	-0.029813105
238	0xbd3b3ce5	-0.04571237
239	0x3d7ab110	0.061204016
240	0xbdb70ba4	-0.08937767
241	0x3d006ce1	0.031353835
242	0xbd947063	-0.072479986
243	0xbcaf43fe	-0.021394726
244	0x3d83eab3	0.0644125
245	0x3d706cd0	0.05869752
246	0x3da13772	0.078719035
247	0xbd3ae8e7	-0.04563227
248	0xbcb001ba	-0.021485198
249	0xbcaf0f8e	-0.021369722
250	0x3d931ac6	0.07182841
251	0xbda8a0f8	-0.08233827
252	0x3d7e323b	0.062059622
253	0xbd3f3833	-0.046684455
254	0xbd87d89d	-0.066331126
255	0x3d2ba550	0.0419057

fc2.0.bias f4 [84]
0	0xbc05ff04	-0.008178476
1	0xbcb275f9	-0.02178477
2	0xbd5f0a40	-0.054453135
3	0xbc1bea3d	-0.009516296
4	0xbcca6446	-0.024706017
5	0xbc5b7907	-0.013395554
6	0xbd2f0808	-0.04273227
7	0xbdaeb23b	-0.085300885
8	0x3d369a46	0.04458072
9	0x3d12123d	0.035661925
10	0x3d610db6	0.054944716
11	0xbd526d7a	-0.051373936
12	0xbd824647	-0.063610606
13	0x3cd81134	0.02637539
14	0x3be5c634	0.007012153
15	0x3ce4c34c	0.027925156
16	0x3d125fb7	0.035735812
17	0x3cda6e1c	0.026663832
18	0xbcb76d0f	-0.02239087
19	0xbaca42ce	-0.0015431286
20	0xbda738ef	-0.08165156
21	0x3dafe436	0.0858845
22	0x3cd3e29f	0.025864897
23	0x3d99112d	0.07473979
24	0xbd7b9579	-0.061421845
25	0xbd319c0e	-0.043361716
26	0x3b61dbe3	0.0034463338
27	0xbd6c9e89	-0.05776838
28	0x3d01525b	0.03157268
29	0x3d078368	0.033084303
30	0xbbb2f268	-0.005461026
31	0xbd54be20	-0.05193913
32	0xbc17f837	-0.009275488
33	0x3b437643	0.0029825128
34	0xbc44be6a	-0.012008289
35	0xbd252073	-0.04031415
36	0xbda4a219	-0.0803873
37	0xbbdec3a9	-0.006798227
38	0x3ca8c355	0.020600954
39	0xbd1a62c9	-0.037691865
40	0xbc33fb23	-0.010985169
41	0x3cc14dfd	0.023596758
42	0x3d66a85a	0.056312896
43	0x3db1df1e	0.08685134
44	0xbd14d716	-0.036337934
45	0x3db9204e	0.09039365
46	0xbdb98a3c	-0.09059569
47	0x3dced319	0.100988574
48	0x3c87e9d2	0.016590986
49	0x3ce2c885	0.027683506
50	0xbd8e6132	-0.06952132
51	0x3dafb07c	0.085785836
52	0x3dabf080	0.08395481
53	0xbdab6d29	-0.0837043
54	0xbd896740	-0.067091465
55	0xbd6bb111	-0.05754191
56	0x3d196ee1	0.037459258
57	0x3da8db10	0.08244908
58	0x3d4d71bf	0.050157305
59	0x3cc52eed	0.024070228
60	0xbd452759	-0.048133228
61	0x3d95fbae	0.07323395
62	0x3d4142b5	0.047182757
63	0xbd39026d	-0.04516833
64	0x3cc3ee58	0.023917362
65	0xbd035fc4	-0.03207375
66	0x3c8095d9	0.015696453
67	0x3d3174fd	0.04332446
68	0xbc8038ba	-0.01565205
69	0x3d27ad68	0.040936857
70	0x3d02f58a	0.031972446
71	0xbda8d66a	-0.08244021
72	0xbd9b5486	-0.07584481
73	0x3d638b87	0.055552986
74	0xbd1b034c	-0.03784494
75	0xbd57415c	-0.052552566
76	0x3d261c63	0.040554415
77	0x3d77a0b1	0.06045598
78	0xbca79818	-0.020458266
79	0xbb15d21c	-0.002286083
80	0xbd11d5ac	-0.035604164
81	0xbcb7b4e5	-0.022425124
82	0xbda88d6f	-0.08230101
83	0xbd67eb9f	-0.05662119

fc2.0.weight_fake_quant.scale f4 [84]
0	0x3d783618	0.060598463
1	0x3d781dfc	0.06057547
2	0x3d741587	0.059590843
3	0x3d78a73c	0.060706362
4	0x3d776ff2	0.060409494
5	0x3d772f37	0.060347762
6	0x3d7920ca	0.060822286
7	0x3d777117	0.060410585
8	0x3d769c1c	0.06020747
9	0x3d784890	0.060616076
10	0x3d788ab0	0.060679138
11	0x3d78f386	0.060779117
12	0x3d77a9f0	0.0604648
13	0x3d78ee82	0.060774334
14	0x3d765460	0.06013906
15	0x3d78fe9a	0.060789682
16	0x3d73e994	0.05954893
17	0x3d783aca	0.06060294
18	0x3d763603	0.060110103
19	0x3d771b06	0.060328506
20	0x3d792a13	0.06083114
21	0x3d77b1e7	0.060472395
22	0x3d773506	0.0603533
23	0x3d78c6f4	0.06073661
24	0x3d787e94	0.06066759
25	0x3d74ac28	0.059734493
26	0x3d74c51b	0.059758287
27	0x3d78b6fb	0.06072138
28	0x3d77b507	0.060475376
29	0x3d74f63e	0.059805147
30	0x3d75f2f2	0.060046144
31	0x3d78404f	0.060608204
32	0x3d78aacc	0.06070976
33	0x3d79442b	0.060856026
34	0x3d77cdec	0.060499117
35	0x3d746ab7	0.059672084
36	0x3d7591db	0.05995355
37	0x3d77b5fa	0.06047628
38	0x3d770d64	0.060315505
39	0x3d7418bb	0.059593897
40	0x3d70595e	0.058678977
41	0x3d77c5b4	0.06049128
42	0x3d7bcc92	0.06147439
43	0x3d776f20	0.06040871
44	0x3d78ce96	0.06074389
45	0x3d763a53	0.060114216
46	0x3d78fd97	0.060788717
47	0x3d7830cf	0.060593423
48	0x3d77feee	0.060545854
49	0x3d780106	0.06054785
50	0x3d7bf886	0.061516307
51	0x3d759674	0.059957936
52	0x3d74d89a	0.05977688
53	0x3d746afc	0.05967234
54	0x3d733173	0.05937333
55	0x3d7984f6	0.060917817
56	0x3d790017	0.0607911
57	0x3d762aaf	0.0600993
58	0x3d78c893	0.060738157
59	0x3d76cf56	0.060256325
60	0x3d72e3fb	0.05929945
61	0x3d786b54	0.06064923
62	0x3d81c2cb	0.06335982
63	0x3d785e68	0.060636908
64	0x3d766dd6	0.06016334
65	0x3d767812	0.0601731
66	0x3d744bb4	0.05964251
67	0x3d786b24	0.060649052
68	0x3d78bea7	0.060728695
69	0x3d78ad90	0.060712397
70	0x3d78e880	0.060768604
71	0x3d745afe	0.05965709
72	0x3d79cad2	0.06098444
73	0x3d770560	0.06030786
74	0x3d7925e8	0.060827166
75	0x3d773d0c	0.060360953
76	0x3d76f630	0.060293376
77	0x3d72dba3	0.059291493
78	0x3d76b71c	0.06023322
79	0x3d79f226	0.061021946
80	0x3d72903f	0.059219595
81	0x3d77b693	0.06047685
82	0x3d784830	0.06061572
83	0x3d74989a	0.059715845

fc2.0.weight_fake_quant.activation_post_process.min_val f4 [84]
0	0xbdba2892	-0.090897694
1	0xbdba167d	-0.090863205
2	0xbdb71025	-0.08938626
3	0xbdba7d6d	-0.09105954
4	0xbdb8830a	-0.09009369
5	0xbdb94581	-0.0904646
6	0xbdb8c3a2	-0.09021689
7	0xbdb994d1	-0.090615876
8	0xbdb72e3e	-0.08944367
9	0xbdb8f906	-0.090318725
10	0xbdba6804	-0.09101871
11	0xbdba120e	-0.09085475
12	0xbdb9bf74	-0.0906972
13	0xbdbab2e1	-0.0911615
14	0xbdb8bf48	-0.09020859
15	0xbdb5a6d8	-0.088697135
16	0xbdb4acda	-0.08822031
17	0xbdba2c17	-0.09090441
18	0xbdb3ac57	-0.087731056
19	0xbdb95444	-0.090492755
20	0xbdbadf8e	-0.09124671
21	0xbdb9c56d	-0.09070859
22	0xbdb967c4	-0.09052995
23	0xbdb98b7a	-0.09059806
24	0xbdb4e7a6	-0.08833246
25	0xbdb4c62c	-0.08826861
26	0xbdaf9e11	-0.08575071
27	0xbdba893c	-0.09108207
28	0xbdb3afa3	-0.087737344
29	0xbdb3273e	-0.08747719
30	0xbdb3a971	-0.08772553
31	0xbdb69b63	-0.089163564
32	0xbdb9257b	-0.09040352
33	0xbdb85979	-0.090014406
34	0xbdb9da71	-0.090748675
35	0xbdb75009	-0.08950812
36	0xbdb82d64	-0.089930326
37	0xbdb9c87b	-0.09071442
38	0xbdb7d068	-0.08975297
39	0xbdb65e54	-0.089047104
40	0xbdb44306	-0.08801846
41	0xbdb9d447	-0.09073692
42	0xbdb3ee22	-0.087856546
43	0xbdb99358	-0.09061307
44	0xbdb438c2	-0.08799888
45	0xbdb3d433	-0.08780708
46	0xbdbabe31	-0.091183074
47	0xbdba249b	-0.09089013
48	0xbdb9ff32	-0.09081878
49	0xbdb6a16c	-0.089175075
50	0xbdb1d0c6	-0.086823985
51	0xbdb830d7	-0.089936905
52	0xbdb7a273	-0.089665316
53	0xbdb7503d	-0.08950851
54	0xbdb66516	-0.08905999
55	0xbdbb23b8	-0.09137672
56	0xbdb43824	-0.087997705
57	0xbdb3eecc	-0.08785781
58	0xbdba835d	-0.09107087
59	0xbdb2ce11	-0.0873071
60	0xbdb62afc	-0.08894917
61	0xbdba507f	-0.09097385
62	0xbdbe42e2	-0.09290101
63	0xbdba46ce	-0.09095536
64	0xbdb8d260	-0.09024501
65	0xbdb8da0d	-0.09025965
66	0xbdafa7bf	-0.08576917
67	0xbdba505b	-0.09097358
68	0xbdb6d21f	-0.08926796
69	0xbdba7a0e	-0.09105311
70	0xbdbaae60	-0.09115291
71	0xbdb45edd	-0.08807156
72	0xbdbb581d	-0.09147666
73	0xbdb818b0	-0.08989084
74	0xbdba7c2a	-0.09105714
75	0xbdb96dc9	-0.09054143
76	0xbdb8f6cb	-0.09031447
77	0xbdb61699	-0.08891029
78	0xbdb90955	-0.09034983
79	0xbdb75df5	-0.08953468
80	0xbdb5ec2f	-0.08882939
81	0xbdb62b03	-0.088949226
82	0xbdba3624	-0.09092358
83	0xbdb77273	-0.08957376
