checkpoint/LeNet5_relu6_quantized_4_bits.ckpt (torch, 271112 bytes, 10 tensors)

conv1.0.weight f4 [6, 3, 5, 5]
0	0x3e6d0cd5	0.23149426
1	0x3dec7061	0.11544872
2	0x3e42a315	0.19007523
3	0x3e8e68c2	0.278143
4	0x3e8a1e77	0.26976368
5	0x3df365fe	0.11884688
6	0x3f0446ca	0.51670516
7	0x3ed5c8a5	0.41754642
8	0x3e946e6a	0.2899049
9	0xbd9c54d9	-0.07633371
10	0xbe1d8625	-0.15383203
11	0xbd81c623	-0.0633662
12	0xbd78936e	-0.060687475
13	0xbe411481	-0.18855478
14	0xbe1a1ea8	-0.15050757
15	0x3c9cea2f	0.019154636
16	0xbec31c77	-0.38107654
17	0xbea3fe16	-0.3202979
18	0xbd56c926	-0.052437924
19	0x3e4736f6	0.1945456
20	0xbca158c1	-0.019695641
21	0x3bc67762	0.006056712
22	0x3d6e98bf	0.05825114
23	0xbd2539a6	-0.04033818
24	0xbe195112	-0.14972332
25	0x3da31112	0.0796224
26	0xbdd06148	-0.10174805
27	0xbdc086a1	-0.094006784
28	0xbd29ad9f	-0.041425344
29	0xbd6df88d	-0.058098365
30	0xbd2c6447	-0.04208782
31	0x3ed650be	0.41858476
32	0x3e6cb5f3	0.23116283
33	0x3db49618	0.088176906
34	0xbe9626f1	-0.29326585
35	0xbeb2fd5b	-0.3495892
36	0xbed12b97	-0.4085357
37	0xbed99597	-0.4249694
38	0xbdd0a8fb	-0.101884805
39	0x3c18ee0f	0.009334101
40	0xbe0631de	-0.1310496
41	0xbef86b03	-0.48519143
42	0xbea595d1	-0.32340863
43	0xbc0b6d00	-0.008509874
44	0x3e8df31c	0.2772454
45	0x3dce1d33	0.10064163
46	0x3bf4bf62	0.0074691037
47	0x3dbb4291	0.09143556
48	0xbe237f2e	-0.15966484
49	0xbd68af5a	-0.056807853
50	0xbcb0492c	-0.021519266
51	0xbe20df8f	-0.15710281
52	0xbe058f17	-0.13042866
53	0xbdc2f47c	-0.09519288
54	0x3d50a6a2	0.050940163
55	0xbd6e2094	-0.058136538
56	0x3ed1f4e4	0.4100715
57	0x3e74679d	0.2386765
58	0x3e1ee039	0.15515222
59	0xbe498c67	-0.19682465
60	0xbcdc6dcb	-0.026907822
61	0xbe37d937	-0.17953955
62	0xbd9759c7	-0.073901705
63	0xbd7b6261	-0.06137312
64	0x3e120b6c	0.1426217
65	0x3e30b122	0.17255071
66	0xbe6a10c8	-0.22857964
67	0xbe6660c5	-0.22497852
68	0x3d37327d	0.044725884
69	0x3e42e381	0.19032098
70	0x3deaf350	0.114721894
71	0x3ebbe7e8	0.36700368
72	0x3e82bc88	0.25534463
73	0xbcc8b7e4	-0.024501748
74	0xbe67c794	-0.22634727
75	0x3d7e2634	0.062048152
76	0x3e05bda6	0.13060626
77	0x3e8abfa1	0.27099326
78	0x3e0bdcec	0.13658494
79	0xbd51eed4	-0.051253155
80	0x3e056365	0.13026197
81	0xbde24b52	-0.110495225
82	0x3e75bb1c	0.23997158
83	0x3ea2047b	0.31644043
84	0xbd8b55ea	-0.06803496
85	0x3e38eab8	0.18058288
86	0xbeaa9582	-0.3331719
87	0x3dd79105	0.10525707
88	0x3eb486e2	0.35259157
89	0xbd93f730	-0.07224882
90	0x3e1a6855	0.15078862
91	0xbe5d385a	-0.21603528
92	0x3dcfdee7	0.10149937
93	0x3e663354	0.22480518
94	0x3ccc818b	0.024964115
95	0x3d3df4b3	0.04637594
96	0xbe331f84	-0.17492491
97	0xbdec092f	-0.11525189
98	0x3d28ab0a	0.04117874
99	0xbdb1f080	-0.0868845
100	0xbc099202	-0.008396627
101	0xbe4fa503	-0.2027779
102	0xbde561f5	-0.112003244
103	0xbda04fcd	-0.07827721
104	0x3de31c2e	0.11089359
105	0xbdc1529e	-0.09439586
106	0xbee9457b	-0.45560822
107	0xbe47e961	-0.1952262
108	0x3e458690	0.19289613
109	0x3d606fef	0.05479425
110	0x3dd2ff42	0.10302593
111	0xbf164bca	-0.58709395
112	0xbe365bfa	-0.17808524
113	0x3e3f6103	0.18689351
114	0x3ce9f636	0.028559785
115	0x3d4e55b5	0.050374705
116	0xbf10499d	-0.56362325
117	0xbe9122d3	-0.2834688
118	0x3e63235c	0.22181457
119	0xbccbb52e	-0.024866667
120	0x3dabd5cb	0.08390387
121	0xbe769d55	-0.24083455
122	0xbeb228d8	-0.34796786
123	0x3d03e0ed	0.032196928
124	0x3e0359c7	0.12827216
125	0xbdf20387	-0.11817079
126	0xbdee68bd	-0.11641071
127	0x3cf21499	0.029550837
128	0x3e0bfe6c	0.13671273
129	0xbc863f81	-0.016387703
130	0x3e132e89	0.1437322
131	0xbea48cce	-0.32138675
132	0x3d9ab6c8	0.07554394
133	0x3e6522d7	0.22376572
134	0xbcdd247e	-0.02699494
135	0x3e50d831	0.2039497
136	0xbec42ac8	-0.3831389
137	0xbd9bded2	-0.07610859
138	0x3ecc4d65	0.39902797
139	0x3b518efa	0.003197609
140	0x3ea21935	0.31659856
141	0xbee0a24c	-0.43873823
142	0xbe6ae75f	-0.22939824
143	0x3eb17920	0.34662724
144	0x3d0cee3b	0.03440688
145	0x3e8feb17	0.28109047
146	0xbdce622b	-0.10077318
147	0xbc8cc583	-0.017184025
148	0x3e2ba724	0.16762978
149	0x3d636a29	0.055521164
150	0x3d36d9aa	0.044641174
151	0x3e898abb	0.26863655
152	0xbe969ff6	-0.29418916
153	0x3d79db20	0.06099999
154	0xbdf687c7	-0.12037616
155	0x3ec71e60	0.38890362
156	0x3e378931	0.17923428
157	0xbf653aee	-0.89543045
158	0xbc33a2ab	-0.010964076
159	0x3e80d7fa	0.25164777
160	0xbbed2003	-0.007236482
161	0xbe8dca8d	-0.27693596
162	0x3e22bfc6	0.15893468
163	0x3d35b2f3	0.044360112
164	0xbd7a3202	-0.061082847
165	0xbd81e45a	-0.06342383
166	0xbeaceeea	-0.33776027
167	0x3ec9a1e1	0.39381316
168	0xbc90f16a	-0.01769324
169	0xbdcdf992	-0.100573674
170	0x3c8f9d9d	0.01753121
171	0x3e11a00f	0.14221214
172	0xbd275670	-0.040853918
173	0x3c33a3a6	0.01096431
174	0x3d9c64c9	0.07636411
175	0x3c932cd8	0.01796572
176	0x3e82b6da	0.2553013
177	0xbeaacac1	-0.33357814
178	0x3e0805b9	0.13283433
179	0x3c01444e	0.00788982
180	0x3ef991d7	0.4874408
181	0x3e95cf88	0.29259896
182	0xbf4df24a	-0.8044783
183	0x3cb87d33	0.022520637
184	0x3ec724f5	0.38895383
185	0x3db5f759	0.088850684
186	0xbed1a215	-0.4094397
187	0x3de56e0f	0.11202633
188	0x3e0e6af2	0.13907984
189	0xbd28683b	-0.041115027
190	0xbdf39241	-0.1189313
191	0xbe7bec80	-0.24601936
192	0x3ef351df	0.475234
193	0xbb7be26e	-0.0038434523
194	0xbdf72e66	-0.12069397
195	0xbd5e2b25	-0.054240365
196	0x3d663273	0.056200456
197	0xbe2f302d	-0.17108221
198	0xbdff76cc	-0.124738306
199	0x3cb9a5f1	0.022662135
200	0x3d303f80	0.04302931
201	0x3e8a153f	0.26969334
202	0xbe76b247	-0.24091445
203	0x3d5d9b41	0.05410314
204	0xbdd1b669	-0.1023987
205	0x3e7605b9	0.2402562
206	0x3eaabe9e	0.33348554
207	0xbf5ba05a	-0.8579155
208	0xbbf9ea2c	-0.0076267924
209	0x3dc64a5b	0.09682151
210	0xbdf7b62b	-0.12095293
211	0xbe35b106	-0.1774331
212	0x3eb49f1c	0.3527764
213	0x3d4d9a8b	0.05019621
214	0xbd7d7d60	-0.061887145
215	0xbdc60e2f	-0.09670674
216	0xbe833a78	-0.25630546
217	0x3f1f5f70	0.62255
218	0x3b5f3540	0.003405884
219	0xbe8e898a	-0.2783931
220	0xbda2ea35	-0.07954828
221	0x3dfe9d25	0.12432317
222	0x3d30546d	0.043049265
223	0x3bad2a54	0.005284587
224	0x3d8fa6a0	0.07014203
225	0x3db81a3c	0.08989379
226	0xbd978a5b	-0.07399436
227	0xbd593a4d	-0.053034116
228	0xbda21224	-0.07913616
229	0xbb8afcb7	-0.0042415517
230	0xbdf62bff	-0.1202011
231	0xbe1cb77d	-0.1530437
232	0x3dc7cad9	0.09755487
233	0x3e80cae3	0.2515479
234	0x3d00c43a	0.031437136
235	0xbd9dac2d	-0.076988555
236	0x3d8e4f53	0.06948724
237	0x3dd500a3	0.10400512
238	0x3e23d226	0.15998134
239	0x3e3b2f3d	0.18279739
240	0x3daf6985	0.08565048
241	0x3d0dad6f	0.034589227
242	0x3d73bf44	0.059508577
243	0x3d43db48	0.047816545
244	0x3cdb8fae	0.02680191
245	0xbc311e09	-0.010810384
246	0xbd066652	-0.032812424
247	0xbd8b9e73	-0.06817331
248	0xbd40c1ce	-0.047059827
249	0x3e0cda00	0.13755035
250	0x3e708632	0.23488691
251	0xbd36233f	-0.044467207
252	0xbdf21c1e	-0.11821769
253	0xbdb7d7e0	-0.08976722
254	0xbca55941	-0.020184161
255	0xbdc65fa6	-0.09686212

conv1.0.bias f4 [6]
0	0xbdd6742c	-0.10471377
1	0x3d73cb9f	0.05952036
2	0xbc453dce	-0.012038661
3	0x3f87bce6	1.0604522
4	0x3ef4335a	0.47695428
5	0x3e08267f	0.13295935

conv2.0.weight f4 [16, 6, 5, 5]
0	0x3dbaf0f9	0.09127993
1	0x3db21552	0.08695473
2	0x3d43e0df	0.047821876
3	0x3d20e9b3	0.039285373
4	0x3dfd1cdb	0.12359019
5	0x3e434cc8	0.19072258
6	0x3de02d9a	0.10946198
7	0x3e149406	0.14509591
8	0x3db5030b	0.08838471
9	0x3e0cdb2c	0.13755482
10	0x3ebc8631	0.3682113
11	0x3e85c525	0.26126972
12	0x3e85c208	0.26124597
13	0x3e23b257	0.15986
14	0x3e57316b	0.21014945
15	0x3d1c7d9f	0.03820574
16	0x3e4cd853	0.20004396
17	0x3ea2b900	0.3178177
18	0x3e25e29b	0.16199724
19	0x3e4f6f9d	0.20257421
20	0xbdae14b1	-0.0850004
21	0x3db60d98	0.088893116
22	0x3df7baae	0.12096153
23	0x3e508808	0.20364392
24	0x3e1093d3	0.1411889
25	0xbdaeb544	-0.085306674
26	0xbc90021d	-0.017579133
27	0x3cc7efd6	0.024406355
28	0x3d976993	0.073931836
29	0x3dbf1524	0.09330204
30	0xbd9b8764	-0.07594183
31	0xbde4f42f	-0.11179387
32	0xbcbccf2f	-0.023048012
33	0xbce88423	-0.02838332
34	0xbd601335	-0.054705817
35	0x3d9249be	0.071429715
36	0xbca8ecef	-0.020620791
37	0xbd42a71f	-0.04752266
38	0xbe14a650	-0.14516568
39	0xbdbb67b1	-0.09150637
40	0xbdb7a099	-0.089661784
41	0xbd8c8ee3	-0.06863191
42	0xbdb1d9ee	-0.08684145
43	0xbe14a7df	-0.14517163
44	0xbe121be2	-0.14268449
45	0xbcee89cf	-0.029118447
46	0xbdc3b246	-0.09555487
47	0xbdb2fb38	-0.087393224
48	0xbdb2c94f	-0.08729803
49	0xbdb286d5	-0.087171234
50	0x3cc0deab	0.023543676
51	0xbd9fb5ef	-0.07798373
52	0xbdb345ad	-0.08753524
53	0xbd9dd282	-0.07706167
54	0xbdb1205d	-0.08648751
55	0xbd2118dc	-0.03933035
56	0xbe14c108	-0.1452676
57	0xbe126056	-0.14294562
58	0xbdbb42b1	-0.0914358
59	0xbdb6fce0	-0.08934951
60	0xbe0e6e1a	-0.13909188
61	0xbe83e582	-0.25761038
62	0xbe526f9a	-0.20550385
63	0xbe1066bc	-0.1410169
64	0xbe18bad8	-0.14915025
65	0xbd5e8dc5	-0.05433442
66	0xbe15ac6f	-0.1461656
67	0xbe806acd	-0.25081483
68	0xbe4707e6	-0.19436607
69	0xbe2353a2	-0.15949872
70	0xbd43b457	-0.047779407
71	0xbe01bc09	-0.12669386
72	0xbe4f3292	-0.20234135
73	0xbe5663b2	-0.20936468
74	0xbe4f3204	-0.20233923
75	0xbe4cac54	-0.19987613
76	0xbe716d2a	-0.23576799
77	0xbe3c92e6	-0.18415412
78	0xbde376c5	-0.11106638
79	0xbdee26b1	-0.116284736
80	0xbbc6174d	-0.006045258
81	0xbe066573	-0.13124637
82	0xbdbacd23	-0.09121158
83	0xbe03c075	-0.12866385
84	0xbcb11763	-0.021617597
85	0x3db21ae3	0.086965345
86	0xbcef290a	-0.029194374
87	0xbda62559	-0.08112592
88	0xbbc222a8	-0.0059245415
89	0x3d0198a8	0.031639725
90	0x3e143227	0.14472257
91	0x3d7b4b44	0.061351076
92	0x3d9e0982	0.07716657
93	0x3bb3fa01	0.0054924493
94	0x3e19f2ed	0.15034075
95	0xbc228463	-0.009919259
96	0x3cec88c4	0.028873809
97	0x3db6eeff	0.08932304
98	0x3dd7b257	0.105320625
99	0x3e8522e7	0.2600319
100	0x3db172dc	0.08664486
101	0xbbe7aa76	-0.007069881
102	0x3dea1b29	0.11430962
103	0x3d2b7b0b	0.04186539
104	0xbcee11fc	-0.02906131
105	0xbc58c159	-0.013229691
106	0xbcbc927b	-0.023019066
107	0xbe160e9f	-0.14654015
108	0xbcad3233	-0.0211421
109	0xbde91fea	-0.1138304
110	0xbbdd48ca	-0.006753062
111	0x3e0d8ca6	0.13823184
112	0x3e167ceb	0.1469609
113	0x3e3fd47e	0.18733403
114	0x3cd14baa	0.025548775
115	0xbd450d36	-0.048108302
116	0x3c601910	0.01367785
117	0xbc489388	-0.012242205
118	0x3ced5762	0.028972331
119	0xbe055f1c	-0.13024563
120	0xb9eb23e7	-0.00044849442
121	0xbce463cc	-0.027879618
122	0x3a538301	0.00080685323
123	0xbd1fef37	-0.039046492
124	0xbcebfcd8	-0.028807089
125	0x3e240445	0.16017254
126	0x3e6e12fe	0.23249432
127	0x3e6e32f2	0.23261622
128	0x3e40f877	0.18844782
129	0x3d22d72c	0.039755985
130	0x3ddbc785	0.10731415
131	0x3de62d9a	0.112391666
132	0x3e363127	0.17792188
133	0x3e213729	0.15743698
134	0x3dd66c6f	0.10469901
135	0x3df3aa42	0.118977085
136	0x3da9d8c3	0.08293297
137	0x3e0fb205	0.14032753
138	0x3dfbaefa	0.122892335
139	0x3cf799fd	0.030224795
140	0x3e14b489	0.14521994
141	0x3d930b93	0.07179942
142	0x3e00ed5a	0.12590542
143	0x3e02e348	0.12782013
144	0x3d38af2d	0.045088936
145	0x3c8c1195	0.017098228
146	0x3c0b87d7	0.008516273
147	0xbdbc2d26	-0.09188299
148	0xbdcce57a	-0.10004707
149	0xbdb26bf6	-0.08711998
150	0x3e10a66e	0.14125988
151	0x3d826b60	0.063681364
152	0xbcee9feb	-0.02912899
153	0x3c81add1	0.015829952
154	0x3cd869c4	0.02641762
155	0x3e14ae32	0.14519575
156	0x3d44c728	0.048041493
157	0xbcd8b136	-0.026451688
158	0xbd200b7b	-0.03907345
159	0xbcb28d88	-0.021796003
160	0x3e2a561d	0.16634412
161	0x3d963312	0.0733396
162	0x3bf59535	0.0074945935
163	0xbdb49d16	-0.08819024
164	0x3d489c8b	0.048977416
165	0x3e14e8cb	0.14541928
166	0x3d8f8904	0.070085555
167	0x3d8ae2d4	0.06781545
168	0xbe00ddd4	-0.1258462
169	0x3b046e72	0.0020207432
170	0x3e2aed63	0.16692118
171	0x3daaafda	0.08334322
172	0xbc5ce9a7	-0.013483441
173	0xbd7041cd	-0.058656503
174	0xbd6f4e31	-0.05842418
175	0xbe1a0772	-0.15041903
176	0xbdd6b7e2	-0.104842916
177	0x3deb01d2	0.114749566
178	0x3cf40b64	0.029790588
179	0x3e22f3d6	0.15913329
180	0xbe88ff44	-0.26757252
181	0xbe5659a6	-0.20932636
182	0xbd127b8d	-0.03576236
183	0x3dafb51e	0.08579467
184	0x3db1282e	0.08650242
185	0xbe853b2e	-0.26021713
186	0xbe7d63c3	-0.24745087
187	0x3cd036c9	0.025416749
188	0x3ddaf1c5	0.10690645
189	0x3ddc68b6	0.107621595
190	0xbe631e96	-0.22179636
191	0xbe849747	-0.25896665
192	0xbdb5f11f	-0.08883881
193	0x3d90c6ad	0.070691444
194	0x3dd681a5	0.104739465
195	0xbe4d5139	-0.20050515
196	0xbe5da85e	-0.21646258
197	0x3c1c4ca9	0.009539762
198	0x3de953fa	0.113929704
199	0x3e013b0c	0.12620181
200	0xbe12d107	-0.1433755
201	0xbcd74f1b	-0.026282838
202	0x3cfe069d	0.031009013
203	0x3d4b6eaa	0.049666084
204	0x3d930b87	0.07179933
205	0xbea065cd	-0.31327668
206	0xbe54ad2f	-0.2076919
207	0x3db0b17a	0.08627601
208	0x3e04e039	0.12976159
209	0x3e0fd03b	0.14044277
210	0xbeb2862f	-0.34868
211	0xbec2a98b	-0.38019976
212	0x3e17ae89	0.14812674
213	0x3e816699	0.25273588
214	0x3e3e7ce7	0.18602334
215	0xbec867ee	-0.39141792
216	0xbed92f16	-0.42418736
217	0x3d065baf	0.03280228
218	0x3e4c6c31	0.19963147
219	0x3e0edd2f	0.13951562
220	0xbe88da21	-0.2672892
221	0xbe7c4900	-0.24637222
222	0x3e1470a7	0.14496098
223	0x3e3a8b5d	0.18217225
224	0x3e2b6c4d	0.16740532
225	0xbd975c84	-0.07390693
226	0x3ade5dde	0.001696523
227	0x3dfb49ec	0.12269959
228	0x3ce87f4b	0.02838101
229	0x3cfaabb2	0.030599449
230	0xbe094fc7	-0.13409339
231	0xbd8d6126	-0.06903295
232	0x3d838dea	0.06423552
233	0xbc7b48a3	-0.015337142
234	0xbd953cdf	-0.07287001
235	0xbdea7a83	-0.114491485
236	0x3db17c23	0.08666255
237	0x3e149357	0.1450933
238	0xbbb14456	-0.0054097576
239	0xbdb955e8	-0.090495884
240	0xbe193710	-0.14962411
241	0x3cc889a8	0.024479702
242	0x3de3509c	0.110993594
243	0x3df8182f	0.12113988
244	0xbd78ad18	-0.06071195
245	0xbe316533	-0.1732376
246	0x3da8cee6	0.08242588
247	0x3e30933e	0.17243668
248	0xbb7345ec	-0.0037120534
249	0xbdb256bb	-0.08707949
250	0xba459f69	-0.00075387076
251	0xbc37b81d	-0.01121333
252	0x3d805c4c	0.06267604
253	0x3e285d72	0.16441897
254	0x3db28bd6	0.08718078
255	0xbd776b8d	-0.060405303

conv2.0.bias f4 [16]
0	0xbe4810d5	-0.19537671
1	0x3e4780e5	0.19482763
2	0x3d8c16f7	0.06840318
3	0x3d76b04b	0.06022672
4	0xbdf53225	-0.11972455
5	0xbca386f3	-0.01996181
6	0x3ce65a12	0.02811912
7	0xbe48b714	-0.19601089
8	0x3d370443	0.0446818
9	0xbb8d9739	-0.0043210057
10	0x3d7b69ed	0.061380316
11	0xbeb96cb4	-0.36215746
12	0xbe9a7d15	-0.30173555
13	0x3e367942	0.17819694
14	0x3dde214b	0.10846194
15	0x3e4fd00c	0.20294207

fc1.0.weight f4 [120, 400]
0	0x3b6193b8	0.0034420323
1	0xbc8c9747	-0.017161978
2	0xbb2a3fba	-0.0025977925
3	0x3a90a85e	0.0011036505
4	0x3d0e216d	0.034699846
5	0x3a12cd68	0.0005600066
6	0xbd0717b9	-0.032981608
7	0xbc7c0951	-0.015383081
8	0x3d62dd1a	0.05538664
9	0x3cde177d	0.02711081
10	0x3d7633bb	0.060107928
11	0x3d374cec	0.044751093
12	0x3c052eca	0.008128831
13	0x3d38b1ab	0.045091312
14	0x3dbb1fec	0.09136948
15	0x3d99cff5	0.07510368
16	0x3d02cdca	0.031934537
17	0xbc6a122e	-0.014286561
18	0x3c78f3f3	0.015194881
19	0x3de87cf3	0.11351957
20	0x3bc4b7d3	0.006003359
21	0x3d39aa0a	0.045328178
22	0x3cd1f07e	0.02562737
23	0xbc36aab9	-0.011149102
24	0x3dcf740f	0.10129558
25	0x3d63291a	0.05545912
26	0x3d9bc140	0.07605219
27	0x3c9ff0f3	0.019524073
28	0x3c43239a	0.011910344
29	0x3d59ff75	0.05322214
30	0xbd1e237b	-0.038608056
31	0xbcc41eeb	-0.023940524
32	0x3ce2326d	0.027611936
33	0xbc8378d0	-0.016048819
34	0xbd2c3e4f	-0.04205161
35	0xbd4930f2	-0.049118944
36	0xbb13bbc9	-0.0022542349
37	0x3d6196f7	0.055075612
38	0x3d617695	0.05504473
39	0xbc5237ab	-0.012830655
40	0xbd70514e	-0.05867129
41	0xbbfc8d01	-0.0077072387
42	0x3c1f99a3	0.00974122
43	0xbc916277	-0.017747147
44	0x3c4aa495	0.012368341
45	0xbb8fff3f	-0.0043944414
46	0x3d2e698f	0.042581137
47	0x3ceb277f	0.028705357
48	0x3d75bf8a	0.05999712
49	0xbb6f0c16	-0.003647571
50	0xbd64b74f	-0.05583888
51	0xbca5b325	-0.020227024
52	0xbcd8af98	-0.026450917
53	0xbd1ba1c2	-0.03799606
54	0xbb89fcb7	-0.004211034
55	0xbd25610b	-0.04037575
56	0xbc4e4b35	-0.012591173
57	0xbd4817cc	-0.04885082
58	0xbc67a760	-0.014139026
59	0xbba7ea03	-0.005124332
60	0x3b49fcd0	0.0030820854
61	0xba66b93a	-0.00088014046
62	0xbb849b60	-0.0040468425
63	0xbc39284a	-0.01130111
64	0xbd661df7	-0.05618092
65	0x3cce6e82	0.025199179
66	0x3be426f2	0.0069626505
67	0xbce498e9	-0.027904944
68	0xbca9b0e6	-0.020714235
69	0x3ce94c9b	0.028478911
70	0xbd8f1f78	-0.06988424
71	0xbd359b84	-0.044337764
72	0xbd82091c	-0.06349394
73	0xbcf6b5a9	-0.03011592
74	0xbdd1df1e	-0.10247634
75	0x3b9ff902	0.004881979
76	0xbc7a7765	-0.015287255
77	0xbd810451	-0.062996514
78	0xbc29f03b	-0.010372217
79	0xbc5afd46	-0.013366049
80	0xbb83f740	-0.004027277
81	0x3d20f249	0.03929356
82	0x3c8fabb7	0.017537935
83	0x3c316f26	0.0108297225
84	0xbc10f1a2	-0.008846672
85	0x3d3558fb	0.04427431
86	0x3b0bfaf6	0.0021359301
87	0x3d31300d	0.043258715
88	0xbd2ed87f	-0.042686936
89	0x3d1d8011	0.03845221
90	0x3c8eb964	0.017422386
91	0x3ce862a9	0.028367357
92	0x3bae6ff4	0.0053234044
93	0xbb9ea91a	-0.004841936
94	0x3cdbc32e	0.026826467
95	0x3dd89701	0.10575677
96	0x3d500af2	0.05079169
97	0x3d6e4590	0.05817181
98	0x3dcbcbd7	0.09950989
99	0x3c9bbf88	0.019012228
100	0x3d5036d8	0.050833553
101	0x3d25e4ea	0.040501513
102	0xbcf558c9	-0.029949563
103	0x3cc8b302	0.02449942
104	0x3dc0d232	0.094150916
105	0x3dc2c4db	0.095102035
106	0x3d43b7c1	0.047782663
107	0x3cc62b8d	0.024190689
108	0x3cf7d7a3	0.03025419
109	0x3d00a606	0.031408332
110	0x3da9f738	0.08299106
111	0x3d0baf95	0.034102995
112	0x3dc4cb45	0.09609083
113	0x3cf3450a	0.029696006
114	0x3dd4ef72	0.10397233
115	0x3b7788d5	0.0037770767
116	0x3d01bf7a	0.031676747
117	0x3d3b54bc	0.045735106
118	0xbcea79d9	-0.028622555
119	0x3d705ee0	0.05868423
120	0xbd0609df	-0.032724258
121	0xbcfc8a58	-0.030827686
122	0x3cf70bb1	0.030156942
123	0x3cc6953b	0.02424108
124	0x3b7fd61a	0.0039037527
125	0xbc45f9e7	-0.012083507
126	0x3bf33edc	0.007423265
127	0xbb9f05bd	-0.004852979
128	0xbc0b63dc	-0.008507695
129	0xba7abd89	-0.0009564986
130	0x3c667890	0.01406683
131	0xbc6e675d	-0.014551011
132	0x3b252c4a	0.00252034
133	0x3c77de04	0.015128616
134	0xbd44e0ad	-0.04806583
135	0x3d0d1865	0.034447093
136	0x3d2b9cc0	0.041897535
137	0x3d6c2928	0.057656437
138	0x3da06464	0.07831648
139	0x3c411d24	0.011786733
140	0x3d8adcd6	0.06780402
141	0x3d22b978	0.039727658
142	0x3bb77a8b	0.005599325
143	0x3d95a543	0.07306912
144	0x3d3b5ca2	0.04574264
145	0x3aaab206	0.0013023026
146	0x3d76ae4a	0.06022481
147	0x3d1630c1	0.03666759
148	0xbc947f78	-0.018127188
149	0xbd339da3	-0.043851506
150	0xbd17d9da	-0.037072994
151	0xbd3689a2	-0.04456485
152	0x3c392f79	0.011302822
153	0x3d4b74f6	0.04967209
154	0x3d4aa26b	0.0494713
155	0xbd9b19ed	-0.07573304
156	0xbd8ac496	-0.06775777
157	0xbc7a0c12	-0.015261667
158	0x3c5d9093	0.013523239
159	0xbcf2ea38	-0.0296527
160	0x3c096237	0.008385233
161	0x3c25ef54	0.010127861
162	0xbd3a26eb	-0.04544727
163	0x3b775cb1	0.0037744457
164	0xbcb7642d	-0.022386635
165	0xbc8309ce	-0.015995886
166	0x3c67497d	0.014116642
167	0xbc5c4244	-0.013443533
168	0xbbd54ffc	-0.006509779
169	0x3d3abd2e	0.045590572
170	0xbcd86e8b	-0.026419898
171	0xbd917ec4	-0.07104257
172	0xbd536016	-0.051605307
173	0xbc646b83	-0.013941648
174	0x3d1e9566	0.038716696
175	0xbd06039f	-0.032718297
176	0xbc9afcd8	-0.018919393
177	0xbc86468b	-0.01639106
178	0x3bd3eca2	0.006467418
179	0x3b984d13	0.00464786
180	0xbc53b1e6	-0.012920832
181	0xbd9af2f9	-0.075658746
182	0xbc6d07cf	-0.014467194
183	0xbc6bbb55	-0.014387925
184	0x3b8ea9f6	0.004353757
185	0xbc1f0f14	-0.009708185
186	0xbd01b17d	-0.031663407
187	0x3c742bb1	0.014902995
188	0x3cb0fe2b	0.021605572
189	0xbc8352cc	-0.016030692
190	0x3cc06347	0.02348484
191	0xbc8dd620	-0.017314017
192	0x3c1acc51	0.009448127
193	0x3c5c7164	0.013454769
194	0xbc5aaa82	-0.013346316
195	0x3d67eb89	0.05662111
196	0xbacddcda	-0.0015706078
197	0x3d90e6d7	0.07075279
198	0xbbcf167b	-0.0063198186
199	0x3d9b2261	0.07574917
200	0x3ab69cb5	0.00139322
201	0xbc0acb85	-0.008471374
202	0xbc4bc72f	-0.012437626
203	0xbd8f8df7	-0.070094995
204	0xbd3a6bfb	-0.045513134
205	0x3d9a6e1e	0.075405344
206	0x3c0413df	0.008061378
207	0xba2cf562	-0.0006597844
208	0xbc99924b	-0.018746516
209	0x3d2df95f	0.042474147
210	0x3db3e18a	0.087832525
211	0xbbb2a127	-0.0054513398
212	0x3c66de42	0.014091076
213	0xbca6feb1	-0.020385118
214	0x3dfe7032	0.12423743
215	0x3d9e5978	0.077319086
216	0xbc64ba0e	-0.0139603745
217	0xbc6bc694	-0.014390606
218	0xbc5aaa09	-0.013346204
219	0x3dfd8f35	0.1238083
220	0x3ddaf51a	0.10691281
221	0x3cde2244	0.027115948
222	0x3caf438d	0.021394515
223	0xbc0f47b8	-0.008745126
224	0x3d088037	0.0333254
225	0xbc6d8b47	-0.014498538
226	0x3c826c2a	0.015920717
227	0xbc49297e	-0.012277959
228	0xbcbdcfd7	-0.023170395
229	0xbcd1a52f	-0.025591461
230	0xbca021ff	-0.01954746
231	0xbc7d86c0	-0.015474021
232	0xbd5ccb83	-0.05390502
233	0x3b28ca44	0.0025755325
234	0x3cab0a02	0.020878796
235	0xbd2c56cc	-0.042074963
236	0xbd39d70a	-0.045371093
237	0xbc8840ac	-0.0166324
238	0xbd144598	-0.036199182
239	0xbd385904	-0.045006767
240	0xbd06dff0	-0.032928407
241	0xbc93455e	-0.017977413
242	0xbd32ac21	-0.043621186
243	0x3d303948	0.043023378
244	0xbc05e4bc	-0.00817221
245	0xbdae0369	-0.08496744
246	0xbdcde879	-0.10054106
247	0xbdd48f9d	-0.103789546
248	0xbdc96300	-0.09833336
249	0xbe0260b1	-0.12732197
250	0xbd2f064d	-0.04273062
251	0x3c7620d6	0.015022477
252	0x3bcf50ed	0.006326786
253	0x3cf622b4	0.030045845
254	0x3cb2fa1f	0.021847783
255	0xbbbd2c35	-0.005773092

fc1.0.bias f4 [120]
0	0xbd92abbe	-0.071616635
1	0x3d257516	0.040394865
2	0x3c0d1129	0.008610048
3	0x3d13f04f	0.036117848
4	0xbbb0a352	-0.005390563
5	0xbc3b8a19	-0.011446499
6	0x3c9d3af2	0.019193146
7	0xbb7994f8	-0.0038083177
8	0x3d006de7	0.03135481
9	0x3d36e309	0.04465011
10	0xbc94535f	-0.01810616
11	0xbab4a8c2	-0.0013783204
12	0x3c912364	0.01771707
13	0x3d2de85a	0.042457916
14	0xbd00b73e	-0.031424753
15	0x3d25c803	0.04047395
16	0xbd283dc9	-0.041074548
17	0xbbddda85	-0.0067704343
18	0xbce07f9e	-0.027404603
19	0xbd3c44da	-0.0459641
20	0xbbfced62	-0.007718728
21	0xba9b6a27	-0.0011857197
22	0x3d0c11eb	0.034196775
23	0x3d19cb5b	0.03754745
24	0xba3d9cde	-0.0007233153
25	0x3ce31f33	0.027724838
26	0xbd1ef03a	-0.038803317
27	0x3a11ec97	0.00055665657
28	0xbcf1230f	-0.029435663
29	0x3c5e0022	0.013549836
30	0xbd44efc8	-0.048080236
31	0xbd73f959	-0.05956397
32	0xbcfa8102	-0.030579094
33	0xbcbd2e7e	-0.023093458
34	0xbb96e6c1	-0.0046051447
35	0x3acb83eb	0.0015526986
36	0x3be89038	0.0070972703
37	0xbd59542c	-0.05305879
38	0x3c322d12	0.010875003
39	0xba371e8b	-0.0006985447
40	0x3d7c2991	0.06156308
41	0x3d729d6a	0.059232153
42	0xbc661494	-0.014042992
43	0x3d1a972d	0.03774183
44	0xbcb3c56b	-0.021944722
45	0xbd021d66	-0.031766318
46	0xbcd7f861	-0.026363553
47	0xbd1c6f89	-0.038192306
48	0x3c6e1bfd	0.01453304
49	0x3c42106b	0.011844735
50	0x3d79a9e9	0.060953055
51	0x3b83aad4	0.004018167
52	0xbc40d587	-0.011769659
53	0xbcb6a9ba	-0.022297729
54	0x3b25aa48	0.0025278497
55	0x3cc9185a	0.024547745
56	0xbc34a918	-0.011026643
57	0xbc4689da	-0.012117827
58	0xbb53443c	-0.0032236716
59	0x3d0125ab	0.031530064
60	0x3d46c723	0.048529755
61	0xbd1ebb40	-0.038752794
62	0x3c864fe7	0.016395522
63	0x3b8e9ecc	0.004352426
64	0x3d17c0f1	0.037049238
65	0x3cf0803d	0.029358024
66	0x3d242b8b	0.04008059
67	0x3c7b4593	0.015336412
68	0x3d8879ae	0.066638336
69	0x3ce05930	0.027386278
70	0x3d9676a7	0.0734685
71	0xbc871bc2	-0.016492728
72	0xbcc21bac	-0.023694836
73	0xbc7c0ab1	-0.015383408
74	0xbdc92326	-0.09821157
75	0xbd5e1265	-0.05421676
76	0xb961ae17	-0.00021522526
77	0xbd1f3e6a	-0.038877882
78	0xbd1c9269	-0.038225565
79	0xbd6111d9	-0.05494866
80	0x3d61f203	0.05516244
81	0x3c078653	0.0082717715
82	0x3d0b04d0	0.033940136
83	0x3d19b458	0.037525505
84	0xbb7c86d9	-0.0038532524
85	0x3c69ea18	0.014277004
86	0x3cc9abab	0.02461799
87	0xbce59e8f	-0.028029708
88	0x3bac55d5	0.0052592554
89	0xbc97b1af	-0.018517343
90	0xbd43afe7	-0.047775175
91	0x3ca09f07	0.01960708
92	0x3cbe089e	0.023197468
93	0x3d94aeb5	0.07259885
94	0xbd61794a	-0.05504731
95	0x3d7aef3a	0.0612633
96	0xbd23fa82	-0.040033825
97	0x3bf3ad7e	0.0074364534
98	0xbcdc8db9	-0.026923047
99	0x3cc6bf0d	0.024261022
100	0x3d23c5c2	0.03998352
101	0xbcdeaeca	-0.027182955
102	0x3cc05508	0.023478046
103	0xbd45b513	-0.04826839
104	0x3d1f2f22	0.03886331
105	0xbaa99212	-0.0012937209
106	0xbd5d53ab	-0.05403487
107	0xbcba23a6	-0.022722077
108	0x3d0d04ef	0.034428533
109	0x3cf26257	0.029587908
110	0x3bba6f36	0.005689527
111	0x3bb0a970	0.0053912923
112	0x3d9a29c2	0.07527496
113	0x3c6df85e	0.014524547
114	0x3d3094bd	0.043110598
115	0x3c0cbf66	0.008590555
116	0xbd4b79f8	-0.049676865
117	0x3b2fec78	0.0026843827
118	0x3d3e1aca	0.046412267
119	0x3c7be70a	0.015374908

fc2.0.weight f4 [84, 120]
0	0x3e09cb12	0.13456371
1	0xbd2fdbd6	-0.04293426
2	0xbd4a083a	-0.04932425
3	0x3c933208	0.017968193
4	0x3dc23a83	0.094838165
5	0x3de32140	0.11090326
6	0x3cdb3264	0.026757427
7	0x3d49977a	0.049216725
8	0x3d5eb92a	0.054375805
9	0xbe2c03fb	-0.16798393
10	0x3c793201	0.015209676
11	0x3d2dd923	0.042443406
12	0xbd6efef3	-0.058348607
13	0xbd6491b5	-0.05580302
14	0xbdbbba3f	-0.09166383
15	0xbe224996	-0.15848383
16	0x3e27b1a2	0.16376355
17	0x3c8b32f1	0.016992064
18	0x3d2db2b0	0.042406738
19	0x3b4bdc5d	0.0031106689
20	0xbcd2582d	-0.025676811
21	0xbdbdb755	-0.092634834
22	0x3c9c54d0	0.01908341
23	0x3dca2de0	0.09872031
24	0xbcad7446	-0.021173608
25	0xbe187647	-0.14888869
26	0xbdcc8201	-0.09985734
27	0x3d434c5f	0.047680255
28	0x3c79fff3	0.015258777
29	0xbe06c663	-0.13161616
30	0xbbbe94a2	-0.0058160583
31	0xbbeeb86a	-0.0072851675
32	0x3d868f88	0.06570345
33	0xbd6b049c	-0.057377443
34	0x3cc3084b	0.023807665
35	0x3d672b75	0.05643793
36	0xbd663dc9	-0.056211267
37	0x3d64ff6e	0.05590766
38	0x3d97d9ce	0.0741459
39	0xbd36aeb7	-0.044600215
40	0xbd61f446	-0.055164598
41	0xbe1b673c	-0.151761
42	0x3c89a6c4	0.016803153
43	0xbdcff4b9	-0.10154099
44	0x3db6dde8	0.08929044
45	0xbdd0a7a0	-0.10188222
46	0xbd9882e2	-0.07446839
47	0xbcfcbba0	-0.030851185
48	0x3d0e30c5	0.03471448
49	0xbc85ea47	-0.016347064
50	0xbd494a79	-0.04914329
51	0xbd02a81d	-0.031898607
52	0xbd5db3c6	-0.054126523
53	0xbe02dbe3	-0.12779193
54	0xbda840fa	-0.08215518
55	0x3d6101a9	0.054933224
56	0x3d7fdb56	0.062465034
57	0x3e42e66a	0.19033208
58	0xbd7a79e8	-0.061151415
59	0xbd0420c3	-0.032257807
60	0x3defb436	0.117042944
61	0xbb858f56	-0.004075925
62	0xbd07ed39	-0.033185218
63	0x3d8d4e2e	0.06899677
64	0xbd549973	-0.051904153
65	0x3d01214a	0.031525888
66	0x3b870014	0.0041198824
67	0x3c5bf13a	0.013424212
68	0xbd0a3b9c	-0.033748254
69	0xbd1b3e3d	-0.037901152
70	0xbdc14f62	-0.09438969
71	0xbdbfefe8	-0.0937193
72	0xbcff4878	-0.031162485
73	0x3e36ec49	0.17863573
74	0x3cd1024f	0.025513796
75	0x3d9f7145	0.07785276
76	0x3da33264	0.079685956
77	0x3d65f9cc	0.056146428
78	0x3dbe53ad	0.09293304
79	0x3d660a39	0.056162093
80	0xbd297408	-0.04137042
81	0xbc9aa583	-0.01887775
82	0x3e0c2749	0.13686861
83	0x3dd0bae6	0.10191898
84	0xbdc1c02a	-0.094604805
85	0x3e16960f	0.1470568
86	0xbe15ad5e	-0.14616916
87	0xbd826e33	-0.06368675
88	0xbc7ba2a0	-0.015358597
89	0xbcc9dc9d	-0.02464133
90	0xbd629e4d	-0.05532675
91	0xbd8c2549	-0.06843049
92	0xbda6d95f	-0.08146929
93	0xbcf02e29	-0.029318886
94	0xbde8b5cd	-0.11362801
95	0x3e06a7d6	0.13149962
96	0x3e083599	0.13301696
97	0x3da17dfe	0.07885359
98	0xbe1835a7	-0.14864217
99	0x3c858b9a	0.016301919
100	0xbda69a39	-0.081348844
101	0xbdbc750a	-0.09202011
102	0x3dbde073	0.09271326
103	0x3d864a16	0.065570995
104	0x3d66ca7b	0.056345444
105	0xbdc1b5ab	-0.094584785
106	0x3d9a761b	0.07542058
107	0xbd603726	-0.054740094
108	0xbd9625ec	-0.07331452
109	0x3daa60c2	0.08319236
110	0x3d05dd00	0.032681465
111	0x3e3601c8	0.17774117
112	0x3d016b68	0.03159657
113	0xbe138667	-0.14406739
114	0xbcf95324	-0.030435152
115	0x3d3b266c	0.04569094
116	0x3d9bac07	0.07601171
117	0x3cc4773d	0.023982638
118	0x3c7ecaac	0.01555125
119	0x3d047e62	0.03234709
120	0xbe151a28	-0.14560759
121	0xbcded8a3	-0.02720291
122	0x3d04c3c0	0.032413244
123	0x3a8a0696	0.0010530527
124	0x3db96fca	0.09054525
125	0xbdc63440	-0.09677935
126	0x3db7b39a	0.08969803
127	0x3d198ec2	0.03748966
128	0xbdc18f54	-0.09451166
129	0xbcaf15d8	-0.02137272
130	0x3b3763b0	0.0027983002
131	0xbd3df60e	-0.046377234
132	0xbe38913b	-0.18024151
133	0x3d6d06b6	0.05786773
134	0xbd949e42	-0.07256748
135	0x3c89a9f4	0.016804673
136	0xbdc7806f	-0.09741294
137	0x3dbeb0c9	0.09311063
138	0x3d5ba7b0	0.053626716
139	0xbd57f4f7	-0.05272385
140	0x3d214d07	0.0393801
141	0xbc99bd5f	-0.018767057
142	0xbe2ccb42	-0.16874412
143	0x3d943059	0.07235784
144	0xbc998217	-0.01873879
145	0xbb71cbe9	-0.0036895222
146	0xbc634d06	-0.013873344
147	0xbdc09700	-0.09403801
148	0xbd7f8cd2	-0.062390156
149	0x3e1f3495	0.15547402
150	0xbd656652	-0.056005783
151	0xbe247d3d	-0.160634
152	0xbd2fcfe5	-0.042922873
153	0xbddaeb61	-0.10689426
154	0x3d325246	0.043535493
155	0x3d424c0e	0.047435813
156	0x3cf16fcd	0.029472256
157	0xbd2dbc9d	-0.042416204
158	0x3d03315e	0.032029502
159	0x3befbcbc	0.0073162
160	0x396886ef	0.00022175511
161	0x3dbb4183	0.09143355
162	0xbdb76373	-0.08954515
163	0x3dbf03bd	0.09326885
164	0xbdd30738	-0.10304111
165	0xbdf239fc	-0.11827466
166	0x3d65cd55	0.056104023
167	0x3ca069fb	0.019581785
168	0xbe2caa27	-0.16861783
169	0x3d50f85f	0.051018115
170	0xbc54782d	-0.012968105
171	0x3d345c0d	0.0440331
172	0xbc98b012	-0.018638644
173	0x3e08c91e	0.1335797
174	0x3d8fbeac	0.0701879
175	0x3d9c717f	0.07638835
176	0xbca195a7	-0.01972468
177	0x3d0f3f24	0.034972325
178	0xbd9a550c	-0.07535753
179	0xbd8c963b	-0.06864592
180	0xbcd6117d	-0.026131386
181	0x3d463ed4	0.04839976
182	0x3cde1634	0.027110197
183	0xbd21daee	-0.03951543
184	0xbd4edc2c	-0.05050294
185	0x3d109335	0.035296638
186	0x3ba650aa	0.005075534
187	0x3d809b4f	0.06279623
188	0x3d53434d	0.051577855
189	0xbdac4179	-0.084109254
190	0xbd35239b	-0.04422341
191	0xbe11f67f	-0.14254187
192	0x3cfa84a8	0.030580834
193	0xbd80a9fe	-0.062824234
194	0xbe2a168e	-0.16610166
195	0xbd23546f	-0.039875444
196	0x3dfe4ab9	0.12416596
197	0xbc09a826	-0.008401906
198	0x3c9839bc	0.018582217
199	0xbb4f31d7	-0.00316154
200	0x3e2996ab	0.16561382
201	0x3d6114a7	0.054951336
202	0xbd4e9273	-0.050432634
203	0x3c4a6fa3	0.012355718
204	0x39960892	0.00028616615
205	0xbb2bdc76	-0.0026223934
206	0x3ce5f230	0.028069586
207	0xbd7a67b4	-0.061134055
208	0x3e07ac5d	0.13249345
209	0x3cb56bff	0.022146223
210	0x3dc03061	0.093842275
211	0x3d659265	0.056047816
212	0xbd667b59	-0.056269977
213	0xbce50404	-0.027956016
214	0xbdb925af	-0.09040391
215	0xbca39cb8	-0.01997219
216	0x3bc55766	0.0060223816
217	0xbb81076c	-0.0039376523
218	0xbdad7e55	-0.084713615
219	0x3be6c6bf	0.0070427353
220	0x3dca47a4	0.098769456
221	0x3c2f89f1	0.01071404
222	0x3d83a8a9	0.06428654
223	0xbd1363af	-0.035983738
224	0x3d60e6d6	0.054907642
225	0xbd2073e8	-0.039173037
226	0x3ca88469	0.02057095
227	0x3d683a7c	0.0566964
228	0xbcd22881	-0.02565408
229	0xbd4b7893	-0.049675535
230	0xbd0889b3	-0.033334445
231	0xbd7fa826	-0.06241622
232	0xbd471f28	-0.048613697
233	0xbd65d1cd	-0.056108285
234	0x3b90f964	0.004424261
235	0x3d11f958	0.035638183
236	0xbd084535	-0.033269126
237	0xbcd3c48a	-0.025850553
238	0x3e826c60	0.2547331
239	0xbdb4d7c7	-0.08830219
240	0xbdad39b2	-0.0845827
241	0x3c96c506	0.018404495
242	0x3ba42bd4	0.0050101075
243	0x3d6cf622	0.057851918
244	0xbd60b046	-0.054855607
245	0xbd72fb44	-0.059321657
246	0xbd9fbbfa	-0.077995256
247	0x3dd0d68f	0.10197174
248	0x3d6a1b4a	0.05715493
249	0xbcbf6213	-0.023362195
250	0xbd2b1720	-0.0417701
251	0x3cd0b626	0.02547748
252	0x3c1baa84	0.009501103
253	0x3db06105	0.08612255
254	0x3d8eb756	0.06968562
255	0xbd3062a9	-0.04306284

fc2.0.bias f4 [84]
0	0x3d7bcf6a	0.061477102
1	0x3df8a254	0.12140337
2	0x3b3269eb	0.0027223777
3	0x3d4b990b	0.0497065
4	0xbdb52212	-0.08844389
5	0xbd1f3605	-0.038869876
6	0x3df4210f	0.11920368
7	0x3d839586	0.06425004
8	0xbd745e45	-0.059660215
9	0x3d1636a7	0.036673214
10	0x3e23cb38	0.1599549
11	0x3c73b589	0.014874824
12	0x3d73f7bb	0.059562426
13	0x3b8b9e1b	0.004260791
14	0xbc040eb6	-0.008060148
15	0x3d4142d1	0.04718286
16	0xbd5971b4	-0.05308695
17	0x3d5460de	0.051850192
18	0xbcae2e34	-0.021262266
19	0xbd6f87cd	-0.05847912
20	0x3df75436	0.12076609
21	0x3df686dd	0.12037442
22	0x3d8aa412	0.06769575
23	0x3d8726cd	0.065991975
24	0xbd901791	-0.07035745
25	0x3dd052c8	0.10172039
26	0x3dcc5862	0.09977795
27	0x3d428894	0.047493532
28	0xbd4e2103	-0.05032445
29	0x3d090137	0.033448424
30	0x3d9c72ae	0.07639061
31	0x3d5dbf94	0.05413778
32	0xbdc1528e	-0.09439574
33	0x3d93422b	0.07190355
34	0x3cc83167	0.02443762
35	0x3d9822fe	0.07428549
36	0x3d2d46f1	0.042303983
37	0x3d65dff4	0.05612178
38	0x3d62cf04	0.055373207
39	0x3db588ad	0.088639595
40	0x3e089e9e	0.13341758
41	0x3daaa88f	0.08332931
42	0x3d8c0b86	0.068381354
43	0xbc4b7277	-0.012417427
44	0x3dc261d8	0.094913185
45	0xbdbad5e2	-0.09122826
46	0x3d84d347	0.064856105
47	0xbdac5670	-0.08414924
48	0xbd90ce8c	-0.07070646
49	0x3db4a6ac	0.08820853
50	0x3da29d2e	0.07940136
51	0x3dab4e7a	0.083645776
52	0xbd9a9899	-0.07548637
53	0x3d84db36	0.06487124
54	0xbd5590db	-0.052140098
55	0x3d3bc702	0.045844086
56	0xbbf65c76	-0.0075183464
57	0xbd38e4fc	-0.04514025
58	0xbc0eb1ec	-0.008709412
59	0xbbeb21c2	-0.007175655
60	0xbd7e9713	-0.062155794
61	0xbd9122ea	-0.070867375
62	0xbd72849f	-0.05920851
63	0xbd6c97ab	-0.05776183
64	0x3d095aa5	0.03353371
65	0x3b8cc3f7	0.004295822
66	0xbc0f3cd8	-0.008742534
67	0x3df3f6c2	0.119123
68	0x3c94f272	0.018182013
69	0xbd524c0f	-0.051342066
70	0x3d600ac3	0.054697763
71	0xbce466e3	-0.027881091
72	0x3d1dc4c6	0.038517736
73	0xbd9c177e	-0.07621668
74	0xbd308814	-0.043098524
75	0x3ba6305e	0.005071684
76	0x3cd6d21a	0.026223231
77	0x3ddfac95	0.10921589
78	0x3d5312a4	0.05153145
79	0xbd06714d	-0.032822896
80	0x3d512ff5	0.051071126
81	0xbd51af5a	-0.05119262
82	0xbccfdc1b	-0.02537351
83	0xbb8e1cbd	-0.004336922

fc3.weight f4 [10, 84]
0	0xbe359bec	-0.1773526
1	0x3dc2946a	0.09500964
2	0xbd6b9318	-0.057513326
3	0xbe5f4044	-0.21801859
4	0x3d47f6dc	0.048819408
5	0x3b6c557a	0.003606169
6	0xbceb1649	-0.02869715
7	0x3ccae4c0	0.02476728
8	0x3d1682db	0.036745887
9	0x3cc90a0f	0.02454093
10	0xbda82182	-0.08209516
11	0x3e1230de	0.14276454
12	0xbb82f96c	-0.0039970186
13	0x3e2a6b22	0.1664243
14	0xbd60ef64	-0.0549158
15	0xbdc1420a	-0.09436424
16	0xbe10106e	-0.14068767
17	0x3d36989f	0.044579145
18	0xbced5f8f	-0.02897623
19	0x3e45c10d	0.19311924
20	0x3d01d90b	0.03170113
21	0xbe5cf079	-0.21576108
22	0x3e69f561	0.22847511
23	0xbd157b94	-0.036494806
24	0x3c8792f7	0.01654957
25	0x3e0eb64f	0.13936733
26	0x3d14e1f1	0.036348287
27	0x3d3a82e0	0.04553497
28	0xbd0f9101	-0.035050396
29	0xbdb27424	-0.08713558
30	0xbe6813d9	-0.22663821
31	0xbe130863	-0.14358668
32	0x3d44070b	0.04785828
33	0xbe6033de	-0.21894786
34	0x3e2ffbac	0.17185849
35	0xbd2c4db4	-0.04206629
36	0x3e22cdda	0.15898839
37	0x3e211fca	0.15734783
38	0xbd7d548f	-0.06184822
39	0xbe085469	-0.1331345
40	0xbd94ffd1	-0.072753556
41	0xbdc03afb	-0.0938625
42	0x3c8a8695	0.016909877
43	0x3d7a3744	0.06108786
44	0x3dc43088	0.09579569
45	0x3e001879	0.12509336
46	0xbe823e16	-0.25437993
47	0xbdd13d1a	-0.10216732
48	0xbdbd1724	-0.09232929
49	0x3de0323c	0.109470814
50	0xbd743503	-0.05962087
51	0x3e0e49b1	0.13895299
52	0xbcc8c21a	-0.024506617
53	0x3b81c9d6	0.0039608283
54	0xbdb400e0	-0.087892294
55	0x3db4671d	0.0880873
56	0xbc196725	-0.0093629705
57	0x3d290748	0.04126671
58	0x3e00b1ee	0.12567875
59	0x3ebb2cac	0.3655752
60	0x3e1655e8	0.14681208
61	0xbc5cb980	-0.013471961
62	0xbbd32002	-0.0064430246
63	0x3ddc23b2	0.10748996
64	0xbe139286	-0.14411363
65	0xbdbcda7b	-0.09221359
66	0x3dc67fab	0.096923195
67	0x3da129b3	0.078692816
68	0xbd6357fc	-0.05550383
69	0xbdd2dc63	-0.10295942
70	0xbcb5f034	-0.022209264
71	0xbe193155	-0.14960225
72	0x3e79fcdf	0.24412869
73	0x3da7f502	0.082010284
74	0x3ce0a20f	0.027421026
75	0x3d85116e	0.06497465
76	0xbd09a798	-0.033607095
77	0xbe3db975	-0.18527777
78	0x3a549de6	0.0008110687
79	0x3debbc25	0.11510495
80	0x3e7b483d	0.24539275
81	0x3d6b44de	0.057438724
82	0x3d9e280c	0.07722482
83	0xbe2f883b	-0.17141812
84	0x3e471a49	0.1944362
85	0x3dfe75ec	0.124248356
86	0x3d707043	0.05870081
87	0x3dca11a7	0.09866648
88	0xbc93fd68	-0.01806517
89	0x3da1bbc6	0.07897143
90	0xbcd803a7	-0.02636893
91	0xbe2958a3	-0.16537718
92	0x3d518b3d	0.05115818
93	0xbe473c05	-0.1945649
94	0xbe96e6f1	-0.2947307
95	0xbd5d304f	-0.05400115
96	0xbe210c96	-0.15727457
97	0xbb9491cc	-0.004533982
98	0x3dfa983e	0.12236069
99	0xbd776186	-0.06039574
100	0x3d2ace91	0.041700903
101	0xbe7a2997	-0.24429928
102	0xbe7da5ed	-0.24770327
103	0x3de9a00c	0.1140748
104	0xbe1ef091	-0.15521456
105	0xbe0cc0fb	-0.13745491
106	0xbe9e5594	-0.30924666
107	0xbd6c34bb	-0.057667475
108	0x3d868f30	0.065702796
109	0xbe4422e3	-0.19153933
110	0x3e3f6b42	0.1869326
111	0x3debb4a7	0.11509066
112	0xbe55f2ee	-0.20893452
113	0x3e539607	0.206627
114	0x3db29b0e	0.087209806
115	0xbdad899d	-0.08473513
116	0x3e3a883a	0.18216029
117	0xbdfff2bf	-0.12497472
118	0x3e36a874	0.17837697
119	0x3e1edcc0	0.15513897
120	0x3e64961b	0.22322886
121	0xbd18d579	-0.03731296
122	0xbd5e1142	-0.054215677
123	0xbe34fd80	-0.17674828
124	0xbe52949a	-0.205645
125	0x3d936c53	0.071983956
126	0x3e1a777b	0.1508464
127	0x3cbc3fbf	0.022979615
128	0xbe452ccf	-0.19255374
129	0xbe443bea	-0.1916348
130	0x3db9ce02	0.09072496
131	0x3a9696f3	0.0011489078
132	0xbcefaa4b	-0.029256007
133	0xbda59677	-0.080853395
134	0xbd4755c2	-0.04866577
135	0xbde16c7f	-0.11007022
136	0x3cd3f144	0.02587188
137	0xbcfe6b2f	-0.031056968
138	0xbd3f539b	-0.04671059
139	0x3da7db5b	0.081961356
140	0xbdae69ca	-0.085162714
141	0x3e1ecd19	0.15507926
142	0x3e4622d5	0.19349225
143	0xbe0289d5	-0.12747891
144	0xbd042dec	-0.032270357
145	0xbd1c07d2	-0.038093396
146	0xbe286597	-0.16445003
147	0xbe08e148	-0.13367188
148	0x3e9ba365	0.30398098
149	0xbe0e76f7	-0.13912569
150	0x3c9ddac6	0.019269358
151	0xbc6c19c5	-0.014410441
152	0xbce587a5	-0.028018782
153	0x3d37c257	0.04486307
154	0xbc1d85b7	-0.0096144
155	0xbd376c66	-0.04478111
156	0x3e16a879	0.14712705
157	0xbe025ac5	-0.12729938
158	0x3dc7311f	0.09726166
159	0x3ced33f7	0.028955443
160	0xbbb2fa90	-0.0054619983
161	0xbd3b0e86	-0.045668148
162	0x3da5e4e4	0.08100298
163	0x3e1b92e1	0.15192749
164	0xbdff1eb3	-0.12457027
165	0x3e7edd4e	0.24889109
166	0xbd9a8d5a	-0.07546492
167	0x3e61f955	0.22067769
168	0xbdf2652d	-0.11835704
169	0x3e1f03dd	0.15528817
170	0x3dbeae6a	0.093106106
171	0xbe12b914	-0.14328414
172	0xbd8f1078	-0.06985563
173	0x3acd913c	0.0015683542
174	0x3e9bbbb3	0.3041664
175	0xbd9d8203	-0.076908134
176	0x3dcbabd7	0.09944885
177	0xbc9af9d3	-0.018917954
178	0x3eae6e69	0.3406861
179	0x3d8d5388	0.06900698
180	0x3cefdced	0.02928015
181	0x3d849056	0.064728424
182	0xbc857b25	-0.016294071
183	0xbd5aef78	-0.05345103
184	0xbd7572c9	-0.05992392
185	0x3e080e8c	0.13286799
186	0xbd2a6610	-0.04160124
187	0x3e6eeb89	0.23332037
188	0x3e8a413b	0.27002892
189	0x3d4a44ba	0.04938195
190	0x3e149273	0.14508991
191	0xbda4e415	-0.08051316
192	0x3c634f97	0.013873956
193	0xbd274a66	-0.040842436
194	0xbdd55122	-0.104158655
195	0x3df590ee	0.11990534
196	0x3e0a9d38	0.13536537
197	0xbe46624b	-0.19373433
198	0x3d4574d2	0.04820711
199	0x3d41b651	0.04729301
200	0xbdc5e9d0	-0.09663737
201	0x3e1b1bc3	0.15147309
202	0xbe5d6de7	-0.21623956
203	0xbcb8d66c	-0.022563182
204	0x3c76643c	0.015038546
205	0x3d156e1d	0.036481965
206	0x3db3a713	0.08772101
207	0xbda2093f	-0.0791192
208	0xbe1fa372	-0.15589693
209	0xbdbb928e	-0.091588125
210	0xbb4387d4	-0.0029835599
211	0x3ce34d85	0.027746925
212	0x3e803650	0.25041437
213	0x3d36e6e9	0.044653807
214	0xbd60e862	-0.054909118
215	0xbbec10fb	-0.0072041727
216	0xbcbe7c60	-0.023252666
217	0xbdbc35b0	-0.091899276
218	0x3d8d77d6	0.069076225
219	0xbdb26577	-0.08710759
220	0xbe1f8aa6	-0.15580234
221	0x3ded085d	0.11573861
222	0x3d258621	0.04041112
223	0x3d9acc5a	0.07558508
224	0x3d27cf58	0.040969223
225	0xbdbed0c6	-0.09317164
226	0xbe67bdc1	-0.22630979
227	0xbd37809f	-0.044800397
228	0x3e8a52e4	0.27016366
229	0x3c11534d	0.008869958
230	0x3e1d735c	0.15376037
231	0xbd9ad3be	-0.07559918
232	0x3e032c68	0.12809908
233	0xbbc0330e	-0.005865461
234	0x3e45e5a5	0.19325884
235	0x3cab91d6	0.020943563
236	0xbdb50fd2	-0.08840908
237	0x3dc8e092	0.098084584
238	0x3e9b7989	0.3036616
239	0x3dfe2021	0.12408472
240	0xbcadbbb7	-0.021207673
241	0xbd191c02	-0.037380226
242	0xbdc94679	-0.09827895
243	0x3dc46304	0.09589198
244	0x3dae60d3	0.085145615
245	0x3e26bbda	0.16282597
246	0x3e1393fd	0.14411922
247	0x3af05ded	0.0018338539
248	0xbd34c8bc	-0.044136748
249	0xbd3e184e	-0.046409898
250	0xbb660003	-0.0035095222
251	0xbcfadc81	-0.030622723
252	0x3d84ad7c	0.06478402
253	0xbddbca48	-0.107319415
254	0xbd1d4e5e	-0.038404815
255	0xbd02dad4	-0.031946972

fc3.bias f4 [10]
0	0xbdaf6105	-0.08563427
1	0xbdf29a4a	-0.118458346
2	0x3e2d66b6	0.16933712
3	0xbb0b8f2a	-0.002129505
4	0x3e294508	0.1653024
5	0xbd4cf330	-0.05003661
6	0x3dccf571	0.10007752
7	0x3bdf163c	0.0068080705
8	0xbc03950d	-0.008031142
9	0xbe35ee6a	-0.17766729
