checkpoint/LeNet5_relu_quantized_4_bits.ckpt (torch, 274247 bytes, 19 tensors)

conv1.0.weight f4 [6, 3, 5, 5]
000000 18 ba 80 3d ab f9 95 3c 8c 58 25 3d 61 0d af bd
       0.062854946 0.018307528 0.040367648 -0.08547474
000010 a3 dd ae bd 4c b5 dd bd d2 1a 30 bd 51 97 79 3d
       -0.085383676 -0.10825595 -0.042994328 0.060935322
000020 14 c1 9a bd 44 e3 dc 3d 8e 6d 54 bd 70 08 57 bd
       -0.07556358 0.10785535 -0.051862292 -0.05249828
000030 af 8b c9 bd de 7b e5 bc 27 e3 b3 bd 61 de 8f 3d
       -0.09841096 -0.028013166 -0.0878356 0.07024837
000040 2e 9b bf 3d 47 d0 48 3d 48 4a 84 bd 54 71 81 3d
       0.0935577 0.049026754 -0.064594805 0.06320444
000050 ec b6 da bd 48 c1 bf bd 4b 4b df 3c b6 4d 8a 3d
       -0.10679421 -0.09363037 0.027257582 0.067531034
000060 88 f3 a0 3d ab ad ca bc df e3 1b bc c5 96 02 3d
       0.0785895 -0.024741014 -0.009514778 0.031882066
000070 b0 a9 4e bd 4a 02 d9 3d cb 7a 83 bd ff d9 78 3d
       -0.050454795 0.1059614 -0.06419905 0.060754772
000080 0e d0 ef 3c 61 fc cc 3d b8 d2 28 3d 8f 23 50 3d
       0.029274013 0.10009075 0.041216582 0.05081516
000090 cb 81 84 3d d3 bc b6 3d aa 8b 80 bd 17 73 a9 3d
       0.064700685 0.08922734 -0.06276639 0.08273905
0000a0 27 e1 a9 bd e8 45 0c bc 53 91 8f 3d 4d 2d 82 3d
       -0.082948975 -0.008561589 0.0701014 0.06356297
0000b0 2f 5b 08 3d 26 2a aa ba 8a 90 1c 3d 19 f2 0d bd
       0.033290084 -0.0012982532 0.03822378 -0.03465471
0000c0 79 6e 48 bd 9b 1a 7a bc 4d 82 58 3d 85 40 c6 3d
       -0.04893348 -0.015265132 0.05285864 0.09680275
0000d0 5a 94 8a 3c 9d 2f 28 3d 3c ff 42 3c b1 42 be 3c
       0.016916443 0.041061033 0.011901673 0.02322516
0000e0 45 a9 44 3d ea 57 82 bd 3a 3f cf bd 46 21 f7 3d
       0.04801299 -0.063644245 -0.101194814 0.12066893
0000f0 09 55 20 3d fc 43 39 bd 74 0a d5 bb 3a 9e d8 3d
       0.039143596 -0.04523085 -0.0065014903 0.10577054
000100 11 36 d5 bd bd cb 4d bd 35 c4 be bd 70 f4 09 bd
       -0.10410703 -0.050243128 -0.09314767 -0.03368038
000110 78 d5 07 bd c7 58 df bc df e2 1e 3d ec 72 e1 bd
       -0.033162564 -0.027264012 0.03879058 -0.11008248
000120 ba 80 5c bd 95 f8 de 3d 68 ea 34 3d be b5 46 3d
       -0.0538337 0.10887257 0.04416886 0.048513167
000130 78 47 78 3b ec f0 91 bd 5f c1 ba 3d ad 7d 8f bd
       0.0037884396 -0.0712603 0.09118914 -0.07006393
000140 e1 f7 53 3c cc 09 ef bd 4e 2e f2 bc 73 49 dd 3d
       0.012937517 -0.116717905 -0.029563095 0.10805025
000150 e1 b1 96 3c 95 e4 be bd 59 c3 3e bd 99 dc be bc
       0.018395366 -0.09320942 -0.046573017 -0.023298549
000160 6d bc d5 bd 99 da e0 3c 1e d5 9f bc a0 f9 d5 bd
       -0.1043633 0.027447985 -0.019510802 -0.10448003
000170 00 ce c2 bd c1 00 2b 3d 61 be 0c bd 1f 7d 56 3d
       -0.09511948 0.041748766 -0.034361247 0.05236542
000180 ea aa b4 bd 76 42 64 bc d4 3d 20 bd dd 14 97 3d
       -0.08821662 -0.013931861 -0.039121464 0.07377026
000190 00 4c 4d 3b 07 cb 1e bc 52 15 9c 3c 01 d5 ae bc
       0.0031325817 -0.00969196 0.019053135 -0.021341803
0001a0 93 79 8f 3d 5b e8 8b bd d8 87 57 3d 50 ac 59 bd
       0.0700561 -0.06831428 0.052619785 -0.053142846
0001b0 be fd c4 3d 36 67 96 bd 28 f4 8c 3c 5c 7a af bd
       0.0961871 -0.07343905 0.017206267 -0.0856826
0001c0 8c 46 cd 3d 4d 54 96 bd 6c b4 26 ba 40 86 9f 3d
       0.100232214 -0.07340298 -0.00063592824 0.07789278
0001d0 b1 5e 85 bc 7b 69 3e 3c dd 9f 91 bd 2c 6c ed bc
       -0.016280504 0.011621828 -0.071105696 -0.028982244
0001e0 b7 99 e2 3c 32 ee 1c 3d a5 43 c5 3d e1 08 81 3d
       0.027661188 0.0383131 0.09632043 0.06300522
0001f0 f7 09 84 3d 39 ea ba bd 52 8c e4 bd a3 44 aa bd
       0.06447213 -0.09126706 -0.111595765 -0.08313873
000200 87 ac 0b 3d c9 01 e6 bd 0d cf f4 3c ca 76 56 bd
       0.03410008 -0.11230809 0.029883886 -0.05235938
000210 c5 6b 0d 3d 54 6d db 3d 44 c1 60 bd d6 e7 c8 bd
       0.034526605 0.10714212 -0.054871812 -0.09809844
000220 c2 8c 8d ba 6e 49 91 bd 5b 18 a3 bd 0b aa 1c bc
       -0.0010799395 -0.07094084 -0.0796363 -0.009562026
000230 53 9e a8 3d d9 e1 df bc f8 a0 b9 3d d5 fd e9 bd
       0.08233323 -0.027329372 0.090639055 -0.11425368
000240 d7 02 aa 3c c5 a1 59 bd f6 92 88 bd 81 99 91 bd
       0.020753307 -0.05313279 -0.066686556 -0.07109357
000250 9f 6f ec bd 70 6e 1e bc a9 ef 8c b9 3c 63 fd bc
       -0.115447275 -0.009669885 -0.00026881442 -0.030931108
000260 0d c7 42 bd 9f 5b df 3c 54 db b2 bc 7c be 9f 3a
       -0.04755311 0.027265368 -0.0218331 0.0012187506
000270 1e 2b 6f 3d 74 58 d3 bd b0 ec 51 ba 5b 5b b3 bd
       0.05839073 -0.103196055 -0.00080079865 -0.08757659
000280 5a 6c 4c bd 0b c4 d0 bd 03 cf a4 bd e5 52 ba 3b
       -0.04990802 -0.10193642 -0.08047297 0.0056861513
000290 7e 3e 77 bd 4f 5b 15 bd 06 54 f5 3c 67 80 a8 3d
       -0.06036233 -0.03646403 0.029947292 0.08227616
0002a0 ba 14 b0 bd 88 c6 ee bd 37 28 8c bd ae e7 2b bd
       -0.08597703 -0.116589606 -0.06843608 -0.041968994
0002b0 90 fb d9 3d a2 eb 00 3d f4 27 dc 3d 83 ed 1b bd
       0.10643685 0.031474717 0.10749808 -0.038068306
0002c0 e2 c1 eb bd b8 90 04 3d e5 be 23 bc 0d 3f c7 bd
       -0.115115896 0.032364577 -0.009994243 -0.09728823
0002d0 96 4f 74 3d 6f d4 cf 3d 9b 31 a5 bd 71 4b 02 bd
       0.05964621 0.1014794 -0.08066102 -0.031810228
0002e0 e2 b8 d9 bd 5e 1d b9 bd d6 66 9a 3c 40 71 86 bd
       -0.10630967 -0.090388045 0.018847864 -0.065645695
0002f0 1a c1 ac bd 93 5f ea 3c 9b ff 97 bd c5 9f b7 3d
       -0.08435269 0.028610026 -0.074218 0.089660205
000300 77 6c 4a bd 27 2f 96 bd 49 d1 96 bd 99 d9 bc 3d
       -0.049419846 -0.07333212 -0.07364137 0.09221191
000310 bc 5b ea bd f6 61 b9 3d 49 36 bd 3b 52 c3 78 3d
       -0.11443278 0.09051888 0.0057742936 0.060733147
000320 f4 56 65 bd c1 9d f7 3d f0 2d 90 3a c2 f8 62 3d
       -0.055991128 0.12090636 0.0011000019 0.055413015
000330 37 6d c4 bc 32 d7 9f bd b6 8d 61 3d 9a 8a b1 b9
       -0.023977859 -0.07804717 0.055066787 -0.00033863337
000340 cd 2f dc 3c b9 f3 99 3d df 98 94 3a 06 3e a0 3d
       0.026878262 0.075171895 0.0011337063 0.0782433
000350 4c 47 7e bd e8 20 a0 3d 44 5a 84 bd 27 91 d6 bd
       -0.062079713 0.07818776 -0.06462529 -0.10476904
000360 7e 9b 27 3a c2 4b f5 3d 98 39 17 bc 85 89 f3 bc
       0.00063937146 0.1197734 -0.00923004 -0.02972866
000370 42 4d b9 3d 65 bd e8 3d 78 1d be 3d ba a9 66 bd
       0.09047939 0.11364249 0.092829645 -0.056314208
000380 8b 98 88 3d b5 ad 05 3d 78 45 2c 3c 09 3a 58 bd
       0.0666972 0.032636363 0.0105146095 -0.05278972
000390 97 79 0d 3d ee 54 3b bd be aa 90 3b fc 3f b7 3d
       0.034539785 -0.045735292 0.0044148853 0.08947751
0003a0 5d 44 c1 3d c2 b2 28 3d d2 14 92 3d d1 a2 7d bc
       0.094368674 0.0411861 0.071328774 -0.015480713
0003b0 fd a3 32 3d 5c 8e 55 bc cb f7 7a 3d da dd c7 bd
       0.043613423 -0.013034429 0.06127147 -0.09759112
0003c0 dd 11 ab bc 5d 77 a1 3d 0b 3e 9e 3d d1 36 b0 bd
       -0.020882541 0.07884095 0.077266775 -0.086042054
0003d0 1d 01 ad bd 0e b3 e6 3d fd 37 d3 3d 68 64 eb 3d
       -0.08447478 0.11264621 0.10313413 0.1149376
0003e0 d9 ea 81 bd 72 54 eb bc 3a b0 9d 3d a4 55 cf 3d
       -0.06343622 -0.02872679 0.07699628 0.101237565
0003f0 d0 6f 4c 3c 6e 0f 94 bd 38 99 97 bd 0a 49 c9 bc
       0.01247783 -0.072295055 -0.07402271 -0.02457096

conv1.0.bias f4 [6]
000000 ca 55 20 3d 4a fb b3 bd 36 b8 16 3d 36 ca 9d 3d
       0.039144315 -0.08788164 0.03679677 0.07704584
000010 29 a4 9c bd c5 c1 d0 bd
       -0.076484986 -0.101932086

conv2.0.weight f4 [16, 6, 5, 5]
000000 d7 52 3f bc f5 a7 82 bc f8 f8 58 3d 84 cb 6e 3d
       -0.011677465 -0.015949229 0.05297181 0.058299556
000010 66 03 fe bc 6e 10 7d 3d 77 96 75 3a 07 99 d9 bc
       -0.03100748 0.061783247 0.00093684293 -0.026562227
000020 07 3e c5 bc a6 f7 72 b9 0f c2 b4 bc 4d 23 8c bd
       -0.024077429 -0.00023171175 -0.02206519 -0.068426706
000030 b1 20 0e 3d 7c ad 9e bc cf 21 8d bc e9 b2 82 bd
       0.034699146 -0.019369833 -0.017228035 -0.06381781
000040 ba e2 a2 bd 8f 88 73 bd d4 69 1d bc 38 f7 9c bd
       -0.07953401 -0.059456404 -0.009607751 -0.07664341
000050 3e 5a 8d bd d2 7d 75 bd 75 4b a6 bd 4b aa a2 3d
       -0.06901978 -0.059934445 -0.08119861 0.07942637
000060 6f c2 99 bc eb f6 c3 bb bb 6d e0 3c 73 29 63 bd
       -0.018769471 -0.0059803627 0.027396074 -0.05545945
000070 ef 6e f6 bb 83 e9 0c bd 66 19 a2 3d 1c 1d 72 3d
       -0.0075205485 -0.03440238 0.079150006 0.059109792
000080 2a 03 20 3d 1c 16 6f bd f6 59 45 bc ea bc ee bc
       0.039065517 -0.058370695 -0.012045374 -0.029142816
000090 ea 75 60 bd e2 2c 4d bc fa a4 f8 bb 84 fa a9 bc
       -0.05479995 -0.012522908 -0.007588026 -0.020749338
0000a0 a3 1e 84 3d ae a8 6c bd b4 b2 6c bc 7c 9e 2e 3d
       0.06451156 -0.057778053 -0.014446903 0.04263161
0000b0 e2 88 68 bd c9 d0 06 3d 88 23 1f 3d 4d cc 04 3c
       -0.056771167 0.032913957 0.038852245 0.00810535
0000c0 e0 c4 56 bc 42 9e c2 bc a3 ef 24 bd b3 96 32 bd
       -0.013108462 -0.023757104 -0.040267598 -0.04360075
0000d0 c7 3b a2 bc e1 9b 40 bd 30 7b 96 3d e0 53 9f 3a
       -0.019803895 -0.047023658 0.07347715 0.0012155734
0000e0 19 42 78 bc 97 ff 3c bc 12 80 a9 3b 62 eb 9a 3d
       -0.015152478 -0.011535547 0.005172738 0.07564427
0000f0 f9 03 a6 3c a2 1a e2 3c e0 c2 09 3d bb 31 66 bd
       0.020265566 0.02760059 0.033633113 -0.05619977
000100 be b5 ce bc d4 9e 94 3d 18 9d 8a bd 25 51 9d bd
       -0.025233146 0.072568566 -0.067682445 -0.07681493
000110 06 e5 4e bc 6b 1d 43 bb 81 bf a6 bd 81 bc 61 3c
       -0.012627846 -0.0029772173 -0.08141995 0.013777853
000120 72 e0 a3 bc a5 c4 27 bc b9 bb 21 3d 6b 74 c6 bc
       -0.020004485 -0.010239755 0.039485667 -0.024225434
000130 2d a5 48 bd 56 1c 13 bd 1f c0 82 3c c8 cd b6 3c
       -0.04898565 -0.035915695 0.015960751 0.022314921
000140 3b 1b 96 3d 43 6d 38 bc ed 7c 55 3d 65 fe 30 bd
       0.073294125 -0.011256519 0.05212109 -0.04321136
000150 f0 10 65 bd 06 56 59 3d 80 d8 9e bd ad 3b 2a 3d
       -0.055924356 0.053060554 -0.07756138 0.041560818
000160 8d a6 3e bc 30 6d 13 bc ca ef e8 3c bc 93 13 bd
       -0.0116363885 -0.0089982 0.028434653 -0.036029562
000170 61 cf 56 3d ce cc 3d bd 77 92 96 3d 06 be 36 bd
       0.052443866 -0.046337895 0.07352155 -0.044614814
000180 76 43 a0 3b f6 c6 83 3c 2c 92 c4 3c 57 28 89 bc
       0.0048908545 0.016086083 0.023995481 -0.016742868
000190 40 ad 23 bc 6c 0c 48 bd c9 07 1c 3d 2c 68 04 bd
       -0.0099900365 -0.04883997 0.038093362 -0.03232591
0001a0 52 9f a3 3c d8 32 0e bd 84 12 7d 3a 08 db 87 3d
       0.01997343 -0.034716457 0.0009653943 0.06633574
0001b0 0a bd 9c 3d 47 3c 06 3d 11 72 51 3c 12 35 b1 bc
       0.07653244 0.03277233 0.012783543 -0.021631751
0001c0 7f 0e 11 3d a4 c1 85 bd a3 87 a1 bd 7d 81 47 3c
       0.035414215 -0.06531075 -0.07887199 0.0121768685
0001d0 b6 b6 23 bd 71 2f a4 bd 0a 12 55 3d 1f 3b 80 3d
       -0.03996917 -0.08016861 0.052019157 0.062612765
0001e0 69 51 5a 3d 29 98 03 3d da 2e 05 bd a6 3b 5c bd
       0.053300295 0.032127533 -0.032515384 -0.053767823
0001f0 5d f2 ab bc ff 96 a1 bc 7d 46 2f 3d 05 7c 15 3c
       -0.020989591 -0.01972532 0.042791832 0.009123807
000200 c2 b4 5a 3d 73 79 69 bd 15 28 2c bd ff 8b 01 3d
       0.05339504 -0.05700059 -0.042030413 0.03162765
000210 40 c4 41 bd 43 89 6d 3c 70 84 95 3d 05 a4 a0 bd
       -0.0473063 0.014498058 0.07300651 -0.07843784
000220 30 4e 7f 3d a6 27 31 bd 2b 46 19 bd 73 cb 15 bd
       0.062330425 -0.043250702 -0.037420433 -0.036570977
000230 d5 32 32 3d f4 0b a7 3c 83 e8 64 3d 30 19 fd bc
       0.04350551 0.020391442 0.055885803 -0.0308958
000240 10 04 78 3d 31 02 49 bc fc 42 8c bd d1 c9 82 3a
       0.06055075 -0.012268589 -0.06848714 0.0009978359
000250 21 37 87 bc c0 77 e2 bc 14 ad 71 3d 15 b3 98 3d
       -0.01650578 -0.027644992 0.05900295 0.07456032
000260 75 65 82 3c f5 1a 8e bc 30 e0 8a 3b db 56 5f 3d
       0.01591752 -0.017346838 0.004238151 0.05452619
000270 80 68 9d bd b7 87 83 3d 34 c1 10 bc a4 69 96 3d
       -0.076859474 0.0642237 -0.008835126 0.07344368
000280 4d 71 6e bc 53 88 11 3d 5b 50 5c bd 64 14 5a 3d
       -0.01455338 0.0355304 -0.05378757 0.053242102
000290 9e 3a 36 bd eb c2 9f bd 8c 92 9c 3d b6 85 98 3c
       -0.044489495 -0.078008495 0.07645139 0.018618446
0002a0 f7 23 90 3d 91 84 96 bd a0 50 a3 3d c4 dd cf bb
       0.0703811 -0.07349504 0.079743624 -0.006343575
0002b0 5c fe 2c bd c4 a5 5d bd 4c b2 9a bc 9c db 85 3d
       -0.042234764 -0.054113165 -0.018883847 0.06536028
0002c0 a6 3a 0b bc ea ef ab 3c 61 eb 1b 3d 05 4e 5c bd
       -0.00849787 0.020988423 0.03806627 -0.053785343
0002d0 38 1b 9f bd 7e 3c 86 3d 67 51 8d 3d 29 34 80 bd
       -0.077688634 0.06554507 0.06900292 -0.06259949
0002e0 d2 64 18 bb 22 f3 4f 3d 3a 9f 27 bd b3 ac c4 bc
       -0.0023253453 0.05076898 -0.040923335 -0.02400813
0002f0 bf 1b 92 bc cc 4a d2 bc a5 17 5e 3d e6 16 45 bd
       -0.017835496 -0.025670432 0.054221768 -0.04811754
000300 e5 2d 83 bd 82 e1 20 3c 6d 82 9f 3d f0 80 88 bd
       -0.06405238 0.00981939 0.077885486 -0.06665218
000310 b2 70 0d 3d a6 79 06 3d b8 9c 1c bd 47 6b 30 3c
       0.034531303 0.032830857 -0.038235396 0.010767764
000320 1e 9b 64 3d b4 6f 8a bc 16 ec 56 bd 63 e2 a2 3d
       0.055811994 -0.016898967 -0.052471243 0.07953336
000330 89 5a 35 3d 79 7b 8a 3d 64 0c 2f 3d 9d f4 ac 3d
       0.044275794 0.06761832 0.042736426 0.08445094
000340 cc 1e 1d bd 44 eb 2a bd 4b da 83 3d d8 63 3f 3d
       -0.03835945 -0.041728273 0.064381205 0.046726078
000350 49 1c 8b bb 6f 06 21 ba 84 d6 68 3d 8d a1 34 3d
       -0.004245315 -0.0006142621 0.056845203 0.04409938
000360 af 53 59 3d 2a 1c 41 bd 75 13 79 3d 1f 7c d6 ba
       0.053058323 -0.047146 0.06080957 -0.0016363895
000370 eb 49 6c bd 71 80 a2 3d 4f b6 9c 3d 6f e9 4a 3d
       -0.05768768 0.079346545 0.0765196 0.049539026
000380 b8 6a 79 3b dd 79 7e b9 10 55 42 bd 5c 3a 8e 3d
       0.0038057994 -0.00024268725 -0.047444403 0.06944725
000390 2a d2 22 3d e0 51 9e bd a1 83 e9 3c 08 98 d9 3c
       0.03975121 -0.0773046 0.028505148 0.026561752
0003a0 4b e8 c1 3c 2d bb d3 bc 81 74 2b 3c 43 17 a5 bd
       0.023670336 -0.025846088 0.010464788 -0.080610774
0003b0 75 47 4c bc 88 86 89 bd 7a 7f a4 bd b2 0e 28 bd
       -0.012468209 -0.06715113 -0.08032127 -0.04102964
0003c0 05 ee 27 bc 12 52 dd 3c 12 07 c7 bc 03 7a 9b bd
       -0.010249619 0.027016673 -0.024295364 -0.07591631
0003d0 26 30 c4 bc dc 22 40 bd ac 81 a4 3c 06 63 3b 3d
       -0.02394874 -0.046908244 0.020081364 0.045748733
0003e0 9e 8c 8a 3d 13 50 eb 3b d7 10 66 3d 4b 30 8c 3d
       0.06765102 0.0071811765 0.056168403 0.06845149
0003f0 36 70 31 bd 94 53 ad 3d 79 e1 fe 3a af 4e 1e 3d
       -0.043319903 0.08463207 0.0019445858 0.038649257

conv2.0.bias f4 [16]
000000 25 7d e9 bb 1b f1 01 bd 92 42 19 3d f1 5e f3 bc
       -0.007125514 -0.031724077 0.037417002 -0.029708358
000010 00 73 88 3d b8 fe 9e b9 ac 28 90 bd 14 1a 62 bc
       0.066625595 -0.0003032589 -0.070390075 -0.013800163
000020 36 60 5e bd cb 1e 0a 3d 7b 2d 01 bc 2e 3a d1 bc
       -0.054290973 0.033720773 -0.007884379 -0.025540438
000030 33 67 58 3c b2 79 06 3d 78 af 81 3d c9 b6 64 bd
       0.013208198 0.0328309 0.06332296 -0.05583838

conv2.0.weight_fake_quant.scale f4 [16]
000000 4e a4 31 3c b9 6a 38 3c d5 53 34 3c 38 ff 2f 3c
       0.010842396 0.011255913 0.011006315 0.010742001
000010 65 34 39 3c 85 e8 33 3c d6 b3 32 3c 90 44 33 3c
       0.011303996 0.01098073 0.010907134 0.01094164
000020 aa fe 2f 3c 57 52 33 3c 51 b0 30 3c a3 9d 32 3c
       0.010741869 0.010944924 0.010784225 0.010901841
000030 91 36 34 3c 61 6b 32 3c 00 eb 2f 3c a3 4d 31 3c
       0.010999338 0.010889859 0.010737181 0.010821733

conv2.0.weight_fake_quant.activation_post_process.min_val f4 [16]
000000 09 8a a6 bd 97 7d a3 bd 61 5b a2 bd 44 ff a4 bd
       -0.08131797 -0.07982939 -0.079275854 -0.080565006
000010 f5 02 aa bd 52 02 a3 bd 98 88 a7 bd ee 2c a6 bd
       -0.08301345 -0.07959427 -0.0818035 -0.081140384
000020 11 41 a4 bd 57 49 a7 bd 4b a5 a5 bd c8 73 a7 bd
       -0.08020223 -0.08168285 -0.08088168 -0.081763804
000030 a2 96 a3 bd 95 90 a1 bd 2e 4e a2 bd c8 38 a6 bd
       -0.07987715 -0.07888905 -0.07925068 -0.08116299

conv2.0.weight_fake_quant.activation_post_process.max_val f4 [16]
000000 5b af a2 3d 0d e4 ac 3d 97 0e a9 3d fa a0 a4 3d
       0.07943603 0.08441935 0.08254736 0.08038516
000010 1e a1 ad 3d fc a9 a8 3d a5 d3 a4 3d 46 10 a8 3d
       0.08477996 0.08235547 0.080481805 0.08206229
000020 bf fe a4 3d 31 1d a8 3d 50 78 a0 3d 07 ec a6 3d
       0.080564015 0.08208693 0.07835448 0.081504874
000030 27 f3 a8 3d aa 44 a7 3d 4f ec a4 3d e3 f5 a5 3d
       0.08249503 0.081673935 0.08052885 0.0810354

fc1.0.weight f4 [120, 400]
000000 f7 72 83 bc f2 4d 01 bd 4a b9 33 bd 4e 85 e4 3c
       -0.01604603 -0.031568475 -0.043877877 0.027895596
000010 2a 60 5b bb a2 ab aa bb 5d c7 26 3c 78 52 0d 3d
       -0.0033474066 -0.0052084485 0.010179368 0.034502476
000020 5c a2 12 3d 40 ce 2a 3d a2 17 4a bd 88 1f 08 bd
       0.03579937 0.0417006 -0.049338944 -0.033233196
000030 0a 18 24 bd 86 81 35 bd ee 05 05 3d e4 f4 0a 3c
       -0.040061988 -0.044312976 0.032476358 0.008481238
000040 9d 69 59 bc 1f d6 12 3b 08 6e 74 3c 90 36 32 3d
       -0.013269809 0.0022405458 0.014918812 0.043509066
000050 bf cb d2 bc 1d 45 0a 3c 3f 71 14 3d 12 fe 11 bd
       -0.02573192 0.008439329 0.036240812 -0.03564269
000060 e5 f9 33 3d 32 04 f6 3b 07 0e b9 3c e1 c2 b7 3c
       0.04393949 0.0075078243 0.022589697 0.022431793
000070 1e d4 f4 3c a7 75 c4 3c 83 d7 ea 3b 27 6d 39 ba
       0.029886302 0.023981882 0.0071668043 -0.0007073455
000080 c4 78 19 bd 67 61 39 3d c6 04 02 3d 0a 40 30 3d
       -0.037468687 0.045258906 0.031742834 0.043029822
000090 62 0f 18 3b 15 ac 2f 3d 08 81 8c 3c 13 f0 36 3d
       0.0023202528 0.04288872 0.01715137 0.044662546
0000a0 29 c4 08 bd 5b 56 11 bd 47 7f 6a 3c b3 05 e1 3c
       -0.033390198 -0.035482746 0.014312572 0.027468538
0000b0 b6 82 0f bd 00 dd 19 3d 1f b9 3d bc 59 3b 4c bd
       -0.035036765 0.037564278 -0.011579781 -0.049861286
0000c0 19 40 24 bd 43 67 b7 bc 5c e2 88 bc d1 e8 20 bd
       -0.04010019 -0.022388106 -0.016709499 -0.03928453
0000d0 63 90 29 bd a0 34 14 3b 32 d1 3c 3d 41 bd df 3c
       -0.041397464 0.0022614375 0.04609794 0.027311923
0000e0 54 4a 3a bd 20 e7 22 3d 50 3e 2b bd 5c 07 30 bd
       -0.04548104 0.0397712 -0.041807473 -0.04297577
0000f0 ec f3 98 bc 2f 8f 46 3d 50 40 e7 b8 f8 98 98 bc
       -0.018670999 0.048476394 -0.000110269175 -0.018627629
000100 1d 01 ce bb 23 a7 20 3d 65 54 30 3c 16 6d ea bc
       -0.006286754 0.039221894 0.010762309 -0.02861647
000110 8c 92 73 3c 5c 8f 11 bd 75 a8 14 bd 13 58 0e 3b
       0.0148664825 -0.03553711 -0.036293466 0.0021719977
000120 6a 49 28 bd 33 25 30 bd 0a af 6b bc 78 a5 b9 3b
       -0.041085638 -0.043004226 -0.014384994 0.0056654774
000130 80 70 24 bd f2 10 3c bc c2 39 98 bc 88 b1 9e bc
       -0.04014635 -0.011478649 -0.018582229 -0.019371763
000140 08 33 43 3d 4e b8 f3 bc 90 0e f3 bc fd d6 48 3d
       0.04765609 -0.02975097 -0.02967003 0.049033154
000150 e1 52 27 bd 41 f9 9d bb 41 83 02 3b 8b 11 ec ba
       -0.040850524 -0.004820973 0.001991466 -0.0018010599
000160 36 fe 27 bd e5 92 ee bc 77 97 7a ba 3e d0 85 bc
       -0.04101392 -0.02912278 -0.0009559313 -0.01633465
000170 66 59 4b 3d d5 5f ae bc a5 c7 83 bc 79 62 43 bd
       0.049645804 -0.02128593 -0.016086409 -0.047701333
000180 d9 5b 16 3c fc 9f c0 3c 6f 02 2e bd 74 3d 79 bc
       0.009177172 0.023513786 -0.04248279 -0.0152124055
000190 20 2d 40 bd 88 18 e6 bc bc 4c d4 bc 66 ef bf 3b
       -0.046918035 -0.02808787 -0.025915496 0.005857396
0001a0 95 09 31 bd 8a 02 c7 bc e6 84 41 bd fb 77 2f bd
       -0.04322203 -0.024293203 -0.047245882 -0.04283903
0001b0 9c 8f 23 3c 70 ac 16 3d 2a 72 97 3c 0d 19 82 bc
       0.00998297 0.036785543 0.018487055 -0.015881086
0001c0 81 9e 42 3d 09 93 2f bd 45 ee a0 bc f9 f2 1c bd
       0.047514442 -0.042864833 -0.019644866 -0.038317654
0001d0 41 a8 3f bd f5 65 cc 3b 8f c1 d4 3c de db 8d ba
       -0.04679132 0.00623774 0.025971202 -0.0010822972
0001e0 fb ef 9e 3c f7 7f b9 ba 0b 6b 46 bc 1a 71 4b 3d
       0.019401541 -0.0014152516 -0.012110482 0.04966841
0001f0 21 65 09 bc cc 7c 46 bc fa 7f c5 bc 74 ee 2c 3c
       -0.008385927 -0.012114715 -0.024108876 0.0105548985
000200 cd e1 51 bc c7 37 7b 3c 11 97 3a 3c b2 d9 de 3c
       -0.012810183 0.015333123 0.011388556 0.027203415
000210 49 88 02 3d 46 60 3c 3d 1b 35 c9 3a f1 ca bf bc
       0.031868253 0.04599025 0.001535091 -0.0234122
000220 7b 38 03 3c 85 86 41 3d 32 e9 dc bc 06 75 02 bd
       0.008009071 0.04724743 -0.026966665 -0.031849883
000230 21 b2 30 bd 54 75 f5 bc cb c9 30 3d cc 52 31 3d
       -0.043138627 -0.029963173 0.043161195 0.043291852
000240 89 79 a7 3c f6 df 04 3d 04 17 c9 3c 19 55 00 bd
       0.020443695 0.03244015 0.024547108 -0.031331155
000250 f8 b3 48 3d 9b 31 38 3b bb 93 08 3b 06 c4 fa 3c
       0.048999757 0.002810574 0.0020840007 0.03061105
000260 79 4b 21 3d ba 27 33 3c 8a 20 d6 bb 17 6f 98 3c
       0.039378617 0.0109347645 -0.0065346407 0.01860766
000270 c2 b6 2c bd e4 bc ab bc 3f 84 9b 3a 4e e1 a0 bc
       -0.04216648 -0.020964094 0.0011864974 -0.019638684
000280 20 22 81 ba cd a1 98 bc f0 61 06 3d 5a e8 a0 bc
       -0.0009852089 -0.01863184 0.032808244 -0.019642044
000290 0c a6 86 3b 45 8b df bc 1a 74 01 3d 71 00 33 bd
       0.00410915 -0.027288089 0.031604864 -0.043701593
0002a0 c8 21 39 3d 41 b5 42 3d a9 2c 31 bd be 49 42 3d
       0.045198232 0.04753614 -0.043255482 0.047433607
0002b0 24 0b 6c b8 08 2d 10 bd 0b d2 39 bc cb dc 95 bc
       -5.627716e-05 -0.035199195 -0.011341582 -0.018293759
0002c0 8c 09 84 bc e0 b8 dc 3b 49 e1 e2 3b fb 05 03 3d
       -0.016117834 0.006735906 0.0069238287 0.031988125
0002d0 f5 b2 47 bd 70 7b 0f 3c 39 cd 4b bd c0 42 a3 bc
       -0.04875465 0.008757457 -0.049756262 -0.01992929
0002e0 c3 64 4c bd 69 82 83 bc 4c 93 1b bc a8 7c ae bc
       -0.04990078 -0.016053395 -0.0094955675 -0.021299675
0002f0 9b 50 aa bb a4 53 28 3c fd ae da 3c d1 70 86 ba
       -0.005197597 0.010273848 0.026694769 -0.001025701
000300 7a 10 59 bc 33 f1 1a bd ef 53 d8 bc 10 4a 6e 3a
       -0.013248557 -0.03782768 -0.02640721 0.00090900157
000310 d3 26 13 bd f9 63 b3 3c 1b 00 3a 3d 41 ee 42 3d
       -0.035925698 0.021898257 0.045410257 0.047590498
000320 9c 42 7a 3c 01 f7 4b bd ed 27 15 bd b6 c0 82 3c
       0.01527467 -0.04979611 -0.03641503 0.015961032
000330 81 c8 8f 3b b3 a3 22 bd 2e 71 d8 37 aa f5 d7 bc
       0.0043879156 -0.039706897 2.580191e-05 -0.026362259
000340 37 aa bf bb d2 98 fc bc 8d 6b 40 3d 98 df 22 3c
       -0.0058491486 -0.03083459 0.04697757 0.009941004
000350 12 c8 37 3b 3e c3 dd bc 86 78 96 bc f8 30 6f 3c
       0.0028042835 -0.027070638 -0.018368017 0.014599077
000360 2b de 28 bd b6 0a 60 bc 44 b5 2c 3d 74 15 4c 3d
       -0.0412275 -0.013674429 0.042165056 0.049825147
000370 2e 0d bc bc 7e 6f 43 3d 4f e4 19 3d 41 fa 96 3b
       -0.022955503 0.04771375 0.037571248 0.0046074693
000380 8c 4d 1f bd 45 fd 67 bc 1c 71 0d bb 5b e7 0d 3d
       -0.038892314 -0.014159505 -0.002158231 0.034644466
000390 7a 84 7a bc e2 37 a4 3c f2 40 12 3c f3 e6 2e bd
       -0.015290374 0.020046178 0.008926617 -0.04270072
0003a0 13 9a 88 3b 98 6c 2a bd 18 18 bc bc 91 15 bc bb
       0.0041687577 -0.04160747 -0.022960708 -0.0057398756
0003b0 7e bf 3a 3c 6a 33 4c bd 62 40 50 bc c1 e4 ef bb
       0.011398194 -0.04985372 -0.012710663 -0.0073209708
0003c0 67 87 4b 3d 06 90 47 3c 5f ad 4f 3c b1 cc fa bc
       0.049689677 0.012180334 0.012675612 -0.030615183
0003d0 4c fc 39 bd 3b f8 0e bd f0 64 06 bd e5 c2 f2 3c
       -0.045406625 -0.0349047 -0.032811105 0.029633949
0003e0 60 65 9e 3c 29 87 97 3c b3 3d 08 3d 0a 86 a4 3c
       0.019335449 0.018497067 0.033261966 0.020083446
0003f0 e5 a1 bc 3c 4a 94 33 bd 3a 8f 06 3c 10 b6 08 3c
       0.023026416 -0.04384259 0.008212859 0.008344188

fc1.0.bias f4 [120]
000000 94 4b 32 bd ce 41 ca bc b3 1c b4 3b 29 bf 31 bc
       -0.04352911 -0.024689581 0.0054965853 -0.010848799
000010 e9 b4 24 3c 27 b0 b3 3a a4 db 06 bd 74 c4 b4 bc
       0.010052898 0.0013709114 -0.03292431 -0.022066332
000020 7d c3 2e 3d ee c7 65 3c 52 5f 45 bc 72 ef 2e bd
       0.0426669 0.014024718 -0.012046652 -0.04270882
000030 f0 1f 42 3c 50 93 00 3c 1f d0 95 3c 19 a6 e9 3b
       0.011848435 0.007847622 0.018287716 0.007130396
000040 cc 12 83 ba 06 4f 7d 3c ac d8 9b 39 00 1c 96 3c
       -0.0010000109 0.015460735 0.00029725337 0.018323898
000050 dd 3d 21 bd 5a 22 20 bd 37 b9 bb bb f6 05 dd 3c
       -0.039365638 -0.03909526 -0.0057288664 0.026980381
000060 97 e7 1c 3d 63 7b 23 3d 62 fe b5 bc 35 aa 3e bd
       0.0383068 0.039912593 -0.022216026 -0.04654904
000070 20 16 6d bc e2 92 dd bc 17 0f 6d 3c 08 65 20 3c
       -0.014470607 -0.027047578 0.01446893 0.009789713
000080 01 af 6c 3b a6 7f a9 3c e2 d2 34 bd fb 4f 85 3c
       0.0036115053 0.02069075 -0.044146426 0.01627349
000090 b7 77 34 3d 1e e1 ba 3c a6 d5 d6 3c 6c 46 ed 3c
       0.04405948 0.022812422 0.026224922 0.028964244
0000a0 4a f9 9a bc ab 12 cb bc fa 8f 54 3c 18 ff d5 3b
       -0.018917698 -0.024789175 0.01297378 0.0065306537
0000b0 8f cf d8 3a 95 bd 53 3b 54 43 22 bd 8f ef 5a bc
       0.001654135 0.0032309045 -0.03961499 -0.013362779
0000c0 3d b4 bc bc 88 f1 16 3d 61 d9 10 3d 83 79 2c 3d
       -0.023035163 0.036851436 0.03536356 0.04210807
0000d0 81 54 d2 3c 1f 8a cb bb d1 07 4b bd dc 05 b9 3c
       0.02567506 -0.0062115337 -0.049568 0.022585802
0000e0 76 ab 07 3d f8 b1 eb bc aa bb 93 3c a3 e9 81 bc
       0.033122502 -0.028771386 0.018033821 -0.015858477
0000f0 73 ef 48 bd c9 5c 18 bd f8 14 d4 bc 11 d2 a8 3c
       -0.04905648 -0.03719786 -0.025888905 0.02060798
000100 7b 25 7b bc 5d 31 90 3c 15 e8 86 3c fa c2 42 bd
       -0.01532876 0.017601663 0.016468087 -0.047549225
000110 26 23 45 bc 97 85 c6 3c f0 a9 1d 3d 61 d6 87 3c
       -0.012032306 0.024233622 0.038492143 0.016581716
000120 1f 98 1d 3d 02 42 23 3d 96 78 07 bd f6 3c 93 3c
       0.038475152 0.03985787 -0.033073984 0.017973404
000130 45 0d 0f bd 61 1a cc 3c 78 b8 a3 3b be d1 20 bd
       -0.034924764 0.024914922 0.0049963556 -0.039262526
000140 f0 6a ff 3c 17 37 b4 3c 0f 35 de bb 4f fe 26 bd
       0.031178921 0.021998925 -0.0067812274 -0.04076987
000150 fb 00 91 3c c9 f3 09 bd 26 3e a7 3c 7f ca ba 3c
       0.017700663 -0.033679757 0.020415377 0.022801636
000160 9f be 0f 3b ea 1c 4b bd ad f6 ef bc 99 52 89 3b
       0.0021933687 -0.04958812 -0.029292429 0.0041907546
000170 9c c0 aa bc 6a 15 5e 3c 12 d1 56 bc 81 8a 0e bd
       -0.020843796 0.01355491 -0.01311137 -0.034800056
000180 6e 63 f7 3c 0e d8 86 3c a1 0e 8a bc 5d 05 4e 3d
       0.030198779 0.016460445 -0.016852679 0.050298084
000190 67 f5 8c 3b d1 05 0f 3d c4 37 d7 bc 14 df 0d 3d
       0.004301715 0.034917656 -0.026271708 0.034636572
0001a0 a4 9e 30 bb e3 fd b0 ba 12 f5 24 3d 4c df a8 3c
       -0.0026950026 -0.0013503399 0.04027278 0.020614289
0001b0 2e 70 ad 3c e5 16 88 bc b6 2a 18 bd 97 74 84 3b
       0.021171656 -0.01661248 -0.037150107 0.004042219
0001c0 50 13 10 bd 9c 9e a5 ba 85 6a 37 bd 7d a8 b3 bc
       -0.035174668 -0.001263577 -0.04477932 -0.021930927
0001d0 47 75 82 bc 5e 55 c3 bc 16 56 b9 3b c6 98 30 bd
       -0.015925063 -0.023844417 0.005656014 -0.043114446

fc1.0.weight_fake_quant.scale f4 [120]
000000 b4 0a da 3b 3c e3 de 3b 26 6a d9 3b 6b 5e dc 3b
       0.006654108 0.006801991 0.0066349683 0.0067251227
000010 d2 09 da 3b 06 6d d9 3b 54 3e d9 3b 96 c2 de 3b
       0.0066540027 0.006635311 0.0066297445 0.006798099
000020 1a bf db 3b 2e 67 db 3b 92 5b da 3b 0a 3c da 3b
       0.0067061307 0.0066956496 0.006663748 0.0066599892
000030 c7 7c da 3b a6 e0 d8 3b 92 0b da 3b 6f 3b dc 3b
       0.0066677066 0.006618577 0.0066542113 0.006720952
000040 ea 8d da 3b 9b d3 da 3b 62 68 da 3b cc 59 db 3b
       0.0066697495 0.0066780574 0.0066652754 0.006694054
000050 64 80 da 3b 27 c5 db 3b 62 05 da 3b 53 b9 e4 3b
       0.0066681374 0.006706852 0.0066534737 0.0069801
000060 86 b1 d8 3b 24 70 da 3b a5 75 da 3b aa 92 da 3b
       0.0066129593 0.0066662002 0.0066668564 0.0066703157
000070 3f 1d dd 3b 3e 9d de 3b c3 c8 dd 3b 73 89 da 3b
       0.006747871 0.006793647 0.0067683174 0.0066692173
000080 42 fd dd 3b c2 29 d9 3b cf 28 db 3b be 44 db 3b
       0.0067745754 0.0066272924 0.0066882144 0.0066915443
000090 2b 1c db 3b 12 44 db 3b 20 5e db 3b 45 c2 d9 3b
       0.0066867075 0.006691464 0.00669457 0.006645473
0000a0 79 3b de 3b 04 0e d9 3b e9 1f d7 3b ee 3d da 3b
       0.006781992 0.0066239852 0.0065650833 0.0066602146
0000b0 4c 4b da 3b 62 1e dd 3b f8 d6 d9 3b 4a 3f d9 3b
       0.006661808 0.0067480067 0.0066479407 0.006629859
0000c0 5f a9 dc 3b e2 22 da 3b 54 23 da 3b 05 ae d9 3b
       0.006734058 0.0066569904 0.0066570435 0.006643059
0000d0 e1 fd dc 3b a1 49 da 3b 11 cd da 3b 14 db da 3b
       0.006744132 0.0066616093 0.006677278 0.006678948
0000e0 50 76 da 3b 18 50 da 3b 48 40 da 3b 68 7d d8 3b
       0.006666936 0.00666238 0.006660495 0.0066067465
0000f0 d4 1c da 3b 9b b5 e0 3b d3 da da 3b b8 c2 d9 3b
       0.0066562686 0.0068575866 0.006678918 0.0066455267
000100 db 26 e1 3b 72 87 da 3b b5 2f dc 3b ff 27 dd 3b
       0.006871087 0.0066689784 0.0067195543 0.0067491527
000110 74 c4 de 3b f9 5b db 3b 7b 3e db 3b 95 1e db 3b
       0.0067983214 0.0066943136 0.006690798 0.0066869953
000120 dc 13 db 3b 9e ea d7 3b db da da 3b b9 27 dc 3b
       0.006685717 0.006589248 0.0066789216 0.0067186025
000130 e4 fe da 3b 9f 09 da 3b 7f f0 dd 3b ec 26 d9 3b
       0.0066832174 0.006653979 0.006773054 0.0066269543
000140 7b e0 dc 3b 49 12 e1 3b 6c 57 da 3b 69 ad d7 3b
       0.0067406273 0.006868635 0.0066632535 0.0065819514
000150 a0 3b dd 3b 10 5a da 3b 10 f1 d9 3b d8 a9 db 3b
       0.0067514926 0.0066635683 0.0066510513 0.0067035966
000160 50 41 da 3b e8 ac d9 3b 74 4b db 3b 0b 6e db 3b
       0.006660618 0.0066429265 0.0066923443 0.0066964678
000170 26 43 da 3b e9 3e d9 3b 14 a5 db 3b d9 2d e0 3b
       0.0066608367 0.006629814 0.0067030285 0.006841403
000180 1c 2a da 3b 8b fa da 3b c5 12 da 3b 5a d4 da 3b
       0.006657852 0.006682699 0.0066550695 0.0066781463
000190 67 95 db 3b b7 26 d8 3b b5 96 dd 3b 2c bd d9 3b
       0.0067011598 0.006596412 0.0067623504 0.0066448655
0001a0 6c 36 dc 3b 1a e0 db 3b 13 11 d9 3b c4 7b dc 3b
       0.006720355 0.0067100646 0.00662435 0.006728621
0001b0 a2 11 db 3b 7b 7a d9 3b aa 0a da 3b a2 73 da 3b
       0.0066854516 0.0066369153 0.0066541033 0.0066666165
0001c0 48 26 da 3b 49 34 dc 3b f0 3d db 3b 14 d3 da 3b
       0.0066573955 0.0067201 0.006690733 0.0066779945
0001d0 1a 76 da 3b f7 d7 db 3b e6 d5 d5 3b 68 80 dd 3b
       0.006666911 0.0067090946 0.006525743 0.006759692

fc1.0.weight_fake_quant.activation_post_process.min_val f4 [120]
000000 08 6a 4c bd e8 b9 49 bd 83 d3 4b bd 84 98 4e bd
       -0.049905807 -0.04924956 -0.04976226 -0.05043842
000010 77 a0 4b bd 97 10 45 bd 6e aa 4b bd 6c d6 50 bd
       -0.049713578 -0.048111524 -0.04972308 -0.05098574
000020 28 03 4e bd 1a 19 4b bd f6 17 4b bd 49 98 4c bd
       -0.05029598 -0.049584486 -0.049583398 -0.049949918
000030 53 a6 4b bd 82 e9 4a bd 84 fb 4b bd c4 00 4b bd
       -0.049719166 -0.049539097 -0.04980041 -0.049561277
000040 0b e5 4c bd 61 26 4d bd db c1 4c bd e1 28 4a bd
       -0.05002312 -0.05008543 -0.049989562 -0.04935539
000050 a7 72 4b bd 13 1e 4c bd 0b 65 4c bd bd 6d 56 bd
       -0.049669888 -0.04983337 -0.04990105 -0.05235075
000060 6d 26 4b bd 44 19 48 bd 4a ce 4c bd b6 f1 46 bd
       -0.049597193 -0.04885222 -0.05000142 -0.048570357
000070 6a 4b 4f bd fd 72 4a bd db 19 4b bd 4b d1 4b bd
       -0.05060903 -0.049426068 -0.049585205 -0.049760144
000080 81 fd 49 bd 25 97 4b bd 41 76 4d bd ee 2a 4d bd
       -0.049314026 -0.04970469 -0.050161604 -0.05008977
000090 68 6a 4d bd ec 90 4a bd 3d a8 4d bd 26 3d 4a bd
       -0.050150305 -0.049454615 -0.050209273 -0.049374722
0000a0 c1 57 50 bd 23 7d 4b bd ea ad 49 bd 1b 2f 4b bd
       -0.05086494 -0.049679887 -0.049238123 -0.04960547
0000b0 25 7d 4c bd 81 60 49 bd e0 1e 4b bd 55 ab 4b bd
       -0.049924035 -0.0491643 -0.04958999 -0.04972394
0000c0 66 5a 49 bd dc 74 4c bd d3 5a 4c bd 24 13 4c bd
       -0.049158476 -0.049916133 -0.049891304 -0.04982294
0000d0 02 2e 4f bd 04 55 4b bd 3f 20 4d bd 62 2d 4d bd
       -0.050580986 -0.049641624 -0.05007958 -0.05009211
0000e0 ea ce 4c bd 16 ab 4c bd b3 d1 4a bd 91 f5 4a bd
       -0.050002016 -0.049967848 -0.04951639 -0.049550597
0000f0 06 7b 4c bd ac 29 4b bd 25 2d 4d bd 8c 26 4c bd
       -0.04992201 -0.04960029 -0.05009188 -0.04984145
000100 0a 96 4d bd fa de 4c bd b9 6c 4e bd 7e 55 4f bd
       -0.050191917 -0.050017335 -0.050396655 -0.05061864
000110 a3 83 4b bd 92 10 4d bd 93 8a 4d bd ab 6c 4d bd
       -0.049686085 -0.05006463 -0.050180983 -0.050152462
000120 2c fe 4b bd 32 c1 47 bd 2d 2d 4d bd a3 fb 47 bd
       -0.049802944 -0.04876823 -0.05009191 -0.048823964
000130 f5 4e 4d bd 04 69 4c bd 76 11 50 bd 89 55 4a bd
       -0.050124127 -0.04990484 -0.050797902 -0.04939798
000140 73 12 4f bd ea b8 42 bd f5 b1 4c bd e7 e9 49 bd
       -0.050554704 -0.04753963 -0.0499744 -0.049295332
000150 e5 67 4f bd e5 af 4a bd b5 4c 4c bd 56 39 48 bd
       -0.05063619 -0.049484152 -0.04987784 -0.048882805
000160 3a 9d 4c bd 19 12 4c bd 31 49 4c bd b2 d0 41 bd
       -0.04995463 -0.049821947 -0.04987449 -0.047318168
000170 ed 83 49 bd 47 22 4b bd c2 ea 4d bd fb 2a 52 bd
       -0.04919808 -0.049593236 -0.05027271 -0.05131052
000180 ef 6a 49 bd 4c 80 47 bd 98 71 4c bd 22 e8 4b bd
       -0.049174245 -0.048706338 -0.04991302 -0.049781926
000190 10 dc 4d bd 4b a4 4a bd 61 5c 4c bd 59 21 4c bd
       -0.050258696 -0.04947309 -0.049892787 -0.04983649
0001a0 05 73 4e bd 18 9b 46 bd 01 80 4b bd bd 34 49 bd
       -0.05040266 -0.048487753 -0.04968262 -0.04912256
0001b0 4d 81 4b bd fc bf 4a bd c2 df 49 bd 67 cc 4c bd
       -0.049683858 -0.049499497 -0.049285658 -0.04999962
0001c0 cc 60 4c bd 04 71 4e bd 10 8a 4d bd e2 25 4d bd
       -0.049897 -0.05040075 -0.050180495 -0.050084956
0001d0 b8 ce 4c bd 77 1a 4e bd 87 78 48 bd 4c 94 4a bd
       -0.05000183 -0.050318208 -0.04894307 -0.049457833

fc1.0.weight_fake_quant.activation_post_process.max_val f4 [120]
000000 be 19 4c 3d 08 f5 50 3d 5b 21 4b 3d d1 39 4b 3d
       0.049829237 0.05101493 0.049592357 0.049615685
000010 34 69 4c 3d 35 d6 4b 3d 0d 5e 4b 3d b6 18 4d 3d
       0.049905017 0.04976483 0.04965024 0.050072394
000020 c2 e7 4d 3d ba b0 4d 3d d8 b5 4c 3d af 96 4c 3d
       0.05026985 0.050217368 0.049978107 0.04994839
000030 fa d4 4c 3d 9b 52 4b 3d d8 6a 4c 3d b7 77 4e 3d
       0.050007798 0.049639326 0.04990658 0.050407138
000040 00 b3 4c 3d 13 35 4a 3d c9 98 4b 3d 2f a4 4d 3d
       0.049975395 0.04936702 0.049706254 0.050205406
000050 5d d8 4c 3d d4 08 4e 3d 9d 37 4c 3d dc f7 4b 3d
       0.050011028 0.050301388 0.049857724 0.049796924
000060 2b 04 4b 3d 21 c9 4c 3d a8 98 4c 3d 7f e9 4c 3d
       0.04956452 0.0499965 0.04995027 0.050027367
000070 b1 ea 4a 3d 69 b3 50 3d 36 ec 4f 3d db e0 4c 3d
       0.049540225 0.05095235 0.050762378 0.050019126
000080 6d 1d 50 3d b4 4f 49 3d 93 34 4c 3d 71 90 4d 3d
       0.050809313 0.049148276 0.049854826 0.05018658
000090 9f 0d 4c 3d d0 8f 4d 3d c1 07 4c 3d 20 26 4c 3d
       0.049817678 0.05018598 0.049812082 0.049841046
0000a0 03 b4 4a 3d aa 42 4a 3d 7c af 48 3d 0e 9a 4c 3d
       0.04948808 0.049379982 0.04899548 0.049951605
0000b0 97 a6 4c 3d 7b 4c 4f 3d 88 39 4c 3d 68 68 4b 3d
       0.04996356 0.050610047 0.049859554 0.049660116
0000c0 c8 de 4e 3d b3 80 4c 3d 1e 81 4c 3d 0a b3 4b 3d
       0.05050543 0.049927425 0.049927823 0.04973129
0000d0 a5 98 4c 3d 06 a5 4c 3d 8f 27 4b 3d f1 a4 4c 3d
       0.04995026 0.049962066 0.049598273 0.049961988
0000e0 a1 79 4c 3d a8 cf 4b 3d 43 9c 4c 3d 54 f5 4a 3d
       0.049920682 0.049758583 0.04995371 0.04955037
0000f0 47 3d 4c 3d 41 aa 52 3d ba b7 4c 3d 58 a4 4b 3d
       0.049863126 0.051431898 0.049979903 0.049717277
000100 6d 14 53 3d c2 ee 4a 3d ad ef 4d 3d e6 b3 4a 3d
       0.05153315 0.049544103 0.0502774 0.04948797
000110 2c d8 50 3d 39 a6 4d 3d a9 d9 4b 3d d8 cb 4b 3d
       0.050987408 0.05020735 0.049768124 0.049754947
000120 9e 62 4d 3d f3 6b 4a 3d 9f 52 4b 3d 3d 65 4e 3d
       0.050142877 0.049419355 0.04963934 0.050389517
000130 8f ec 4c 3d 60 08 4c 3d e6 f3 4f 3d 7d 94 4b 3d
       0.050030287 0.049812675 0.05076971 0.049702156
000140 9c 2c 4c 3d 24 01 53 3d 12 0c 4c 3d 92 32 4a 3d
       0.04984723 0.05151476 0.0498162 0.049364634
000150 00 8d 4e 3d 6e b4 4c 3d fe 51 4c 3d 3a ef 4d 3d
       0.050427437 0.04997676 0.04988288 0.050276972
000160 57 70 4c 3d 6b a1 4a 3d bc 96 4d 3d 2a b7 4d 3d
       0.049911823 0.049470346 0.05019258 0.050223507
000170 f3 9e 4c 3d fa aa 4b 3d cb 9a 4d 3d be 39 4b 3d
       0.049956273 0.049723603 0.05019645 0.049615614
000180 7a 87 4c 3d e2 4a 4d 3d 40 ed 48 3d 14 27 4d 3d
       0.049933888 0.050120242 0.049054384 0.050086096
000190 5d 3a 4b 3d 7a 7a 4a 3d 49 bd 4f 3d 58 98 4b 3d
       0.049616206 0.04943321 0.050717626 0.049705833
0001a0 3d dc 4a 3d 18 22 4e 3d 5b 1c 49 3d 07 b4 4e 3d
       0.04952644 0.050325483 0.049099308 0.050464656
0001b0 87 60 4d 3d d3 e2 4b 3d ff 69 4c 3d 2c 08 4c 3d
       0.050140884 0.049776863 0.049905773 0.04981248
0001c0 e3 83 4c 3d ab 36 4d 3d ef 95 4c 3d 1e e8 4a 3d
       0.049930464 0.050100964 0.049947675 0.04953777
0001d0 fe 89 4c 3d a9 8e 4c 3d cf c7 46 3d 61 a8 4f 3d
       0.049936287 0.04994074 0.048530396 0.050697688

fc2.0.weight f4 [84, 120]
000000 90 bd 4a 3d 29 15 0d 3d 89 4e b7 bc c2 55 b4 3d
       0.049497187 0.034444008 -0.022376316 0.088054195
000010 58 e1 3c 3d 6f b3 99 3d 02 1d d0 bb e6 9b 5c bc
       0.046113342 0.07504927 -0.0063511143 -0.013464903
000020 52 02 79 3d f9 ac 30 3d 2a cf a2 3c 51 70 a5 3d
       0.06079323 0.04313371 0.019874174 0.08078063
000030 73 bd d8 3c 14 2e ba bd 45 97 06 bc c3 c3 8c bd
       0.026457524 -0.0909082 -0.008214776 -0.06873276
000040 0f 24 96 3d 5d 37 cb bb 24 74 91 bd c5 a2 b5 3d
       0.073310964 -0.006201668 -0.0710223 0.088689364
000050 9b 70 6d bd 4b 2b a0 3d a7 88 8b bd 2e dc 85 3d
       -0.057968717 0.078207575 -0.06813174 0.065361366
000060 74 56 62 3d 8c 45 92 bc fe f3 2e bd 11 7d 82 bd
       0.05525823 -0.017855428 -0.042713158 -0.06371511
000070 f3 49 2d 3d 2f 4d ac 3d 29 65 62 bd ed e2 3b 3d
       0.04230685 0.08413159 -0.055272255 0.04587071
000080 c1 df 18 3d 69 6c 42 bd 23 1a 8b bd a9 2a b6 3d
       0.037322763 -0.04746667 -0.067920946 0.088948555
000090 d0 67 ab bc fc 5f 46 bd bb 3d 99 3d 3d 88 93 bd
       -0.020923525 -0.04843138 0.07482477 -0.0720372
0000a0 c5 1f 83 3c 60 48 a9 bc 9f 73 f4 bc 4c e7 81 3c
       0.01600636 -0.020664394 -0.029840289 0.015857361
0000b0 eb 75 a9 bd 1b 61 3f bc ca 09 00 bd f9 46 73 3d
       -0.08274444 -0.011680867 -0.031259336 0.059393857
0000c0 da 36 86 3d 33 98 70 ba 89 36 b9 3c 18 e4 a6 bd
       0.06553431 -0.0009177953 0.022609012 -0.08148974
0000d0 82 11 2c 3c ca 0c 6b bd 32 c0 88 3d 98 c1 03 3d
       0.010502221 -0.057385243 0.06677283 0.032167047
0000e0 b3 22 8b 3d 5e 6b f3 bc 39 3b 6e bd 01 ed 12 bd
       0.06793728 -0.029714283 -0.058161948 -0.035870556
0000f0 c8 6a 6c 3d 50 b9 83 bc 61 57 38 bd dc ed 05 bd
       0.057719022 -0.016079575 -0.045005206 -0.032697544
000100 55 19 a9 3d 48 e2 8b 3d 13 20 5a bd 61 3e b7 3d
       0.08256785 0.06830269 -0.053253245 0.08947445
000110 88 1f 23 bd 29 73 8c 3d 96 57 98 bc 1e 89 a5 bd
       -0.039824992 0.068579026 -0.018596452 -0.08082794
000120 6f 48 b3 3a a6 a2 d9 3c f0 1c 8d 3d d4 9c 81 3d
       0.0013678203 0.026566815 0.06890285 0.06328741
000130 61 6e 83 3d 9f 72 b8 bd 07 be 4b bd 6e 29 d2 bb
       0.064175375 -0.09006237 -0.04974177 -0.00641363
000140 56 a4 07 bd 48 a7 ab 3c 86 01 b3 3c b8 f1 af 3d
       -0.033115707 0.02095379 0.021851312 0.08591026
000150 bc 51 50 bd af 87 03 3d e1 b6 9b bc ff 32 b3 bd
       -0.050859198 0.03211182 -0.019008102 -0.08749961
000160 92 15 94 bb fb 79 2a bd 49 a7 ee 3b 5c ae df 3c
       -0.004519173 -0.041620236 0.0072831255 0.02730482
000170 9c f0 5a 3d ed 92 50 bd 27 5c a5 bd fe 70 fa bc
       0.05345212 -0.05092137 -0.08074217 -0.030571457
000180 a9 01 b6 bd 04 16 95 bc 72 de 0f 3d b5 81 ad 3b
       -0.088870354 -0.018198974 0.03512425 0.0052950033
000190 07 2d 35 bd 3d f6 2e 3d 9c 4b b3 3c 1e 63 a9 3d
       -0.044232395 0.0427153 0.02188664 0.08270858
0001a0 c4 40 7f 3d 5d e2 ea 3c 46 e3 5b 3d 8a b3 70 3d
       0.062317625 0.028672392 0.05368354 0.05876497
0001b0 6f 06 18 3d c8 d5 94 3d c3 a2 a1 bc cd 80 a0 3d
       0.03711551 0.07267338 -0.019730931 0.07837067
0001c0 9c 64 0c 3b 50 08 02 3d 66 5a a7 bd 94 57 93 bd
       0.0021422273 0.03174621 -0.08171539 -0.071944386
0001d0 cd 21 a8 bb 04 f1 9a bc d4 8f 94 3d 68 6c 52 bd
       -0.0051309825 -0.018913753 0.072539955 -0.051372916
0001e0 15 a1 2e 3d da bf 2b bd dc 6f 4c bc 36 10 aa bd
       0.04263409 -0.04193101 -0.012477841 -0.08303873
0001f0 ef 54 77 bd cc d5 96 3d 24 8e 82 3d 2d 4f 8f bd
       -0.060383733 0.07364997 0.063747674 -0.069975235
000200 58 34 c5 bc 3b 83 86 3d 64 77 8d 3d d7 40 a5 3d
       -0.024072811 0.06567999 0.069075376 0.08069008
000210 cb 01 04 3b 09 71 9c 3c d1 6a b7 bd 99 80 25 3d
       0.002014267 0.019096868 -0.089559205 0.040405843
000220 8f 9d 03 bd cf 78 73 bd 33 ad 80 bd 8e d9 b6 bd
       -0.03213268 -0.059441384 -0.06283035 -0.08928214
000230 16 c2 9c 3d b7 c7 90 bd 3f e1 a6 3d 61 ba 57 3d
       0.076542065 -0.070693426 0.08148431 0.05266798
000240 9a 12 ba bd 8e f8 20 bd aa f7 b3 bd 7f 79 fa 3b
       -0.09085579 -0.03929954 -0.087874725 0.007643878
000250 36 bc 16 bd 8f 39 dc bc de 50 d1 bc db 50 b7 bb
       -0.036800586 -0.026882915 -0.025551256 -0.0055943555
000260 c5 e3 ef 3b 54 ac 95 3d af ef ac 3c 36 ce 84 3c
       0.0073208534 0.073082596 0.021110384 0.01621161
000270 b6 a4 98 3d 4c e2 15 bb 1b 51 a8 3d b9 6d 4b bd
       0.07453291 -0.002287048 0.08218595 -0.049665187
000280 18 d3 ba bc 0d ba 32 3d 0e 79 8a bd 9d 3d 26 bd
       -0.022805735 0.043634463 -0.067613706 -0.040586103
000290 c7 e4 aa bd f9 4f 2e 3d e5 bf b9 bd 15 83 40 3d
       -0.08344417 0.042556737 -0.09069804 0.04700001
0002a0 1a 95 93 3d 3b cf 75 bd 9e 10 b6 bd de 83 56 3d
       0.07206173 -0.060012084 -0.08889888 0.052371852
0002b0 d8 84 f2 bc ff f4 76 3d 90 74 8f 3d d1 99 97 3d
       -0.02960436 0.06029224 0.070046544 0.07402385
0002c0 b2 84 95 bd 3c 81 aa 3d ef 7d 9b bc 25 52 18 bd
       -0.073007 0.08325431 -0.018980948 -0.037187714
0002d0 f4 84 81 bc 5f 1d a0 bb ca 36 28 bd fe 3f 8d 3d
       -0.015810467 -0.004886314 -0.041067876 0.06896971
0002e0 db a2 2b 3b 68 75 89 bc f4 a7 ab bd 0c cc 51 bd
       0.0026189599 -0.016779616 -0.08381644 -0.051219985
0002f0 80 e8 12 bc 21 76 ae 3c c0 24 68 3c fb a0 a7 bd
       -0.008966565 0.021296563 0.014168918 -0.081850015
000300 45 86 0a bc 31 c8 f1 3c 0c 77 4b bd 3d 16 88 3b
       -0.008454864 0.029514404 -0.04967408 0.0041530416
000310 b7 7c 36 3d 2b 67 98 bb 14 8e e6 bc 42 ed 86 3d
       0.04455253 -0.0046509705 -0.02814392 0.06588222
000320 b8 13 4f 3d cf 8f 4a bc 30 57 34 bd 2c 80 9b 3c
       0.050555915 -0.012363388 -0.04402846 0.018982016
000330 28 4f 2c bd 19 d8 67 3d d4 f0 70 bd 28 ad 76 bc
       -0.042067677 0.05660257 -0.05882342 -0.015055932
000340 9b f2 55 bd 53 1f 78 bd dd d7 ab 3d 13 bf 5c bb
       -0.05223332 -0.060576748 0.08390782 -0.0033683225
000350 34 29 2a 3d d5 5c f5 bc 5c 68 3c bd c2 c3 5a bc
       0.0415432 -0.029951492 -0.045997962 -0.013352336
000360 ac 29 dd bc aa f6 d2 bc aa 63 28 bd b7 f0 80 3d
       -0.02699741 -0.025752384 -0.041110672 0.06295913
000370 ca 70 99 bc 54 97 33 3b ff ac ef bc 80 ed 06 3c
       -0.01873054 0.002740343 -0.029257296 0.008235335
000380 7c c5 66 3d 70 43 11 bc 49 77 80 3c 1f 27 ab 3d
       0.05634068 -0.008866176 0.01568188 0.08357071
000390 a6 8d c2 bc 49 f2 ab bd 71 c2 b6 3d a6 68 46 3c
       -0.023749184 -0.083958216 0.089238055 0.012109911
0003a0 5c b6 95 bd 97 10 9d 3c b8 9c c7 3b 9d 53 48 bd
       -0.07310173 0.01917295 0.0060916804 -0.048907865
0003b0 8a 55 79 3d 83 f2 f2 bc e5 3c 3b bd 10 64 7c 3d
       0.060872592 -0.029656654 -0.04571237 0.061618865
0003c0 e1 0c b7 bd 8a dd 08 3d bc ab 94 bd dc 21 b3 bc
       -0.08938003 0.0334144 -0.07259318 -0.021866731
0003d0 1e c2 83 3d 42 b8 70 3d b9 a2 a0 3d 3a d7 38 bd
       0.06433509 0.058769472 0.07843537 -0.04512713
0003e0 99 ea b2 bc d3 79 a6 bc 98 1c 93 3d a5 1b a9 bd
       -0.02184038 -0.020321762 0.07183188 -0.08257226
0003f0 26 91 7e 3d 11 e1 38 bd b9 61 88 bd 72 e6 2b 3d
       0.062150143 -0.045136515 -0.06659264 0.041967817

fc2.0.bias f4 [84]
000000 c5 3e 8b bb 0e ec ac bc f5 db 5d bd ca a3 11 bc
       -0.004249426 -0.021108653 -0.054164845 -0.008889148
000010 41 69 cb bc a5 7d 5f bc 92 1d 32 bd ad 9c af bd
       -0.024830462 -0.013640796 -0.04348523 -0.085748054
000020 27 83 34 3d 8f 70 13 3d b8 56 5f 3d 78 d2 4e bd
       0.04407039 0.035996016 0.05452606 -0.050493687
000030 77 73 7d bd e8 5c f5 3c a8 07 f0 3b 4f 02 e8 3c
       -0.061877694 0.029951528 0.0073251314 0.028321413
000040 2a e2 22 3d 71 7c d9 3c b0 af b2 bc 3e f7 9a ba
       0.039766468 0.026548596 -0.02181229 -0.0011822951
000050 23 fb a5 bd 5f 77 af 3d 53 e7 cd 3c 89 5a 98 3d
       -0.08104541 0.0856769 0.025134718 0.07439143
000060 15 52 79 bd bc dc 32 bd ac e9 af 3b 35 49 65 bd
       -0.060869295 -0.04366754 0.005368432 -0.05597802
000070 e1 fb 01 3d 8f bf 03 3d 93 4c b1 bb a1 01 53 bd
       0.03173435 0.032165106 -0.0054107397 -0.051515225
000080 be 93 29 bc bc d1 73 39 f5 22 50 bc 69 f3 28 bd
       -0.010350166 0.00023252418 -0.012703647 -0.04124776
000090 f6 4b a4 bd 3f f7 68 bb 36 27 92 3c dd d8 2d bd
       -0.08022301 -0.003554776 0.017840963 -0.042443145
0000a0 38 f3 3e bc 24 9e ba 3c dc b4 5f 3d 6d 18 b7 3d
       -0.011654668 0.022780485 0.05461584 0.08940206
0000b0 f1 8a 13 bd 85 d6 b8 3d 4a 76 b9 bd 07 05 d0 3d
       -0.036021177 0.09025291 -0.09055765 0.10157209
0000c0 a4 f6 80 3c 7c d2 de 3c 96 7e 8c bd 98 e2 b2 3d
       0.015742607 0.027199976 -0.06860082 0.087346256
0000d0 fc d0 ac 3d bd 9e aa bd 29 a5 8c bd 75 47 6d bd
       0.08438298 -0.08331058 -0.06867439 -0.057929475
0000e0 c8 67 18 3d bd 89 a7 3d 7b cf 4b 3d cc 4d c4 3c
       0.03720835 0.08180568 0.049758416 0.023962878
0000f0 ad 5e 46 bd 8c 9f 96 3d 92 52 36 3d 18 f2 37 bd
       -0.048430134 0.0735465 0.04451234 -0.044908613
000100 20 9d bb 3c 24 ca 05 bd 21 84 80 3c 04 3d 36 3d
       0.022902071 -0.03266348 0.015688004 0.044491783
000110 a4 2b 7e bc 83 44 23 3d 5e c8 09 3d 42 b1 ba bd
       -0.015513334 0.03986026 0.03363835 -0.091158405
000120 69 24 9a bd 14 90 68 3d f0 88 1d bd ac 83 57 bd
       -0.07526476 0.05677803 -0.038460672 -0.052615806
000130 c9 fd 30 3d 14 b2 7d 3d de 64 a9 bc 9f 48 83 ba
       0.04321078 0.061937407 -0.02067798 -0.001001615
000140 c5 6a 15 bd f4 33 a4 bc 37 6d a8 bd 16 82 80 bd
       -0.036478776 -0.020044304 -0.08223956 -0.06274812

fc2.0.weight_fake_quant.scale f4 [84]
000000 16 ce 45 3c 78 7e 46 3c 67 54 43 3c 50 a6 47 3c
       0.0120730605 0.012115113 0.011921979 0.012185648
000010 dd fc 45 3c 49 bf 45 3c 38 51 47 3c 7f 01 46 3c
       0.012084213 0.012069532 0.01216536 0.012085318
000020 31 18 45 3c 78 94 46 3c aa 06 48 3c 21 26 47 3c
       0.012029693 0.012120359 0.01220862 0.012155087
000030 42 f5 45 3c 3c 67 47 3c d4 0f 45 3c 88 2a 47 3c
       0.0120824 0.012170609 0.0120276995 0.012156136
000040 08 24 43 3c 64 cd 46 3c 7a 5e 45 3c 78 af 45 3c
       0.011910446 0.01213393 0.012046451 0.012065761
000050 25 42 47 3c ed 44 46 3c 27 c4 45 3c 69 0e 47 3c
       0.012161766 0.012101394 0.012070692 0.012149432
000060 d6 ed 46 3c cb bb 43 3c 8b cb 43 3c a0 e2 46 3c
       0.012141665 0.011946629 0.011950384 0.012138993
000070 ea 27 46 3c 22 f7 43 3c 3b dc 44 3c 31 95 46 3c
       0.012094477 0.0119607765 0.012015398 0.012120531
000080 3f ec 46 3c e1 6a 47 3c 98 42 46 3c 32 a1 43 3c
       0.012141286 0.012171478 0.012100838 0.011940287
000090 db 74 44 3c 1c 1a 46 3c 96 9f 45 3c cc 04 43 3c
       0.011990751 0.012091186 0.012061974 0.011902999
0000a0 1d 24 40 3c e6 27 46 3c 19 6c 49 3c 1c eb 45 3c
       0.01172736 0.0120944735 0.012293839 0.01207998
0000b0 2d 30 47 3c 83 f9 44 3c da 31 47 3c 96 1d 46 3c
       0.012157482 0.012022379 0.012157882 0.012092015
0000c0 9f 5c 46 3c c8 44 46 3c 93 a0 49 3c cc 64 44 3c
       0.0121070435 0.01210136 0.01230635 0.0119869225
0000d0 5f c9 43 3c 93 e2 43 3c 1c c4 42 3c a4 b2 48 3c
       0.011949866 0.011955875 0.011887576 0.0122496225
0000e0 b5 29 47 3c 16 ea 44 3c 52 06 47 3c b5 76 45 3c
       0.01215594 0.012018701 0.012147503 0.012052228
0000f0 c6 49 42 3c 4b ab 46 3c 98 97 4f 3c 8d b0 46 3c
       0.011858409 0.0121258 0.01267042 0.012127054
000100 ca 20 45 3c a1 32 45 3c 14 aa 43 3c 8c cf 46 3c
       0.012031743 0.012035997 0.011942405 0.012134444
000110 64 05 47 3c 61 f2 46 3c ad 15 47 3c 7a 77 43 3c
       0.012147281 0.012142749 0.012151164 0.011930341
000120 c2 6f 47 3c 46 b1 45 3c b3 50 47 3c 85 c3 45 3c
       0.012172641 0.012066191 0.012165236 0.012070541
000130 d1 9d 45 3c bc 99 42 3c ff 5c 45 3c 5a f1 47 3c
       0.012061552 0.011877473 0.012046098 0.012203539
000140 f7 fb 41 3c b6 21 46 3c f6 c9 46 3c a4 94 44 3c
       0.011839858 0.012092998 0.012133112 0.011998329
