checkpoint/LeNet5_parametrized_hardtanh_quantized_4_bits.ckpt (torch, 272088 bytes, 10 tensors)

conv1.0.weight f4 [6, 3, 5, 5]
00000000: 2300 8f3c fa69 e93c ed54 033e 78a0 8ebe
00000010: f44e 973d 26d8 cd3d 63d3 e93d fccc d9be
00000020: d7f7 37bf 180b a9bd 8038 4f3e 0f9a 54be
00000030: a14e 71be c8f7 f93d b0a9 8fbe 78d1 b93d
00000040: 1a43 9bbe f610 7c3e 831e 363e b0bb 7bbd
00000050: 0d43 063e b47b 933e 1bb2 a83d 475d 5c3d
00000060: 36b3 b43e fae5 c53c 0b62 543d 34b9 be3d
00000070: 1854 b9bd c426 863c a751 143c 63e6 563e
00000080: f7b7 b1be 06c6 e9be 48d1 413e 137a 173e
00000090: 4af2 d93c 3010 d7bd a7ec 8f3e 4a06 65be
000000a0: 5d0e 94bd 3c00 47be 08b5 8e3e d037 a63e
000000b0: 0463 9f3d 8554 1bbe 25ea 543e c79c 8cbd
000000c0: 76c6 eebc c2f5 0f3e 9525 84be 6421 0abe
000000d0: 179d 22bd a73f bebe 44d0 b8bd 3ba2 5dbe
000000e0: 4b4e 6b3e 5d01 8abe 1494 0abf a7f8 d93d
000000f0: 4624 053e 18ae 85bd a805 ffbd 7dba 883e
00000100: 4d79 73be 9d72 38bd 3504 31be 10b9 de3e
00000110: 7f83 d23e 4ac9 903e 952b 21be 88c3 893e
00000120: cd3d 033e 15ec 803e 24b7 ef3e af0a 65bd
00000130: 6080 f23b 7d17 ce3d 74b5 473b 6d7d d7bd
00000140: db92 83bd 9b78 af3d 2ad5 e6bd f190 6b3e
00000150: f5ed 78bd 9066 d2bd ca94 093f 7a1e 89bf
00000160: c965 3e3f 7fe2 aabd e8ab f2bd 2374 1c3f
00000170: 69c4 8ebf dad3 353f dbdb 52bd f34f bebd
00000180: 4460 7b3d 6053 8dbe 5e45 ed3d 6631 d2bb
00000190: a203 003e f937 0abd 7793 debd 3257 773c
000001a0: 8a5f d73d 635d b43d 0fcd 0f3e 4d7b e0be
000001b0: f87f 043e d822 b73d 9ed7 793d 04f5 243f
000001c0: 2969 bcbf c9e4 413f 3468 22bc 1d2d c83d
000001d0: 42ee 373f 0dfb c3bf ce55 243f 38c3 ba3c
000001e0: c767 ce3d 4fb9 873e 5ace e1be aa8f 0a3e
000001f0: dade 9e3d df3b f4bd f1e9 313d e22f c6bd
00000200: 3962 063d a7bb 8cbd edbb 13bc 3e08 bf3d
00000210: 0aa2 91be 83ba 753e 6db7 57bd 9cc5 4cbc
00000220: 06f5 253f c2c3 a4bf 3369 473f 330e 79bd
00000230: 215b acbd fbdb 403f 227e a0bf a47a 343f
00000240: 3734 98bd 56e7 4dbd 50df 6d3e 2cd5 95be
00000250: c214 1a3e 17ce 79bd 501a 603c 2ef4 5bbd
00000260: a38c 8f3c 192f 4fbd 0c15 393d b71a 373d
00000270: b05a 303c b7c1 eabd b3b2 66bd 0543 a23c
00000280: fb3d 063d b11a 58bd ce70 b13d a213 f8bd
00000290: 677c b8bc f55c 07bd 8d95 72bd 1e00 6abe
000002a0: 9da0 c23d 51e9 b2bd dabe e63c 8d04 2b3e
000002b0: 7771 8abe 5ba4 9b3d 8409 b6bd b18b 32be
000002c0: 6d00 79bd 9c18 4abd 35c0 ae3c ddcf 99bd
000002d0: bf5c 2c3d 3c87 c13d 9b5d 6cbd caf2 0d3e
000002e0: 11db ad3a d33f 45bd b1a6 ad3d b4c9 943e
000002f0: 69c3 8f3d ef8b 393d 4800 7f3c 5657 693e
00000300: 4da1 633e 2ce5 973e 32df 6a3d 3a0c 04be
00000310: 1ea0 6a3e e506 513d 9988 403e 76d4 0abc
00000320: e378 0a3e 6360 963c c66d d63d 40c2 44bc
00000330: 2874 09bd 53a1 c9bd 7320 8f3d 2f42 59bb
00000340: ed66 0fbd 7fde 0e3e aa82 e33d e1e3 c8bd
00000350: 920f 193e 3aa1 b6bd 268d debc ba0c 2dbd
00000360: 64cd 6dbc 4ea3 4dbe 5c6c 3c3d c237 eebc
00000370: 6a12 64be 672c 133e b7c3 5cbe 723a a83d
00000380: 8798 eebd bf1b 9bbd b8bf 5fbd d313 94bd
00000390: c306 723e 3c72 b03d 9d5a 13bf e51a 7ebe
000003a0: bba7 bcbe ba2e 963e c086 6c3e e269 893f
000003b0: 2b8e 383f cc86 423f b20c d7be b079 2fbe
000003c0: 0913 b0be f59f 85be c141 5cbe a9db c5bd
000003d0: f9b1 c9bd 91ba f9bd cc1a 5abd 567a 41be
000003e0: f76e 4f3e 4d08 88ba 16d7 1abe 1b7b 0dbe
000003f0: c731 f6bd 61cd 8d3e 796a 42bd 9901 0dbf
0.01745612 0.028492916 0.12825365 -0.27856803 0.07388106 0.10050993 0.11417272 -0.42539203
-0.7186255 -0.08254069 0.20236397 -0.20761894 -0.23565151 0.12205464 -0.2805915 0.09073156
-0.30324632 0.24615845 0.17785077 -0.06145829 0.13111515 0.28805315 0.08237096 0.053799894
0.35292977 0.024157513 0.051851314 0.093126684 -0.09049243 0.016375907 0.009052671 0.20986323
-0.34710667 -0.45658892 0.1892749 0.14792661 0.02660479 -0.105011344 0.2811024 -0.2236568
-0.07229302 -0.19433683 0.2787249 0.32464457 0.077825576 -0.1516896 0.20792444 -0.068658404
-0.029147368 0.14058593 -0.25809923 -0.134893 -0.039700594 -0.37157938 -0.090240985 -0.21643917
0.22979085 -0.26954165 -0.541322 0.1064313 0.13002118 -0.065273464 -0.12452251 0.2670478
-0.23776741 -0.04503118 -0.17286761 0.43500566 0.4111595 0.2827857 -0.15739281 0.2690699
0.12816544 0.25180116 0.46819413 -0.05591839 0.0074005574 0.10063074 0.0030473145 -0.1052197
-0.06424495 0.085679255 -0.112711266 0.2300451 -0.06077381 -0.102734685 0.5374266 -1.0712426
0.7437406 -0.08343982 -0.11849195 0.6111471 -1.115369 0.71026385 -0.0514792 -0.09292593
0.061371103 -0.27602673 0.11585496 -0.00641458 0.12501386 -0.033744786 -0.108679704 0.015096473
0.105162695 0.088068746 0.14043067 -0.4384407 0.12939441 0.08942193 0.060996644 0.64436364
-1.4719592 0.75739723 -0.009912539 0.0977423 0.7184793 -1.531099 0.6419343 0.022798166
0.10078388 0.26508567 -0.44102746 0.13531366 0.07757349 -0.11925482 0.043435995 -0.09677102
0.032808516 -0.06871729 -0.009016973 0.09327744 -0.28443938 0.2399693 -0.052665163 -0.012498286
0.64827 -1.287224 0.77894896 -0.060804557 -0.08415819 0.75335664 -1.2538493 0.70499635
-0.07431834 -0.050269447 0.23229718 -0.292642 0.15046981 -0.06098756 0.013678148 -0.053699665
0.017523116 -0.050582025 0.045186087 0.04470321 0.010763809 -0.114627294 -0.056322765 0.019807348
0.032773953 -0.05275983 0.08664094 -0.1211312 -0.022520257 -0.033047635 -0.059224654 -0.22851607
0.09503291 -0.08735908 0.028167177 0.16700955 -0.27039692 0.07599708 -0.08888534 -0.174361
-0.06079142 -0.049339876 0.021331886 -0.0751035 0.042080637 0.09449622 -0.057706457 0.13862148
0.0013264139 -0.04815657 0.084790595 0.29060137 0.070196934 0.045299467 0.015564032 0.22787222
0.222295 0.29667032 0.057341762 -0.12895289 0.22912642 0.051031966 0.18802108 -0.008473506
0.13522677 0.018356508 0.10470156 -0.012009203 -0.03355804 -0.09845223 0.06988611 -0.003315102
-0.035010267 0.13952063 0.111089066 -0.098090895 0.14947346 -0.0891747 -0.027166914 -0.042248465
-0.014514301 -0.20081827 0.046001777 -0.029079322 -0.2227265 0.14372407 -0.21559034 0.082142726
-0.11650186 -0.075736515 -0.054626197 -0.07230344 0.23635392 0.086155385 -0.5756014 -0.24814947
-0.36846718 0.29332525 0.23098278 1.0735438 0.7209193 0.75986934 -0.42001873 -0.17136264
-0.34389523 -0.260986 -0.21509458 -0.096610375 -0.09848399 -0.12193788 -0.05324821 -0.18894324
0.20257173 -0.001037845 -0.15121111 -0.13816492 -0.12021213 0.27695754 -0.04746482 -0.5508056

conv1.0.bias f4 [6]
00000000: 2a7d 203f 1531 adbf 4cf4 a23c a2a0 c0bf
00000010: 9a77 83be c2d0 5cbf
0.62690985 -1.3530604 0.01989188 -1.5049021 -0.25677186 -0.8625604

conv2.0.weight f4 [16, 6, 5, 5]
00000000: 9f2e 98be 2ec7 12be 0307 0ebd 58a4 00be
00000010: 4152 87be e834 49be 2b23 cabd 3c55 2d3d
00000020: 633b 4cbd 73f0 063d 9a0d 56be f5bf e7bd
00000030: 3ffc a13d 32b4 d7bd f34d 2e3d a579 07bd
00000040: 0c25 cd3d ca5c 8e3e 6d77 2b3d 1931 a23d
00000050: 4224 4cbd 2586 2bbd cadb 2b3d 53ea d6bc
00000060: 4e7b 2a3d 7559 363d 01b9 763d e102 d13e
00000070: 901b 053e dcec 363e 766c 2b3d 079d d33d
00000080: a03e 173f 0182 4e3e 75b8 d13d b988 84bd
00000090: 19de 84bc 48a5 ed3e 77e6 0b3e dfb8 2a3d
000000a0: 8117 41be fa63 49be 0a2f 4e3e 2e7a 2b3d
000000b0: 8972 6cbd 7ceb 97be 5f86 8bbe a4a6 55ba
000000c0: 0985 2bbd f568 b7bd 07f8 7a3d 2a0e 21bd
000000d0: 1ea8 c1be 2363 1ebe 8124 893d d305 d0bd
000000e0: cfd8 ffbd d589 aebe 1e09 87be fc2f cbbd
000000f0: 3ebc 08bc ab10 f8bc e28f 4fbe 287f 75bd
00000100: 9da7 86bc 9419 763d 20de 273d c4bc 00be
00000110: 09df 93bd 1a37 2f3d 5d22 9b3e 731b 5a3e
00000120: 4820 7a3d 9afc a03d 1bf8 103e e329 ecbd
00000130: 3ffb 1dbe f7e6 01be bcea 25be 090d bbbd
00000140: 1893 06be d928 05be 3808 edbd aca5 52be
00000150: ccb0 03be 8c4f 60bc c0d8 2a3d 9bbe 043e
00000160: 2997 82bc 5904 28bd 32bc 2a3d ccc7 9ebd
00000170: 3e53 b3bc 6e7b 57bd 9692 00be 30e5 03bd
00000180: 4a5d 27be e6d1 fcbd 644f fcbd 0263 7fbe
00000190: 7e3d 20bc 84b8 aa3e 510c 003e 559a 203e
000001a0: 7802 a3bd 0712 1cbe 1ac0 723e 5339 8ebd
000001b0: 4272 2b3d f7ed 1dbe c899 4bbe 9d77 833e
000001c0: 3a0c 183d fd47 7c3d dc52 c0bd 239d 02be
000001d0: 9e1d 533e b81d d2bd fdc6 b73d 2857 f5bd
000001e0: 2d07 2b3d 7f59 6a3e de4f bc3b 7e22 dc3d
000001f0: 6a9f a0bb 35c6 26bd b2f4 663d 1e52 b83d
00000200: d295 193e ac9e f53d 9c56 2b3d a2f9 fb3d
00000210: 9ae4 e03d 1f49 fe3d a835 9d3c 6c8c 053e
00000220: 080f 843e bc29 883e b743 963e 537b dc3d
00000230: f34d 01be 8107 663d e295 d93c b5a3 cd3d
00000240: 1474 e93b 317b 00be 7444 da3d d53b 2b3d
00000250: f5fa 2b3d e6a2 673d 00f3 d6bc bc8e e63d
00000260: e5fe bc3d fa38 283e 9cee 20bd ec6b 2bbd
00000270: 57e7 bdbc d7ea 053e 96c3 ad3d 78ae 26bb
00000280: a9e8 07be a948 4a3d d468 2b3d 3f92 6a3d
00000290: 74f3 8b3d 9c65 ed3b 7d57 2b3d 2167 0f3c
000002a0: 5945 213e d863 0b3e f4ad 3fbd 73e4 7ebd
000002b0: 4ced 26bd d433 0dbd 14ee 193d e6dd 3c3d
000002c0: 0a44 de3d a932 133e 6c8d 193e 60f4 393e
000002d0: 3512 053a c28f 393d bba0 223e 7541 273d
000002e0: bc04 cf3d 20d2 28bd 35bf 7f3d 408b d23d
000002f0: d85b 2f3e 1f43 483d 3669 2b3d 37d4 f93c
00000300: ab3b 5f3d 2313 13bd da3b 333d 67ec 42bc
00000310: 8c87 293d 1e72 2b3d 46b6 db3d dc75 2b3d
00000320: cd37 ff3d 2cd9 be3c ae66 23be 8da5 05be
00000330: 0a7b 893c 9bb6 303e 054c cf3c 6bb4 dcbd
00000340: b767 2bbd c4ff 15be 21f6 c53d be8a 88bd
00000350: e229 09be 4fb0 f9bd 6a78 3bbe f5aa 813d
00000360: e950 1abd 1403 77bd f1c8 dbbd c82c c6bd
00000370: 32ea 003e a6ce 183d de91 c4bc b2ce debc
00000380: c9b7 053d 3eb2 373d 93cf 2bbd f7cd 883d
00000390: 2e2f 3dbc f18b d03d 6ec1 73bd 916f 2b3d
000003a0: 8d88 b1bd b4a3 e43d fa62 2bbd 7922 423d
000003b0: 5037 33bd d518 3c3d 8c2f a83c 5e63 6d3d
000003c0: 1766 5ebd 7300 ddbc 3c19 273d 1aba 70bd
000003d0: 4598 003e 3d73 2b3d 23c6 ac3c 1287 fa3b
000003e0: 9dba da3d 2666 013c d6b2 d4bb 8c8f 1fbe
000003f0: fb82 adbe 8295 ddbe eea2 73be 22b7 3f3d
-0.2972307 -0.14333794 -0.034674656 -0.12562692 -0.26429942 -0.19649088 -0.09869989 0.042317614
-0.049861323 0.032944154 -0.20903626 -0.1131591 0.0790944 -0.105324164 0.042554807 -0.033074994
0.10016832 0.27805167 0.04186194 0.07919521 -0.049839266 -0.041875977 0.041957654 -0.026234781
0.0416215 0.044518907 0.060235027 0.4082251 0.12998796 0.17863792 0.041851483 0.10332685
0.59079933 0.2016678 0.102402605 -0.0647139 -0.016219186 0.46415162 0.13662134 0.041680213
-0.18856622 -0.19667044 0.20135131 0.041864567 -0.057726417 -0.29671848 -0.27250955 -0.00081501366
-0.04187492 -0.08955566 0.061271694 -0.03932015 -0.37823576 -0.15467505 0.06696416 -0.10157361
-0.12492525 -0.34089532 -0.26374143 -0.09921262 -0.008345662 -0.030281385 -0.2026973 -0.05993572
-0.016437346 0.060082987 0.04098332 -0.12572008 -0.07220275 0.04277716 0.30299655 0.21299534
0.061065942 0.0786068 0.14157145 -0.11531427 -0.15427874 -0.12685762 -0.16202825 -0.09133346
-0.1314205 -0.13003863 -0.11573833 -0.20571011 -0.12860411 -0.01369084 0.041710615 0.12963335
-0.01594122 -0.04101977 0.041683383 -0.07752952 -0.021890279 -0.052607946 -0.12555918 -0.032200992
-0.1634418 -0.123447224 -0.1231983 -0.24940112 -0.009780286 0.333439 0.12504698 0.15683873
-0.07959455 -0.15241252 0.23706093 -0.069445275 0.04185701 -0.15422808 -0.19882882 0.25677195
0.037121035 0.06159209 -0.09390804 -0.12755255 0.20616767 -0.10259575 0.08973501 -0.11979514
0.04175489 0.22885703 0.0057468256 0.10748766 -0.004901816 -0.04071637 0.056385703 0.090000376
0.14998558 0.11993155 0.041830644 0.12303473 0.10981102 0.124162905 0.019190624 0.13041848
0.25792718 0.2659434 0.29348537 0.1076571 -0.12627392 0.0561595 0.026560728 0.1004099
0.0071244333 -0.12546994 0.10657588 0.041805107 0.04198738 0.056551836 -0.026238918 0.11257693
0.09228305 0.16427985 -0.039290056 -0.04185097 -0.0231816 0.13077866 0.08484571 -0.0025433581
-0.13272347 0.0493857 0.04184802 0.057268377 0.068335444 0.007244779 0.041831482 0.008752615
0.1574911 0.13612306 -0.046796754 -0.062229585 -0.040753648 -0.034473255 0.037580565 0.046110056
0.10852821 0.14374794 0.14995354 0.18159628 0.00050762604 0.045303114 0.15881626 0.04083391
0.10108325 -0.041216016 0.06243821 0.10280466 0.1712488 0.048892137 0.041848384 0.0304967
0.054500263 -0.035906922 0.04375825 -0.011897183 0.041389033 0.041856878 0.10728125 0.041860446
0.12461815 0.023296915 -0.15957138 -0.13051434 0.016782302 0.17257158 0.025304804 -0.107765995
-0.041846957 -0.14648348 0.09666086 -0.06667088 -0.13394883 -0.12191831 -0.18307653 0.063314356
-0.03767482 -0.06030567 -0.10731686 -0.0967651 0.12589338 0.03730645 -0.023995336 -0.02719817
0.032645974 0.04484772 -0.041946005 0.0667991 -0.011546893 0.10182942 -0.05951064 0.041854445
-0.08668623 0.111640364 -0.04184244 0.047396157 -0.043753922 0.04592212 0.020530485 0.057956092
-0.05429658 -0.026977753 0.04079555 -0.05877123 0.12558086 0.041857947 0.021090573 0.007645496
0.10680125 0.007897889 -0.0064910455 -0.15582103 -0.33888993 -0.43278128 -0.23792621 0.04680551

conv2.0.bias f4 [16]
00000000: f4ce 0bbf 1919 26bf 549b 44bd 50c4 9c3e
00000010: 1b85 48bf 62f5 dbbf 460d 84bf fd42 83bf
00000020: a4ba a8bf c152 1c3f ca1a b63d b6e9 05bf
00000030: 1db3 b73d a647 7bbf 6714 84bf 7ea4 7abf
-0.5461266 -0.64882046 -0.047999695 0.30618525 -0.783281 -1.718426 -1.0316551 -1.0254818
-1.3181958 0.6106377 0.08891828 -0.5230974 0.0896971 -0.981562 -1.0318726 -0.97907245

fc1.0.weight f4 [120, 400]
00000000: f09c 95bd ea4e aabc 1a3e 44bd 68a5 a3bc
00000010: 01e6 29bc dbb7 0a3d a58f 343d 98ab 7e3d
00000020: 2262 7d3d 5125 a03c f10b b03c ee9b 2d3d
00000030: a11e c83c 0ec3 9abd a461 b7bc 37c7 a4bc
00000040: 8009 a8bc e97e bdbc dadf 5cbd 6f2f 7abd
00000050: 37ee 7ebc 7496 a53c 3e60 b2bb d79f 8d3c
00000060: 20d9 97bd e221 a53c a0cf 2d3d f9d4 bebb
00000070: a54e 63bc 5a02 453c 3aa4 713d bce4 473d
00000080: 3088 febb d823 773d dc9d 043d ff8f 9b3b
00000090: 0a75 603d 653e b53d 7403 b93c 941d 1abd
000000a0: 13aa fcba 75e5 a33c 0fda 703d 9e85 3d3d
000000b0: 67a9 5abc 5150 6ebd 6459 f33b d83a adbc
000000c0: 3f9d 89ba f9cb 833d b4f0 853d aede 9dbb
000000d0: 46e9 393d 8892 133d 6741 103e 7cdd e9bd
000000e0: d974 22bd f41b 19bd fa29 67bd 43d7 49bc
000000f0: ef42 4cbd 35c0 59bc 0d99 833c 7608 10bc
00000100: e9a0 20bd ac17 a13b 7481 d0bb 6df6 d23d
00000110: afe5 d13c 996d 95bc 398b ef3d 81ed e93d
00000120: 5a97 393e 5343 0f3e cb0a 023d 3dc9 1f3e
00000130: e591 b43d 5787 a23d 3da9 ef3d 2c0e 9e3d
00000140: 176e 37bc b400 8f3b d5ea 49bc 5cb8 42bc
00000150: 6d3b db3c d130 73bd bc23 203d f8f0 133d
00000160: 5576 f83c c72d b0bc df09 f93c 9b71 f53b
00000170: 6082 5a3d 690e 883b 97bc fabc 3ee8 893d
00000180: ec61 a53d 7e49 e63d 5f5c aa3d 2157 803d
00000190: 0472 8dbc 9a5c 2bbd b31d 54bd 4d5b 49bd
000001a0: efa5 d0bd 0731 dfbc 1d5b 72bd b51f afbd
000001b0: 6c0d a8bd eee1 aebd 184d 7dbd 79a7 bcbd
000001c0: 04fb cbbd 46ed 0ebe 63d4 71bd 793b 09bc
000001d0: 3560 9cbd 7edc 20be edfe cbbd 5819 3ebd
000001e0: 8fc7 a03c 2226 8e3c 35fe a4bd ac0c 39bd
000001f0: 2acc 89bc dca6 f33d 2fa6 e93d e3e0 933d
00000200: fa97 4f3d 56d2 74bc 0311 563d 2f9e 773d
00000210: dfbe ab3d c79e a13c ee96 df3c 93d2 e1bc
00000220: 01a8 813c 1f11 863c 8fb5 29bc 4210 9ebb
00000230: cd85 6dbc 72f4 5cbc c3fb 233d a5f5 1f3d
00000240: d3cd ecbb 8f32 923c ce75 0c3c e36e dcba
00000250: 2980 a43d 2e8c a53c ca79 10bd 5f8d 093d
00000260: 11ba b63c fa1d c6bb 841d 7cbd a7f9 f3bc
00000270: 51ed fdbb 0d68 acbc f6d8 a4bc 1759 06bd
00000280: e9e2 42bd 2855 f93c fd2d 143d f30a 9ebc
00000290: bfa6 b6bc ff75 b4bc eabd d63c 5c6f b83d
000002a0: 8432 f33b 9d6a a43c 8581 9f3c 90c4 cdbc
000002b0: c85b 30bd 2732 043a 43c7 d7bc 7f3b 8ebc
000002c0: aa02 ddbb 628c 783c 3e07 863b 6725 4bbd
000002d0: 5b0f 07bc 47fc 943c 851c 1b3d 4f3c 993d
000002e0: 9fff b2b9 bc4b 8c3d c812 393d 0f06 8f3d
000002f0: 8a1d 913d d61a 493d 169f 903d df8c bb3d
00000300: 879e 183d eec0 803d 552c f73d e896 e03b
00000310: 025a 44bc 5de2 9cbc de26 96bc c327 0ebc
00000320: 2931 d8bc dcab 47bd effb a4bb 0e43 a13c
00000330: ac40 8b3d 1990 d93c d453 8e3c d5de fdbc
00000340: 2bfb 8ebc 02dd 0e3c b9ff 773d d60a 813c
00000350: f429 523d 18fe a03c b40b 8dbc 3486 963b
00000360: 4a28 30bd ce6a b53c efdc 883d e436 013d
00000370: 5138 a6bc f456 cd3b 6611 f53c f36e c73d
00000380: 04e8 ef3c 0b41 adbc 96f4 04bd 7a86 b6bb
00000390: d877 76bd 5655 c5bc 40f0 343d fb14 7cbc
000003a0: b15d 1fbd 3261 4fbc b7e3 aebc 6cff 6c3c
000003b0: 0679 463c bb57 eb3c d01a 24bd 1921 7cbc
000003c0: b75c 18bc 0a09 f4bc 1879 c93c 3f60 a0bc
000003d0: c61a 99bd 495a f33c ff3d 923c 6093 6fbb
000003e0: fa2a 93bc 430e e9bc 9b33 93bc 5494 e13c
000003f0: 0394 4f3d 4703 4e3b 9e63 5d3c 0053 f93b
-0.07305324 -0.020789582 -0.047910787 -0.019976333 -0.010369779 0.033866744 0.044082303 0.062175363
0.061861165 0.019549044 0.02149007 0.042385034 0.024428668 -0.07556735 -0.022385426 -0.020114524
-0.020512342 -0.023131805 -0.05392442 -0.061080392 -0.0155597245 0.020213343 -0.005443602 0.017288132
-0.0741446 0.020157758 0.042434335 -0.005823728 -0.013873731 0.012024486 0.05899451 0.048802122
-0.0077676997 0.060336918 0.03237711 0.0047473903 0.054799117 0.088497914 0.022584654 -0.037625864
-0.001927676 0.020006875 0.058801707 0.046270005 -0.013346053 -0.058182064 0.0074264277 -0.021146223
-0.0010499133 0.06435389 0.06540051 -0.0048178053 0.045388483 0.036028415 0.14087449 -0.11419198
-0.039662216 -0.037380174 -0.056436516 -0.012319389 -0.04986852 -0.013290455 0.016064191 -0.00879108
-0.039215956 0.004916152 -0.0063630883 0.10300908 0.025622217 -0.018240737 0.116964765 0.114222534
0.18124142 0.13990526 0.031748574 0.1560411 0.0881689 0.0793597 0.117022015 0.07717547
-0.011195681 0.0043640975 -0.012324055 -0.011884775 0.026761735 -0.059372727 0.03909658 0.036118478
0.030329863 -0.021506203 0.030400215 0.0074903495 0.05334699 0.0041521084 -0.030607505 0.0673375
0.08075318 0.11244486 0.083184 0.062666185 -0.017266281 -0.04183636 -0.051786136 -0.049159337
-0.10187899 -0.027245058 -0.059168924 -0.085509695 -0.08205685 -0.085391864 -0.0618411 -0.092116304
-0.09959987 -0.139577 -0.05904044 -0.008375996 -0.076355375 -0.15709111 -0.099607326 -0.04641089
0.019626407 0.017352168 -0.08056299 -0.0451781 -0.016820986 0.1189706 0.1140865 0.07220628
0.050682046 -0.014942726 0.052262317 0.06045359 0.08386015 0.019729031 0.027293649 -0.02756623
0.01582718 0.016365586 -0.010358228 -0.0048237154 -0.014497233 -0.013486015 0.04003502 0.039052624
-0.0072266846 0.017846374 0.008573009 -0.0016817715 0.08032257 0.020208444 -0.035272397 0.033582088
0.02230552 -0.006046054 -0.061551586 -0.02978213 -0.0077492376 -0.021045709 -0.020122986 -0.032799806
-0.04757968 0.030436113 0.03617667 -0.01929233 -0.022296308 -0.022028921 0.026213605 0.09005615
0.0074217934 0.020070368 0.01947094 -0.025118142 -0.04305628 0.00050428737 -0.026340133 -0.017362354
-0.0067447023 0.015170189 0.004090219 -0.049596217 -0.008243407 0.018186701 0.037868995 0.07482206
-0.00034141258 0.06850383 0.045183927 0.069835775 0.07085712 0.04909786 0.07061593 0.091577284
0.03726056 0.062867984 0.120690025 0.006853927 -0.01198435 -0.019150907 -0.01832908 -0.008676472
-0.026390629 -0.048747882 -0.0050349156 0.019685294 0.067994446 0.026557969 0.017373957 -0.030990044
-0.01745375 0.008719685 0.06054661 0.015752237 0.05130954 0.019652411 -0.017217495 0.004593635
-0.043007173 0.022145655 0.06682765 0.03154649 -0.020290526 0.006266469 0.029915523 0.09737959
0.029285438 -0.021149179 -0.032459818 -0.00557023 -0.060172886 -0.024088543 0.044174433 -0.0153858615
-0.03890771 -0.0126574505 -0.021348817 0.014465194 0.012113815 0.028728357 -0.040064633 -0.0153887505
-0.009299449 -0.029789466 0.024593875 -0.019577144 -0.0747581 0.029706137 0.017851828 -0.0036556348
-0.017964829 -0.028449183 -0.017968943 0.027536549 0.050678264 0.003143506 0.01351252 0.0076087713

fc1.0.bias f4 [120]
00000000: 9f3a 0c3e c607 7cbe 4de7 89bd 8b0a c93b
00000010: 74b5 fe3c 5647 b43c 6bd9 593c 9aab d53d
00000020: 01ce ac3d 7743 2bbe 2468 e43d e61e 283e
00000030: 08fd 3b3d 9461 5a3d 2eb1 37bb 63c3 e9bc
00000040: bc9c 733d a4ea 59bc 1991 6bbd f857 263c
00000050: 2aac 04be 438b bf3b fc4d 6bbd cc5f 903d
00000060: 2a3a c5bc 276c c7bd 1c41 513d 9206 6bbd
00000070: 11a1 4a3d 2819 b1bd 0a6b bc3d 150f f63c
00000080: 8460 813d de33 063e 3625 cebd 139a 37bd
00000090: ae90 6e3d d816 943d 7f7a 313d 06b9 f13c
000000a0: b928 06be 022d 7f3d a186 94bc 7d84 893d
000000b0: d8cb 353e 4634 83bd 1b45 e53d 2b15 0bba
000000c0: 9366 113d 57b7 d3bb e80c 963c cca5 03bd
000000d0: 2e5c 88bc b229 3e3c 1587 b43c e515 bc3d
000000e0: 500c 81bb d087 bebd 37f1 3ebd 5da4 3dbd
000000f0: 7e35 acbd 8501 1fbd 719b 25bd 01fd 063e
00000100: cfa6 313d 1613 07be 0bac edbc e62f a1bb
00000110: 0f0b 91bd a75b 6c3d 1daa 583d 004b 8d3d
00000120: 91d5 cdbd 7180 23bd 7026 193e 01fc 02be
00000130: 770d 833d 6fc3 0d3c 13a2 febc 2815 08be
00000140: b12a 02bd c8c7 b23d 76aa 5a3d c540 a23d
00000150: b20b c4bc ef93 103d e174 83bd 5469 763c
00000160: 38ce 5ebc b9a5 b63d 94f2 1d3d c2ce 9dbc
00000170: 548b 283d 2e21 02be 7968 e0bc 084a c7b9
00000180: 6eb5 973d 10ef be3d d846 483d 1890 a63d
00000190: f6c8 3abc b131 93bd a38e 20bc c052 bd3c
000001a0: cae3 fabd c0fe 463d df54 8a3c 6f9c 193e
000001b0: 96e2 ec3d abcd f6bd 5a74 96bd 4adc 33be
000001c0: 53bb fb3d ebeb bbbd b9e7 31bd 58d1 223d
000001d0: efcb 4f3c 336f 43bd d5ac 8bbd 81f7 eebd
0.13694237 -0.2461234 -0.0673357 0.00613529 0.031092383 0.022006672 0.013296465 0.10433121
0.084377296 -0.16724955 0.11152676 0.16418037 0.045895606 0.053315714 -0.0028029191 -0.02853555
0.059475645 -0.013300572 -0.057511423 0.010152809 -0.129563 0.0058454587 -0.05744742 0.07049522
-0.024075586 -0.09737425 0.051087484 -0.057379313 0.04947001 -0.08647376 0.092001036 0.030036489
0.06317237 0.13105723 -0.10065691 -0.04482467 0.058243446 0.072309196 0.043329712 0.029507171
-0.13101472 0.062298782 -0.018130602 0.06714723 0.17753541 -0.06406455 0.111948214 -0.00053055835
0.035498213 -0.006461065 0.018316701 -0.032140538 -0.016645517 0.011606621 0.022037068 0.091838636
-0.0039382353 -0.09303248 -0.04661676 -0.046299327 -0.0840864 -0.03881981 -0.040431444 0.13182451
0.04337197 -0.13190874 -0.0290127 -0.00491904 -0.070821874 0.057704594 0.052896608 0.06899071
-0.100505 -0.039917413 0.14956069 -0.12791444 0.063990526 0.008652552 -0.031083142 -0.1328932
-0.031778995 0.087295115 0.05338522 0.0792251 -0.023931358 0.03529733 -0.06418777 0.015039761
-0.013598971 0.08918328 0.03856142 -0.019263629 0.0411485 -0.1270797 -0.027393566 -0.00038011395
0.07407652 0.09322941 0.048895687 0.081329525 -0.011400452 -0.07187212 -0.009799632 0.023110747
-0.122504786 0.048582792 0.016886173 0.15001081 0.11566655 -0.12050947 -0.07346411 -0.17564502
0.12291589 -0.09175857 -0.04343388 0.039750427 0.012682899 -0.04771347 -0.068200745 -0.116683014

fc2.0.weight f4 [84, 120]
00000000: 1146 69bd 414f a63c 7acf cebc 3bf3 ccbc
00000010: 08fb 90bd 2fd2 973d b77a dcbd dfa5 b13d
00000020: 5eb4 c13d 334e 8cbd 39d1 7c3c 2855 bb3d
00000030: d7fb 5cbd 1d6a a5bd 2416 16be e28c 953c
00000040: a346 0f3b 1e22 9c3b 6877 343d 47fe 29bd
00000050: ea6e 34be 2595 83bd 8801 39bd d055 adbc
00000060: 1a82 0c3d 01fc adbc c61f 22bd 3567 aabd
00000070: d4b7 22bd 7bbd debc dbba 383e 1f9b 9f3c
00000080: f648 b53c cd79 6ebc dd3d d63c fb41 02bd
00000090: 2298 1bbc 6a1a 03bd e9f1 8c3b 51bc 64bc
000000a0: d784 68bd 832c 883d 1cc3 8d3d b412 c03d
000000b0: c55d 183d 1079 783d e4d4 c03c 2c90 abbc
000000c0: 0301 2a3b a8ce 113d 2e35 0b3d bbe3 39bd
000000d0: f242 8ebd 5eaf a4bd 4ee3 423d 4407 b5bc
000000e0: b0e9 6d3d f014 5abd f04f 693c 8128 a7bd
000000f0: e735 6fbc 0744 e8bc c0b2 04bd e399 ac3b
00000100: e02b bcbb 0211 85bd 27c3 0fbd da2f 1a3d
00000110: dd8c 7bbd f3cb 073e 5d92 cc3d 7029 063c
00000120: 2196 673d 872a b5bc 6a50 773d e829 7fbb
00000130: 8e46 863c 5179 2d3d cea2 a83c 4f45 8c3d
00000140: ce9c cb3b 7910 593d e3e6 6a3b 725c 113d
00000150: 5270 1d39 f8eb 3ebd 6d7a 07be 6d91 323d
00000160: 7fa7 993c fab2 263d 9204 37bb 0673 283c
00000170: fc82 a13c 6ea3 9abd 2422 8a3d d3cb d33c
00000180: d6d8 293d 20ca 57bd 8633 18bd f0ef dd3c
00000190: 1b9f c03b 84cf 83bc ca6a bcbd 2bce 9b3d
000001a0: daa2 1ebe 6b3a 073d 479e 853d 255b c8bd
000001b0: 586d 3d3d 3877 a9bc b42a f03c 5a93 a6bd
000001c0: cf46 69bc 8806 793d 5c6c 993b 5eea 793d
000001d0: 9209 ca3d 5bf7 e63b 000c e73c 846f aebd
000001e0: 587b 0d3d f71d 4a3d 91d0 5d3d e899 9d3c
000001f0: 42d0 b7bd 835c acbc 892f 18be 2371 2d3d
00000200: f112 753b 4095 853c b505 8f3d 2c8d 46bd
00000210: 3e6e acbd 7490 0abc a1cb 5abb a58e 233d
00000220: ba3a 033c e339 183e 041d c73d a99c 86bc
00000230: 64a5 98bc a2a2 3b3d c539 9a3d dcfc 353d
00000240: 7003 9d3d 6d8c a9bc 3f7e a33d aa81 a93c
00000250: d93b 34bd 1b6a 14bd a2f7 28bc 70c5 59bd
00000260: 2e02 fbbc faa9 ccbd b7dc 3abc adac a9bd
00000270: 5ba8 ddbd a336 15be f136 3abd dced c9bd
00000280: 355d 73bd 44db c63c 12ff 933b 7f84 69ba
00000290: 5b52 45bd 2299 73bd 7bba 543d 27e6 bd3d
000002a0: 1fe0 ac3d 99cf 913c 7656 313b a2d5 bf3d
000002b0: fd71 f4bd e191 c1bd 30d6 d9bc 709c 94bd
000002c0: 2625 703d 43de bbbc 769f d2bb 7f86 183c
000002d0: 0999 a33c a326 ac3d 02ac 9cbc b077 a0bc
000002e0: 58fb a1bc 32c7 153d 2a38 b93b 0a0d 363d
000002f0: 064c 523d 311c f63c 5024 0bbe 77ff 1d3e
00000300: ba5f d2bd 19e8 e2b9 82d7 ecbc f7b1 d5bd
00000310: 08c9 e03d 7fba 7abc e58a 8bbc 7673 9c3c
00000320: 6253 ad3c b7aa d5bd d9f8 d63b dc58 08be
00000330: 73ba 30bc b22c 44bd 3439 14bd 553f 7a3c
00000340: eea0 7d3d b09f 723d 6118 ce3d 0d23 f1bc
00000350: d423 c83d 3867 b5bc 4991 26bd afaa 333a
00000360: 045b aa3d e755 dcbd 2393 c0bd aca6 c73d
00000370: c53b eb3d 7d99 4dbb 89d0 b7bd 157e 373e
00000380: ca99 1c3c 3178 e53d 2fcd db3c 7f7c 013a
00000390: 4785 de3d 94f2 0cbd d5f0 963d 58b8 e93d
000003a0: a4e6 71bd 0d18 e0bd 45b4 fe3c b658 0a3e
000003b0: b288 b5bc 6c90 923c e69d a03d 030e 6c3d
000003c0: 0e3e 383c 33d0 fd3d 6ad4 0b3e 19e1 b33c
000003d0: c501 acbc 24e0 18bd f7d8 17be b40d 4b3d
000003e0: 1d2b 94bd 2401 063d 38d5 b7bd b47e 81be
000003f0: 2d58 1a3d f50d ea3c fa30 afbc 812c 9dbd
-0.056951586 0.020301463 -0.025245417 -0.025018325 -0.070791304 0.07413136 -0.107655935 0.086742155
0.094582304 -0.06850853 0.015430742 0.09147102 -0.05395111 -0.0807688 -0.14656883 0.018255655
0.002186217 0.0047648093 0.044059187 -0.041502263 -0.17620435 -0.064249314 -0.045167476 -0.021159083
0.034303762 -0.021238329 -0.039581083 -0.083204664 -0.039726093 -0.02718996 0.1804003 0.019483147
0.022129517 -0.014555407 0.026152546 -0.031801205 -0.0094967205 -0.032007612 0.004301299 -0.013960914
-0.05676731 0.06649115 0.0692198 0.09378567 0.0371988 0.06066233 0.023539014 -0.02094277
0.0025940544 0.035597473 0.033986263 -0.045383196 -0.069463626 -0.08041261 0.047580056 -0.022098191
0.05808419 -0.053242624 0.01424025 -0.081620224 -0.014600254 -0.02835275 -0.03239703 0.005267368
-0.005742535 -0.064973846 -0.03509822 0.03764329 -0.061413635 0.13261394 0.09988854 0.00818859
0.05653966 -0.022115005 0.060379423 -0.003893489 0.016391065 0.042352024 0.020585444 0.06849157
0.006213761 0.052994225 0.0035843186 0.035488553 0.0001501453 -0.046611756 -0.13230295 0.04359572
0.018756626 0.04069803 -0.0027926308 0.01028133 0.019715779 -0.07550703 0.06744793 0.025854027
0.041466556 -0.052682996 -0.03715851 0.02709195 0.005878342 -0.016090162 -0.09200056 0.07607683
-0.1549181 0.033014696 0.0652433 -0.097830094 0.046246856 -0.02068673 0.029317237 -0.08133574
-0.0142380735 0.060797244 0.004682107 0.061014526 0.09865107 0.00704853 0.028203964 -0.08517364
0.034541458 0.049344983 0.054153983 0.019238427 -0.08975269 -0.021040207 -0.14861883 0.042344224
0.0037395323 0.01630652 0.069835104 -0.048474476 -0.084194645 -0.008457292 -0.0033385532 0.03993096
0.008009607 0.14865832 0.09722331 -0.016432123 -0.018633552 0.045809396 0.0753055 0.0444306
0.07666671 -0.020696843 0.07983064 0.020691711 -0.044002388 -0.036234003 -0.0103129465 -0.053166807
-0.030640688 -0.09993358 -0.011405162 -0.082848884 -0.10823127 -0.14571624 -0.045462552 -0.09859821
-0.05941506 0.024274476 0.0045164907 -0.0008907988 -0.048174243 -0.05947221 0.051935654 0.09272414
0.08441185 0.017799186 0.0027059591 0.09366919 -0.11935804 -0.09451652 -0.02659139 -0.072564006
0.058629178 -0.022933131 -0.0064277006 0.00930941 0.019970434 0.08405807 -0.019124988 -0.019588321
-0.01977317 0.03656692 0.005652447 0.04444603 0.051342033 0.03004274 -0.13588071 0.15429483
-0.10272165 -0.00043279005 -0.028911356 -0.10434335 0.10975844 -0.015303253 -0.017034004 0.019098025
0.021157924 -0.10432952 0.0065604267 -0.13315147 -0.01078664 -0.047894187 -0.036187366 0.015273889
0.061921053 0.05923432 0.10063244 -0.029435659 0.09772459 -0.022143945 -0.0406659 0.0006853742
0.08318141 -0.10758572 -0.09403064 0.09748587 0.114860095 -0.0031372004 -0.08975322 0.1791919
0.009558151 0.11204565 0.026831238 0.0004939511 0.108652644 -0.034411028 0.07370154 0.11412114
-0.059057847 -0.10942087 0.031091819 0.13510403 -0.022159908 0.017891131 0.07842617 0.05763055
0.011245264 0.123932265 0.13655248 0.02195792 -0.020996938 -0.037323132 -0.1482886 0.049573615
-0.07234786 0.03271593 -0.08976215 -0.2529198 0.037681747 0.028571108 -0.021385659 -0.07674504

fc2.0.bias f4 [84]
00000000: 2df6 1e3e c2dc e4bd 8ae2 1abc ca05 5bbc
00000010: 4aa2 c03d c180 1d3e 82ce 033d 3962 10bd
00000020: 3156 313e c0f8 ec3c b522 c33c c5af 16bd
00000030: fad7 61be c7f5 073e a93a 993b b1d5 9cbd
00000040: 2d80 50bd 5542 a3bd 62aa f73d 1bd3 b3bd
00000050: 2f08 d1bc 45a4 adbd 5b86 503d 5cee f33c
00000060: 7375 d73d 512d 95bb 4992 ac3a f8d2 bf3d
00000070: 0803 0f3e 21f9 b03d 94b1 b5bc 2b8b 2bbe
00000080: 3dc9 8e3d 6aa5 613c 19b9 d0bd d536 4fbd
00000090: 052f 343d 6822 a13c d4fc 77bd e67c b0bd
000000a0: 8a57 6d3e f63b cb3c 484c 8bbd e86d c33c
000000b0: 0c3c 953d d128 893c d5f0 643d 23a4 8d3b
000000c0: 4177 783d 9692 123c 9739 fb3c 2222 ca3d
000000d0: 178b 25bd d9d8 9dbc cb0e 773d a4fa 9ebd
000000e0: e520 c13c 4b3c b23b d461 11be b3ca a03d
000000f0: e181 183b e253 533d 87b4 923d 975c 82bd
00000100: cffc 0e3e eadf b6bc f38d ce3d fe91 4bbe
00000110: ade9 ab3d f798 c13c a8c9 063d 3936 693d
00000120: d4b0 b7bc 2877 cf3d efc6 29bd a081 b6bd
00000130: bcf7 233c 4288 0c3e 410a afbb 7696 173d
00000140: 653f 86bd acd2 77bd 045b 3fb9 1aa2 efbd
0.15523596 -0.11174919 -0.009453425 -0.013368079 0.09405954 0.15381147 0.032179363 -0.035249922
0.17318036 0.028927207 0.02382026 -0.03678872 -0.22055045 0.1327735 0.0046761823 -0.07657946
-0.050903488 -0.07971636 0.12093045 -0.087804995 -0.025516598 -0.084785976 0.05090938 0.029776745
0.105204485 -0.0045525213 0.0013166155 0.09366411 0.13966 0.086412676 -0.022179402 -0.16752307
0.06971977 0.013772348 -0.101915546 -0.0505894 0.043990154 0.019669726 -0.06054385 -0.086175725
0.23177925 0.024808865 -0.06801659 0.023856118 0.07286844 0.016743096 0.055893738 0.004322545
0.060660604 0.008946082 0.03066711 0.098697916 -0.04041585 -0.01926844 0.060316842 -0.0776265
0.023575256 0.0054393164 -0.14197475 0.07851162 0.0023270773 0.05159367 0.07163339 -0.06365316
0.13963626 -0.022323567 0.100856684 -0.1987991 0.083941795 0.02363251 0.032907158 0.056936476
-0.022423185 0.10130149 -0.041449483 -0.08911443 0.010007795 0.13723853 -0.0053417985 0.037008725
-0.0655506 -0.060503647 -0.00018249085 -0.1170084

fc3.weight f4 [10, 84]
00000000: 76d2 923d c86f 5fbe 0146 243e 5f86 d139
00000010: b368 2b3e 18df 9bbd 9fcd 36be 4f6b e1bd
00000020: 0753 6e3e 257e 1f3d 2263 0c3d 0791 5fbd
00000030: 85ed 59be 3a24 3abe ec8f 5fbd b666 98bd
00000040: 5211 71bd 322e f1bd 1749 093e 5548 35be
00000050: 3b44 043e cfa5 abbd 2aa8 d4bd a719 0fbc
00000060: 4845 263e 1643 f4bd 8c95 b5bd f535 2cbc
00000070: 771c 70be 5c79 f43d ddfd 063e 1cbd 06be
00000080: 769b 533e 35f3 da3d f43b afbd e80e abbd
00000090: 4d06 9f3c 6e17 a73d 2ff2 71bd 74fa cbbc
000000a0: 506b 343e c860 a2bd 0ad7 cd3d 15f0 05bd
000000b0: 9886 193d 1e85 ba3b bc52 4d3e 86c1 903d
000000c0: 24d6 343d 6c9a d63d e34d 083e dee2 983c
000000d0: 7a93 e1bc 3005 303d 95c3 44bd fd7d c8bd
000000e0: 16dd 15bd 45d1 a93d ca96 08be 1d17 883d
000000f0: b8e8 243e d067 0cbc dd75 96bd dcf2 fdbd
00000100: 62ee 95bd 4df0 103e 5ddc 2f3b 9682 0abe
00000110: 846b 293c cd7f 1c3e 19d7 7d3d df8d 603e
00000120: c3ae 543d dce6 3ebb a8e1 2cbe 4bfe 883d
00000130: 1e8d 80bd c62c 7b3c 6089 293e 940c 98bd
00000140: ed1f d93d fd14 0e3e 7873 5fbc ba7a 26be
00000150: 59b6 2d3e 8bc9 8a3d cda6 a13c 7450 ecbd
00000160: 0212 23bd d2d3 4ebe 45a2 0c3e c3bf d4bd
00000170: 6512 a0be 209d 483e 3985 a03d b1f6 58bc
00000180: 627d 3fbe fe32 fdbd e555 2c3e 91c7 3cbd
00000190: faee bd3d 3ac1 793d bb3f cabd 5ec0 61bd
000001a0: 82fc 4d3e 365c 27be e75c 2ebd 2762 7ebe
000001b0: f0a1 08be 7a24 973e b016 c2bd 45d8 863e
000001c0: e3db c03d 4e67 1fbd 29c1 493e 82b5 893c
000001d0: 7e1e 8cbd eed4 ea3d 19c5 78bd da5e 693d
000001e0: 8d1c 003e 2ce4 9dbd 1005 193d 4a11 65be
000001f0: e6e0 223e aaf4 893e ff2e c7bd fb6d bc3d
00000200: 10d5 c1bd 3574 533e bbf0 2dbe 8e6d f93c
00000210: 0116 963d 016e 4d3e 8e68 14bd 02a2 0e3e
00000220: 7531 e73d 0f39 41be 6fa1 06bc 2866 003e
00000230: 85bf 553e b27d 6fbe 14d6 88bd b10e 94bd
00000240: b32a 5abb 8763 9e3e 7c69 b0bd c18f 9dbd
00000250: 40cc 9e3c 6b38 de3c 0a73 bfbd 42d9 91bd
00000260: 7b69 b3bd 7d40 04bd c2ce ca3d c74a 4b3e
00000270: be03 0a3e fc40 65be 07c0 1dbd 7c15 273d
00000280: 7080 c33d 172f c2bd 8202 b9bc b684 23bd
00000290: 81ef c9bd 134c 02be e9f3 063e 3b8e 813e
000002a0: 84c4 98bc c7d7 81bd d58b b7bc 22ee a73d
000002b0: 77ab 2a3e 1e92 3e3e d3dd 183d 34b0 693d
000002c0: a6ce ca3c 0f16 5e3d 4e61 2e3e 0d15 063d
000002d0: 7fe6 8e3d 49d0 d03d 2aad 79bd 2552 aabd
000002e0: ba91 42be 1fff 2c3a 5720 4f3e ec19 863d
000002f0: 106e 33be 82c3 c2bc b5d3 86be 2d78 913d
00000300: 3ffe 493e 8570 90bd aecf a13d 92ac 18be
00000310: ac84 dd3c a762 023e a9d2 5cbc 7768 2ebe
00000320: 7b18 923c f61c 383e 222c b8bd a6b5 e73d
00000330: e511 3dbc b7c3 dc3d caba 8ebe 9ec4 8dba
00000340: a84a 2fbe de21 373e 99a2 2e3e b200 61bc
00000350: 7b13 e13d d1fa d6bc 474f 203e 9f13 1d3d
00000360: a513 523e ce15 973d 9196 223e b29d 6d3c
00000370: 9cff 6cbd 9dfc 253e b730 153e 87dc 28be
00000380: ea2c 06be 487e 71bc f16d d93d afdf b2bd
00000390: 6f19 aebb 8791 6cbd 7112 fe3d 93b4 093e
000003a0: 5ace 323e 015a 51bd 2200 853e adc3 ab3d
000003b0: 144d 35be 47c9 d73d db4f 9d3d 443b 64bd
000003c0: af5f 7fbc 2f04 313e e4c1 cc3d 8156 bebc
000003d0: 695e 18bd 103b 61bd 2b2c bebd 85bd 3c3a
000003e0: 2046 77bd 5412 29be dc78 973d 83d5 c23d
000003f0: 7356 8dbd 1d91 e0bc 638c d0bd 4ffb f93d
0.071690485 -0.21819985 0.1604233 0.000399637 0.16739158 -0.07610911 -0.17851876 -0.110067956
0.2327386 0.03893866 0.034274228 -0.05458167 -0.21282013 -0.18177882 -0.054580614 -0.074414656
-0.05885441 -0.11776389 0.13406788 -0.17703374 0.12916653 -0.08381235 -0.10383637 -0.008734143
0.16237366 -0.11926858 -0.088664144 -0.010510911 -0.23448358 0.1193721 0.13182779 -0.13158077
0.20664772 0.10690919 -0.08556357 -0.083524525 0.019412184 0.08158766 -0.059068855 -0.024899699
0.17619061 -0.07928616 0.10050781 -0.032699663 0.037481874 0.0056921383 0.20051092 0.07068162
0.044149533 0.104786724 0.13310961 0.018662866 -0.027536143 0.042973697 -0.048038084 -0.09789655
-0.036587797 0.08291868 -0.13338771 0.066450335 0.161044 -0.008569673 -0.073466994 -0.123998374
-0.073208585 0.14154167 0.0026834228 -0.13526377 0.010340575 0.15283127 0.06197271 0.2192912
0.05192448 -0.0029129302 -0.16882956 0.066891275 -0.06276916 0.015330499 0.1655631 -0.07424274
0.106017925 0.13875194 -0.01363837 -0.16257754 0.16964091 0.067767225 0.019732857 -0.11538783
-0.039812095 -0.2019799 0.13733776 -0.10388138 -0.31264034 0.19591188 0.0783791 -0.01324241
-0.18700173 -0.123632416 0.16829641 -0.04608876 0.09274097 0.06097529 -0.09875437 -0.055115096
0.20115855 -0.1634377 -0.042569067 -0.2484213 -0.13343024 0.29520017 -0.094769835 0.26336876
0.0941694 -0.03891688 0.19702591 0.016810182 -0.068417534 0.11466394 -0.060734842 0.056975223
0.12510891 -0.07709536 0.037358344 -0.22369877 0.15906104 0.26944476 -0.09725761 0.092006646
-0.094644666 0.20649798 -0.16986363 0.030447748 0.07328416 0.20061494 -0.036232524 0.13928989
0.1128873 -0.18869422 -0.0082172 0.1253897 0.2087384 -0.23387793 -0.06681457 -0.07229365
-0.003328961 0.30935308 -0.086138695 -0.076934345 0.019384503 0.027126512 -0.09348114 -0.07121517
-0.08760353 -0.032288063 0.09902717 0.19852744 0.1347799 -0.22388071 -0.03851321 0.040791973
0.09545982 -0.09481638 -0.022584204 -0.039921485 -0.09860135 -0.12724333 0.13178982 0.25303826
-0.018648393 -0.063399844 -0.022405544 0.08199717 0.16666971 0.18610427 0.037320923 0.057052806
0.02475674 0.054220255 0.17029306 0.03273492 0.069775574 0.10195977 -0.060956158 -0.08316449
-0.19000903 0.00065992953 0.2022718 0.06547913 -0.17522454 -0.023774866 -0.26333395 0.07103
0.19725893 -0.070527114 0.0790094 -0.1490958 0.027040802 0.12732945 -0.01347796 -0.17032038
0.017833939 0.17979798 -0.08992793 0.113139436 -0.011539911 0.10779517 -0.27876884 -0.0010816043
-0.17118323 0.17884013 0.17054214 -0.013733076 0.10990044 -0.026242645 0.15655242 0.03834879
0.20515306 0.07377206 0.15877749 0.0145029295 -0.057860956 0.16209646 0.14569364 -0.16490375
-0.13103071 -0.01473958 0.10616673 -0.087340705 -0.0053130905 -0.057755973 0.12405861 0.1344779
0.1746153 -0.051111225 0.25976664 0.083869316 -0.17705184 0.105364375 0.07681247 -0.055720583
-0.015586778 0.17286752 0.09997919 -0.023234608 -0.03719941 -0.054987967 -0.09285768 0.00071998715
-0.06036961 -0.16510898 0.07396099 0.095133804 -0.069012545 -0.027412945 -0.10183027 0.122061364

fc3.bias f4 [10]
00000000: 515a d13e 5be4 0a3d 331a 5d3e cb65 6b3e
00000010: 9003 b6bd 1fbd 703b 991d 95be 159b 55bd
00000020: f2ff 57bd b13c 0ebe
0.40889218 0.033909183 0.21592025 0.2298805 -0.08887398 0.0036733819 -0.29124144 -0.05214985
-0.052734323 -0.1389034
