checkpoint/LeNet5_parametrized_hardtanh_quantized_3_bits.ckpt (torch, 275376 bytes, 10 tensors)

conv1.0.weight f4 [6, 3, 5, 5]
000000 47 4d c1 3d ca 87 c7 bd 31 f3 d7 bc 5e 93 88 3c
       0.094385676 -0.097426966 -0.02636108 0.016671833
000010 97 2f ad 3d 1a b0 5a 3c 57 b4 ec ba 80 c2 54 be
       0.08456343 0.01334765 -0.0018059117 -0.20777321
000020 10 3a f9 3d 45 62 40 bd 9e 04 f1 be bf da 84 3f
       0.12169278 -0.046968717 -0.47073835 1.0379256
000030 a3 24 22 bf fd b1 f4 bd fd 39 f5 3d 37 bf bb 3c
       -0.63337153 -0.11948011 0.11973951 0.022918327
000040 44 a2 b9 3e f3 a1 ff be 06 50 92 bc 41 9b 22 bb
       0.3625661 -0.49928245 -0.017860424 -0.0024811777
000050 85 ca fc bb a5 65 ee 3c 4f 27 73 bd 71 5a fb bb
       -0.007714572 0.029101202 -0.05936366 -0.0076706936
000060 1d 93 95 3c 62 49 bb 3d 57 50 e9 bd 60 ce 9a ba
       0.018258626 0.09144856 -0.11392277 -0.0011810772
000070 06 2c 0b bc c7 fd 18 bc 9a c1 a2 bc b1 50 8a ba
       -0.008494383 -0.009337849 -0.019867707 -0.0010552612
000080 1e f1 c9 bc c3 b7 c7 3d 12 a9 a0 3c 67 8f 0f bf
       -0.024651106 0.09751847 0.019611869 -0.5607819
000090 c1 72 90 3f af 48 f8 be 3c d8 a6 bc 5d 47 78 3d
       1.128502 -0.48492953 -0.02036678 0.060614932
0000a0 db ba 32 bb e9 39 0b 3f 14 8e 1c bf 1c 62 4e 3e
       -0.002727202 0.5438524 -0.61154294 0.20154613
0000b0 74 c5 24 3d af 31 6b 3d 90 cc a5 3d dc f5 05 be
       0.04022737 0.05742043 0.08095658 -0.13082069
0000c0 65 12 ad 3d 52 9d cf 3d 3b 28 d7 bb 71 8b 1b 3d
       0.08450774 0.10137428 -0.006566075 0.03797478
0000d0 82 8f 14 3e 87 48 d3 3c 81 aa ce bd c1 81 c0 bd
       0.14507869 0.02579142 -0.10091115 -0.093997486
0000e0 82 32 57 3e 19 65 65 3c 65 f1 ab 3b e7 5e 0e be
       0.21015361 0.014001154 0.0052472823 -0.1390339
0000f0 02 a8 11 bf fc a0 88 3f fb cc ce be b4 39 86 bd
       -0.56896985 1.0674129 -0.40390763 -0.06553975
000100 26 e6 c5 bc a3 54 36 39 cc 5c e4 3e 01 99 fc be
       -0.024157595 0.00017388402 0.44602048 -0.49335483
000110 5e db dc 3d ab 7e 01 be 12 ff a8 bc 2f 34 0e 3d
       0.107840285 -0.12645976 -0.02062944 0.034717735
000120 26 52 5a bd d6 fe 94 3c d9 42 50 be 07 4b 0a be
       -0.053301 0.018187921 -0.20338 -0.13505183
000130 ff b4 1e bd 5c 65 4a bd ff 1d 70 ba 0d c3 37 be
       -0.03874683 -0.04941307 -0.0009159743 -0.179455
000140 f7 f7 ee 3c 41 40 d7 3d 65 29 c4 bd 9f 9f 35 3e
       0.029170973 0.10510302 -0.09578208 0.17736672
000150 11 03 91 bd 9c e9 dc 3d 0c 79 5c 3e e0 de 87 bd
       -0.07080663 0.10786745 0.2153055 -0.06634307
000160 ee 90 75 3e f3 88 41 bd 7b f1 04 3e 9d 04 9e 3e
       0.23981068 -0.047249746 0.12982742 0.30862895
000170 5a d8 db bd 64 ad ee 3e 6c a9 ef 3d af 45 38 3d
       -0.10734625 0.46616662 0.117022365 0.04498833
000180 da ac e3 3d 57 a8 31 bd 69 bb e2 3d 0d ab 8e 3c
       0.11116953 -0.043373432 0.11070902 0.017415548
000190 c4 bb e3 3d 3f df 83 bb 39 df c5 bd b4 92 d5 3d
       0.11119798 -0.0040244157 -0.09661717 0.10428372
0001a0 89 ff 67 3e 26 f8 19 3e da 67 af bd 8c ce 5f be
       0.22656073 0.15036067 -0.0856473 -0.21856135
0001b0 f4 f8 b1 3d 95 d0 11 3d 5c bf 91 3d 90 ae 3c be
       0.08690062 0.03559931 0.07116577 -0.18425965
0001c0 ca 8d fc be 45 82 36 3e 10 dd bf bc a3 63 8b 3d
       -0.49326926 0.17823131 -0.02342084 0.068061136
0001d0 3a 90 33 be 2e 6c 1d bf 6e 9e 3e bb b6 ae 29 bd
       -0.17535487 -0.61493194 -0.002908613 -0.041426383
0001e0 c8 bb bd bd 8a 93 36 be 45 b5 e1 be c1 69 a0 bd
       -0.09264332 -0.17829719 -0.4408361 -0.07832671
0001f0 4b f8 f8 bd 6d 13 a5 ba 57 0d 87 3c 6e 2f 2f 3d
       -0.12156733 -0.001259429 0.016485853 0.04276984
000200 ba d3 0e 3c 88 7d 5c bd ee 19 6e bd 0e 2f 97 bd
       0.008717472 -0.053830653 -0.058130197 -0.07382022
000210 aa af 09 be 0d d8 19 3e a3 9a 77 3d 73 55 b4 3c
       -0.13445917 0.15023823 0.060450207 0.022013402
000220 2a 86 86 bc 6d f6 e0 be 33 ca 82 3e da 1f 95 3d
       -0.016421396 -0.43938008 0.2554489 0.07281466
000230 58 85 db 3d af 86 00 3d bb d6 9c be ee 0e 43 3e
       0.10718793 0.031378444 -0.30632576 0.19048664
000240 9e ad fa 3d d5 fe de 3d 62 f3 48 3d 93 24 56 be
       0.12240146 0.10888449 0.049060233 -0.2091239
000250 d9 be 2b 3e 99 3d 58 3e 6f b4 a1 bd 35 48 02 be
       0.16772021 0.21117248 -0.07895743 -0.12722857
000260 03 59 f7 3d 60 fb 39 3e a6 19 85 bd ec be ac 3e
       0.120775245 0.18162298 -0.06499033 0.33739412
000270 11 56 4f 3e 47 36 c5 bd ad 01 79 be 29 69 88 3d
       0.20247675 -0.09629493 -0.24317046 0.06660683
000280 e9 20 80 3d 28 dd e7 3d 0e c6 aa bd 39 8a 48 bd
       0.06256277 0.11321479 -0.08338557 -0.048959944
000290 23 e2 f1 bd 20 fd d4 be d1 e3 21 be e7 ca 4c 3e
       -0.1181071 -0.4159937 -0.15809561 0.19999276
0002a0 4a 27 a0 3e ce 16 0c be 07 f7 3c 3e fa 24 60 3b
       0.31279975 -0.13680574 0.18453608 0.0034201727
0002b0 93 55 49 3c c2 0f ec bd 2c bf 1d 3e 17 2c 87 3c
       0.012288469 -0.11526443 0.15404958 0.016500516
0002c0 d9 db a7 bd 93 3a 69 3d 4b d7 95 3d e0 ec 06 3e
       -0.081962295 0.056940626 0.073164545 0.13176298
0002d0 11 d4 39 3e de d7 30 3c 55 61 23 be f9 fa c9 be
       0.18147303 0.010793654 -0.15955098 -0.3944929
0002e0 b0 36 8d 3e 50 29 2c bd 44 65 ab 3c 1e 67 e4 bd
       0.27580786 -0.042031586 0.02092231 -0.111524805
0002f0 c5 3b c5 3d 70 37 4b bd 15 b6 15 bf be fa 72 be
       0.09630541 -0.049613416 -0.5848096 -0.23728463
000300 12 97 b8 3e 42 04 b3 3e 8c 79 0c bd 45 30 80 bd
       0.36052758 0.34964186 -0.034295604 -0.06259207
000310 eb 2d 55 be 96 f1 90 be 7c 43 e5 bd 4c 30 91 3d
       -0.20818298 -0.28309315 -0.11194512 0.0708929
000320 a9 57 d1 bb 70 76 33 be 76 0a c6 bd 06 4a 7b bd
       -0.0063886237 -0.17525649 -0.09669964 -0.06134989
000330 92 78 53 be 98 9b 29 3e 99 80 73 3d 38 6c 8c be
       -0.20651463 0.1656326 0.059448812 -0.27426314
000340 f5 58 03 bf c8 d3 e7 bd d4 c0 71 3e 6a 95 11 3d
       -0.5130761 -0.11319691 0.23608714 0.035542883
000350 46 7b c0 bd d1 d8 90 bd 22 19 1e bd 31 6d 68 be
       -0.093985125 -0.070726044 -0.038598187 -0.22697903
000360 36 1b f8 3d c9 7b c4 3e bb c0 01 3f 34 45 aa 3d
       0.12114565 0.3837569 0.5068471 0.08313981
000370 cc b5 d7 3d 72 bd 54 3e cf 8e e3 3d 7c 2f dd bb
       0.10532722 0.20775393 0.11111223 -0.0067500453
000380 4b 9f 29 3e d1 e2 13 be 7b f0 b6 bd 26 c8 e6 bc
       0.16564672 -0.14441992 -0.08932587 -0.02817161
000390 3e a4 24 be 66 89 8e bd ee 0f 92 bd be 30 d7 bd
       -0.16078278 -0.069598004 -0.071319446 -0.10507344
0003a0 93 71 0a be 24 5d 32 bd 9c 21 ab bd ff a0 6a bd
       -0.13519888 -0.043545857 -0.0835602 -0.057282444
0003b0 5a cf e8 3c 6f 2e 23 3c df 88 84 3d ec e6 5b 3d
       0.028419185 0.009959801 0.064714186 0.05368702
0003c0 3f cd 17 3d dc 9e 38 3e b2 f4 36 3e 66 c5 0c 3e
       0.037060972 0.1802935 0.17866781 0.13747177
0003d0 ff 23 46 3e f4 37 68 3e 51 41 e5 3d 7d a8 bb 3d
       0.19349669 0.22677594 0.11194099 0.09162996
0003e0 58 85 38 3e 94 77 38 3e 62 a9 01 bd 8b 5d ac 3d
       0.18019617 0.18014365 -0.031655677 0.084162794
0003f0 18 05 a4 bb fa 1e 8b 3d 3a 95 54 bd 47 03 ee 3d
       -0.00500549 0.06793018 -0.051900126 0.11621719

conv1.0.bias f4 [6]
000000 77 71 b0 be 29 61 fc be b5 a7 0f bf 1c a9 66 bd
       -0.34461567 -0.49292877 -0.56115276 -0.05631362
000010 ec ab 15 bf 6f 96 4a bf
       -0.58465457 -0.79135793

conv2.0.weight f4 [16, 6, 5, 5]
000000 4f 8f 78 3d fe dc 21 3d eb b6 79 3d 87 d6 ff 3d
       0.060683545 0.039517395 0.06096546 0.1249209
000010 30 f4 33 3e 23 6f 78 3d 5a df 74 3d 7c 22 9d 3d
       0.17573619 0.060652863 0.059783317 0.07672593
000020 42 be a0 3d 26 90 00 3e 40 b8 c6 3c 06 e7 9e 3c
       0.07848789 0.12554988 0.02425778 0.01939727
000030 4f 6e 28 3d 42 51 b0 3d e4 6f 78 3d bd 71 48 bd
       0.041120823 0.08609249 0.060653582 -0.048936594
000040 f4 2d 55 3d 4e ba 72 3c ec 97 4a 3d 5d 04 79 3d
       0.052045777 0.014814926 0.04946129 0.060795177
000050 b7 11 f6 3c 53 73 10 3d 69 bc 77 3d 14 32 78 3d
       0.030037744 0.03526623 0.060482416 0.060594633
000060 7e 13 cd 3d a0 d7 f9 3c 7c e4 d4 3d e5 bd e4 3d
       0.100134835 0.030498326 0.103951424 0.11169032
000070 2e db 26 3e bd 3d 6a 3d 35 db 71 3d ec 17 d0 3c
       0.16294548 0.057187784 0.059046943 0.025402032
000080 4b b8 a4 3d d4 3f 39 3e e1 2b 10 3e ac 84 a2 3c
       0.080429636 0.18090755 0.14079238 0.019838654
000090 88 e6 5b 3c 57 58 ed 3d d0 28 2e bc a3 46 fa 3c
       0.013421662 0.11589115 -0.010629848 0.03055126
0000a0 7d 2f 79 bd 26 6c 13 3c e0 f4 78 bd 92 07 77 bd
       -0.060836304 0.008997953 -0.060780406 -0.060309954
0000b0 ed c8 77 bd ff d7 3f bd 04 4f 77 bd 29 66 76 bd
       -0.060494352 -0.04683685 -0.06037809 -0.06015602
0000c0 d6 36 a2 bc cf 99 75 bd b6 ec 13 3e ce ff f1 3d
       -0.019801538 -0.059961136 0.14445767 0.11816369
0000d0 8f 77 02 3e 0f 9b 3a 3e 90 e1 3a 3e 06 c5 40 3c
       0.1274092 0.18223213 0.18250108 0.011765724
0000e0 4e 93 0f 3e 55 f4 e9 3d 11 f0 77 3d 74 a3 b7 3d
       0.14021036 0.11423556 0.06053168 0.08966723
0000f0 84 ad cb 3c 54 8d 2a 3e 3d 40 ef 3d 03 c6 b9 3d
       0.024863012 0.16655475 0.11682174 0.09070971
000100 b5 b4 a2 3d 64 ee 9e 3c 74 64 d2 3c 2f f3 29 3e
       0.079446234 0.019400783 0.025682665 0.16596673
000110 91 2f 98 3d cd 3b 79 3d 80 d8 78 bd f6 b1 15 3d
       0.074309476 0.060848046 -0.060753345 0.03654667
000120 e8 75 20 3c 6e c9 77 3d ff 06 79 3d 1d 86 78 bd
       0.009793736 0.060494833 0.060797688 -0.060674775
000130 d1 51 39 3d 7e 59 f9 bc b5 a1 5b bd bf 9a 10 be
       0.04524404 -0.030438181 -0.053621013 -0.14121531
000140 c1 2c 5a bd 1e 50 0c bd 09 db 10 be 77 13 28 be
       -0.053265337 -0.034256093 -0.14146055 -0.16413675
000150 8d ec 92 bd 54 83 2a 3d 2a b7 78 bd b3 8a de 3c
       -0.07174025 0.04162915 -0.060721554 0.027165746
000160 50 7e fa bc b6 0b 8c bd 38 7a 35 bd ed 56 d7 bb
       -0.030577809 -0.06838171 -0.04430601 -0.0065716417
000170 06 5f 73 bc bb 99 46 bb 62 54 75 bd f1 e5 24 bd
       -0.014854198 -0.0030304033 -0.059894927 -0.04025835
000180 57 a1 e8 bc d3 a6 7a bd c9 0c d0 bd e5 6f c2 bc
       -0.028397245 -0.061194252 -0.101586886 -0.023734996
000190 8a 8a cd bd cb 9d 58 be 04 df 09 be 9e ef 2b be
       -0.1003619 -0.21153943 -0.1346398 -0.16790625
0001a0 6e 0c 77 bd eb 42 ae bd 78 6e ce bd 11 ed 5f be
       -0.06031459 -0.08508857 -0.10079664 -0.21867777
0001b0 76 99 50 be 2d 15 fe bd 3e a5 b9 bd 4a 9a 2f be
       -0.2037104 -0.12406383 -0.090647206 -0.171487
0001c0 4c e0 51 be 9f 56 a6 bd a3 b8 6b bb ed be ce bc
       -0.20495719 -0.081219904 -0.0035968206 -0.025237525
0001d0 3c f9 a6 bd 63 62 81 bd 6d ad 78 bd 63 4a 9e bd
       -0.081530064 -0.06317594 -0.060712267 -0.07729032
0001e0 c6 b9 13 bd 76 e4 88 bc f4 e2 75 bd 37 26 93 bd
       -0.03606584 -0.016710501 -0.060030892 -0.07185023
0001f0 85 5b 8c 3c 09 46 50 be 43 fa 78 bd 0b 70 17 3d
       0.017133484 -0.20339216 -0.060785543 0.036972087
000200 c8 2e b1 bd 79 c5 ac bc 66 fe 39 be 5e 95 18 bd
       -0.08651501 -0.021090256 -0.18163452 -0.037251823
000210 ad 03 82 bd 82 fd 5c bd 9c 84 8f bd bb 48 3a be
       -0.06348357 -0.0539527 -0.07007715 -0.18191807
000220 c5 26 f3 3c bd 77 40 bd 62 33 87 bd 30 55 1f bd
       0.029681573 -0.04698919 -0.06601597 -0.0388996
000230 26 34 79 bd 45 f3 ab bd 6a 71 8e bd 2a dc 8f bd
       -0.06084075 -0.08396009 -0.06955226 -0.07024415
000240 a3 01 f0 bd c4 2d 08 bd 17 27 79 bd 16 bb e0 3b
       -0.11719062 -0.03324677 -0.060828295 0.00685824
000250 57 1c ac bd 67 55 fd bd 67 d9 35 bd 2c 2d 77 3d
       -0.08403843 -0.12369805 -0.044396784 0.060345814
000260 d3 76 7b bd 8f 9d 3f be 73 59 4d be ea cb 85 bd
       -0.061392616 -0.18712448 -0.20053653 -0.06533034
000270 45 ec 78 3d 6e 9d db 3d 31 4f 76 bd f0 23 3b be
       0.0607722 0.10723387 -0.060134117 -0.18275428
000280 0a 64 33 be 59 f6 15 3d e0 f3 78 3d 9a a6 62 3c
       -0.1751863 0.03661189 0.060779452 0.013833666
000290 a1 fd 03 be 7f 5d 30 be 0a 0b 7d bd 68 cf 79 bb
       -0.1288972 -0.17223166 -0.061778106 -0.0038118009
0002a0 2d 03 23 bd 31 a2 af bd 30 61 d4 bd d2 e8 4f bd
       -0.03979795 -0.085758574 -0.103700995 -0.050759144
0002b0 fc 4a 2a bc f4 15 79 bd 39 40 d2 bd 63 3c 78 bd
       -0.010393854 -0.06081195 -0.10266156 -0.060604464
0002c0 a8 25 ba bd 22 21 64 bd 41 d2 78 bd a7 69 65 3d
       -0.090892136 -0.05569566 -0.06074739 0.05600896
0002d0 12 49 d1 bd 9f b2 7a bd f8 92 1e be d3 b3 4f be
       -0.10219015 -0.061205503 -0.15485752 -0.20283441
0002e0 42 49 7d bd 6a f8 c7 bc fd 6a a0 3d 01 a6 97 3d
       -0.061837442 -0.024410445 0.078329064 0.074047096
0002f0 d6 d9 d7 3a 7f f5 20 3d a6 ba 75 bd cb 8f 6c 3b
       0.0016468118 0.039296623 -0.059992455 0.003609645
000300 a4 db 2c 3e 37 d3 b0 3d 6f 9e a7 3d 52 e2 78 bd
       0.16880661 0.08634036 0.08184516 -0.06076271
000310 6c cf fb bc ad 18 48 3d 4c 16 32 bd 07 6d 4b 3d
       -0.030738555 0.048851658 -0.043478295 0.049664523
000320 32 b1 ea 3d 19 47 3d 3e 59 83 39 3e 00 ac c5 3d
       0.114595786 0.18484153 0.18116511 0.09651947
000330 2c fe 78 3d 97 c7 cf bd 61 ec 44 3d 75 3b 78 bd
       0.060789272 -0.101454906 0.04807699 -0.060603578
000340 93 ad b9 bd 7c 0d 79 bd f9 6d 1e be 79 da 78 bd
       -0.0906631 -0.060803875 -0.15471639 -0.060755227
000350 02 9b 22 bd 73 53 7a bd b9 26 c4 bd 91 bf da bd
       -0.03969861 -0.06111474 -0.09577698 -0.1068107
000360 ec 1a 84 bd 77 12 00 bd 34 ea 27 bd d4 25 79 bd
       -0.064504474 -0.03126761 -0.040994838 -0.06082709
000370 98 50 78 bd 72 7a 79 bd 29 e7 78 bd 9d 6d 79 bd
       -0.060623735 -0.06090779 -0.060767327 -0.06089555
000380 3f 47 79 bd d8 77 13 3e 1b da b7 3b 56 c8 4f be
       -0.06085896 0.14401186 0.005610717 -0.20291266
000390 af 43 87 be 2b 86 88 be 0c c1 78 3d 35 e1 67 3d
       -0.26418826 -0.26664862 0.06073098 0.05661126
0003a0 7b db ad 3d 63 1e 06 be 1b 59 ae bd ed a4 d1 3d
       0.08489128 -0.13097529 -0.08513089 0.10236535
0003b0 7b 15 8b 3e 26 34 62 3e 20 4c 30 3e 81 6b 42 3b
       0.27164826 0.22090206 0.1721654 0.0029666128
0003c0 e6 f4 e4 bd 28 8e 6f bd b9 5b 4b 3c 4e 59 8a 3d
       -0.11179523 -0.05848518 0.012412005 0.06755315
0003d0 4c d4 3b bd b5 31 1e be 9d 00 fe bd 5b 22 c4 bd
       -0.04585676 -0.15448649 -0.12402461 -0.09576865
0003e0 12 37 10 3d d4 f5 52 3d 5e a2 7a 3e 3b 4d 4e 3e
       0.03520877 0.05150397 0.24476 0.20146649
0003f0 eb 7c 9b bd 94 24 55 be b4 0e 40 be ad 5d 46 3e
       -0.075921856 -0.20814735 -0.18755609 0.19371672

conv2.0.bias f4 [16]
000000 15 85 86 3e 78 84 87 3e 50 c4 20 be f1 f2 b2 be
       0.2627341 0.26468253 -0.15699887 -0.34950975
000010 2f 0a da 3e 37 5c de bd f7 d6 32 bf 72 10 95 be
       0.42585894 -0.10857432 -0.6985926 -0.2911411
000020 99 8f 25 bf 33 b4 f5 bd 17 2e 94 be 59 27 d9 be
       -0.6467224 -0.11997261 -0.28941414 -0.42412832
000030 a6 73 b5 be 6a 90 23 bf 0c da c8 be fd 60 a4 bb
       -0.35439795 -0.63892233 -0.39228857 -0.0050164447

fc1.0.weight f4 [120, 400]
000000 41 d1 8c 3c f3 58 1c 3c 9b 2b 1b 3c 64 2f db 3c
       0.017189624 0.0095426915 0.009470846 0.026755996
000010 75 b8 18 bd 40 75 d1 3c 26 17 2d 3d 23 b0 a0 3d
       -0.037285287 0.025568604 0.042258404 0.078460954
000020 17 2f 0d 3c 88 8b cf 3c f9 15 66 bc fa 92 08 3d
       0.008617184 0.025335088 -0.014043325 0.033343293
000030 92 61 6c 3d 4b a2 dc 3c 43 7b fe 3c 0a a8 b4 3c
       0.057710238 0.026932856 0.031064635 0.022052784
000040 f6 f6 b1 3c ca 3b 90 3d 4f 8d 2e 3d 55 bf 70 3c
       0.021724205 0.07042654 0.04261523 0.014694055
000050 e1 c1 12 3d 86 f0 4c 3d c5 21 79 3d fa bd e5 3d
       0.03582943 0.05003407 0.06082322 0.11217876
000060 16 b4 d0 3c e5 b9 02 bd 3f 66 b6 bc 90 e7 71 bc
       0.025476497 -0.031915564 -0.022265552 -0.014764681
000070 12 a1 9e 3b 9f da b7 bc e4 93 0d 3b 14 ac ed 3c
       0.0048409784 -0.022443114 0.0021603042 0.029012717
000080 08 6c 6d 3d 81 d6 da 3c c6 6c 0b 3d 6b 5e 89 3d
       0.057964355 0.026713612 0.03403928 0.06707462
000090 70 8b a3 bc 88 da 17 3d fa e6 b8 3c b8 ec a1 3c
       -0.01996395 0.037073642 0.022571076 0.019766197
0000a0 eb 33 9d 3d bb 32 91 3d 70 69 99 bc 50 d6 d1 3c
       0.07675918 0.07089754 -0.018727034 0.025614887
0000b0 6a 9b 46 3d 30 d1 a9 3c bd 45 c3 3b 19 e2 8d bc
       0.04848806 0.020729631 0.005959241 -0.017319726
0000c0 55 cc 5f 3a 3b 85 2f 3d df 0f 58 3d 07 11 85 3d
       0.0008537223 0.042851668 0.05274951 0.06497388
0000d0 fb b0 9f 3d 8b 02 d2 3c ae 48 be bc de 81 03 3c
       0.07797428 0.025635978 -0.023228016 0.008026568
0000e0 52 9e 6b 3d 1b 74 7b bc a2 44 12 bc 4b 6e 4d 3d
       0.057524033 -0.015347506 -0.008927496 0.05015401
0000f0 c6 24 06 3c 94 0e e0 bb 2f 79 e4 3c 55 dd b8 bc
       0.008187478 -0.0068376753 0.027889816 -0.022566477
000100 d9 a3 47 39 84 b3 2b 3c 71 68 ea 3c 50 83 66 3c
       0.00019039157 0.010479812 0.028614255 0.014069393
000110 99 e1 fb 3c 7d 1a c1 3c 70 bf 2c bc 11 af 20 bc
       0.030747222 0.0235722 -0.010543689 -0.009807364
000120 ea ca 24 bd 72 ce fb bc e4 1f b2 bd ca 83 df bc
       -0.040232576 -0.03073809 -0.08697489 -0.027284522
000130 1c 5e 1c bc 50 ab 9a bc db 71 76 bd e1 17 1d bd
       -0.009543922 -0.018880516 -0.060167175 -0.03835285
000140 92 70 83 3c ad 55 04 bd 57 47 07 3d 7e 70 4a 3b
       0.016044889 -0.03230827 0.03302702 0.0030889804
000150 c8 25 9f 3c dc 39 06 bd 30 ed 31 3d 00 b8 42 3d
       0.019427195 -0.032770023 0.04343909 0.047538757
000160 90 0b a1 bc a9 fb 16 bc 99 47 48 bd 5c 22 a9 bc
       -0.019658834 -0.009215274 -0.048896406 -0.020646267
000170 12 3f 1e bc 82 dd 65 bc 28 8f 88 3c 5c 5d 47 3d
       -0.009658592 -0.014029862 0.016669825 0.04867302
000180 31 74 4a 3c ae a7 63 3b d3 31 92 3d dd 50 ab 3d
       0.012356804 0.0034737396 0.071384095 0.08365033
000190 6c c5 58 bd fc a3 61 bd 43 74 22 bd f6 46 83 bd
       -0.05292265 -0.05508803 -0.039661657 -0.06410019
0001a0 b7 98 8d bc cf 4d ce 3b 76 09 a1 3b 4a e4 19 3d
       -0.017284734 0.0062958966 0.004914458 0.03757123
0001b0 1d 6b ce 3b 43 84 0e 3d 2f cc 00 3d ef 22 7e bc
       0.00629939 0.034794103 0.031444725 -0.0155112585
0001c0 1b a5 93 3c e0 e0 b5 bb 56 75 24 3d 05 c3 4b 3c
       0.018023064 -0.005550489 0.040150963 0.012436633
0001d0 aa 2e 4a 3a bd 15 9a 3d ae 58 e1 3c 62 b0 30 bc
       0.0007712642 0.075236775 0.027508106 -0.01078424
0001e0 95 66 09 3d 17 1d d1 3c df a4 b2 3c 97 46 16 3d
       0.033545095 0.025526566 0.021807132 0.036688413
0001f0 8e c8 91 3c ad 9a 90 3c 12 1e 8f 3d 33 13 a3 bc
       0.017795827 0.01765188 0.06988157 -0.019906616
000200 9c 25 aa bb cd 34 8a bb d9 04 bd 3a c3 ec ca bc
       -0.0051924717 -0.00421772 0.0014421 -0.0247711
000210 54 03 d2 3c f7 e8 f0 3c 49 2c c8 3c 4b ef 0e 3d
       0.025636353 0.029407961 0.02443518 0.034896176
000220 8f 26 6e 3c 24 54 d8 bc 82 16 14 3a c0 e7 5b bc
       0.01453556 -0.026407309 0.0005649106 -0.013421953
000230 07 3d 3d 3c af 08 1a 3c 77 79 10 3d c2 68 59 bc
       0.011550195 0.009401484 0.035272088 -0.013269605
000240 0a a9 3a bc 99 5a dd 3c 51 1c 45 3d 16 53 99 bb
       -0.011392841 0.02702074 0.048122708 -0.004679094
000250 29 82 cf 3c 46 d6 0a 3c fd f1 ce 3c 98 7a 9d bc
       0.02533062 0.008473938 0.025261873 -0.019223496
000260 59 4b a8 bc 69 b0 78 bc ca e6 d0 bc 48 92 a7 3a
       -0.020543741 -0.015178778 -0.025500674 0.0012784684
000270 75 50 d1 bd 9d fe a1 bc 0d 04 89 bd 55 a7 03 3c
       -0.10220424 -0.01977473 -0.06690226 0.0080355005
000280 9b 37 d0 bc d0 da e9 bc 50 47 30 bd ca ac 82 ba
       -0.02541714 -0.02854672 -0.04303676 -0.0009969708
000290 e8 a8 ef bc 77 50 aa bc 17 35 5f bc d3 2e dc 3c
       -0.029255345 -0.020790322 -0.013623497 0.026877796
0002a0 6a 7d 1e 3d fd 59 ea 3c 7c f5 9a bc c1 b2 dd bc
       0.038693823 0.028607363 -0.018915884 -0.027062776
0002b0 17 dd bf bc 38 d6 eb bc 18 36 7b bc bf d9 9a 3d
       -0.023420854 -0.02878867 -0.015332721 0.07561063
0002c0 67 e9 bf 3c 7d f7 94 3c 30 78 ae 3c ef 04 29 3d
       0.023426725 0.018184418 0.021297544 0.04126447
0002d0 72 6a 82 3b db 5f 83 bc 88 fa 57 bc 23 e6 dc bc
       0.0039799744 -0.016036918 -0.01318229 -0.026965206
0002e0 7a d8 df 3c 98 d7 31 3d bf c4 75 bb 14 45 9e 3b
       0.027324904 0.043418497 -0.0037501303 0.004830012
0002f0 af 4b 21 bd 1d 40 f7 ba 85 14 48 bc 83 60 4f bd
       -0.039378818 -0.0018863712 -0.0122119235 -0.05062915
000300 31 d7 35 bd ee 4f 04 bd d0 95 05 bb be d5 84 bd
       -0.044394676 -0.03230279 -0.0020383485 -0.064860806
000310 d1 a6 78 bd bb 98 d9 3c e9 22 37 bd 18 aa 2a bb
       -0.060705964 0.026562085 -0.044711027 -0.0026041325
000320 4d 20 cc bc d4 a3 5d 3c c6 55 a2 3c 09 2d 89 39
       -0.024917746 0.013527829 0.01981629 0.0002616423
000330 1f 52 5d bd 97 36 ab 3c 23 f3 1a bc 2d b6 23 bd
       -0.054033395 0.020900054 -0.009457382 -0.03996866
000340 ac ee 4e 3c e0 d2 d4 bc 76 1e e2 3c a1 8e de 3c
       0.012630146 -0.02597946 0.027602416 0.02716762
000350 6d 90 8e 3d 4e 5d 0a 3d 2a 7e d6 bc 30 ba 9a 3d
       0.06961141 0.03378039 -0.026183207 0.07555044
000360 b6 fc 85 3c e7 91 ee 3c e6 1a d0 3c 76 df 96 3d
       0.016355854 0.029122306 0.025403451 0.073668405
000370 5a a5 84 3d fb 71 97 3c 1e ce d7 3c 09 57 35 3d
       0.06476851 0.018486967 0.026343402 0.044272456
000380 2c 43 7c 3d 35 36 80 3c 2f c9 15 3d 3c 20 44 3d
       0.061587498 0.015650848 0.036568817 0.047882304
000390 6a ce f3 bb 79 42 0d 3d 71 a7 ee bc 37 ea 46 bc
       -0.007440378 0.03448722 -0.029132577 -0.012140802
0003a0 3d 57 eb bc 7f 2a 2f bc e8 f0 ed bc 2f fa 8f bd
       -0.028728122 -0.010691284 -0.029045537 -0.070301406
0003b0 5e 04 5d bd ba 7d 9d bd 08 28 35 bd a6 bb 5d bb
       -0.053959243 -0.07689996 -0.04422763 -0.003383377
0003c0 33 f1 c6 bc 81 39 ca ba 31 7b b2 bc 7b 4a 76 bc
       -0.024284935 -0.0015428514 -0.021787258 -0.015032406
0003d0 41 50 d5 3c 92 0a 13 3b 44 54 7a bd c3 c9 ed 3c
       0.026039245 0.002243672 -0.06111552 0.029026872
0003e0 8b ad 26 bc 8d e3 b7 bc 1d b0 73 3d 3a 50 cc 3d
       -0.010173212 -0.022447372 0.059494127 0.099762395
0003f0 8a f4 d0 3c 4e 5e 00 3d 12 06 af 3d 86 cc dc bc
       0.02550723 0.031339936 0.0854608 -0.026952993

fc1.0.bias f4 [120]
000000 27 f3 c4 3c 91 6a 50 3d e6 89 d8 3d c3 f0 ac 3d
       0.024041725 0.05088288 0.10573177 0.08444359
000010 ee c5 23 bd 8f 67 eb bc 71 e3 65 3d ac 48 56 3c
       -0.039983682 -0.028735904 0.05612511 0.01307885
000020 c2 ec 93 bd 69 0e c5 bd 94 f1 06 3d da 92 30 bd
       -0.07222892 -0.09621889 0.03294523 -0.0431088
000030 22 87 8e 3d 3e 2f f8 3c 64 d9 90 bc 71 65 e8 3b
       0.06959368 0.030295964 -0.017681785 0.007092171
000040 5d c0 2e bd 68 b8 90 3d da 82 83 bd 33 08 02 3b
       -0.04266392 0.07066423 -0.06421442 0.0019841313
000050 d2 37 51 3c 85 a5 20 3d 9a 62 65 3b fd 3d 7e 3d
       0.012769656 0.03922035 0.0035001398 0.062070835
000060 0d df 1d 3d b7 ac d0 bc 96 9b 29 3d 80 b4 51 3d
       0.038542796 -0.025472982 0.041408144 0.05119753
000070 ce 67 7a 3d c0 5e 55 bd 05 20 3c bd 49 49 83 3d
       0.061134152 -0.052092314 -0.045928974 0.064104624
000080 87 53 02 3d 07 3f 1a bd 95 0a 28 3d c9 9d c4 3d
       0.03181794 -0.037657764 0.041025717 0.09600408
000090 35 ec 51 bd c6 f6 88 bd cd 99 d8 3c 5d 95 22 3c
       -0.051250655 -0.06687693 0.026440525 0.009923306
0000a0 e4 42 a3 3c 9e 86 04 3e 09 8f f7 bc 28 e9 41 3d
       0.019929357 0.12941977 -0.030219572 0.047341496
0000b0 3a c6 77 bd 57 c2 aa bc 3b f3 44 3d 11 26 08 3d
       -0.060491778 -0.020844622 0.048083525 0.033239428
0000c0 9a 88 0f 3d 84 04 3b 3d 67 7e a1 3d 22 7f 9e bd
       0.035042383 0.045658603 0.078854375 -0.077390924
0000d0 76 e6 92 3c 02 93 d6 bd f2 1f e1 bd d7 14 77 3d
       0.017932158 -0.10477258 -0.10992421 0.06032261
0000e0 cd 5e 9c 3d 13 52 ea bc 57 de 8b bb 86 ed 03 3d
       0.07635269 -0.02860359 -0.0042684483 0.032208942
0000f0 86 0f 8a bc b2 dc 38 3d 7e 7e 98 3d bd 0f 5e 3d
       -0.016853105 0.045132346 0.074460015 0.054214228
000100 fb 78 f7 3d ca 77 f0 bb dd f7 2c 3d 9c 07 cc bc
       0.12083622 -0.0073384987 0.04222857 -0.024905972
000110 d4 e9 8e 3d 65 7f 7f bd 99 4b ec 3c cc fd ff bb
       0.06978193 -0.062377352 0.028844642 -0.0078122374
000120 0b d5 56 3d ca d6 f8 3c da 11 fa bd e5 e1 ec bc
       0.052449267 0.030375857 -0.12210436 -0.028916309
000130 a1 99 5e bc 4d 69 64 bc 48 10 15 3c 31 ba a0 3d
       -0.013586433 -0.013941121 0.00909812 0.07848013
000140 e4 c6 8f 3d a0 47 c8 3c 23 68 93 3d 07 25 25 bd
       0.07020357 0.024448216 0.07197597 -0.040318515
000150 62 ee 71 bd 2e 42 77 3c 4d 98 b2 bd bb 72 e2 bc
       -0.05906523 0.015091462 -0.08720455 -0.027642598
000160 a8 a1 33 bd c1 6d 05 3d c0 94 d8 3c e3 e4 f5 bc
       -0.04385534 0.032575373 0.026438117 -0.030016368
000170 f4 13 e8 bd 39 7e 9d bc 65 98 93 3d 83 0c 25 3d
       -0.11331931 -0.019225227 0.07206801 0.040295135
000180 0a c4 81 3d 45 27 ba 3d 4b 5f 58 bc 8a b4 01 3c
       0.063362196 0.09089521 -0.013206313 0.007916579
000190 7d 9a 21 3e a9 4d 01 bd d8 0c d2 bc 28 3b 89 3d
       0.15781589 -0.031568203 -0.02564089 0.06700736
0001a0 5a 53 c0 3c 53 2f ae 3d cb f1 0c 3d d6 33 79 bc
       0.023477245 0.0850512 0.03441028 -0.015210113
0001b0 67 2e ed 3c ad 79 db 3c a1 ff c9 3c 7a fa da bd
       0.02895279 0.026791418 0.024658026 -0.10692306
0001c0 3c 5f 55 3d 29 1d 7e bd 36 c8 7f 3d f7 21 94 bd
       0.052092776 -0.062039528 0.062446795 -0.07233041
0001d0 a0 f6 01 3d 44 e2 e0 3c 7d 3c 29 3d 2c 05 03 bd
       0.03172934 0.027451642 0.04131745 -0.031987354

fc2.0.weight f4 [84, 120]
000000 5e f2 bf bd 6a a0 54 bc 59 a0 7d 3d 0c ec 85 bd
       -0.093724 -0.012977699 0.061920498 -0.06539163
000010 46 e6 2c 3d cd c1 a6 3d a6 28 19 3d 51 7e 53 3b
       0.042211793 0.08142433 0.03739228 0.0032271335
000020 d6 02 a0 3d 02 3d 1c bd 1e df 64 bd 45 90 88 3d
       0.07813041 -0.03814412 -0.055876844 0.06668142
000030 2f a9 ab 3d 9b 9f bf bd d1 88 8d bc 0c b2 72 3c
       0.083818786 -0.09356614 -0.017277153 0.0148129575
000040 59 30 c2 3d 36 61 a5 3d fe 5f 87 bc ce f6 64 3c
       0.09481878 0.08075182 -0.016525265 0.013974858
000050 74 2a 8f 3d 9f 85 ff bc 6c 32 48 3d 20 6b c9 3d
       0.06990519 -0.031191645 0.04887621 0.098348856
000060 1f ba 3f bd 03 d8 73 3d 10 e7 74 bd 6d fe 01 be
       -0.04680836 0.059532177 -0.05979067 -0.12694712
000070 66 b9 03 3d be 27 56 bd 66 a3 af bd ad 45 a5 3d
       0.03215923 -0.052283995 -0.08576088 0.0806993
000080 83 40 b9 3d f6 1a 26 bc f7 45 1d bc b0 08 a1 3d
       0.09045508 -0.010138264 -0.0095992 0.07862985
000090 8e 5a b9 3d 73 41 2c 3d 17 6f 2c bd 15 a1 a4 3a
       0.09050475 0.042054605 -0.04209813 0.0012560213
0000a0 6a e3 a4 bc 04 f5 a7 3c 54 cf 33 bd 1e e2 bf 3d
       -0.02012797 0.020502575 -0.043898895 0.093693
0000b0 52 47 4d 3d 80 17 93 3d 1d 68 ef bb fa 2d ef 3d
       0.050116844 0.07182217 -0.0073061124 0.11678691
0000c0 79 f4 d9 bb d8 ec 8b bd 01 de bc 3d cd 25 d8 3c
       -0.006651458 -0.06832284 0.092220314 0.026385212
0000d0 53 71 a8 3d 65 e3 04 bd 9b e3 bf 3d 28 79 63 bc
       0.0822474 -0.032443423 0.09369584 -0.013883866
0000e0 d2 9c 9a bd 1d 07 2a 3d a3 11 ee ba c1 91 64 3d
       -0.07549442 0.04151069 -0.0018163215 0.055803064
0000f0 8e 27 97 bd a2 52 a7 bd 58 59 18 3d 3f fd 3b bd
       -0.07380591 -0.08170058 0.03719458 -0.04589581
000100 ec e5 ba 3d de 73 8f bd 0f 34 cc 3d eb af 5f bb
       0.09125885 -0.07004522 0.09970867 -0.0034131955
000110 27 5a c3 3d 97 93 04 bd 96 1c 2e 3d da 4f 56 bd
       0.095386796 -0.032367315 0.04250773 -0.052322246
000120 3f 8b 72 bd 8e b7 8a bc 5a 59 90 3d 62 36 2c 3c
       -0.059214827 -0.016933229 0.070482925 0.010511013
000130 c4 52 a5 bd ba 78 46 3b ab 01 3f bd 9e 44 ca bd
       -0.08072427 0.003028436 -0.04663245 -0.09876369
000140 2c 87 11 3d bf e0 82 3d 70 a8 1c bd 05 ed f7 3c
       0.0355293 0.06390523 -0.038246572 0.030264387
000150 5c 85 d3 bd 5b 38 c8 bd 69 8b 51 bd 54 a8 d4 3c
       -0.10328171 -0.09776374 -0.051158343 0.025959171
000160 57 f0 9c bc b9 37 a7 3c 80 af ac 3b a0 e4 27 3d
       -0.019157572 0.020412313 0.0052699447 0.04098952
000170 10 cc bb bd 8c 8e 90 bd cf 3e 63 bd bd aa 87 bd
       -0.09169781 -0.07058439 -0.05547982 -0.066243626
000180 8b d8 d2 bb 4a c6 96 3d 69 4b dc bc 3a 63 ab bd
       -0.0064345053 0.073620394 -0.026891427 -0.08368535
000190 5e e0 b9 3d 3d 64 2e 3d c5 87 fc 3c 55 9b 90 3d
       0.09075998 0.042576063 0.030826459 0.07060877
0001a0 da 68 9f 3d 45 71 c6 3d 0a 21 11 bd ef af 10 be
       0.07783671 0.09689573 -0.0354319 -0.14129613
0001b0 9a c5 a7 bc 71 cc c5 bc 79 57 1b bd 08 78 b0 3c
       -0.020479966 -0.024145337 -0.037925217 0.02154161
0001c0 9a 91 5c bd f9 f5 d9 bd 1e 45 e2 3b a9 01 9a bd
       -0.053849794 -0.10642619 0.006905212 -0.07519848
0001d0 38 fb 8e bd c5 2a e2 bc 8e 4e b2 3d cf 21 a3 bd
       -0.0698151 -0.027608285 0.08706389 -0.07965433
0001e0 f7 cb ab bc be 76 40 bd 44 68 96 3c 68 38 c5 3c
       -0.020971281 -0.04698824 0.018360265 0.024074748
0001f0 00 d0 07 bd 69 7c a7 3c 3e b7 03 3d 11 2b 0b bd
       -0.03315735 0.020445066 0.032157175 -0.03397662
000200 36 e3 da 3d e2 dc 9a 3b 9f d1 81 bc 28 34 ce 3d
       0.10687868 0.0047260383 -0.015847025 0.10068542
000210 2a 7b f4 bd dc 9b 2e 3d c3 11 f8 3d 87 c6 8a 3d
       -0.11937554 0.042629108 0.12112763 0.06776147
000220 b7 51 27 3c 8b 68 04 bd 88 24 08 3e 71 4a 42 bd
       0.010212353 -0.032326262 0.13295186 -0.047434274
000230 8f 7a e3 3c 9e 7a e9 bc 87 d0 05 3d 01 ad c3 3c
       0.027768401 -0.028500851 0.03266957 0.023886206
000240 97 d0 1b 3d 52 c2 c7 bd 3d 7c 5e bd f6 b3 b9 bb
       0.038040724 -0.097538605 -0.0543177 -0.005667205
000250 a9 5e 2a bd 9b fe e3 bc bb c2 f5 3d 04 0a bf bd
       -0.04159418 -0.027831366 0.120000325 -0.09328082
000260 36 7f a1 bd 98 2a b5 bd bd d7 ce 3d b7 13 bb bd
       -0.07885592 -0.08846015 0.100997426 -0.0913462
000270 31 8d 0b bd 03 5f d2 3d e6 64 af bd 67 79 ae bc
       -0.034070197 0.10272028 -0.08564167 -0.021298124
000280 19 a9 b7 3d 10 38 d9 bc b6 13 b9 3d 42 69 ca bd
       0.089678 -0.02651599 0.09036963 -0.098833576
000290 75 df 93 3d 32 f6 97 bd 94 ae d6 3d d2 6a ca bc
       0.072203554 -0.07420005 0.10482517 -0.024709139
0002a0 e2 c6 bc 3d e8 26 34 bd 81 95 fb bd 79 d5 34 bd
       0.092176214 -0.043982416 -0.12284375 -0.044148896
0002b0 65 71 28 3a 4d 29 01 3a de f7 e6 bc ea 7f af 3d
       0.00064255885 0.0004927114 -0.028194364 0.085693195
0002c0 2e ef 54 bd de 47 c8 3d 29 af 75 bd f4 e0 83 3d
       -0.051985912 0.097793326 -0.0599815 0.06439391
0002d0 72 ab cd bd 37 42 d1 bd 49 b8 ed bc 59 2a 27 3d
       -0.10042466 -0.102177076 -0.029018538 0.04081187
0002e0 b9 72 30 be 24 8b 9c bc 4c 37 57 3d 4d 59 43 bd
       -0.17231263 -0.019109316 0.05254297 -0.047692586
0002f0 1d f2 98 bd c8 3b 05 3d bd 28 05 bd 81 d9 75 3c
       -0.074680544 0.032527715 -0.032509554 0.01500547
000300 2a 62 95 3d b2 e9 b8 bd 1b 24 d7 bd 23 e2 02 3d
       0.07294114 -0.09028949 -0.105049334 0.031953942
000310 2a b7 43 bd db 21 01 3c 7c aa 0f 3d 96 fb 26 3b
       -0.0477821 0.007881607 0.035074696 0.0025479547
000320 06 f7 f8 bd 06 e2 63 3d a2 81 3b 3c bf 5f 1d 3b
       -0.12156491 0.055635475 0.011444481 0.0024013368
000330 ac d8 f0 3d ee a6 0e 3d 2a ce b5 3d 40 ec d4 3d
       0.11760077 0.034827165 0.08877213 0.103966236
000340 2e 8f 1d 3e 1d 13 16 be 3e f9 88 3c 5e 4f 8f 3c
       0.1538665 -0.14655729 0.01672041 0.0174939
000350 7a 8a 1c 3e 1d d2 60 3d e9 25 35 3d de c8 00 be
       0.152872 0.05488788 0.044225607 -0.12576625
000360 4a ec 61 bd 38 dc 0c be 5d f0 96 3d b6 7e 15 bc
       -0.055156983 -0.13755882 0.073700644 -0.0091244485
000370 23 6e be bd 95 7a 6f 3d 71 15 ba 3c 8a ac d2 bb
       -0.09298351 0.058466513 0.022715302 -0.0064292597
000380 61 c4 66 3d d2 3a f6 bd 2a 28 ba bb f9 8c af 3d
       0.056339625 -0.12022938 -0.0056810575 0.0857181
000390 18 91 9b bd e0 7b 4d bd df f2 02 3d b2 8c 98 bc
       -0.07596034 -0.050166965 0.0319699 -0.018621776
0003a0 a4 88 9b 3d 82 a1 60 bc ae d1 8a 3a e5 e8 df bd
       0.075944215 -0.013710381 0.0010591054 -0.10933093
0003b0 91 48 05 bd 3e 01 2d bc 6b 15 6d bc 2b 2b 57 bd
       -0.032539908 -0.010559378 -0.0144704385 -0.052531403
0003c0 20 a7 04 bd 85 42 9e bd 71 13 8a 3d f4 f4 42 bd
       -0.032385945 -0.07727531 0.067419894 -0.047596887
0003d0 29 cf 15 bc 02 e7 0f bd c6 a5 2c 3d dd e6 a2 3d
       -0.009143629 -0.035132416 0.04215028 0.0795419
0003e0 f6 25 82 bb 0e a1 3a 3d de 56 fd 3b e4 6c 5b 3d
       -0.0039718105 0.04556375 0.0077313026 0.053570643
0003f0 ae b2 9b 3d 08 26 71 3c 06 2b 83 bc 15 c0 36 3d
       0.0760244 0.01471854 -0.016011726 0.044616777

fc2.0.bias f4 [84]
000000 0d 20 c6 3d c3 a3 b5 bd 5a bb c7 bc 4a 65 cc bc
       0.09674082 -0.08869126 -0.024381328 -0.024950642
000010 a8 9d 0d 3d a5 b9 1b 3d 93 9f 1c 3c 04 79 fe bc
       0.03457418 0.03801884 0.00955953 -0.031063564
000020 36 a1 7b bc b8 86 07 be 9e 3d d4 bc ea b7 4e 3d
       -0.01535826 -0.13234985 -0.025908288 0.050468363
000030 fe 6c 5e 3d 91 57 16 be 38 48 2c 3d 04 5a 80 bd
       0.05430316 -0.14681841 0.04206106 -0.06267169
000040 2a 83 c9 bd 6f 33 24 3c 1d 6c 42 bd ee fc 58 3d
       -0.09839471 0.010022028 -0.047466386 0.052975588
000050 12 e2 fc 3c aa c2 08 be 41 5a 2a be 6d 6f 89 3c
       0.030869517 -0.13355508 -0.16635992 0.016776765
000060 42 0d 63 3c 91 0f 60 3c 8f 17 87 3b 0c 43 b1 3c
       0.013858141 0.013675586 0.0041226815 0.021638416
000070 af b1 a4 3d 80 11 35 3d fb 2d 94 3c 1d 69 f8 bd
       0.08041703 0.044206142 0.018088331 -0.12129424
000080 63 aa ee bb 6b 85 38 3c b9 f1 06 3e 31 fb 83 3d
       -0.0072834953 0.011262278 0.13178147 0.06444395
000090 1c 7a 4b 3d af 5b d5 bc cf 9c 0d bc 0a 24 e3 bd
       0.049677 -0.026044695 -0.008643343 -0.11090858
0000a0 59 52 50 bd a6 29 8f bc d5 6c 63 3d d2 5f c0 3c
       -0.050859783 -0.017475914 0.055523712 0.02348319
0000b0 11 8d d4 3d 61 ba 36 3b 78 a5 15 bd 7c ae 98 3c
       0.10378469 0.0027882087 -0.036534756 0.018637888
0000c0 e0 24 4e 3d b7 07 98 bd 2b a2 88 bd eb 6a 16 3d
       0.050328135 -0.074233465 -0.06671556 0.03672306
0000d0 ae 0a 4b 3d 02 c8 b7 3d eb 2b 9c bd 78 6b dd 3d
       0.04957073 0.08973695 -0.07625564 0.10811514
0000e0 95 d4 c0 3d 1e d6 27 3d 48 1f 2a bd 01 ed 94 3c
       0.09415547 0.040975682 -0.04153374 0.018179419
0000f0 45 5c 18 3e 7a 1f 2b bc d3 b3 de bd 7e 88 12 3d
       0.14878948 -0.010444516 -0.108741425 0.0357747
000100 4e e4 82 bd fd f4 82 bd 90 fd 06 3c 97 a4 be bd
       -0.06391202 -0.06394384 0.008239165 -0.09308737
000110 58 82 81 3c 48 2c a3 3d 83 15 c2 bd 98 bc 46 3d
       0.015809223 0.0796743 -0.09476759 0.0485197
000120 ea 37 a0 bd 49 61 a0 3d 64 20 d2 bd c9 36 74 3d
       -0.07823165 0.07831056 -0.10260084 0.05962256
000130 95 ff 1e 3c 47 28 23 bd ab 17 7b bc 2d 35 c0 bd
       0.00970449 -0.039833333 -0.015325467 -0.093851425
000140 20 c3 bf bc 78 04 23 bd fc 9d a0 3d a8 ba d7 bc
       -0.023408473 -0.039799184 0.07842633 -0.026334122

fc3.weight f4 [10, 84]
000000 02 8d ba 3d c7 2a b9 3c 6d ae da bd c1 36 6b bd
       0.09108926 0.022603406 -0.106778 -0.057425264
000010 9f 94 3c bd ba 64 02 3e 42 2c e9 bd e6 90 3f be
       -0.046040174 0.12733737 -0.11385395 -0.18707618
000020 1c e0 f0 3d b1 22 80 3d 67 48 40 be a5 3e 8d bd
       0.117614955 0.06256617 -0.1877762 -0.06896714
000030 53 8d 52 be 48 88 65 bd b4 12 9c 3d bd 0d 26 be
       -0.20561723 -0.05603817 0.07620755 -0.16216178
000040 8b 93 7c be 5b 8b 49 3e 4c 6c 84 3c ca 5c 72 3e
       -0.24665658 0.19682066 0.016164921 0.23668209
000050 c7 b4 af bc ed 63 2e be 48 3e 5c be f3 5f 19 3e
       -0.021448506 -0.17030306 -0.21508133 0.14978008
000060 24 0f 10 be 7b 72 f7 3d 0c 17 63 3d 1a a8 14 3e
       -0.14068276 0.12082382 0.0554419 0.1451725
000070 24 96 2f 3e c8 5d af 3e ad 41 76 3e 68 67 8c 3d
       0.17147118 0.34251237 0.24048491 0.06855661
000080 f8 bf bc 3c cf 77 3a 3e c9 1e 09 3e 60 e3 2f bc
       0.023040757 0.18209766 0.1339065 -0.010735363
000090 68 ef 6f be 14 19 f3 3c a9 97 bc 3d f6 62 0a be
       -0.2343117 0.029675044 0.092086144 -0.13514313
0000a0 28 e2 c2 3d a4 7e 88 3e f7 00 69 3d ba 39 88 bb
       0.09515792 0.2665912 0.056885686 -0.004157272
0000b0 2c c0 f8 3d 40 eb 61 3d e0 b0 cd 3d 9d ca b7 3d
       0.12146029 0.055155993 0.10043502 0.08974192
0000c0 cb 4e a3 bd f9 4f c3 bd fa 04 1d be d7 97 d2 3d
       -0.07974013 -0.09536738 -0.1533393 0.102828674
0000d0 74 c4 f3 bd 66 56 23 3e 09 06 40 3e 1c ac 50 bd
       -0.11902705 0.15950927 0.18752302 -0.050945386
0000e0 4d 2b ee 3d 92 b9 70 be 1c c8 63 bd 92 5e 5f bd
       0.11629353 -0.2350829 -0.05561076 -0.05453355
0000f0 4b 90 b5 bd 85 27 60 be f8 c2 3d 3e 37 68 a8 bd
       -0.08865412 -0.21890076 0.18531406 -0.082230024
000100 3c 7e 38 3e 80 af 3f be cc 92 94 bd 90 61 0d be
       0.18016905 -0.18719292 -0.07254562 -0.13806748
000110 b3 47 02 be f2 22 bb 3d d0 e7 47 3e 35 6a 88 3d
       -0.12722664 0.09137525 0.19522023 0.066608824
000120 d6 23 01 bd 5b 41 53 3e fd bf 1e bc 29 dd 94 3d
       -0.031528316 0.206304 -0.009689328 0.072687455
000130 5a 03 c5 3d 0d 86 85 be 8e 7d ab be b3 83 c7 bd
       0.0961978 -0.26078835 -0.33494228 -0.097419165
000140 4e 7c 1e 3e 33 b9 b9 3d 2a 5b 5d bd ad f4 fd bd
       0.15477106 0.09068527 -0.05404202 -0.12400184
000150 e7 f2 67 3d 0c 12 d7 bd 82 87 65 3e 9b 4b d3 3d
       0.056628134 -0.10501489 0.22414973 0.10317155
000160 7e 18 db 3d c3 31 02 3d 42 01 81 3d 23 a5 ac 3e
       0.10698031 0.031785738 0.06299068 0.3371974
000170 f5 df 73 be 40 49 69 bb 3a dc 9e 3d 48 2d 45 3e
       -0.23815902 -0.003559664 0.07756849 0.19255555
000180 37 65 20 3d 53 69 4a 3e ec b7 26 3e c1 eb 49 bd
       0.039159026 0.1976674 0.16281098 -0.049297098
000190 94 77 7d 3d db 40 4a 3e 40 89 fe bc ed 16 80 be
       0.061881617 0.19751303 -0.031071305 -0.2501749
0001a0 3b 32 a5 3e 0b d7 3a 3e 4e 7a 2a 3d 3b 6f fb bd
       0.32264885 0.18246095 0.041620545 -0.12277075
0001b0 24 ad 13 bd a9 a2 93 3e 84 76 4f 3e ac e7 51 3d
       -0.03605379 0.28835037 0.20260054 0.05124633
0001c0 e4 97 90 3e e8 00 25 3e 8f 8e c4 3c 8e 1a 57 bd
       0.28240883 0.16113627 0.023993758 -0.05251556
0001d0 9b 29 37 bb e0 c4 72 bd ef 3d f1 bd 79 c3 6d be
       -0.0027948383 -0.059269786 -0.11779391 -0.23219098
0001e0 c3 29 75 be 2a 33 81 3e 49 a4 2e 3d 10 88 2e 3e
       -0.23941712 0.25234348 0.042637143 0.17044091
0001f0 6a e1 9b 3d 06 5e 6d 3d 9c a4 b4 3d d7 a4 57 be
       0.07611354 0.057950996 0.08820459 -0.21058975
000200 d6 fd d0 bd 8a 9a 33 3e 6f 95 50 be 88 5c d9 bd
       -0.10204665 0.1753942 -0.20369504 -0.10613352
000210 58 c4 28 3e 4b 58 af 3d 7a 5a ef bc 6d cf 1f be
       0.16481149 0.085617624 -0.029217947 -0.1560647
000220 a4 52 17 be 30 83 c2 3b 0a e4 30 3e 65 ef 5c be
       -0.14777619 0.005936049 0.1727449 -0.21575697
000230 b8 e1 d8 bb 24 92 e5 bd 38 c6 7f bc 47 3e 1a 3e
       -0.0066187046 -0.11209515 -0.015611224 0.1506282
000240 c5 36 55 3e 9c 25 07 be 4b 2d 67 3e 2a 1e 83 3e
       0.20821674 -0.1319794 0.22575872 0.2560895
000250 f5 44 cd bb 5f 58 01 3d 77 88 45 3e 25 22 29 3e
       -0.006264324 0.031578418 0.19290338 0.16516931
000260 5c b9 e5 3c bf fa 14 be f0 f9 78 be a3 1d 21 3e
       0.028042488 -0.14548777 -0.24314094 0.15733962
000270 bb af c1 3d cf 27 2c 3e 62 84 28 3e 0c f1 f6 3d
       0.09457346 0.16812061 0.1645675 0.12057695
000280 64 bf 47 3e 28 89 ba bd 29 a0 a9 be 12 80 a7 3d
       0.19506603 -0.09108192 -0.33130005 0.08178724
000290 23 a6 52 be dd b0 65 3e 1b cc 75 3e 3f 78 80 bd
       -0.20571189 0.22430749 0.24003641 -0.06272935
0002a0 2a 8e c0 bd 06 10 d8 bb 28 2d 79 be 7b 93 21 be
       -0.09402116 -0.006593707 -0.24333632 -0.15778916
0002b0 fc b6 2c be 5e 59 03 3c b3 85 1f 3d dc 89 6a bc
       -0.16866678 0.008016912 0.038945865 -0.014315095
0002c0 57 00 dc bd 35 da b3 bd dc 46 42 be 2e 21 21 3e
       -0.10742252 -0.08781854 -0.18972343 0.15735313
0002d0 49 2b d9 bb 54 5d 6f be 63 5c 2a bd 1c c3 75 3d
       -0.0066274744 -0.23375446 -0.041592013 0.060000524
0002e0 bf 04 fb bd c2 75 22 3e ce d8 1d bb 16 63 ba bc
       -0.122567646 0.15865234 -0.0024085524 -0.022752326
0002f0 55 a7 97 be ba b7 13 bd ee 08 1e be 83 a0 80 3d
       -0.29619852 -0.036063887 -0.15433094 0.06280615
000300 81 9f 1d bd ae 6d 7a 3d 2d 18 23 3b 65 1a 10 3e
       -0.038482193 0.061139755 0.0024886236 0.14072569
000310 ba c6 38 3d e3 ad df 3d f8 8d 4a 3c 14 92 80 3e
       0.045111395 0.10921838 0.01236295 0.2511145
000320 b9 81 6e bd b9 c3 23 3c b4 80 af 3d f7 24 1a 3e
       -0.058229182 0.009995394 0.0856947 0.15053163
000330 26 51 10 bd 6a 4f 9d bd 8d ce fe bc 7d bb 40 3d
       -0.03523364 -0.07681163 -0.03110435 0.047053803
000340 bc bc 37 3e 4f fb fa bd ea 27 4d be 83 ed 8e 3d
       0.1794309 -0.122549646 -0.20034757 0.069788955
000350 78 08 92 3e f6 c7 de b9 7e 2f f9 bb 97 e8 d4 bd
       0.28522086 -0.00042492122 -0.0076045385 -0.103959255
000360 ce 06 86 bc f3 ea 0b 3e 97 1a 5d 3e b3 80 84 bd
       -0.016360667 0.13663845 0.21592174 -0.0646986
000370 f9 14 33 bd 37 3a 49 3e f1 cf 3e 3d bc 9f 12 3b
       -0.043721173 0.19651113 0.046585027 0.002237304
000380 28 71 80 3e 22 a6 c2 3c ed d0 19 bc 44 10 65 bd
       0.2508633 0.023760859 -0.009388191 -0.055923715
000390 5b 9e 56 3e 80 f3 69 3e d4 fc 71 bd 73 bd 92 3d
       0.20958845 0.22846794 -0.059079006 0.07165041
0003a0 d1 24 78 be cf 97 22 3e da 36 01 be a3 db c1 bd
       -0.24232794 0.15878223 -0.1261858 -0.094657205
0003b0 e5 2a 25 bc 2c 88 9f 3d 94 94 07 3d b0 ee af 3d
       -0.010081028 0.077896446 0.03310068 0.08590448
0003c0 c1 1d 90 3d eb 31 e4 3c 51 e9 84 3d 13 6d 31 be
       0.07036925 0.027855834 0.06489814 -0.17326765
0003d0 24 d1 94 bc 9e bb 5a 3e 02 91 3a be 8f 47 6d 3d
       -0.018166132 0.21360633 -0.18219379 0.05792957
0003e0 38 a9 77 3e 32 13 a5 be 1d 5c a8 3c 8c ce 77 be
       0.24185646 -0.32241207 0.020551736 -0.24199885
0003f0 d4 48 45 3d 09 72 a4 bd cb d2 a5 bb 72 02 0f 3d
       0.048165157 -0.08029563 -0.005060529 0.03491444

fc3.bias f4 [10]
000000 8d d9 78 3e 86 c0 98 bd 72 82 75 3d 71 77 80 3e
       0.24301739 -0.07458596 0.059938855 0.25091127
000010 af 40 37 bd 11 c4 c8 bd d5 fc 0c bd 47 6c 70 be
       -0.04473942 -0.09803022 -0.034420807 -0.23478805
000020 7b eb 3f 3e 12 fd 94 be
       0.18742172 -0.29099327
