checkpoint/LeNet5_hardtanh_quantized_3_bits.ckpt (torch, 274571 bytes, 19 tensors)

conv1.0.weight f4 [6, 3, 5, 5]
0	0x3d26dfd6	0.04074081
1	0x3e014783	0.12624936
2	0x3c1f9a52	0.009741383
3	0x3daf975d	0.08573792
4	0xbda386e8	-0.07984716
5	0xbcca4cc8	-0.024694815
6	0xbc342b23	-0.010996613
7	0x3d970fb8	0.07376045
8	0x3cd2beb0	0.025725693
9	0x3d93be04	0.07213977
10	0x3df66473	0.12030878
11	0x3d827f24	0.063719064
12	0x3d161cd1	0.036648575
13	0xbc3e16b0	-0.011602089
14	0x3dd6ad33	0.10482254
15	0xbdb5a96d	-0.08870206
16	0x3cb62694	0.022235192
17	0xbd78c6f4	-0.06073661
18	0x3e0a6ff2	0.13519266
19	0x3da4cc13	0.080467366
20	0x3dc970f8	0.09836
21	0x3da669ff	0.08125686
22	0x3dceb381	0.100928314
23	0xbd9aed53	-0.07564797
24	0x3e116454	0.14198428
25	0xbcb06cce	-0.021536257
26	0x3d6dff73	0.058104943
27	0xbd8bf94e	-0.068346605
28	0x3d3e2646	0.04642322
29	0x3dbb17b4	0.091353804
30	0xbd63e4e1	-0.055638198
31	0x3dc59bbd	0.09648845
32	0x3c88a14a	0.016678471
33	0x3d8ce13d	0.06878898
34	0x3d9653dc	0.07340214
35	0xbd2fe611	-0.042944018
36	0xbd3021ef	-0.04300111
37	0x3dd8c69b	0.10584756
38	0xbdbbadbf	-0.09163999
39	0x3cc7e25a	0.024399925
40	0xbbd9f380	-0.006651342
41	0xbb2c2a93	-0.0026270493
42	0xbcd149f1	-0.025547953
43	0x3ce51da2	0.027968232
44	0x3cdd5998	0.02702026
45	0xbd66aabb	-0.056315165
46	0xbd7ffa65	-0.062494654
47	0x3e002159	0.12512721
48	0xbc4b3b7d	-0.01240432
49	0xbd03a647	-0.032140996
50	0xbcdbbd4c	-0.026823662
51	0xbdfd5dca	-0.123714045
52	0xbdf8827c	-0.12134263
53	0xbdd852d0	-0.1056267
54	0xbe06ee22	-0.13176778
55	0xbc83d510	-0.016092807
56	0xbd6b2c42	-0.057415254
57	0xbd91e338	-0.07123417
58	0xbda6b59c	-0.08140108
59	0xbd2b4f56	-0.041823708
60	0xbdf993f8	-0.12186426
61	0xbd39dac1	-0.045374636
62	0xbc7bac8a	-0.015360961
63	0xbca1d716	-0.019755881
64	0x3c27f050	0.010250166
65	0xbd0c46b7	-0.034247126
66	0xbda54069	-0.08068926
67	0x3d2da0e7	0.042389777
68	0xbd758e27	-0.05995002
69	0xbdc3d587	-0.095622115
70	0xbd9d056b	-0.07667049
71	0xbd89df1a	-0.06732006
72	0xbdc8d4f0	-0.098062396
73	0xbd844268	-0.064579785
74	0xbdc8c7c1	-0.09803725
75	0x3dba438c	0.09094915
76	0xbde600d5	-0.112306274
77	0x3cd188a1	0.025577845
78	0xbdaea72d	-0.0852798
79	0x3d37f53d	0.04491161
80	0xbd4454e0	-0.047932506
81	0x3de12284	0.109929115
82	0x3dd4f34a	0.10397966
83	0xbd22c097	-0.03973445
84	0xbca05240	-0.01957047
85	0x3b80e883	0.0039339676
86	0x3dbcc5d5	0.09217421
87	0xbbba5ce0	-0.005687341
88	0xbd9773a6	-0.07395105
89	0xbd6f0db0	-0.058362663
90	0x3b8a6827	0.0042238417
91	0x3c00c4aa	0.007859388
92	0x3d0ffa1e	0.03515064
93	0xbde2a3be	-0.110663876
94	0xbde07d7d	-0.10961435
95	0x3dc02837	0.093826704
96	0x3da2a32f	0.07941281
97	0xbdbe7b02	-0.09300806
98	0xbda48463	-0.08033063
99	0x3d380c80	0.044933796
100	0xbd2bd283	-0.041948806
101	0x3d96552c	0.07340464
102	0xbd374a22	-0.044748433
103	0xbd9d22bd	-0.076726414
104	0x3dd29dff	0.102840416
105	0xbcdfe74d	-0.027331972
106	0xbdca78d6	-0.09886329
107	0x3d3a1305	0.045428295
108	0x3d700019	0.058593843
109	0xba666ab3	-0.0008789703
110	0xbc6cbf86	-0.01444996
111	0x3d859aad	0.06523643
112	0x3dc68b71	0.09694565
113	0xbd912408	-0.070869505
114	0x3d32d3fa	0.043659188
115	0xbd36c3c9	-0.04462031
116	0xbd867f2e	-0.06567226
117	0xbdb9988f	-0.09062301
118	0x3dc69e18	0.09698123
119	0x3dec7373	0.11545458
120	0xbc390c4f	-0.0112944385
121	0x3d0968b4	0.03354712
122	0x3d2d8675	0.042364556
123	0xbd9efbbc	-0.07762858
124	0x3da80742	0.08204509
125	0xbe0dca81	-0.1384678
126	0x3c9d4a00	0.019200325
127	0xbda9ca6f	-0.08290564
128	0xbd5fa130	-0.05459708
129	0x3d384016	0.044982992
130	0xbdb1da1b	-0.086841784
131	0xbd0e9d2b	-0.034817856
132	0xbcf321fe	-0.029679295
133	0xbd706ecd	-0.058699418
134	0xbcdaf934	-0.026730157
135	0x3da7c536	0.08191912
136	0x3dae5160	0.08511615
137	0xbdc849fc	-0.097797364
138	0x3d15d923	0.03658403
139	0xbe0f6561	-0.14003517
140	0xbd90d370	-0.070715785
141	0xbca31cea	-0.019911248
142	0xbd36f9c0	-0.044671774
143	0xbd881b08	-0.06645781
144	0xbde83821	-0.11338831
145	0x3cb179a8	0.021664456
146	0xbdb971bb	-0.090548955
147	0xbc4b5f8b	-0.012412916
148	0xbd1b4a41	-0.03791261
149	0x3cbdefec	0.023185693
150	0xbd994906	-0.07484631
151	0xbb44bc80	-0.0030019581
152	0xbdb38cbf	-0.087670796
153	0x3d4554df	0.048176643
154	0xbd3fd4a0	-0.046833634
155	0x3d832596	0.06403653
156	0x3dd00afb	0.10158344
157	0xbda7bc24	-0.08190182
158	0xbdcbca3d	-0.09950683
159	0x3b7c3962	0.0038486351
160	0x3dbb2d3f	0.091394894
161	0xbdc4c9a2	-0.09608771
162	0xbd93d4ff	-0.0721836
163	0xbd9737ff	-0.07383727
164	0xbbb15a3a	-0.005412367
165	0x3d62fc64	0.05541648
166	0xbdba4814	-0.09095779
167	0xbb911745	-0.004427823
168	0x3da0957e	0.07841013
169	0xbd2330db	-0.039841514
170	0xbcb75970	-0.022381514
171	0xbd6402e1	-0.055666808
172	0xbd7ea45f	-0.062168475
173	0xbd822996	-0.06355588
174	0xbd560c24	-0.052257672
175	0x3d4e1d2a	0.05032078
176	0xbc292071	-0.010322676
177	0xbcddfc3b	-0.027097812
178	0xbc583e0e	-0.013198389
179	0x3dcec3ad	0.10095916
180	0xbdf05e88	-0.117367804
181	0x3b17eed8	0.0023183133
182	0x3da20cd1	0.07912601
183	0xbda19c46	-0.07891135
184	0xbdf1bc6a	-0.11803515
185	0xbd4428c7	-0.04789045
186	0x3dac6c4c	0.084190935
187	0xbcf69bd8	-0.030103609
188	0x3ccfb130	0.025353044
189	0xbdcb7819	-0.09935016
190	0xbda4fabb	-0.080556355
191	0xbdfcdfcc	-0.12347373
192	0x3d0dccdb	0.034619194
193	0x3d037c63	0.032101046
194	0x3da7e837	0.08198588
195	0xbdf73ec8	-0.120725214
196	0xbdffc31b	-0.12488385
197	0xbd8b0e4f	-0.067898385
198	0xbc35e03d	-0.011100826
199	0xbdcb2957	-0.09919994
200	0x3c0b77ff	0.008512496
201	0xbd59d95d	-0.05318581
202	0x3c4d64ff	0.012536286
203	0xbc2c4f09	-0.01051689
204	0xbd95f625	-0.07322339
205	0x3cab50ad	0.020912493
206	0x3d2250eb	0.03962795
207	0x3aa7cfdf	0.0012803039
208	0x3d9de566	0.0770977
209	0x3d85dbe8	0.065360844
210	0x3d9cec04	0.07662204
211	0x3da5e2a4	0.08099869
212	0x3d74017d	0.05957173
213	0x3dee966b	0.11649784
214	0x3cc85178	0.02445291
215	0x3da79743	0.08183148
216	0x3d5d0433	0.053959083
217	0x3d38e284	0.045137897
218	0xbd8896d3	-0.066693924
219	0xbcfdcc2c	-0.030981146
220	0x3df19d86	0.11797623
221	0xbd204ac8	-0.039133817
222	0x3dce3c95	0.10070149
223	0xbdb0dfa5	-0.08636407
224	0xbd36467a	-0.044500805
225	0xbdc6c93d	-0.09706352
226	0xbdce86c3	-0.100842975
227	0xbd7b7d8d	-0.06139903
228	0x3bcec80a	0.0063104676
229	0xbd8b6fa7	-0.06808405
230	0xbb78ab2f	-0.003794383
231	0x3d96c31e	0.073614344
232	0x3c9b2236	0.018937211
233	0xbd6c16c1	-0.057638887
234	0xbdb8189c	-0.08989069
235	0x3da18a71	0.07887734
236	0xbd46e65b	-0.048559528
237	0xbdc90f7c	-0.098174065
238	0x3c6c404a	0.014419625
239	0x3d09d711	0.03365237
240	0xbcffab21	-0.03120953
241	0xbdba7b58	-0.09105557
242	0x3b8bd8c0	0.004267782
243	0xb81c3979	-3.7246824e-05
244	0x3d67d8ea	0.05660335
245	0xbd87cb51	-0.066305764
246	0x3b0635f1	0.002047893
247	0xbd870ece	-0.06594621
248	0x3dc9681e	0.09834312
249	0xbdeebbfe	-0.116569504
250	0xbd6e68c9	-0.0582054
251	0x3d52fa89	0.05150846
252	0x3db5e530	0.08881605
253	0xbc39c1a6	-0.011337673
254	0xbc7ee2f1	-0.015557037
255	0x3cef8fdf	0.029243408

conv1.0.bias f4 [6]
0	0x3e1a8284	0.1508885
1	0x3d10bb8b	0.035335105
2	0xbd591ed6	-0.053007923
3	0xbcff2aa1	-0.031148257
4	0x3d386d0e	0.045025878
5	0x3bdf1916	0.0068084104

conv2.0.weight f4 [16, 6, 5, 5]
0	0x3da4d752	0.080488816
1	0x3d4e006e	0.05029338
2	0x3d4ff147	0.05076721
3	0xbd0118a2	-0.031517632
4	0x3d474d78	0.048657864
5	0xbd66d558	-0.056355804
6	0xbd1b71ed	-0.037950445
7	0x3d61c9eb	0.055124205
8	0x3cde6754	0.02714888
9	0x3c9c4364	0.019075103
10	0x3da7c24d	0.08191357
11	0x3d3542d0	0.04425317
12	0xbc49f49f	-0.012326389
13	0xbcb2fbb9	-0.021848546
14	0x3d50e32b	0.050997894
15	0x3cef8824	0.029239722
16	0x3cdf2cb3	0.027242994
17	0xbc9d3a12	-0.01919273
18	0x3d872b4f	0.06600057
19	0xbd9c6d86	-0.076380774
20	0xbd60154b	-0.054707807
21	0xbd83caec	-0.06435189
22	0xbc3735fb	-0.011182304
23	0xbce91a70	-0.02845499
24	0xbc9d86a0	-0.019229233
25	0x3d22b61f	0.039724465
26	0x3b280a47	0.0025640891
27	0xbd73ce03	-0.05952264
28	0xbd5fb588	-0.05461648
29	0x3dac2be2	0.084068075
30	0xbb509dbc	-0.0031832298
31	0x3b840380	0.0040287375
32	0x3d0f1f21	0.034941796
33	0x3d233b7a	0.039851643
34	0x3d31d170	0.043412626
35	0x3d750918	0.059823126
36	0x3d23c241	0.039980177
37	0x3cfb37f0	0.030666322
38	0xbd4b3b13	-0.049616884
39	0xbd19d2c9	-0.037554536
40	0x3d5a434c	0.053286836
41	0x3d734754	0.059394196
42	0xbaa6fcbe	-0.0012740118
43	0xbd6bfc11	-0.057613436
44	0x3c88abc9	0.016683476
45	0x3d19ff26	0.037596844
46	0x3d8fdb10	0.07024205
47	0x3d8e46f7	0.06947129
48	0x3c54d61e	0.012990503
49	0x3d8e06fa	0.069349244
50	0x3d3d9992	0.046289034
51	0x3d275e46	0.04086139
52	0xbd7d69e1	-0.061868552
53	0x3b8770ab	0.004133304
54	0xba95eec3	-0.0011438954
55	0xbd8b4039	-0.06799359
56	0x3cf4a932	0.029865835
57	0xbd156836	-0.036476336
58	0x3d16cd96	0.036817156
59	0xbca81b0f	-0.020520715
60	0xbd97d9bc	-0.074145764
61	0xbd8754b2	-0.06607951
62	0xbd7cc8ab	-0.06171481
63	0x3c458d32	0.012057589
64	0xbd9c73d1	-0.07639278
65	0xbd248bd0	-0.040172398
66	0xbb82b749	-0.0039891344
67	0xbd8fbb43	-0.07018139
68	0x3c78798b	0.015165697
69	0xbd64fe83	-0.055906784
70	0x3d20fe5d	0.03930508
71	0xbd46fafb	-0.048579197
72	0x3ca78f9d	0.020454222
73	0x3c206b30	0.0097911805
74	0xbc0a4c51	-0.008441047
75	0x3d47cfa5	0.04878201
76	0xbd8dca80	-0.069233894
77	0x3c8d2a07	0.017231954
78	0x3dac1ce0	0.08403945
79	0x39d43e3b	0.00040482156
80	0x3d129573	0.035787057
81	0x3d0509f2	0.032480188
82	0xbc258155	-0.010101636
83	0x3c99679b	0.01872616
84	0x3dac0ef9	0.08401293
85	0x3ce24e60	0.027625263
86	0xbd82deb2	-0.06390132
87	0x3c68505c	0.014179315
88	0x3cf72f10	0.030173808
89	0x3d1192ef	0.035540517
90	0xbdad3b38	-0.08458561
91	0xbd1f0adf	-0.038828727
92	0xbd8a3eba	-0.067502454
93	0xbc8f4f05	-0.017493734
94	0xbd496f1e	-0.049178235
95	0xbd903db5	-0.0704302
96	0xbc6d0d69	-0.014468529
97	0x3cb4eb5c	0.022084884
98	0xbcae5641	-0.021281363
99	0x3d7d7107	0.06187537
100	0xbd20a05c	-0.03921543
101	0x3d94f6cf	0.072736375
102	0xbd299bac	-0.041408226
103	0xbcfee723	-0.031116074
104	0xbc042b28	-0.00806693
105	0x3c32912f	0.010898872
106	0xbd2542b6	-0.040346824
107	0x3c4c285a	0.012460792
108	0xbd9a4da6	-0.075343415
109	0xbc344b9c	-0.011004355
110	0x3d9a9eca	0.07549818
111	0xbd6b4270	-0.057436407
112	0x3a2b6229	0.00065377593
113	0xbd3e9f4e	-0.046538644
114	0x3cd699e1	0.026196422
115	0x3bd445ad	0.0064780326
116	0x3c9906f5	0.018680075
117	0xbc29c8cd	-0.010362816
118	0xbd381e8f	-0.044951018
119	0x3da0ceb3	0.07851925
120	0x3da2e929	0.07954628
121	0xbd981a14	-0.07426849
122	0x3b80da86	0.0039323
123	0xbd42287a	-0.047401883
124	0xbd82b569	-0.063822575
125	0xbd8da24c	-0.06915721
126	0x3bbb0ada	0.0057080807
127	0xbbea511c	-0.0071507823
128	0x3d6c3a5b	0.05767284
129	0xbd10784f	-0.035270985
130	0xbc34519b	-0.011005784
131	0xbd7d5337	-0.061846938
132	0xbbb05ed1	-0.0053823967
133	0x3b7f736e	0.0038978714
134	0x3d0b6d9b	0.034040075
135	0xbcdaa713	-0.026690995
136	0xbd227330	-0.039660633
137	0xbda38156	-0.07983653
138	0x3c774509	0.015092143
139	0xbd691fe6	-0.056915186
140	0x3d9cd4ca	0.07657774
141	0x3d295f50	0.041350663
142	0x3d515ffe	0.051116936
143	0xbd1d722a	-0.038438953
144	0x3d3b6d01	0.04575825
145	0xbd916fd3	-0.07101407
146	0xbc9297a9	-0.017894583
147	0x3befaaba	0.0073140534
148	0x3d87f23a	0.06637998
149	0xbd0320f3	-0.032013845
150	0xbd6fd487	-0.05855229
151	0x3d6d4663	0.057928454
152	0xbdc62c5c	-0.0967643
153	0xbdccf474	-0.10007563
154	0x3d303366	0.043017767
155	0xbda788ed	-0.081804134
156	0xbc1e0c4f	-0.009646489
157	0xbdb9077d	-0.090346314
158	0x3d6c40cc	0.057678983
159	0xbdc73666	-0.097271726
160	0x3d04912d	0.032365013
161	0x3d77593c	0.060387835
162	0xbdad2239	-0.08453793
163	0xbd9bf22e	-0.076145515
164	0xbd5086f4	-0.05090995
165	0xbcd632c9	-0.026147263
166	0xbbe1d47e	-0.006891786
167	0x3d02cfb5	0.031936366
168	0xbcd4a7f7	-0.025958998
169	0xbd5c80ee	-0.053833894
170	0xbd53993f	-0.05165982
171	0x3d507f83	0.050902855
172	0x3d03fadb	0.032221656
173	0xbcce7102	-0.02520037
174	0xbd9f4b61	-0.07778049
175	0xbc9f4c16	-0.01944546
176	0x3d49943f	0.049213644
177	0x3c303c3a	0.010756547
178	0xbd2f85e6	-0.042852305
179	0xbdb698c7	-0.08915859
180	0x3c66a489	0.014077314
181	0xbda9d4a4	-0.08292511
182	0xbc818cc2	-0.015814189
183	0x3d3c2e3d	0.045942534
184	0xbce4d64e	-0.02793422
185	0x3cc3e8b8	0.02391468
186	0xbd4ed1eb	-0.050493162
187	0x3d956c70	0.072960734
188	0x3d465f58	0.04843077
189	0x3ccd8446	0.025087487
190	0xbda97aab	-0.0827535
191	0xbdaf1c69	-0.08550341
192	0xbc152631	-0.009103344
193	0xbd51b27a	-0.0511956
194	0x3c8a450f	0.016878633
195	0xbd0e7199	-0.034776304
196	0xbca549a4	-0.020176716
197	0x3d045c47	0.032314565
198	0x3c37b4fb	0.011212583
199	0x3cef4b6b	0.029210767
200	0x3cd86361	0.026414575
201	0x3d10a99c	0.035318002
202	0xbd1f28da	-0.03885732
203	0x3d0d9733	0.034568023
204	0x3d6a507f	0.057205673
205	0x3d111a46	0.035425447
206	0x3d3e4c18	0.046459287
207	0x3d8ffeb4	0.07031003
208	0xbcd9d66d	-0.026591504
209	0xbb500be9	-0.003174538
210	0x3d372f39	0.04472277
211	0x3d9e133f	0.07718515
212	0x3da0f391	0.078589566
213	0x3d882d43	0.06649258
214	0xbd566741	-0.052344564
215	0xba3e13eb	-0.0007250893
216	0x3b9eda4c	0.0048478004
217	0x3d0f3b3e	0.034968607
218	0x3c8e2f53	0.01735655
219	0x3b7dfbbe	0.0038754786
220	0xbcf6019b	-0.030030062
221	0x3da95d27	0.082697205
222	0x3cf7bda7	0.0302418
223	0xbce86f05	-0.02837325
224	0xbd517726	-0.05113902
225	0x3c1a7b93	0.009428876
226	0xbc5374c5	-0.012906258
227	0xbd51870b	-0.051154178
228	0xbd7fcc9a	-0.062450983
229	0x3c4ef2c1	0.012631119
230	0x3cbbcf20	0.022925913
231	0xbd99ae24	-0.07503918
232	0xbd250713	-0.04028995
233	0xbd209ee8	-0.039214045
234	0xbbc42dda	-0.0059869112
235	0x3d75f06c	0.060043737
236	0xbda50775	-0.08058063
237	0xbd6f4a9f	-0.058420774
238	0xbdac08cc	-0.08400115
239	0xbcd07698	-0.025447175
240	0xbcc605e7	-0.024172736
241	0x3d20f573	0.03929658
242	0xbd7ba16d	-0.061433244
243	0xbd8512fe	-0.06497763
244	0xbda01bf6	-0.07817833
245	0xbd510d81	-0.05103827
246	0xbcf8cea2	-0.030371968
247	0x3d9ea17e	0.07745646
248	0x3ad49a68	0.0016220333
249	0x3d4dce6c	0.050245687
250	0xbd9223a9	-0.07135708
251	0x3d8488ce	0.06471406
252	0xbd9a7a0b	-0.07542809
253	0x3c04ca09	0.00810481
254	0xbcb63c4d	-0.02224555
255	0xbd88e814	-0.066848904

conv2.0.bias f4 [16]
0	0xbc2fec45	-0.010737483
1	0xbc7a81f5	-0.015289773
2	0x3d03613f	0.032075163
3	0xbd699e06	-0.05703547
4	0xbd771948	-0.060326844
5	0x3da67bc2	0.08129074
6	0x3db15259	0.08658285
7	0x3bec36fe	0.007208704
8	0xbd8d75a5	-0.069072045
9	0x3b0d59bd	0.002156838
10	0x3d384524	0.044987813
11	0xbcf47666	-0.029841613
12	0xbd215c40	-0.039394617
13	0xbd591529	-0.052998696
14	0xbd78490f	-0.06061655
15	0xbcef3279	-0.029198872

conv2.0.weight_fake_quant.scale f4 [16]
0	0x3cc4c194	0.024018086
1	0x3ce4a275	0.027909497
2	0x3ce0c19d	0.027436072
3	0x3cd2e149	0.02574219
4	0x3cd03c6e	0.02541944
5	0x3cc87d85	0.024473915
6	0x3ce339e9	0.027737575
7	0x3cc07cb4	0.023496963
8	0x3ccda72c	0.025104128
9	0x3cca8609	0.024722116
10	0x3cc75baa	0.024335701
11	0x3cd162ba	0.025559772
12	0x3ce259d3	0.027630722
13	0x3cd1de7d	0.025618786
14	0x3cd68af5	0.026189307
15	0x3cdbc3f1	0.02682683

conv2.0.weight_fake_quant.activation_post_process.min_val f4 [16]
0	0xbdac2961	-0.0840633
1	0xbdc80e26	-0.097683236
2	0xbdb69949	-0.089159556
3	0xbdaa0946	-0.0830255
4	0xbdb634e0	-0.08896804
5	0xbdaf6dd4	-0.0856587
6	0xbdb37144	-0.08761838
7	0xbd9ed046	-0.07754569
8	0xbdb3f246	-0.08786444
9	0xbdb13547	-0.0865274
10	0xbdae6a3f	-0.085163586
11	0xbdb73662	-0.089459196
12	0xbdc60e98	-0.09670752
13	0xbdb7a2ad	-0.08966575
14	0xbdbbb996	-0.09166257
15	0xbdc04b72	-0.0938939

conv2.0.weight_fake_quant.activation_post_process.max_val f4 [16]
0	0x3daaecae	0.08345924
1	0x3da7d1a1	0.081942804
2	0x3dc4a969	0.09602625
3	0x3db8851f	0.09009766
4	0x3da6d069	0.0814522
5	0x3dad30b4	0.08456555
6	0x3dc6d2ab	0.097081505
7	0x3da86d1d	0.08223937
8	0x3da9f66c	0.08298954
9	0x3dae20b2	0.0850233
10	0x3dae7034	0.08517495
11	0x3da87b91	0.082266934
12	0x3db6735a	0.0890872
13	0x3db47f87	0.088133864
14	0x3db00de9	0.08596403
15	0x3d9e6c08	0.07735449

fc1.0.weight f4 [120, 400]
0	0x3c83c6bd	0.016085977
1	0x3b18f1e8	0.0023337547
2	0xbd146306	-0.03622725
3	0xbca122b2	-0.019669864
4	0xbd45784a	-0.04821042
5	0xbd1fb652	-0.038992234
6	0x3d052f35	0.032515723
7	0x3ceb315a	0.028710056
8	0x3d14aac3	0.036295664
9	0xbb4c4f55	-0.0031175215
10	0xbc4aec73	-0.012385475
11	0x3d02cdef	0.031934675
12	0xbd4501c8	-0.0480974
13	0xbd06a9fa	-0.032876946
14	0x3cba73b1	0.022760244
15	0x3d397884	0.04528095
16	0xbcdd872f	-0.027042
17	0xbd088182	-0.033326633
18	0x3d1b4d83	0.037915718
19	0xba7eb30f	-0.0009716013
20	0xbbf0b465	-0.0073457235
21	0xbbd1fac0	-0.0064080656
22	0x3cacb1ba	0.02108084
23	0xbcff1a4f	-0.031140475
24	0x3d033336	0.03203126
25	0xbce73389	-0.028222816
26	0xbd343d9f	-0.04400408
27	0x3d07fb20	0.033198476
28	0xbd142fc4	-0.036178365
29	0xbd1e6d4b	-0.03867845
30	0x3c783de2	0.015151473
31	0xba278750	-0.00063907076
32	0x3d0c80ab	0.034302395
33	0x3cf37300	0.029717922
34	0x3d30cb3e	0.043162577
35	0xbd1fc62f	-0.039007362
36	0xbbdf47ed	-0.006813994
37	0xbd491a35	-0.04909726
38	0xbcf7a80c	-0.030231498
39	0xbcbdcc07	-0.023168577
40	0x3d417ba7	0.047237065
41	0xbd11d9f5	-0.03560825
42	0xbd35a97b	-0.044351082
43	0xbc972d69	-0.01845427
44	0xbaf20b4c	-0.0018466501
45	0x3d2b418f	0.04181057
46	0xbcbaf8ac	-0.022823654
47	0x3c593b67	0.0132587915
48	0xbd43d0ae	-0.047806434
49	0xbd32ca13	-0.043649744
50	0x3d260984	0.04053642
51	0xbcc896ef	-0.024486033
52	0x3c200d6e	0.009768827
53	0x3d2b6cb6	0.04185172
54	0x3c89c001	0.016815187
55	0x3d2d4fa6	0.042312287
56	0x3bec5751	0.0072125574
57	0x3cee0ca7	0.029058767
58	0x3c66277b	0.014047499
59	0x3d391aa9	0.04519144
60	0xbd3fffdc	-0.046874866
61	0x3c848a24	0.016179152
62	0xbd3934ee	-0.045216493
63	0x3cd7708b	0.026298782
64	0xbb9d0d5d	-0.004792853
65	0x3d2acb0c	0.041697547
66	0x3ceb6a14	0.028737105
67	0x3d0a85c1	0.033818964
68	0x3c91a9ea	0.017781217
69	0xbc84a902	-0.01619387
70	0x3bd39f08	0.006458167
71	0xbd3244b9	-0.04352257
72	0xbcda5b62	-0.026654903
73	0x3cbd0230	0.023072332
74	0xbd160b31	-0.036631767
75	0xbcbaefc4	-0.022819407
76	0xbc0bc07c	-0.008529779
77	0x3c6bfd49	0.01440365
78	0xbcf2159f	-0.029551325
79	0x3ca8b353	0.020593321
80	0xbceed87b	-0.02915596
81	0x3d0875f8	0.03331563
82	0x3a0b5017	0.00053143635
83	0xbd43eaac	-0.047831222
84	0x3ce324e6	0.027727555
85	0xbcfac381	-0.030610802
86	0xbd28f08a	-0.04124502
87	0xbd219b0d	-0.03945451
88	0xbccda5d7	-0.025103493
89	0xbd17ffd8	-0.037109226
90	0xbd302818	-0.043006986
91	0xbcf23c5a	-0.029569793
92	0xbd21d4d2	-0.039509602
93	0xbd27c8ed	-0.040963102
94	0x3bc07432	0.0058732266
95	0x3bbf59e0	0.0058395714
96	0x3c8b47f5	0.017002085
97	0xbcfafeaf	-0.03063902
98	0x3d1df1c2	0.038560636
99	0xbc804c5d	-0.015661413
100	0xbae04ba7	-0.001711239
101	0xbbe0c274	-0.006859118
102	0xbc0db5bf	-0.008649289
103	0x3d36e530	0.044652164
104	0xbcc2e8ab	-0.023792585
105	0xbca7246b	-0.020403108
106	0x3c2c736e	0.010525567
107	0x3ccf369a	0.02529459
108	0x3c282ac8	0.010264106
109	0xbd2825c8	-0.041051656
110	0x3cd1a522	0.025591437
111	0xbd124fd1	-0.03572065
112	0xbd2b72d3	-0.04185755
113	0x3c299abe	0.010351835
114	0x3c3e789e	0.011625437
115	0xbcf22ca1	-0.029562296
116	0xbc4e5988	-0.012594588
117	0xbc61bc1e	-0.013777761
118	0xbd0c37d1	-0.03423292
119	0x3ccf9c54	0.025343098
120	0xbd3aa25d	-0.045564998
121	0x3cb7e4b4	0.022447921
122	0x3c87cd44	0.01657737
123	0xbc585e48	-0.013206072
124	0x3d3c2a34	0.045938686
125	0x3bd3e15a	0.006466073
126	0xbcbf497f	-0.023350475
127	0xbcf63344	-0.030053742
128	0x3c310e98	0.010806702
129	0xbcd3c5d9	-0.025851177
130	0xbc3ccf68	-0.011524059
131	0xbd245199	-0.04011688
132	0xbc5de8eb	-0.0135443015
133	0x3d136723	0.03598703
134	0x3d2a2299	0.0415369
135	0x3d33344b	0.043751042
136	0x3b675105	0.0035296094
137	0x3c89decd	0.016829873
138	0xbb8a83b7	-0.0042271274
139	0xbd16ea54	-0.036844566
140	0x3d05b61b	0.032644372
141	0x3d1c84b1	0.038212482
142	0xbd46f3f6	-0.048572503
143	0x3d2e768d	0.042593528
144	0xbbc9df18	-0.006160628
145	0x3d3a1397	0.04542884
146	0x3d1e6c56	0.038677536
147	0x3d2bece8	0.04197398
148	0xbc94af8d	-0.018150115
149	0xbc0a5e90	-0.008445397
150	0x3cd9fd9d	0.02661019
151	0xbd0ed774	-0.03487344
152	0xbc9eaea8	-0.019370392
153	0x3c1cf92d	0.0095808925
154	0xbb8fe16e	-0.004390887
155	0xbd1dd5dc	-0.03853403
156	0x3c4a272b	0.01233844
157	0x3d4549ae	0.04816597
158	0xbd20aa35	-0.039224822
159	0xbc83451d	-0.016024167
160	0xbc52b595	-0.012860675
161	0xbcda7c7e	-0.02667069
162	0x3d2c715e	0.042100303
163	0xbca1d1b3	-0.019753313
164	0xbd366112	-0.044526167
165	0x3d19f52c	0.03758733
166	0x3d2b8c8a	0.041882075
167	0x3cb2040e	0.021730449
168	0x3b0cba7f	0.0021473465
169	0x3c6969ef	0.014246448
170	0xbd182d98	-0.037152857
171	0x3cc05ddf	0.023482261
172	0x3c1bad29	0.009501734
173	0x3d35cc07	0.04438403
174	0xbc2a6597	-0.0104001975
175	0xbd056be2	-0.03257359
176	0xbd2ffc95	-0.04296549
177	0xbb6dd62d	-0.0036290989
178	0xbd26618d	-0.040620375
179	0x3b2bfb6b	0.0026242386
180	0xbc5b0511	-0.013367907
181	0xbcde74c6	-0.027155291
182	0x3d4c94de	0.04994666
183	0x3c838997	0.016056819
184	0xbd091e83	-0.033476364
185	0x3d210c2e	0.039318256
186	0xbce8d26d	-0.028420651
187	0xba8a2a4e	-0.0010541172
188	0x3d379403	0.04481889
189	0x3d087cce	0.033322148
190	0x3cd0adaa	0.025473434
191	0x3cd57f31	0.026061626
192	0x3c12f848	0.008970328
193	0x3d208e6c	0.039198324
194	0x3d1f3e07	0.038877513
195	0x3d1fba3f	0.038995977
196	0x3d462b95	0.048381407
197	0xbd3b71f6	-0.04576298
198	0xbd500969	-0.050790224
199	0xbcac1c88	-0.021009699
200	0xbd25624e	-0.040376954
201	0xbac4fa21	-0.0015028158
202	0x3cc936df	0.024562297
203	0x3d2cb2a9	0.04216257
204	0xbd2f35b4	-0.042775825
205	0xbd0a3e6f	-0.033750948
206	0xbc028105	-0.007965331
207	0x3d2a3551	0.041554753
208	0x3ca617bb	0.020274987
209	0xbb439fc3	-0.0029849864
210	0xbd309851	-0.04311401
211	0x3c35886f	0.011079892
212	0x3d233a82	0.03985072
213	0x3d1c3866	0.038139723
214	0xbbf6b959	-0.0075294194
215	0x3cb83832	0.022487734
216	0x3ca8c691	0.020602496
217	0xbce82647	-0.028338565
218	0xbd45a83e	-0.04825615
219	0xbcacadae	-0.02107891
220	0x3d0bb0e2	0.034104235
221	0x3bab0f85	0.005220356
222	0x3cfdf3b6	0.031
223	0xbc904b61	-0.017614068
224	0xbc606b3b	-0.013697441
225	0xba88e10b	-0.0010443045
226	0xbd17677e	-0.036963932
227	0x3d4031bd	0.046922434
228	0xbcbedeee	-0.02329966
229	0x3d06c1c1	0.032899622
230	0xbafbe346	-0.0019217513
231	0x3cd9f34b	0.026605269
232	0xbb65629e	-0.0035001407
233	0x3cd3363a	0.025782693
234	0xbcce9c15	-0.02522091
235	0x3d0dbd3c	0.034604296
236	0x3d2bdfa1	0.041961316
237	0xbcc6dfed	-0.024276698
238	0xba7894ed	-0.0009482641
239	0xbd1f6be3	-0.03892125
240	0xbc6bffde	-0.014404265
241	0xbcd31b7f	-0.025769947
242	0x3cc94a4b	0.024571558
243	0x3d4212a3	0.047381055
244	0xbc1ea9e6	-0.009684062
245	0xbbcb0f63	-0.0061969026
246	0x3bfa8472	0.0076451832
247	0xbcfba48c	-0.03071811
248	0xbd3d1319	-0.04616079
249	0x3ce8706f	0.028373925
250	0x3ca3fa45	0.020016799
251	0x3d3d1f57	0.046172466
252	0x3d1379a8	0.036004692
253	0xbc8c75dd	-0.017146045
254	0x3c8ec716	0.017428916
255	0xbc62cd61	-0.013842911

fc1.0.bias f4 [120]
0	0xbb871a57	-0.004123013
1	0x3d3b6fc8	0.0457609
2	0x3ceab8b9	0.028652536
3	0xbcc26b78	-0.023732886
4	0xbad14301	-0.0015965403
5	0xbc6f022a	-0.014587918
6	0xbc66c450	-0.0140848905
7	0xbc456c06	-0.012049681
8	0xbc28a462	-0.010293098
9	0xbd3923a4	-0.045200005
10	0x3c0dc684	0.008653287
11	0xbb7b4328	-0.0038339589
12	0x3d01fe95	0.03173693
13	0xbc9069c7	-0.017628564
14	0xbced627e	-0.028977629
15	0x3ce47e9d	0.027892405
16	0xbd18c579	-0.0372977
17	0x3ce7d7c9	0.028301137
18	0x3ca79c9c	0.02046042
19	0xbd4aede3	-0.049543273
20	0xbd46091b	-0.048348527
21	0xbb12d299	-0.0022403358
22	0x3d34f19e	0.044175737
23	0x3c1f9fbd	0.009742674
24	0x3ce08014	0.027404822
25	0x3d2097e8	0.03920737
26	0x3c7b2225	0.015327965
27	0xbd25ed72	-0.04050965
28	0x3d37ca9b	0.044870954
29	0xbb9d8421	-0.0048070108
30	0x3d237daf	0.039914783
31	0xbd2b421a	-0.041811086
32	0x3cc977e5	0.024593303
33	0xbd0c2e51	-0.03422386
34	0x3ccc69e6	0.02495284
35	0xbccde34f	-0.025132803
36	0x3cbea71f	0.023273049
37	0x3cf67293	0.03008393
38	0x3cf9c7fd	0.03049087
39	0x3d410f43	0.047133695
40	0x3c580599	0.013184928
41	0xbce0e4ae	-0.027452793
42	0xbc6cff47	-0.01446516
43	0xbcb13149	-0.021629946
44	0x3d3e1bc8	0.046413213
45	0xbc78bf7d	-0.015182373
46	0xbccf866f	-0.025332658
47	0x3c9f201e	0.019424494
48	0x3d0b5abb	0.034022074
49	0xbc15d1b4	-0.009144235
50	0xbcb440e4	-0.022003599
51	0x3c70c2e9	0.014694908
52	0xbb0dbfae	-0.0021629143
53	0xbd15de36	-0.03658887
54	0x3c2b8c1f	0.010470419
55	0x3cfa303e	0.030540582
56	0xbd2490ed	-0.040177274
57	0xba46d2ab	-0.00075844926
58	0xbca58e2d	-0.020209396
59	0xbb8036cb	-0.003912782
60	0xbcca8d3c	-0.024725549
61	0x3cd1cdfb	0.025610914
62	0xbd1cc0e9	-0.03826991
63	0x3d0d0bc2	0.03443504
64	0xbd2fda0c	-0.042932555
65	0xbd231b84	-0.039821163
66	0x3c646678	0.013940446
67	0xbd137973	-0.036004495
68	0x3c5d856d	0.013520581
69	0xbd2c47e2	-0.04206074
70	0xbd12236b	-0.03567831
71	0x3c9e6077	0.019333107
72	0xbc59d664	-0.013295744
73	0x3b87f483	0.004149021
74	0x3d445666	0.04793396
75	0x3d3cef4b	0.046126645
76	0xbc2faa0f	-0.0107216975
77	0xbd40f7c5	-0.04711129
78	0x3d2de33c	0.042453036
79	0x3b7ea693	0.003885661
80	0x3b24e09f	0.0025158299
81	0xbcc5a030	-0.024124235
82	0xbc370641	-0.011170925
83	0x3d231dff	0.03982353
84	0xbcb651df	-0.022255836
85	0xbca41fa2	-0.020034615
86	0xbc909b6f	-0.017652242
87	0x3cbfc066	0.023407172
88	0xbce00d02	-0.027349953
89	0x3d21c729	0.039496575
90	0x3ccb7285	0.02483488
91	0x3cb40f3c	0.02197992
92	0xbc2e6529	-0.010644236
93	0x3cee979c	0.029125027
94	0xbc008485	-0.007844095
95	0x3c162ae8	0.009165503
96	0xbbd9c4e1	-0.0066457842
97	0xbbe82928	-0.0070849843
98	0x3d3dacdb	0.046307426
99	0xbb96a85e	-0.0045977077
100	0x3ce5f48f	0.028070716
101	0xbc3e0f00	-0.011600256
102	0x3cfd21d2	0.030899916
103	0x3c517163	0.012783381
104	0xbd214155	-0.039368946
105	0xbce0ac4e	-0.027425911
106	0x3b8d1568	0.0043055303
107	0xbd33c57f	-0.04388952
108	0xbc03364a	-0.008008549
109	0x3b0bad04	0.0021312842
110	0xbc8aaf63	-0.016929334
111	0x3a5a4401	0.00083261734
112	0x3d2e9d86	0.042630695
113	0xbb6dd999	-0.0036293028
114	0x3b9c9e42	0.004779608
115	0x3d1556d8	0.036459774
116	0x3c676d61	0.014125199
117	0xbce6436f	-0.028108327
118	0x3c9150df	0.017738758
119	0xbbb16c8b	-0.0054145507

fc1.0.weight_fake_quant.scale f4 [120]
0	0x3c6c4c70	0.014422521
1	0x3c70f09a	0.014705801
2	0x3c766da8	0.0150407925
3	0x3c70ee9d	0.014705327
4	0x3c7f9166	0.0155986305
5	0x3c710741	0.014711202
6	0x3c6dbc78	0.0145102665
7	0x3c785aa6	0.015158331
8	0x3c7564bb	0.014977629
9	0x3c7cd17b	0.015430803
10	0x3c6f97a9	0.014623561
11	0x3c70a3e2	0.01468751
12	0x3c76c9fe	0.015062807
13	0x3c776950	0.015100792
14	0x3c6fef79	0.014644497
15	0x3c6bdbc5	0.014395659
16	0x3c6ca8b0	0.014444515
17	0x3c721396	0.014775177
18	0x3c8006b1	0.01562819
19	0x3c81c196	0.01583938
20	0x3c82030a	0.01587059
21	0x3c7858a6	0.015157854
22	0x3c75d9b8	0.0150055215
23	0x3c6ffa80	0.014647126
24	0x3c74f416	0.014950773
25	0x3c6ea569	0.014565804
26	0x3c74ec1c	0.014948871
27	0x3c700c0c	0.01465131
28	0x3c7c3fad	0.015396041
29	0x3c7293b3	0.014805722
30	0x3c6ead89	0.014567741
31	0x3c7b9f94	0.015357871
32	0x3c713094	0.014721055
33	0x3c8014a4	0.015634842
34	0x3c805d03	0.015669351
35	0x3c6f21e3	0.014595482
36	0x3c6c8cf6	0.014437905
37	0x3c797731	0.015226171
38	0x3c70004d	0.014648509
39	0x3c740d28	0.014895715
40	0x3c7f171a	0.015569473
41	0x3c7f85a8	0.015595831
42	0x3c7bbca0	0.015364796
43	0x3c760292	0.015015261
44	0x3c76d4a1	0.015065343
45	0x3c770f41	0.01507932
46	0x3c70bc29	0.014693298
47	0x3c749d0a	0.014930019
48	0x3c6f93d8	0.014622651
49	0x3c6f1a9b	0.014593746
50	0x3c78f13b	0.015194233
51	0x3c74e134	0.014946271
52	0x3c774b2c	0.015093606
53	0x3c6beced	0.014399749
54	0x3c769050	0.015049055
55	0x3c709f4c	0.014686417
56	0x3c72757a	0.014798516
57	0x3c6d119c	0.01446953
58	0x3c7b267c	0.015329
59	0x3c805840	0.01566708
60	0x3c8d858d	0.017275596
61	0x3c7352b5	0.014851262
62	0x3c825052	0.01590744
63	0x3c730df1	0.014834867
64	0x3c788525	0.015168463
65	0x3c85814f	0.01629701
66	0x3c6e1926	0.014532363
67	0x3c72a8f3	0.014810788
68	0x3c81eb48	0.015859261
69	0x3c73907c	0.014865991
70	0x3c6c39ea	0.014418105
71	0x3c73b59e	0.014874844
72	0x3c6d1081	0.014469267
73	0x3c78f9ae	0.015196247
74	0x3c6c17bd	0.0144099565
75	0x3c723de5	0.014785265
76	0x3c779f96	0.015113732
77	0x3c76fee5	0.01507542
78	0x3c74cd35	0.014941503
79	0x3c7673ce	0.015042258
80	0x3c6e5e6e	0.014548881
81	0x3c6cdb30	0.014456555
82	0x3c769475	0.015050043
83	0x3c796333	0.015221405
84	0x3c6afa72	0.014341937
85	0x3c72470c	0.014787447
86	0x3c74fe9a	0.01495328
87	0x3c709cd4	0.014685828
88	0x3c804040	0.015655637
89	0x3c6c237d	0.014412758
90	0x3c8708a0	0.016483605
91	0x3c77710b	0.015102635
92	0x3c6e234d	0.014534784
93	0x3c6e2f01	0.014537574
94	0x3c7378a0	0.014860302
95	0x3c6f8556	0.014619192
96	0x3c6df483	0.014523628
97	0x3c72c615	0.014817734
98	0x3c83c397	0.016084475
99	0x3c773c21	0.015090019
100	0x3c7221fd	0.014778611
101	0x3c7182e9	0.014740684
102	0x3c702a13	0.014658469
103	0x3c7bb14c	0.015362095
104	0x3c6c6230	0.014427707
105	0x3c739965	0.014868115
106	0x3c7d2e52	0.015452938
107	0x3c73f18c	0.014889132
108	0x3c76663c	0.015039023
109	0x3c6fe028	0.014640845
110	0x3c84aa96	0.016194623
111	0x3c759270	0.014988527
112	0x3c768634	0.015046645
113	0x3c772f83	0.015087011
114	0x3c7918f9	0.015203708
115	0x3c6c538e	0.014424218
116	0x3c6eb42d	0.014569324
117	0x3c6e6efb	0.014552827
118	0x3c7cca46	0.015429085
119	0x3c6f511b	0.014606739

fc1.0.weight_fake_quant.activation_post_process.min_val f4 [120]
0	0xbd4ec2e1	-0.05047882
1	0xbd52d286	-0.051470302
2	0xbd579ff2	-0.05264277
3	0xbd52d0c9	-0.051468644
4	0xbd5f9f39	-0.054595206
5	0xbd4d9401	-0.050189976
6	0xbd4cbbb0	-0.04998368
7	0xbd594f51	-0.053054158
8	0xbd56b823	-0.0524217
9	0xbd5d374b	-0.05400781
10	0xbd51a4b3	-0.05118246
11	0xbd528f65	-0.051406283
12	0xbd57f0be	-0.052719824
13	0xbd587c25	-0.05285277
14	0xbd51bbd0	-0.051204503
15	0xbd4e604c	-0.050384805
16	0xbd4f1399	-0.0505558
17	0xbd53d123	-0.05171312
18	0xbd5a4473	-0.053287935
19	0xbd6312c5	-0.055437822
20	0xbd638550	-0.05554706
21	0xbd505920	-0.050866246
22	0xbd4ced68	-0.050031096
23	0xbd51fb2f	-0.051264938
24	0xbd565593	-0.052327704
25	0xbd50d0bb	-0.05098031
26	0xbd564e98	-0.052321047
27	0xbd520a8a	-0.051279582
28	0xbd5cb7b7	-0.05388614
29	0xbd524967	-0.051339533
30	0xbd50d7d7	-0.05098709
31	0xbd5c2ba1	-0.053752545
32	0xbd530a81	-0.05152369
33	0xbd60241e	-0.054721944
34	0xbd60a2c5	-0.05484273
35	0xbd513da6	-0.051084183
36	0xbd4dd052	-0.050247498
37	0xbd5a141e	-0.05324184
38	0xbd50a5f0	-0.0509395
39	0xbd52b941	-0.051446203
40	0xbd5f3436	-0.05449315
41	0xbd5f94f2	-0.054585405
42	0xbd5c450b	-0.053776782
43	0xbd55ff52	-0.052245446
44	0xbd57fa0c	-0.052728698
45	0xbd545827	-0.05184188
46	0xbd52a4a3	-0.05142654
47	0xbd560968	-0.052255064
48	0xbd4eea5e	-0.05051648
49	0xbd513747	-0.051078107
50	0xbd59d313	-0.05317981
51	0xbd56450d	-0.052311946
52	0xbd52f8a1	-0.051506642
53	0xbd4e6f4f	-0.05039912
54	0xbd57be45	-0.05267169
55	0xbd4e466a	-0.05036012
56	0xbd5426ca	-0.051794805
57	0xbd4f6f68	-0.050643355
58	0xbd5bc1ac	-0.053651497
59	0xbd5825eb	-0.052770536
60	0xbd77a9b6	-0.060464583
61	0xbd4b29cf	-0.04960042
62	0xbd640c8f	-0.05567604
63	0xbd4c7912	-0.04992015
64	0xbd597480	-0.05308962
65	0xbd69a249	-0.057039533
66	0xbd505601	-0.05086327
67	0xbd5453d4	-0.051837757
68	0xbd635bbd	-0.05550741
69	0xbd551e6c	-0.052030966
70	0xbd4eb2ac	-0.050463364
71	0xbd553eea	-0.052061953
72	0xbd4f6e70	-0.05064243
73	0xbd54bc2e	-0.051937275
74	0xbd47fbd0	-0.04882413
75	0xbd53f628	-0.051748425
76	0xbd56c628	-0.05243507
77	0xbd50d011	-0.050979678
78	0xbd4c1c70	-0.049831808
79	0xbd57a554	-0.052647904
80	0xbd5092a0	-0.050921082
81	0xbd46facc	-0.048579022
82	0xbd57c1e6	-0.05267515
83	0xbd5a36cc	-0.053274915
84	0xbd4d9932	-0.050194927
85	0xbd53fe2a	-0.05175606
86	0xbd565ec6	-0.052336477
87	0xbd528939	-0.051400397
88	0xbd60706f	-0.054794725
89	0xbd4b2880	-0.04959917
90	0xbd6c4f17	-0.057692613
91	0xbd5882e9	-0.05285922
92	0xbd505ee3	-0.05087174
93	0xbd4e781c	-0.050407514
94	0xbd55098b	-0.052011054
95	0xbd4f3056	-0.050583206
96	0xbd5035f2	-0.050832696
97	0xbd546d52	-0.05186207
98	0xbd64bfe3	-0.05584706
99	0xbd58549c	-0.052815065
100	0xbd53ddbd	-0.051725138
101	0xbd480e2d	-0.048841644
102	0xbd5224d0	-0.05130464
103	0xbd5c3b22	-0.05376733
104	0xbd4e9df7	-0.050443616
105	0xbd54ac65	-0.05192222
106	0xbd5d8887	-0.05408528
107	0xbd55735a	-0.05211196
108	0xbd449706	-0.04799559
109	0xbd51e422	-0.051242955
110	0xbd682a85	-0.056681175
111	0xbd530145	-0.051514883
112	0xbd57b1b0	-0.05265969
113	0xbd56198d	-0.05227046
114	0xbd59f5d9	-0.053212974
115	0xbd481f09	-0.048857722
116	0xbd50dda7	-0.050992634
117	0xbd4c5383	-0.04988433
118	0xbd5a00fb	-0.05322359
119	0xbd4ae4e2	-0.049534686

fc1.0.weight_fake_quant.activation_post_process.max_val f4 [120]
0	0x3d4c1ddb	0.04983316
1	0x3d4eba8c	0.050470874
2	0x3d54bbbf	0.05193686
3	0x3d516d33	0.05112953
4	0x3d5d9435	0.05409642
5	0x3d52e658	0.051489204
6	0x3d5004e8	0.05078593
7	0x3d56af06	0.05241301
8	0x3d509259	0.050920818
9	0x3d5485f9	0.05188558
10	0x3d4c79dc	0.0499209
11	0x3d4ea79c	0.050452814
12	0x3d4b40f4	0.04962249
13	0x3d4aba47	0.049494054
14	0x3d51f189	0.051255737
15	0x3d4e3446	0.05034282
16	0x3d49fce8	0.049313456
17	0x3d51e75f	0.051246043
18	0x3d600bb5	0.054698665
19	0x3d5b2a55	0.053507168
20	0x3d56dec0	0.052458525
21	0x3d594d91	0.05305249
22	0x3d571e80	0.05251932
23	0x3d50f7cb	0.051017564
24	0x3d533b97	0.0515705
25	0x3d4b5185	0.04963829
26	0x3d4f6523	0.05063356
27	0x3d4fa193	0.0506912
28	0x3d4f2d7c	0.050580487
29	0x3d54413c	0.051820025
30	0x3d499a04	0.049219146
31	0x3d552232	0.052034564
32	0x3d4bfffd	0.049804676
33	0x3d5c421a	0.053773977
34	0x3d5c880a	0.053840674
35	0x3d49204f	0.049103078
36	0x3d4efb57	0.050532665
37	0x3d5a484a	0.053291596
38	0x3d520043	0.05126978
39	0x3d558b82	0.052135
40	0x3d58758e	0.052846484
41	0x3d5d4036	0.054016314
42	0x3d57b047	0.052658346
43	0x3d57423f	0.05255341
44	0x3d526e8b	0.051374953
45	0x3d582d58	0.05277762
46	0x3d4af2ff	0.049548145
47	0x3d501aae	0.050806694
48	0x3d51a15c	0.051179275
49	0x3d4eb694	0.05046709
50	0x3d5610ef	0.052262243
51	0x3d4a6a8c	0.049418017
52	0x3d5861c6	0.05282762
53	0x3d4dc4c6	0.050236486
54	0x3d4dec8f	0.050274428
55	0x3d528b62	0.051402457
56	0x3d4bb33a	0.04973147
57	0x3d4f0611	0.050542895
58	0x3d501b0c	0.050807044
59	0x3d609a6f	0.05483478
60	0x3d71ecac	0.0590636
61	0x3d54e85e	0.051979415
62	0x3d58f545	0.052968282
63	0x3d54ac32	0.05192203
64	0x3d58d179	0.052934144
65	0x3d6699a1	0.056298856
66	0x3d502457	0.050815906
67	0x3d4ca4c5	0.049961824
68	0x3d5f9ca2	0.054592736
69	0x3d52aa33	0.051431846
70	0x3d4e5c62	0.050381072
71	0x3d4f317d	0.050584305
72	0x3d4d2a33	0.050089072
73	0x3d59da78	0.053186864
74	0x3d4e94c5	0.050434846
75	0x3d535d40	0.051602602
76	0x3d58aba3	0.05289806
77	0x3d581f08	0.05276397
78	0x3d56338e	0.05229526
79	0x3d53791f	0.051629182
80	0x3d4fe85a	0.050758697
81	0x3d4f3fc9	0.05059794
82	0x3d574ed7	0.052565422
83	0x3d592639	0.053014968
84	0x3d4d9b23	0.050196778
85	0x3d4e88ab	0.050423305
86	0x3d4f1338	0.050555438
87	0x3d510420	0.051029325
88	0x3d5dc14c	0.05413942
89	0x3d4e9f0d	0.05044465
90	0x3d50c554	0.050969437
91	0x3d4ff330	0.05076903
92	0x3d4fe188	0.050752193
93	0x3d506920	0.050881505
94	0x3d4a1c57	0.049343433
95	0x3d5194ab	0.05116717
96	0x3d49b7ec	0.049247667
97	0x3d5180c7	0.051148202
98	0x3d669648	0.056295663
99	0x3d5413be	0.05177664
100	0x3d4f7d74	0.05065675
101	0x3d53528b	0.05159239
102	0x3d4c46b7	0.049872126
103	0x3d598094	0.053101137
104	0x3d4ed5e9	0.05049697
105	0x3d552638	0.0520384
106	0x3d5d027d	0.05395745
107	0x3d53c291	0.051699225
108	0x3d579974	0.05263658
109	0x3d4ee0cf	0.050507363
110	0x3d55fb33	0.052241515
111	0x3d56e021	0.05245984
112	0x3d57b56d	0.052663255
113	0x3d584992	0.052804537
114	0x3d4d018e	0.05005031
115	0x3d4ec91c	0.05048476
116	0x3d4cbde0	0.049985766
117	0x3d50a11b	0.050934892
118	0x3d5d30fd	0.054001797
119	0x3d5166f7	0.051123586

fc2.0.weight f4 [84, 120]
0	0xbd791e19	-0.06081972
1	0x3bf41ad8	0.007449489
2	0xbcd1e0a8	-0.02561982
3	0xbd9fc04c	-0.078003496
4	0x3d75794b	0.059930127
5	0x3b9b8c36	0.004746939
6	0xbd868182	-0.065676704
7	0xbd9bad6c	-0.07601437
8	0xbcc3365a	-0.023829628
9	0xbc144058	-0.009048544
10	0xbbea0d8a	-0.0071427273
11	0xbd80a71b	-0.06281873
12	0x3cb15bf6	0.021650296
13	0xbd970b4e	-0.07375203
14	0xbd148ba0	-0.03626597
15	0x3c98bbb6	0.018644195
16	0xbb0b6417	-0.0021269375
17	0xbc863907	-0.016384615
18	0x3aac52a4	0.0013147187
19	0xbc9900e9	-0.018677192
20	0x3d86379c	0.065535754
21	0x3d943db3	0.07238331
22	0x3db17ea9	0.08666737
23	0x3db0069a	0.08595009
24	0x3d913ad4	0.07091299
25	0x3c6269c8	0.0138191655
26	0xbd5e744a	-0.05431012
27	0x3db448c3	0.08802941
28	0x3da72ac8	0.08162457
29	0xbd77d7ff	-0.060508724
30	0xbccb8abb	-0.024846425
31	0xbd078763	-0.0330881
32	0xbd835e48	-0.06414467
33	0x3d96b028	0.07357818
34	0xbd7e2338	-0.062045306
35	0xbb58d7ce	-0.0033087614
36	0x3cc85a77	0.0244572
37	0x3d6835e7	0.05669203
38	0xbda43ab3	-0.080190085
39	0xbda00c97	-0.07814901
40	0x3daf45cd	0.08558235
41	0x3ca60211	0.020264657
42	0xbaa3cc58	-0.0012496812
43	0xbcc99fe3	-0.024612373
44	0x3d35787e	0.044304363
45	0xbd26742e	-0.04063814
46	0x3d6e33c6	0.058154844
47	0xbc9833bf	-0.018579362
48	0x3d89a442	0.06720783
49	0xbd10a25e	-0.035311095
50	0x3d097bb8	0.033565253
51	0xbd6a0da8	-0.05714193
52	0xbdb2ab96	-0.08724134
53	0xbbc3f548	-0.0059801675
54	0x3da195d1	0.07889903
55	0x3ab14e21	0.0013527313
56	0xbd9dbc08	-0.0770188
57	0xbcccac24	-0.024984427
58	0x3d66fc82	0.056393154
59	0xbd6005d1	-0.054693047
60	0xbcb316fc	-0.021861546
61	0x3d66ead9	0.056376312
62	0x3d9ffae3	0.07811525
63	0x3c4d78f6	0.012541046
64	0x3d936057	0.0719611
65	0xbceb7c01	-0.028745653
66	0x3cd59c25	0.026075432
67	0x3bcfc426	0.0063405214
68	0x3d11626d	0.035494257
69	0x3cea62e9	0.028611617
70	0x3c2ee2d0	0.0106741935
71	0x3cf73e79	0.030181156
72	0xbc956bdd	-0.01823991
73	0xbd9e06fc	-0.07716176
74	0xbb703a1c	-0.003665573
75	0x3cb72a25	0.022358963
76	0x3da83384	0.08212951
77	0xbda2f3d9	-0.079566665
78	0x3bd0f40f	0.0063767503
79	0x3d849fcf	0.064757936
80	0x3c917d6a	0.017759997
81	0xbd09079b	-0.03345452
82	0xbd38ec1d	-0.04514705
83	0xbd8a5af5	-0.0675563
84	0x3d9a6ed2	0.075406685
85	0xbc586f09	-0.013210067
86	0x3d0c9a20	0.034326673
87	0x3d946b2e	0.072470054
88	0x3d2a6c70	0.04160732
89	0xbd312f60	-0.04325807
90	0xbcf1128e	-0.029427793
91	0x3daa6d86	0.08321671
92	0x3c9ec374	0.019380309
93	0x3d843b3c	0.064566106
94	0xbd8df768	-0.069319546
95	0x3c4be17c	0.012443896
96	0x3d073828	0.03301254
97	0x3c75aabf	0.014994322
98	0xbd8866e8	-0.06660253
99	0xbcd0f22d	-0.025506103
100	0x3cb7fa3c	0.022458188
101	0xbd88557d	-0.066569306
102	0x3c73a22d	0.014870209
103	0x3d35ff2f	0.044432815
104	0xbd4e7fac	-0.050414726
105	0xbcbb094a	-0.022831578
106	0x3dad381f	0.0845797
107	0x3daa0ab8	0.08302826
108	0x3d28eb1e	0.04123985
109	0xbbab41a0	-0.005226329
110	0xbc99b37e	-0.018762346
111	0x3d998207	0.07495504
112	0xbdbbdd64	-0.09173086
113	0x3cde2b3e	0.027120229
114	0xbdb18c43	-0.08669331
115	0x3cf06f66	0.029349994
116	0x3d7dfe98	0.062010378
117	0x3c89b94e	0.016811993
118	0xbd5da916	-0.05411633
119	0xbc9b376a	-0.018947322
120	0x3d1eda7a	0.038782574
121	0xbcd0ddfc	-0.025496475
122	0x3d1020f0	0.03518766
123	0x3d59466d	0.05304568
124	0xbd8910bc	-0.06692645
125	0x3d767f20	0.06017983
126	0x3d1ab01a	0.0377656
127	0x3c743189	0.014904388
128	0xbbba02c0	-0.0056765974
129	0x3d3b43a2	0.045718797
130	0x3d78e875	0.060768563
131	0xbd946094	-0.07244983
132	0xbd7cab5d	-0.061686862
133	0xbdb70064	-0.089356214
134	0x3d6de61d	0.05808078
135	0x3bc65d17	0.0060535776
136	0xbd2aec64	-0.041729346
137	0x3c8f1f66	0.017471027
138	0x3dba17c3	0.090865634
139	0xbd770646	-0.060308717
140	0x3cdd843b	0.027040591
141	0xbc00d0f2	-0.007862316
142	0xbd988c8b	-0.074486814
143	0xbd9cacac	-0.07650122
144	0x3cfbc66b	0.030734261
145	0x3db6debf	0.08929204
146	0x3c3cdc17	0.011527083
147	0x3d053c4d	0.03252821
148	0x3d856bff	0.06514739
149	0x3ce0435f	0.027375875
150	0x3d0feb1c	0.035136327
151	0x3cc8a90b	0.024494668
152	0xbd93b406	-0.07212071
153	0x3bba8ddf	0.005693182
154	0x3cafef72	0.021476481
155	0xbd2721f0	-0.04080385
156	0xbcda7dd3	-0.026671326
157	0x3cdc9ff9	0.02693175
158	0xbd93ccc5	-0.07216791
159	0x3d4cfeec	0.0500478
160	0xbcbfe678	-0.023425326
161	0x3c70c7c8	0.014696069
162	0xbce66f1e	-0.028129157
163	0xbb2a0a96	-0.002594625
164	0x3bede82b	0.0072603426
165	0xbd41e8c3	-0.04734112
166	0x3b1d91c0	0.0024043173
167	0x3ab9283f	0.0014126374
168	0xbc0324df	-0.008004396
169	0x3c9ef225	0.019402573
170	0xbda50ba0	-0.08058858
171	0x3c7d0cf5	0.015444984
172	0xbdb7500f	-0.08950817
173	0xbdaa65fe	-0.08320235
174	0xbd6f4af2	-0.058421083
175	0x3daf6657	0.08564442
176	0x3dab799b	0.08372804
177	0x3caedf87	0.02134682
178	0xbd7f138d	-0.062274504
179	0x3da22bd1	0.079185136
180	0x3dab54e0	0.08365798
181	0x3db5e5a6	0.088816926
182	0x3d3d2be2	0.046184428
183	0xbd32f40d	-0.043689776
184	0x3d7cfe77	0.061766114
185	0xbd8f6cc6	-0.07003169
186	0xbc9e3593	-0.019312656
187	0xbd1395f3	-0.036031675
188	0xbd4c5768	-0.049888045
189	0x3c794d5c	0.015216198
190	0xbad18df4	-0.001598774
191	0x3c8bdf26	0.017074179
192	0xbcbcbe1d	-0.023039872
193	0x3d58efee	0.05296319
194	0x3d6a7093	0.057236265
195	0xbd461479	-0.048359368
196	0xbd542959	-0.051797245
197	0xbd17e486	-0.03708317
198	0x3d0987c7	0.033576753
199	0xbda465d9	-0.080272384
200	0xbd48ea74	-0.049051717
201	0xbc26ffb9	-0.010192805
202	0xbda1be11	-0.078975804
203	0x3d6f3840	0.058403254
204	0x3da28289	0.07935054
205	0xbc95a1e4	-0.018265672
206	0xbd86b297	-0.06577032
207	0x3bba53a7	0.0056862417
208	0x3d343ab2	0.04400129
209	0x3b268ffd	0.0025415414
210	0xbcca7153	-0.02471224
211	0x3d4f0115	0.05053814
212	0xbd8fcb4b	-0.07021197
213	0x3d9cbfba	0.076537564
214	0x3d5d960a	0.054098167
215	0xbd811b24	-0.06304005
216	0xbd20d431	-0.03926486
217	0x3d89203c	0.06695601
218	0x3c93dc50	0.01804939
219	0xbc1e4a06	-0.009661203
220	0xbd6788bd	-0.05652689
221	0x3d3c5c32	0.04598636
222	0xbd8b4ffa	-0.06802364
223	0xbdaff7d2	-0.0859219
224	0xbd07b41d	-0.033130754
225	0xbccea231	-0.025223823
226	0xbd93b0d3	-0.07211461
227	0x3d55e722	0.05222238
228	0xbd312ca5	-0.043255467
229	0x3c171c6b	0.009223084
230	0x3da48bd8	0.080344856
231	0xbd3a70e9	-0.045517836
232	0x3da21863	0.07914808
233	0xbd3abc85	-0.045589942
234	0x3a0c24f0	0.000534608
235	0x3c528547	0.012849159
236	0x3d8435cb	0.06455573
237	0x3d3b4b6a	0.045726217
238	0x3d9e0835	0.07716409
239	0x3c94d25b	0.018166712
240	0x3cfe890c	0.031071208
241	0x3d67607c	0.0564885
242	0x3d19928c	0.037493274
243	0x3cdecf3c	0.027198426
244	0xbc6f77e3	-0.014615986
245	0x3ce256c5	0.027629266
246	0xbd1a932f	-0.03773802
247	0xbcac78e7	-0.021053744
248	0xbc5147d4	-0.012773473
249	0x3d9ee721	0.07758928
250	0x3d4f9773	0.050681543
251	0x3db5c41f	0.08875298
252	0xbd3cc98d	-0.04609065
253	0x3d0d80dc	0.034546718
254	0x3d20f347	0.039294507
255	0x3d9a3296	0.0752918

fc2.0.bias f4 [84]
0	0x3cd38bd3	0.02582351
1	0x3d1a47f5	0.03766628
2	0x3d2584d5	0.04040988
3	0xbc429fed	-0.01187895
4	0x3db003b3	0.085944556
5	0xbce93e4c	-0.028472088
6	0xbdb30f6d	-0.087431766
7	0xbd4b3064	-0.049606696
8	0x3abcd407	0.0014406451
9	0xbd23876b	-0.039924067
10	0x3d1d0bad	0.038341213
11	0x3d82ec06	0.06392674
12	0xbdbb40e2	-0.09143235
13	0x3d90a11b	0.070619784
14	0x3d72b0ab	0.059250515
15	0xbd5b3ea8	-0.05352655
16	0xbcabbe0b	-0.020964643
17	0x3dab1711	0.08354009
18	0xbd4fa4ee	-0.0506944
19	0xbce95a46	-0.028485429
20	0xbd7acade	-0.061228625
21	0x3d7f3f95	0.062316496
22	0x3d8b29c2	0.06795074
23	0xbd2941ca	-0.041322507
24	0x3d06f652	0.032949753
25	0x3d125988	0.035729915
26	0x3d65b233	0.056078147
27	0xbd856a4a	-0.06514414
28	0x3d6b66b9	0.05747101
29	0xbbe54d05	-0.006997707
30	0x3daa89af	0.08327042
31	0xbcbe00e7	-0.02319379
32	0xbc782eb8	-0.015147857
33	0xbda74fec	-0.08169541
34	0x3bf07687	0.0073383483
35	0xbcb2e27f	-0.021836517
36	0xbd1a3004	-0.037643448
37	0x3d0f0670	0.03491825
38	0xbcb99913	-0.022656
39	0x3bf3410d	0.007423526
40	0x3bf9e87c	0.0076265913
41	0x3cd93030	0.026512235
42	0xbda424d1	-0.08014835
43	0xbc0b007a	-0.008484
44	0x3cdddb80	0.027082205
45	0xbd775015	-0.060379107
46	0xbd0ba30f	-0.03409105
47	0xbc47cb4a	-0.012194464
48	0x3ce6f98e	0.028195169
49	0x3da0b45a	0.07846899
50	0x3db99869	0.09062273
51	0x3da80fb4	0.0820612
52	0x3c35f221	0.011105091
53	0x3d4d56d3	0.05013163
54	0xbd77c95f	-0.060494777
55	0xbc940689	-0.018069522
56	0xbd2f033a	-0.042727686
57	0x3d7f7f63	0.062377345
58	0x3dac1640	0.08402681
59	0x3dad00d5	0.08447424
60	0xbd000f22	-0.03126443
61	0x3caf233f	0.021379111
62	0xbda1c8ff	-0.07899665
63	0x3d6ab4fc	0.057301506
64	0x3d275cea	0.040860094
65	0x3cf3271a	0.029681731
66	0x3cb487fc	0.022037499
67	0x3d0f4b90	0.03498417
68	0xbb138828	-0.0022511575
69	0xbc6a3a36	-0.014296105
70	0xbdb58bd3	-0.0886456
71	0x3daa156a	0.08304866
72	0xbd25e20e	-0.040498786
73	0xbd0857e7	-0.033286955
74	0x3cfd8eec	0.03095194
75	0xbd0d1e48	-0.034452707
76	0xbd8d3a7a	-0.06895919
77	0x3ceb41c9	0.028717892
78	0xbcd6206e	-0.02613851
79	0xbc9a1bb3	-0.018812036
80	0xbd9933f9	-0.07480616
81	0x3c3f7f37	0.011688045
82	0xbcd463ac	-0.025926434
83	0xbdb58d51	-0.088648446

fc2.0.weight_fake_quant.scale f4 [84]
0	0x3cd8726c	0.026421748
1	0x3cd4aba2	0.025960747
2	0x3cd8e2ad	0.026475275
3	0x3cd5b92a	0.02608927
4	0x3cd1772a	0.025569517
5	0x3cd82b89	0.026387947
6	0x3cdffe32	0.02734289
7	0x3ce1eaf2	0.027577851
8	0x3cd53424	0.02602584
9	0x3cd2409a	0.02566557
10	0x3cd7deb1	0.026351305
11	0x3cdc8611	0.026919397
12	0x3cd8723f	0.026421664
13	0x3ce00fd0	0.02735129
14	0x3cdae0ee	0.026718583
15	0x3ce32565	0.027727792
16	0x3cd8e0c4	0.026474364
17	0x3cda9ef4	0.026687123
18	0x3cda696e	0.0266616
19	0x3cd48faf	0.02594742
20	0x3cd42a59	0.0258991
21	0x3cd9b877	0.026577218
22	0x3cd597ca	0.026073355
23	0x3cd53d84	0.02603031
24	0x3cd35a47	0.025799884
25	0x3cdb57f9	0.026775347
26	0x3cd1e52f	0.025621979
27	0x3cd9259a	0.026507188
28	0x3cd78e9b	0.026313117
29	0x3ce57421	0.028009476
30	0x3cdbaa49	0.026814597
31	0x3cd46bef	0.025930373
32	0x3cd7fc76	0.0263655
33	0x3cd74886	0.026279699
34	0x3cd785cf	0.026308922
35	0x3ceb3beb	0.028715095
36	0x3cda3ccd	0.02664032
37	0x3cd11e11	0.025527032
38	0x3cd3b923	0.025845116
39	0x3cd753fe	0.026285168
40	0x3cd35d63	0.025801366
41	0x3cd33a5a	0.02578466
42	0x3cd50a61	0.026005926
43	0x3cdcf22d	0.026970947
44	0x3cda38b7	0.026638372
45	0x3cd34de4	0.025793977
46	0x3cd6c953	0.026219046
47	0x3cd443bb	0.025911203
48	0x3ce41e42	0.02784646
49	0x3cd679da	0.02618115
50	0x3cd6d99e	0.026226815
51	0x3cd689ba	0.02618872
52	0x3cd52027	0.026016308
53	0x3cd40db4	0.02588544
54	0x3ce27662	0.02764434
55	0x3ce11690	0.027476579
56	0x3cd411d5	0.02588741
57	0x3cda22f7	0.026628
58	0x3cd51b7e	0.026014086
59	0x3cd74825	0.026279518
60	0x3cd78dbd	0.026312703
61	0x3cd9750e	0.026545074
62	0x3cd2889a	0.025699902
63	0x3ce106b9	0.027469026
64	0x3cdf717d	0.027275795
65	0x3cd65cf7	0.026167376
66	0x3cd57f56	0.026061695
67	0x3cd959b1	0.026532026
68	0x3cd59c61	0.026075544
69	0x3cda27cf	0.02663031
70	0x3ce0ec0b	0.027456304
71	0x3cd782e3	0.026307529
72	0x3cdb8d61	0.026800813
73	0x3cd207e9	0.025638537
74	0x3cda1ac5	0.026624093
75	0x3ce3ec7b	0.027822724
76	0x3ce9e7d1	0.028552921
77	0x3cd4d3da	0.025979925
78	0x3cd1277b	0.025531521
79	0x3cdf72b9	0.027276384
80	0x3cd45064	0.02591724
81	0x3cd170fa	0.025566567
82	0x3cd5a8ed	0.026081527
83	0x3cd51e31	0.026015373

fc2.0.weight_fake_quant.activation_post_process.min_val f4 [84]
0	0xbdbd641e	-0.092476115
1	0xbdb81e76	-0.08990185
2	0xbdbdc657	-0.09266346
3	0xbdbb0204	-0.09131244
4	0xbdb74844	-0.089493304
5	0xbdbd2617	-0.09235781
6	0xbdb905db	-0.0903432
7	0xbdbe8e5b	-0.09304496
8	0xbdba0082	-0.09082128
9	0xbdb5140f	-0.088417165
10	0xbdbce2da	-0.09222956
11	0xbdb7ccad	-0.08974586
12	0xbdbd63f7	-0.092475824
13	0xbdc40dd5	-0.09572951
14	0xbdbf84d0	-0.09351504
15	0xbdc6c0b8	-0.09704727
16	0xbdbdc4ab	-0.09266027
17	0xbdb952d2	-0.09049
18	0xbdbf1c40	-0.0933156
19	0xbdaf45a5	-0.085582055
20	0xbdb8a9a5	-0.09016732
21	0xbdbe2581	-0.09284497
22	0xbdb77b33	-0.08959045
23	0xbdb88139	-0.09009022
24	0xbdb4ac97	-0.088219814
25	0xbdbdb47f	-0.092629425
26	0xbdb60315	-0.088873066
27	0xbdbe00e6	-0.09277515
28	0xbdb5f708	-0.08885008
29	0xbdc8c59c	-0.09803316
30	0xbdb8a44f	-0.090157144
31	0xbdb9de71	-0.090756305
32	0xbdbcfce7	-0.09227925
33	0xbdbc5f75	-0.091978945
34	0xbdba3bfe	-0.09093474
35	0xbdcdd46d	-0.100502826
36	0xbdbdc94d	-0.09266911
37	0xbdb657d7	-0.08903473
38	0xbdb941fe	-0.0904579
39	0xbdbc697e	-0.091998085
40	0xbdb8f1b6	-0.09030478
41	0xbdb223b8	-0.08698219
42	0xbdba6914	-0.09102073
43	0xbdc153e7	-0.09439831
44	0xbdb1d153	-0.086825036
45	0xbdad12a1	-0.08450819
46	0xbdb98a7e	-0.090596184
47	0xbdb9bb43	-0.090689205
48	0xbdc04b97	-0.093894176
49	0xbdbbaa9e	-0.09163402
50	0xbdbbfe6a	-0.09179385
51	0xbdbbb882	-0.091660514
52	0xbdba7c22	-0.09105708
53	0xbdb98bfd	-0.09059904
54	0xbdc62795	-0.096755184
55	0xbdc4f3bd	-0.09616802
56	0xbdb98f9a	-0.09060593
57	0xbdb66e92	-0.08907808
58	0xbdb9e2ef	-0.09076487
59	0xbdb29cfe	-0.0872135
60	0xbdbaa80a	-0.09114082
61	0xbdbe466c	-0.09290776
62	0xbdb718d3	-0.08940282
63	0xbdc4e5e1	-0.096141584
64	0xbdc3834d	-0.09546528
65	0xbdb9d562	-0.09073903
66	0xbdbacf6b	-0.09121593
67	0xbdbe2e7a	-0.092862085
68	0xbdb76d06	-0.089563414
69	0xbdbee2d5	-0.093206085
70	0xbdc4ce89	-0.09609706
71	0xbdb5d79b	-0.08879014
72	0xbdb5361b	-0.088482104
73	0xbdb5d381	-0.08878232
74	0xbdbed76c	-0.09318432
75	0xbdc76eeb	-0.09737953
76	0xbdccaad6	-0.09993522
77	0xbdba395e	-0.09092973
78	0xbdb1b66c	-0.08677372
79	0xbdc38461	-0.09546734
80	0xbdb709a0	-0.08937383
81	0xbdb6cc51	-0.08925689
82	0xbdbaf3cf	-0.09128534
83	0xbdb6078a	-0.08888157
