checkpoint/LeNet5_parametrized_hardtanh_quantized_4_bits.ckpt (torch, 275376 bytes, 10 tensors)

conv1.0.weight f4 [6, 3, 5, 5]
0	0x3dc40569	0.095713444
1	0xbde6f119	-0.112764545
2	0xbce49061	-0.027900876
3	0x3c13afef	0.009014114
4	0x3db8b4e4	0.09018877
5	0x3ca4f4fb	0.020136347
6	0xbcd53a94	-0.026028909
7	0xbe409fd4	-0.1881097
8	0x3df1342f	0.11777531
9	0xbcea0df1	-0.0285711
10	0xbef61f56	-0.48070782
11	0x3f81a9f4	1.012999
12	0xbf1dce28	-0.61642694
13	0xbdfa779c	-0.12229845
14	0x3ddbfb08	0.1074124
15	0x3cb1b5c3	0.021693116
16	0x3eaf1652	0.34196717
17	0xbefa4f7b	-0.48888764
18	0xbcfc8ed3	-0.030829823
19	0x3ab0be92	0.0013484529
20	0xbc8de811	-0.017322572
21	0x3ba93391	0.005163618
22	0xbd971f4d	-0.07379017
23	0xbcde935d	-0.027169878
24	0x3c2b644e	0.010460926
25	0x3dd91bbb	0.10600992
26	0xbde9ba39	-0.11412472
27	0x3b2e8d12	0.0026634377
28	0xbc39d8bd	-0.011343178
29	0xbc117511	-0.008878008
30	0x3b40703d	0.0029363774
31	0xbbc35087	-0.0059605273
32	0xbb9292b4	-0.004473055
33	0x3dc33be7	0.0953291
34	0x3cd0e40d	0.025499368
35	0xbf0c7cd9	-0.54878
36	0x3f9145fe	1.1349485
37	0xbee8f8d9	-0.45502356
38	0xbc87f576	-0.016596537
39	0x3d443bb8	0.047908515
40	0x3cbac937	0.022801025
41	0x3f0b884a	0.54504836
42	0xbf1622e5	-0.58646995
43	0x3e4b88ea	0.19876447
44	0x3d569c02	0.052394874
45	0x3db0a19d	0.08624575
46	0x3db9de47	0.09075599
47	0xbde42841	-0.1114049
48	0x3dcc374f	0.09971487
49	0x3df426c7	0.11921459
50	0xbbb2e0ac	-0.005458912
51	0x3cd8eaea	0.026479203
52	0x3e13e732	0.14443663
53	0x3c95d690	0.018290788
54	0xbde9e7de	-0.11421178
55	0xbd95f75b	-0.0732257
56	0x3e496cc7	0.19670402
57	0x3ceea2a0	0.02913028
58	0xbae95a69	-0.0017803434
59	0xbe1a8e48	-0.15093338
60	0xbf114057	-0.567388
61	0x3f88dc86	1.0692298
62	0xbec32a8e	-0.38118404
63	0xbd9db908	-0.077013075
64	0xbd59445e	-0.053043716
65	0x3c1f075e	0.009706346
66	0x3edb8605	0.42875686
67	0xbef80c2b	-0.48446783
68	0x3db3a145	0.08770994
69	0xbe08af53	-0.13348131
70	0xbc3828c2	-0.011240186
71	0x3ca03606	0.01955701
72	0xbd6c1ed3	-0.057646584
73	0x3c5c4193	0.0134433685
74	0xbe4bd43f	-0.19905184
75	0xbdbfd4b5	-0.093667425
76	0xbc7a5e4f	-0.015281274
77	0xbd0184d0	-0.0316208
78	0xba26f2ba	-0.00063685665
79	0xbe360790	-0.17776322
80	0x3d5d07fb	0.05396269
81	0x3dea9d95	0.11455838
82	0xbda5ecdb	-0.08101817
83	0x3e29e20f	0.16590141
84	0xbdac13c3	-0.08402207
85	0x3de8e3f8	0.113716066
86	0x3e58ca88	0.2117101
87	0xbd77f15e	-0.06053292
88	0x3e7b9824	0.24569756
89	0xbd85305d	-0.06503365
90	0x3e086503	0.13319783
91	0x3e96a295	0.29420915
92	0xbe05bdab	-0.13060634
93	0x3ef588e4	0.47956002
94	0x3dcb4bb7	0.09926551
95	0x3d84d87a	0.06486602
96	0x3df051d6	0.11734359
97	0xbd500751	-0.050788227
98	0x3def9304	0.11697963
99	0x3c96b6d7	0.018397732
100	0x3da87069	0.082245655
101	0xbcd43c74	-0.025907733
102	0xbdd1d834	-0.102463156
103	0x3da8b044	0.08236745
104	0x3e583a9a	0.21116105
105	0x3e07b67a	0.13253203
106	0xbdc43242	-0.095798984
107	0xbe4ef896	-0.20212016
108	0x3dad1777	0.08451741
109	0x3cd890ba	0.026436199
110	0x3d575d0e	0.05257898
111	0xbe45fe2d	-0.19335242
112	0xbef049db	-0.46931347
113	0x3e4da75f	0.20083378
114	0xbcf7a05e	-0.030227836
115	0x3d84d905	0.06486706
116	0xbe3bc074	-0.18335134
117	0xbf1cf1a6	-0.61306226
118	0x3cee856f	0.02911636
119	0xbd688e58	-0.056776375
120	0xbdab9c2a	-0.08379395
121	0xbe32ae25	-0.17449243
122	0xbedead08	-0.43491387
123	0xbd776434	-0.060398296
124	0xbe003c9e	-0.12523124
125	0xbcdf2e28	-0.027243689
126	0x3cb9a320	0.022660792
127	0x3d990929	0.0747245
128	0x3c511a2c	0.0127625875
129	0xbd813782	-0.063094154
130	0xbdbe67ef	-0.092971675
131	0xbd98ef00	-0.07467461
132	0xbdbcfd96	-0.09228055
133	0x3e228c4b	0.1587383
134	0x3d4a65e4	0.049413577
135	0xbc6defcb	-0.014522503
136	0xbcf88167	-0.030335141
137	0xbed0f7ec	-0.4081415
138	0x3e91bc60	0.2846403
139	0x3d852d25	0.06502751
140	0x3db7efa4	0.08981255
141	0x3ca6e97d	0.020375008
142	0xbe996566	-0.29960173
143	0x3e679a34	0.22617418
144	0x3dde4d58	0.10854596
145	0x3dc3783d	0.09544418
146	0x3d20a04d	0.039215375
147	0xbe5b943f	-0.2144327
148	0x3e31a266	0.17347106
149	0x3e47898a	0.1948606
150	0xbd80745d	-0.062721945
151	0xbdf5da09	-0.120044775
152	0x3dddb5df	0.10825705
153	0x3e2dfee0	0.16991758
154	0xbd7fbbd4	-0.062434986
155	0x3e973bfe	0.29537958
156	0x3e2c1870	0.16806197
157	0xbdb9eddd	-0.09078572
158	0xbe71bfc8	-0.23608315
159	0x3d8909ff	0.0669136
160	0x3d07c0c1	0.03314281
161	0x3df443c8	0.11926991
162	0xbdb99fff	-0.0906372
163	0xbd8b7b4e	-0.06810628
164	0xbdf2d678	-0.11857313
165	0xbec6168e	-0.38689083
166	0xbe07f9b7	-0.13278852
167	0x3e3d9ba8	0.1851641
168	0x3ea76e8a	0.32701522
169	0xbdc9ba52	-0.09849991
170	0x3e34eab6	0.1766766
171	0xbc8ae255	-0.016953627
172	0x3c8408b8	0.016117439
173	0xbdae2b20	-0.08504319
174	0x3e2a4028	0.16626036
175	0x3c84aa95	0.016194621
176	0xbda1fdd7	-0.07909744
177	0x3d4e9053	0.050430607
178	0x3d88c306	0.06677823
179	0x3e0713ed	0.13191195
180	0x3ded9414	0.11600509
181	0xbd19eabc	-0.037577376
182	0xbe250172	-0.16113833
183	0xbec93ca1	-0.3930407
184	0x3e874dce	0.26426548
185	0xbd9978f3	-0.07493772
186	0x3d119fe9	0.035552893
187	0xbddfe00d	-0.10931406
188	0x3da9158e	0.08256064
189	0xbd7eef6a	-0.06224004
190	0xbf0b9c08	-0.5453496
191	0xbe4511db	-0.19245093
192	0x3ebbaedd	0.36656848
193	0x3ebdd6ef	0.37078044
194	0xbc230167	-0.009949065
195	0xbd545ed7	-0.05184826
196	0xbe5a1033	-0.21295242
197	0xbe8ab00f	-0.27087447
198	0xbdc08333	-0.09400024
199	0x3d85addc	0.06527302
200	0x39cb16b6	0.00038736098
201	0xbe2af049	-0.16693224
202	0xbdcf55fd	-0.10123823
203	0xbd8367d5	-0.06416289
204	0xbe53dddd	-0.20690103
205	0x3de3381a	0.11094685
206	0x3c660c6a	0.014041046
207	0xbe90c2d6	-0.28273648
208	0xbf0451cd	-0.5168732
209	0xbe051a34	-0.12998277
210	0x3e5f3a54	0.21799594
211	0x3d69f8b4	0.057121947
212	0xbdb4b0f5	-0.088228144
213	0xbdb345d2	-0.087535515
214	0xbd5132de	-0.0510739
215	0xbe352164	-0.17688519
216	0x3e2e5bb2	0.17027166
217	0x3ec8b924	0.3920375
218	0x3f05e513	0.52302665
219	0x3dc835d2	0.097758904
220	0x3df23c56	0.118279144
221	0x3e50f953	0.2040761
222	0x3e02d083	0.12774853
223	0x3c4164e2	0.0118038375
224	0x3e11da74	0.1424349
225	0xbddc810a	-0.107668
226	0xbdbd8f03	-0.09255793
227	0xbcf63204	-0.030053146
228	0xbe140690	-0.14455628
229	0xbcd74b60	-0.026281059
230	0xbd6facea	-0.058514513
231	0xbdd82416	-0.10553758
232	0xbe098c9d	-0.13432546
233	0xbd39a326	-0.045321606
234	0xbd9c46ea	-0.07630713
235	0xbd8776fd	-0.06614492
236	0x3d0e0f6a	0.03468267
237	0x3bac7058	0.005262416
238	0x3d525b78	0.051356763
239	0x3d7a9ac3	0.06118275
240	0x3d36a8d9	0.04459462
241	0x3e3b9db9	0.18321885
242	0x3e330857	0.1748365
243	0x3e080e73	0.13286762
244	0x3e4c755b	0.19966643
245	0x3e73a700	0.23794174
246	0x3de53048	0.111908495
247	0x3db0779f	0.08616566
248	0x3e2d8f84	0.16949278
249	0x3e26c760	0.16286993
250	0xbc39d8b9	-0.011343175
251	0x3d8456be	0.06461857
252	0xbc9440aa	-0.01809724
253	0x3d812b26	0.06307058
254	0xbd37a832	-0.044838138
255	0x3dfe73fc	0.12424466

conv1.0.bias f4 [6]
0	0xbe8860bf	-0.2663631
1	0xbeca7424	-0.39541733
2	0xbef0a1ec	-0.46998537
3	0xbd9c7946	-0.076403186
4	0xbf03727e	-0.51346576
5	0xbf461c9f	-0.7738742

conv2.0.weight f4 [16, 6, 5, 5]
0	0x3d5e3539	0.054249976
1	0x3c17a291	0.009255067
2	0x3cf5ca73	0.030003762
3	0x3dfe4fc3	0.12417557
4	0x3e0e9c09	0.1392671
5	0x3d43b015	0.047775347
6	0x3d876051	0.06610168
7	0x3d796fda	0.060897686
8	0x3da1d48b	0.079018675
9	0x3db9ce4f	0.09072553
10	0x3c76acf7	0.0150558865
11	0xbc6a2eb0	-0.014293358
12	0x3ceba3d3	0.02876464
13	0x3d9f0c66	0.07766037
14	0x3d42a9f2	0.047525354
15	0xbd106150	-0.035249054
16	0x3cd6e565	0.02623243
17	0xbc9b8120	-0.01898247
18	0x3d65b072	0.056076474
19	0x3cdab1a1	0.026696028
20	0x3cdb680d	0.026783014
21	0xbc4d7d20	-0.012542039
22	0x3d957540	0.07297754
23	0x3d5bf7ed	0.053703237
24	0x3db45304	0.088048965
25	0x3cd7d8ce	0.026348498
26	0x3deba5e6	0.11506252
27	0x3e072805	0.1319886
28	0x3e1dd04a	0.15411487
29	0x3d9d1c58	0.07671422
30	0x3d834481	0.064095505
31	0x3d21c4be	0.03949427
32	0x3da0a108	0.07843214
33	0x3e3f7312	0.1869624
34	0x3e2272da	0.15864125
35	0x3cd87658	0.026423618
36	0x3cd39e6d	0.02583238
37	0x3db12b81	0.08650876
38	0xbad37f7f	-0.0016136019
39	0x3ce61dd0	0.028090388
40	0xbce64a19	-0.028111504
41	0x3cc006fa	0.023440827
42	0xbd8381be	-0.06421231
43	0xbd745ff7	-0.05966183
44	0xbd2f496a	-0.042794622
45	0xbc5305d1	-0.012879805
46	0xbcd7e22e	-0.026352968
47	0xbcd49f0b	-0.025954744
48	0xbc92c2c2	-0.017915133
49	0xbcf0a352	-0.029374752
50	0x3e070037	0.13183676
51	0x3dadb17c	0.08481118
52	0x3dbc277f	0.09187221
53	0x3e035484	0.12825209
54	0x3e2256c5	0.15853412
55	0x3bfeae8f	0.007772274
56	0x3e003be3	0.12522845
57	0x3d9e9834	0.07743874
58	0x3d085951	0.033288304
59	0x3da10a18	0.07863253
60	0x3c4975a9	0.012296119
61	0x3e11e8c6	0.14248952
62	0x3dcc8d61	0.099879034
63	0x3d4a248e	0.049351268
64	0x3d88fae0	0.066884756
65	0x3c9fa9e2	0.019490186
66	0x3cc5e843	0.024158603
67	0x3e1d6fac	0.1537463
68	0x3da1faa3	0.07909133
69	0x3d97ad9b	0.074061595
70	0xbca3816b	-0.019959172
71	0x3cda1d91	0.026625426
72	0x3c842a29	0.016133385
73	0x3d9cff63	0.07665899
74	0x3d179584	0.037007824
75	0xbd65fe06	-0.05615046
76	0x3d30ce1b	0.043165307
77	0xbce10ddd	-0.02747243
78	0xbd0ed593	-0.03487165
79	0xbdfd8a5a	-0.12379904
80	0xbd325d66	-0.043546103
81	0xbcc7cd32	-0.024389837
82	0xbe0621f7	-0.13098894
83	0xbe11f8dd	-0.1425509
84	0xbd40c88f	-0.047066268
85	0x3cb09d90	0.021559507
86	0xbdb7be6f	-0.08971869
87	0x3c4d0903	0.012514356
88	0xbcd9cbbc	-0.026586406
89	0xbd7885b7	-0.060674395
90	0xbd3d224d	-0.04617529
91	0xbc09c38d	-0.008408439
92	0x3acd31c0	0.0015655085
93	0x3c7ef189	0.015560516
94	0xbd1e2cee	-0.038617067
95	0xbcd84dbb	-0.026404252
96	0xbcb19b40	-0.021680474
97	0xbd80055f	-0.062510245
98	0xbdbc50b8	-0.091950834
99	0xbca89962	-0.020580951
100	0xbdc84666	-0.097790524
101	0xbe450e0b	-0.19243638
102	0xbdde5f00	-0.108579636
103	0xbe161c62	-0.14659265
104	0xbd2ae7b0	-0.04172486
105	0xbdd733cb	-0.105079256
106	0xbdbe89c5	-0.09303621
107	0xbe4ac93b	-0.19803326
108	0xbe3d16c8	-0.18465722
109	0xbdd46266	-0.103703305
110	0xbdeb3b97	-0.11485975
111	0xbe2c9510	-0.16853738
112	0xbe569810	-0.20956445
113	0xbd8e39ac	-0.06944594
114	0x3b89bcbb	0.0042034066
115	0xbcd464f6	-0.025927048
116	0xbda2403f	-0.0792241
117	0xbd91bf12	-0.07116522
118	0xbd67a26b	-0.05655138
119	0xbd8b4f3a	-0.06802221
120	0xbcdb94b0	-0.026804298
121	0xbbd9b2b6	-0.0066436185
122	0xbd10b8cb	-0.035332482
123	0xbd9f614e	-0.07782231
124	0x3cc4d6da	0.02402823
125	0xbe50ff55	-0.20409901
126	0xbd95a98c	-0.07307729
127	0x3ce37127	0.027763916
128	0xbda29b00	-0.0793972
129	0xbc817993	-0.015805041
130	0xbe061906	-0.13095483
131	0xbad76972	-0.0016434623
132	0xbd47acc4	-0.048748747
133	0xbd5149db	-0.051095825
134	0xbd871cb7	-0.06597274
135	0xbe0e056a	-0.13869253
136	0x3d6f17c1	0.058372263
137	0xbd0534da	-0.032521106
138	0xbd9a4791	-0.075331815
139	0xbd250848	-0.0402911
140	0xbd8b7565	-0.068095006
141	0xbda31c12	-0.07964338
142	0xbd9d826e	-0.07690893
143	0xbdab17e3	-0.083541654
144	0xbdeb0182	-0.11474897
145	0xbcd7bc4f	-0.02633491
146	0xbd5b0c06	-0.053478263
147	0x3ca6e936	0.020374876
148	0xbda22889	-0.07917888
149	0xbde18bb0	-0.110129714
150	0xbcfbf760	-0.030757606
151	0x3d0bb526	0.034108303
152	0xbd77b67d	-0.06047677
153	0xbe3db7d3	-0.18527155
154	0xbe4491ca	-0.19196239
155	0xbda2a5d1	-0.07941783
156	0x3d82421b	0.06360265
157	0x3da24c91	0.0792476
158	0xbd93dc31	-0.072197326
159	0xbe2b06ac	-0.16701764
160	0xbe069299	-0.1314186
161	0x3cd0b0b2	0.02547488
162	0x3d85617c	0.06512734
163	0x3cd8875f	0.026431737
164	0xbdbfc1b6	-0.09363119
165	0xbdf433f5	-0.119239725
166	0xbd9de40d	-0.07709513
167	0x3c60427a	0.013687724
168	0xbccd1d75	-0.02503846
169	0xbd9c457a	-0.07630439
170	0xbd8841f7	-0.06653207
171	0xbcd7f3bd	-0.02636134
172	0xba43f590	-0.00074752513
173	0xbd94e2ab	-0.07269796
174	0xbdbe23fb	-0.092842065
175	0xbd3a94bb	-0.045551997
176	0xbdbcf0de	-0.09225629
177	0xbd2d9b5b	-0.042384487
178	0xbce58845	-0.02801908
179	0x3d16473d	0.036689032
180	0xbda7e635	-0.081982054
181	0xbd55438f	-0.052066382
182	0xbe00366a	-0.12520757
183	0xbe39489d	-0.18094106
184	0xbda039aa	-0.078234985
185	0xbcd6bc01	-0.026212694
186	0x3da20b55	0.07912318
187	0x3d911792	0.07084574
188	0x3c205745	0.009786432
189	0x3d48f3df	0.0490607
190	0xbd5236b9	-0.05132172
191	0xbab8f7d6	-0.0014111947
192	0x3e008f23	0.12554602
193	0x3d9e5470	0.07730949
194	0x3da21940	0.07914972
195	0xbd7db846	-0.061943315
196	0xbb93fe63	-0.0045164092
197	0x3ce18231	0.0275279
198	0xbca76900	-0.02043581
199	0x3ce1375d	0.02749222
200	0x3da1f449	0.07907922
201	0x3e3cf615	0.18453248
202	0x3e0f18a1	0.13974239
203	0x3da7b136	0.08188097
204	0x3cd6fbb1	0.026243063
205	0xbdae893f	-0.08522271
206	0x3c709d16	0.01468589
207	0xbd85fecf	-0.065427415
208	0xbda279fb	-0.07933422
209	0xbd61abfb	-0.055095654
210	0xbe04c78f	-0.1296675
211	0xbcdb77c2	-0.026790503
212	0xbcd1f8f0	-0.025631398
213	0xbd6f6cfd	-0.05845355
214	0xbda22059	-0.07916326
215	0xbd9df409	-0.07712562
216	0xbd846fba	-0.06466623
217	0xbc840966	-0.016117763
218	0xbcad8874	-0.02118323
219	0xbcdc8bd7	-0.02692215
220	0xbcc82044	-0.024429448
221	0xbdbad6f6	-0.09123032
222	0xbda1052c	-0.078623146
223	0xbd609693	-0.0548311
224	0xbd9ac9f1	-0.075580485
225	0x3e1a5001	0.15069582
226	0x3c8c37d3	0.017116463
227	0xbe31d81d	-0.17367597
228	0xbe5863c9	-0.21131815
229	0xbe584bfb	-0.21122734
230	0x3d752e79	0.059858773
231	0x3d8dd7b9	0.069259115
232	0x3dbe48a8	0.09291202
233	0xbdf8a6b5	-0.12141172
234	0xbd62cf6c	-0.055373594
235	0x3d97dfa4	0.07415703
236	0x3e7e1920	0.24814272
237	0x3e445ed1	0.19176795
238	0x3e0df775	0.13863929
239	0xbcd43a06	-0.025906574
240	0xbde3425f	-0.11096644
241	0xbda6b557	-0.081400566
242	0xbc5650e6	-0.013080811
243	0x3d2c1679	0.04201362
244	0xbd6fe48e	-0.058567576
245	0xbe10599d	-0.14096685
246	0xbe059207	-0.13043986
247	0xbe0017cc	-0.12509078
248	0x3bc5d6c2	0.006037564
249	0x3d400924	0.046883717
250	0x3e818536	0.25296944
251	0x3e5679e9	0.20944943
252	0xbda03593	-0.078227185
253	0xbe4c6e3e	-0.19963929
254	0xbe5649f9	-0.20926656
255	0x3e3ba866	0.18325958

conv2.0.bias f4 [16]
0	0x3e831e25	0.25608936
1	0x3e85ec6f	0.26156947
2	0xbe3f6a58	-0.1869291
3	0xbe9f4c8b	-0.31113085
4	0x3ecc53f8	0.39907813
5	0xbd94e342	-0.072699085
6	0xbf249230	-0.64285564
7	0xbe8219d2	-0.25410324
8	0xbf16c019	-0.5888687
9	0xbd0e9dd7	-0.034818497
10	0xbe5f4a63	-0.2180572
11	0xbec603bf	-0.38674733
12	0xbe7585a0	-0.23976755
13	0xbf0b6020	-0.5444355
14	0xbec77d95	-0.38963
15	0x3d9faf03	0.07797053

fc1.0.weight f4 [120, 400]
0	0x3c0f69e1	0.008753271
1	0xbc44849c	-0.011994507
2	0xbba1759b	-0.0049273497
3	0x3c8336d2	0.016017351
4	0xbd4fa2d3	-0.05069239
5	0x3ca73e17	0.020415349
6	0x3d053a0a	0.032526053
7	0x3da4996e	0.08037077
8	0x3c528d9b	0.012851144
9	0x3ce4d3b4	0.02793298
10	0xbc83645e	-0.01603907
11	0x3ca27318	0.019830272
12	0x3d7b40c3	0.06134106
13	0x3d13b603	0.03606225
14	0x3d028b50	0.03187114
15	0x3bfee8ed	0.0077792318
16	0x3c2a328f	0.010388031
17	0x3d8db183	0.06918623
18	0x3d22771c	0.039664373
19	0x3c3a8687	0.011384613
20	0x3cb32db9	0.021872388
21	0x3d45ec9d	0.048321355
22	0x3d7547bb	0.05988286
23	0x3dd8f874	0.10594264
24	0x3c755f8c	0.014976393
25	0xbd0fa811	-0.03507239
26	0xbc994e04	-0.018713959
27	0xbc4a1cb0	-0.012335941
28	0x3b93629a	0.004497838
29	0xbd0fc0c7	-0.035095956
30	0xbc41411a	-0.011795307
31	0x3d32b59b	0.043630224
32	0x3d6cb77d	0.057792176
33	0x3ca0f99c	0.019650273
34	0x3c8e05bc	0.017336719
35	0x3d6f659c	0.05844651
36	0xbb90217d	-0.0043985234
37	0x3d1a520c	0.037675902
38	0x3c532a85	0.012888555
39	0x3c3cbea9	0.011520066
40	0x3d9da1a0	0.07696843
41	0x3d873145	0.06601194
42	0xbc8c6fb0	-0.0171431
43	0x3cc2e615	0.023791352
44	0x3d1c60b1	0.03817815
45	0x3d120fce	0.035659604
46	0x3c8a2f98	0.016868398
47	0xbc51ed6e	-0.012812955
48	0x3bf9b39c	0.007620288
49	0x3d34e256	0.044161163
50	0x3d294649	0.041326795
51	0x3d58d763	0.052939784
52	0x3d8278ec	0.0637072
53	0x3c2d498b	0.010576616
54	0xbcf5cb51	-0.030004175
55	0x3c21deeb	0.009879808
56	0x3d53a7a2	0.05167354
57	0xbc40d922	-0.0117705185
58	0xbbeb20e1	-0.0071755503
59	0x3d4c2c0f	0.049846705
60	0x3bc72f8e	0.006078667
61	0xbc286e80	-0.0102802515
62	0x3cf9debf	0.030501721
63	0xbcedfb69	-0.029050546
64	0xbc51a0a7	-0.01279465
65	0x3c8f4f27	0.017493797
66	0x3d08a5d5	0.033361275
67	0x3be49e5e	0.0069768867
68	0x3c91de63	0.017806238
69	0x3c11699e	0.008875279
70	0x3b2f5890	0.0026755668
71	0xbb82bc1b	-0.003989709
72	0xbd19ae68	-0.037519842
73	0xbcf740f4	-0.03018234
74	0xbdb61388	-0.08890444
75	0xbcea989a	-0.02863722
76	0xbb432505	-0.0029776704
77	0xbc548375	-0.012970795
78	0xbd6b9241	-0.057512525
79	0xbd11f4f1	-0.035633985
80	0x3c475e44	0.012168471
81	0xbd118db7	-0.03553554
82	0x3d13431d	0.035952676
83	0x3c4f4918	0.012651704
84	0x3cd4ecbb	0.025991788
85	0xbd102847	-0.03519466
86	0x3d1fc140	0.039002657
87	0x3d444fe4	0.047927752
88	0xbc36e2da	-0.011162484
89	0xbc443354	-0.011975128
90	0xbd2e6f81	-0.042586807
91	0xbcca0b62	-0.02466363
92	0xbbf6569b	-0.0075176484
93	0xbb804801	-0.0039148335
94	0x3c0b6932	0.008508967
95	0x3d3a1df3	0.045438718
96	0x3c09abeb	0.008402805
97	0x3bd7607c	0.006572781
98	0x3dac12d5	0.084020294
99	0x3dab627b	0.08368393
100	0xbd2c6f0a	-0.042098083
101	0xbd696510	-0.056981146
102	0xbd35693e	-0.04428982
103	0xbd827d9d	-0.06371615
104	0xbce47273	-0.027886605
105	0x3c485454	0.012227137
106	0xb982c054	-0.00024938828
107	0x3d05735a	0.03258071
108	0xba955479	-0.0011392973
109	0x3cd0a5ee	0.025469746
110	0x3d0ba90e	0.03409677
111	0xbca405e8	-0.020022348
112	0x3c4882f0	0.012238249
113	0xbca8d822	-0.020610873
114	0x3d10b537	0.03532907
115	0x3c903162	0.017601673
116	0x3bfb2841	0.0076647107
117	0x3dab37b5	0.08360235
118	0x3d1cc09f	0.038269635
119	0xbc34c087	-0.01103223
120	0x3d0d4936	0.034493648
121	0x3ce16d27	0.027517868
122	0x3cd57c44	0.026060231
123	0x3d2a000a	0.041503944
124	0x3c88c1da	0.016693998
125	0x3ce9706f	0.028495995
126	0x3d945d2e	0.07244335
127	0xbc0e2429	-0.008675613
128	0x3c4c2e0e	0.012462152
129	0xbb4e299c	-0.0031457907
130	0x3c2eb6d0	0.010663703
131	0xbcfb1a38	-0.03065215
132	0x3d0cfa8f	0.03441864
133	0x3d2bb316	0.041918837
134	0x3c7ba0fb	0.015358205
135	0x3cf8fb0d	0.030393148
136	0x3cd12f2a	0.025535185
137	0xbc4c9dd9	-0.012488806
138	0x3b44af98	0.0030011889
139	0xbc9b7c73	-0.01898024
140	0x3bbeb60b	0.005820041
141	0x3c1fbed0	0.009750083
142	0x3d258247	0.040407445
143	0xbbcef707	-0.006316069
144	0xbc8f59cf	-0.017498879
145	0x3cbf3cec	0.02334448
146	0x3d323a0b	0.043512385
147	0xbbaf186f	-0.005343489
148	0x3ce96e70	0.028495044
149	0xbb0d8a10	-0.0021597184
150	0x3c556391	0.013024227
151	0xbc2fb2f1	-0.010723815
152	0xbca8d4f7	-0.020609362
153	0xbbb2ae6d	-0.005452922
154	0xbd10625e	-0.03525006
155	0x3a5ae6c7	0.00083504285
156	0xbdbf71b6	-0.093478605
157	0xbc4b7e26	-0.012420213
158	0xbda2f5e9	-0.0795706
159	0xbb1aca1c	-0.0023619002
160	0xbcd86292	-0.02641419
161	0xbcd5c667	-0.026095582
162	0xbd274376	-0.04083582
163	0xbc9553b7	-0.018228395
164	0xbd07fb90	-0.033198893
165	0xbc6978eb	-0.0142500205
166	0xbc3da602	-0.011575224
167	0x3d0c1a19	0.034204576
168	0x3d171e8d	0.03689437
169	0x3d12a344	0.035800233
170	0xbb23c660	-0.0024990067
171	0xbce020c9	-0.027359383
172	0xbca132e1	-0.019677581
173	0xbce9a0fc	-0.028519146
174	0xbc3b766a	-0.011441806
175	0x3d8e9dc6	0.06963687
176	0x3ceeaedc	0.029136114
177	0x3caa69d5	0.020802418
178	0x3c456e6d	0.012050253
179	0x3d289b90	0.04116398
180	0xbb268993	-0.002541159
181	0xbcf7a3b4	-0.030229427
182	0xbd0bb881	-0.034111504
183	0xbd3d6f57	-0.04624876
184	0x3c9c173a	0.019054044
185	0x3d129024	0.035781994
186	0xbca8bfc1	-0.020599248
187	0xbc82a019	-0.015945481
188	0xbd67f600	-0.05663109
189	0xbbe7c7e8	-0.007073391
190	0xbbdb07d1	-0.0066842814
191	0xbd540fa3	-0.051772725
192	0xbd597431	-0.053089324
193	0xbd16b656	-0.036794983
194	0xbb746f57	-0.003729781
195	0xbd735315	-0.059405405
196	0xbd6ce094	-0.057831362
197	0x3c69cb7b	0.014269705
198	0xbd4adcf8	-0.04952714
199	0xbc27f2c8	-0.010250755
200	0xbd08094e	-0.033212
201	0xbb589835	-0.0033049707
202	0xbbcca66c	-0.006245425
203	0xbc4a6e2e	-0.01235537
204	0xbd868db4	-0.065699965
205	0x3c6b9dac	0.014380854
206	0xbca63c5e	-0.020292457
207	0xbd4e6e34	-0.050398067
208	0x3c1953d7	0.009358368
209	0xbd01c542	-0.03168226
210	0x3ceb09f7	0.028691275
211	0x3c85740c	0.016290687
212	0x3d84a258	0.06476277
213	0x3cd8da19	0.026471185
214	0xbcdfd7bc	-0.02732455
215	0x3d9cafb8	0.07650703
216	0x3b97857b	0.0046240664
217	0x3cd6d61c	0.026225142
218	0x3cc84037	0.024444683
219	0x3d8e0841	0.06935168
220	0x3d7970ee	0.060898714
221	0x3c8b9c75	0.017042378
222	0x3cf04c95	0.029333392
223	0x3d4ce740	0.050025225
224	0x3d6dd1c5	0.05806138
225	0x3cb456e8	0.022014096
226	0x3d32f601	0.04369164
227	0x3d6010ba	0.05470345
228	0x3b352d2a	0.0027645328
229	0x3d55e893	0.052223753
230	0xbcb42591	-0.02199057
231	0xbc214e22	-0.0098452885
232	0xbd07f157	-0.033189144
233	0xbc069a1a	-0.008215452
234	0xbccfb144	-0.025353082
235	0xbd859503	-0.06522562
236	0xbd444598	-0.047917932
237	0xbdb423da	-0.08795901
238	0xbd72023f	-0.059084173
239	0xbc3ba137	-0.011452011
240	0xbcb0a99e	-0.021565255
241	0x3b213430	0.0024597757
242	0xbcdc6c7c	-0.026907198
243	0xbc6ae0f0	-0.014335856
244	0x3c740bc5	0.014895384
245	0x3c2baa61	0.010477633
246	0xbd1e3628	-0.038625866
247	0x3d2e5a48	0.042566568
248	0xbbed764d	-0.0072467686
249	0xbc9a8c70	-0.018865794
250	0x3d53fff5	0.05175777
251	0x3db5e963	0.088824056
252	0x3c8b7e65	0.017028043
253	0x3cad8f8d	0.021186614
254	0x3dab6ccb	0.0837036
255	0xbc985919	-0.018597173

fc1.0.bias f4 [120]
0	0x3c923c02	0.01785088
1	0x3d33726c	0.043810293
2	0x3dc30323	0.09522083
3	0x3d869e01	0.065731056
4	0xbd4208f2	-0.047371812
5	0xbd0c4484	-0.03424503
6	0x3d58591c	0.052819356
7	0x3c3a1caf	0.011359378
8	0xbd90a427	-0.070625596
9	0xbdb51038	-0.08840984
10	0x3cf54036	0.029937845
11	0xbd1d788f	-0.03844505
12	0x3d69598b	0.05697016
13	0x3cd4787b	0.025936356
14	0xbc33cfec	-0.010974865
15	0x3bad343b	0.0052857674
16	0xbd419289	-0.047258887
17	0x3d88f475	0.066872515
18	0xbd8ab3a8	-0.06772548
19	0x3b737762	0.0037150015
20	0x3c7fa200	0.015602589
21	0x3cf2d5c8	0.029642954
22	0x3914a578	0.00014176022
23	0x3d7ab7a9	0.06121031
24	0x3cfb1eec	0.030654393
25	0xbcab88ad	-0.020939196
26	0x3d3b1a57	0.045679417
27	0x3d6d9a63	0.058008563
28	0x3d6e33a0	0.058154702
29	0xbd680216	-0.056642614
30	0xbd4da8cf	-0.050209817
31	0x3d69fe26	0.05712714
32	0x3ce7820d	0.028260255
33	0xbd22cd23	-0.039746415
34	0x3d236eb2	0.03990049
35	0x3dae61a9	0.08514721
36	0xbd5414db	-0.0517777
37	0xbd878806	-0.06617741
38	0x3cc14a11	0.023594888
39	0x3beab988	0.0071632303
40	0x3b9b5838	0.004740741
41	0x3dedc7c9	0.116103716
42	0xbd01594b	-0.031579297
43	0x3d065a42	0.03280092
44	0xbd7d6d25	-0.061871666
45	0xbcba6d84	-0.0227573
46	0x3d22ba46	0.039728425
47	0x3ca5e2ba	0.020249713
48	0x3d068c41	0.0328486
49	0x3d4bf56d	0.049794603
50	0x3d90bbac	0.070670456
51	0xbd9e4a73	-0.07729044
52	0x3caee77d	0.021350617
53	0xbdd6de4d	-0.10491619
54	0xbddd5963	-0.10808065
55	0x3d50f3e1	0.05101383
56	0x3d8eb8c1	0.06968833
57	0xbce53cb0	-0.02798304
58	0xbb4bab31	-0.003107738
59	0x3ce40af7	0.02783726
60	0xbcaa0ea0	-0.020758927
61	0x3d13ce2f	0.036085304
62	0x3d7e802b	0.06213395
63	0x3d542ec3	0.051802408
64	0x3ddc919e	0.10769962
65	0xbc294e8c	-0.010333668
66	0x3d0b7ab8	0.03405258
67	0xbd00f7da	-0.03148637
68	0x3d6178c4	0.05504681
69	0xbd79c11c	-0.06097518
70	0x3cbd9346	0.023141515
71	0xbc104949	-0.008806535
72	0x3d4f971c	0.05068122
73	0x3cb44f3e	0.022010442
74	0xbe009934	-0.12558442
75	0xbd0a4ec5	-0.033766527
76	0xbc856023	-0.016281193
77	0xbca687f4	-0.0203285
78	0x3bfd984c	0.0077391025
79	0x3d948e29	0.072536774
80	0x3d87be19	0.06628055
81	0x3c949dcf	0.018141655
82	0x3d994ac6	0.07484965
83	0xbd3da4a5	-0.046299595
84	0xbd73cf60	-0.05952394
85	0x3c687ca3	0.014189872
86	0xbdbb8850	-0.09156859
87	0xbce710d8	-0.028206274
88	0xbd15723a	-0.036485888
89	0x3cc3308c	0.02382686
90	0x3cce736b	0.02520152
91	0xbd1b2ef6	-0.037886582
92	0xbdde8a25	-0.10866193
93	0xbca5d607	-0.020243658
94	0x3d83ec33	0.06441536
95	0x3d171982	0.03688956
96	0x3d36a7ff	0.044593807
97	0x3db020ac	0.08599982
98	0xbc814349	-0.015779154
99	0x3a5a141e	0.0008319038
100	0x3e118f71	0.14214875
101	0xbd0cefe6	-0.034408472
102	0xbce980d6	-0.028503817
103	0x3d7f25be	0.062291853
104	0x3cc100e5	0.023559997
105	0x3d8801a0	0.06640935
106	0x3ce0da65	0.027447889
107	0xbc89ad25	-0.016806195
108	0x3cf9a1d4	0.030472673
109	0x3ca5e3e0	0.02025026
110	0x3c9f1aaa	0.019421894
111	0xbde030b9	-0.10946793
112	0x3d545d23	0.051846635
113	0xbd805459	-0.06266088
114	0x3d800dee	0.06252657
115	0xbd924f4d	-0.07144032
116	0x3cced0b9	0.025246011
117	0x3cae94cc	0.021311186
118	0x3d0cc674	0.034368947
119	0xbd0fa6e1	-0.035071258

fc2.0.weight f4 [84, 120]
0	0xbdbaa132	-0.09112777
1	0xbc96ca0c	-0.01840689
2	0x3d72997d	0.05922841
3	0xbd8206df	-0.06348967
4	0x3d1e34cf	0.03862458
5	0x3d9d6225	0.07684735
6	0x3d03595e	0.03206765
7	0x3b809401	0.0039238934
8	0x3d8e989f	0.06962704
9	0xbd5ba0eb	-0.05362026
10	0xbd6a6fa3	-0.05723537
11	0x3d7f7e53	0.06237633
12	0x3da6d379	0.08145804
13	0xbdc4de1a	-0.09612675
14	0xbc5ca964	-0.01346812
15	0x3c4ff9d4	0.012693841
16	0x3db2565c	0.08707878
17	0x3da525ec	0.08063874
18	0xbc88d3e3	-0.016702598
19	0x3c89c8c2	0.016819362
20	0x3d486da3	0.048932683
21	0xbd1e169f	-0.038595792
22	0x3d82ed7c	0.06392953
23	0x3dcea7f0	0.10090625
24	0xbd42f2c3	-0.047594797
25	0x3d5a6378	0.053317517
26	0xbd68644d	-0.05673628
27	0xbe03df8f	-0.1287825
28	0x3cf2945b	0.029611757
29	0xbd6950af	-0.05696171
30	0xbdc04c14	-0.09389511
31	0x3da55796	0.08073346
32	0x3dc622ab	0.09674581
33	0xbbf36ae5	-0.0074285143
34	0xbc926125	-0.017868588
35	0x3d9e4a41	0.077290066
36	0x3daa59ef	0.08317935
37	0x3d14a708	0.036292106
38	0xbd32ccd8	-0.043652385
39	0xbc70f5ac	-0.01470701
40	0xbcc8558d	-0.024454856
41	0x3c7d18f5	0.015447845
42	0xbd248172	-0.04016251
43	0x3db70a09	0.08937461
44	0x3d5eaa2c	0.054361507
45	0x3d7c5ebf	0.061613794
46	0xbb5ee7ed	-0.003401275
47	0x3ddf79e9	0.109119244
48	0xbbe09af1	-0.006854408
49	0xbd97765a	-0.07395621
50	0x3db8cdbc	0.09023616
51	0x3c6f5206	0.014606958
52	0x3da56155	0.08075205
53	0xbd02cbe4	-0.031932727
54	0x3db0c719	0.08631725
55	0xbc4ac1cb	-0.012375305
56	0xbd9e3902	-0.07725717
57	0x3d51acd5	0.051190216
58	0xbb1ac12f	-0.0023613682
59	0x3d6d046f	0.057865556
60	0xbd84b274	-0.0647935
61	0xbda236f3	-0.07920637
62	0x3d4f5eb4	0.050627425
63	0xbd2be919	-0.041970346
64	0x3dc08784	0.094008476
65	0xbd877298	-0.06613654
66	0x3dbc0c02	0.09181978
67	0xbbacd2d2	-0.005274155
68	0x3dbbe9b3	0.09175434
69	0xbd10a618	-0.03531465
70	0x3d226188	0.039643794
71	0xbd7cc681	-0.061712746
72	0xbd89d65a	-0.067303374
73	0xbc551903	-0.013006452
74	0x3d802ef0	0.062589526
75	0x3c45f13c	0.012081441
76	0xbd9492bc	-0.0725455
77	0xba506b9f	-0.0007950607
78	0xbd626a84	-0.055277362
79	0xbdddd9ab	-0.108325325
80	0x3ce3baf4	0.027799107
81	0x3d880686	0.06641869
82	0xbd30a966	-0.0431303
83	0x3d056b6d	0.032573152
84	0xbe02a7c2	-0.12759307
85	0xbddbcd41	-0.107325085
86	0xbd5d8a4e	-0.054086976
87	0x3caea586	0.021319162
88	0xbce571d9	-0.028008388
89	0x3ccd5aaf	0.025067655
90	0xbc0e7657	-0.008695207
91	0x3d16024b	0.03662328
92	0xbddcd28e	-0.107823476
93	0xbd9e6518	-0.07734126
94	0xbd785b1e	-0.06063377
95	0xbd90eee4	-0.07076815
96	0xbc8ed05c	-0.017433338
97	0x3d94ebc3	0.072715305
98	0xbcb93c0a	-0.022611637
99	0xbdba24ec	-0.090890735
100	0x3dc3b5ac	0.095561355
101	0x3d0d6a45	0.034525175
102	0x3ce21df9	0.027602183
103	0x3d877d19	0.06615657
104	0x3db4608d	0.08807478
105	0x3db42130	0.087953925
106	0xbd18fcab	-0.037350338
107	0xbe0c6d98	-0.13713682
108	0xbc9a27b2	-0.018817756
109	0xbccc08f9	-0.024906622
110	0xbd0f7cad	-0.03503101
111	0x3c6cd846	0.0144558605
112	0xbd821a16	-0.06352632
113	0xbde52e1c	-0.11190435
114	0x3ad20dc6	0.0016025833
115	0xbda2c4dd	-0.07947705
116	0xbd82c0b5	-0.06384412
117	0xbd12f139	-0.03587458
118	0x3daef373	0.08542528
119	0xbd99d2d5	-0.07510916
120	0xbcc78516	-0.024355453
121	0xbd5b3bce	-0.05352383
122	0x3cca8866	0.024723243
123	0x3cc3442a	0.023836214
124	0xbd10035a	-0.035159446
125	0x3c3bda2d	0.011465591
126	0x3cd0d251	0.025490912
127	0xbd3c88c1	-0.046028856
128	0x3dcb40a5	0.09924439
129	0x3c100436	0.0087900665
130	0xbc42c44d	-0.011887622
131	0x3dbb79c5	0.09154085
132	0xbdebca0a	-0.11513145
133	0x3d65ae21	0.056074265
134	0x3de3ec8a	0.111291006
135	0x3d915a80	0.0709734
136	0x3bd2ad5a	0.0064293565
137	0xbc8336dc	-0.01601737
138	0x3e14044e	0.14454767
139	0xbd5a00c9	-0.053223405
140	0x3d213e5b	0.039366107
141	0xbc818001	-0.015808107
142	0x3d156051	0.036468808
143	0x3ce747b3	0.028232431
144	0x3d7618a8	0.060082108
145	0xbdb9aaca	-0.090657786
146	0xbd37b66b	-0.0448517
147	0x3a60a962	0.0008570162
148	0xbd1d7b82	-0.038447864
149	0xbd3e14cf	-0.046406563
150	0x3ded862d	0.115978576
151	0xbdc49d8c	-0.09600362
152	0xbd95cf41	-0.07314921
153	0xbdc62679	-0.09675307
154	0x3ddc1415	0.10746018
155	0xbdb638bb	-0.08897539
156	0xbd1f148b	-0.03883795
157	0x3de45f25	0.1115096
158	0xbdb32c54	-0.08748689
159	0xbc3a3cee	-0.011367066
160	0x3db9b938	0.09068531
161	0xbc6f438f	-0.01460351
162	0x3da3da0e	0.08000575
163	0xbdccc29b	-0.099980555
164	0x3da2d066	0.07949905
165	0xbd947c73	-0.07250299
166	0x3de6ec05	0.11275486
167	0xbd19c96e	-0.037545614
168	0x3dcf42e2	0.10120179
169	0xbd4a66b5	-0.049414355
170	0xbe06db58	-0.1316961
171	0xbd4b9b3a	-0.049708582
172	0xbc2adb19	-0.0104282135
173	0xb93ae892	-0.00017824981
174	0xbd2b2c85	-0.041790504
175	0x3db2b828	0.08726531
176	0xbd184b2d	-0.03718107
177	0x3da4de76	0.080502436
178	0xbd7d063a	-0.061773516
179	0x3d7574df	0.05992591
180	0xbdd63240	-0.10458803
181	0xbdc91851	-0.09819091
182	0xbce9290e	-0.02846196
183	0x3d3ccf5d	0.046096195
184	0xbe288142	-0.16455558
185	0xbcb9c5dd	-0.022677356
186	0x3d467138	0.048447818
187	0xbd608c6a	-0.05482141
188	0xbd9c63f1	-0.0763625
189	0x3d06a343	0.032870542
190	0xbca73bd8	-0.020414278
191	0x3c775f7a	0.015098447
192	0x3da9679a	0.082717136
193	0xbd9ee2e4	-0.0775812
194	0xbdf7b430	-0.12094915
195	0x3cd81a5b	0.026379755
196	0xbd6d98ab	-0.058006924
197	0x3c65b9dc	0.014021363
198	0x3d42ed94	0.047589853
199	0x3be138d1	0.006873228
200	0xbde2b38b	-0.11069401
201	0x3d5505fb	0.052007657
202	0x3c0ee1aa	0.008720795
203	0x3b993cc8	0.004676435
204	0x3e0d06bb	0.13772099
205	0x3d0c36da	0.034231998
206	0x3dc2c86c	0.09510884
207	0x3db90075	0.0903329
208	0x3e12fb26	0.14353618
209	0xbe240ec2	-0.16021255
210	0x3c3c4ded	0.011493188
211	0x3c0216dd	0.007940021
212	0x3e1f811f	0.155766
213	0x3d697a49	0.057001386
214	0x3d7660e3	0.060150992
215	0xbdfb48ed	-0.12269769
216	0xbd42eb0e	-0.047587447
217	0xbe09da05	-0.13462074
218	0x3d637d21	0.055539254
219	0xbc8276ea	-0.015925843
220	0xbda0e659	-0.07856435
221	0x3d5431b7	0.051805224
222	0x3c900506	0.01758052
223	0xbc87b2d0	-0.016564757
224	0x3d350862	0.044197448
225	0xbdf57dca	-0.11986883
226	0xbab495d1	-0.0013777559
227	0x3dbb0205	0.091312446
228	0xbd86d25b	-0.06583091
229	0xbd731288	-0.059343845
230	0x3d197a1a	0.03746996
231	0xbc4d8e71	-0.012546168
232	0x3da499f4	0.08037177
233	0xbc131d1a	-0.008979106
234	0x3a017be8	0.0004939423
235	0xbdeefdcb	-0.11669501
236	0xbd05917b	-0.032609444
237	0xbc39a3aa	-0.011330524
238	0xbc3b07b4	-0.011415411
239	0xbd66092b	-0.056161087
240	0xbcce73fb	-0.025201788
241	0xbda67eab	-0.08129629
242	0x3d96025d	0.073246695
243	0xbd4ec1b5	-0.050477702
244	0xbaeec25a	-0.001821588
245	0xbd00697a	-0.03135059
246	0x3d3b8b4b	0.045787137
247	0x3dae0932	0.084978476
248	0xbbe2ba99	-0.006919217
249	0x3d42b4ae	0.04753559
250	0x3b374fae	0.0027971077
251	0x3d5a71d7	0.053331222
252	0x3da53bdb	0.08068057
253	0x3c9ac578	0.018892989
254	0xbbb041e4	-0.0053789485
255	0x3d3b876e	0.045783453

fc2.0.bias f4 [84]
0	0x3dc7310b	0.09726151
1	0xbd9af863	-0.07566907
2	0xbcb0da87	-0.021588577
3	0xbcdc1d5f	-0.026869474
4	0x3d335f80	0.043792248
5	0x3d175bf8	0.036952943
6	0x3c8b3397	0.016992373
7	0xbcfcf059	-0.030876325
8	0x3b4567ab	0.0030121605
9	0xbe08c45d	-0.13356157
10	0xbc920135	-0.017822841
11	0x3d6a80e6	0.057251833
12	0x3d5de52a	0.054173626
13	0xbe16c373	-0.14722995
14	0x3d178649	0.0369933
15	0xbd5004a2	-0.05078567
16	0xbdce7350	-0.10080588
17	0x3bba68c8	0.0056887604
18	0xbd3c165a	-0.045919754
19	0x3d3e0b54	0.046397522
20	0x3d0fc567	0.035100367
21	0xbdfc39cb	-0.12315711
22	0xbe358f74	-0.17730504
23	0x3cbe7f25	0.023253987
24	0x3ca2937f	0.019845722
25	0x3c5da95d	0.013529149
26	0x3c46824f	0.012116029
27	0x3c844f69	0.016151147
28	0x3da827ea	0.08210738
29	0x3d05d71e	0.032675855
30	0x3c78cf7b	0.015186186
31	0xbe03f908	-0.12887967
32	0x3bf6ad1d	0.007527961
33	0x3b915d37	0.004436161
34	0x3e003296	0.12519297
35	0x3d744c6c	0.059643194
36	0x3d352a2f	0.044229683
37	0xbc9b8312	-0.018983398
38	0xbba39bbb	-0.0049929298
39	0xbe037402	-0.12837222
40	0xbd72a39f	-0.059238072
41	0xbcce02d7	-0.025147839
42	0x3d7ca30d	0.061678935
43	0x3d10f80d	0.03539281
44	0x3dd469f1	0.10371769
45	0xbbbe01eb	-0.0057985685
46	0xbcef4afa	-0.029210556
47	0x3ccdd899	0.025127696
48	0x3d4be313	0.0497771
49	0xbda020bc	-0.078187436
50	0xbd6e14f1	-0.05812544
51	0x3d503ba0	0.050838113
52	0x3d723764	0.059134856
53	0x3daa4903	0.08314707
54	0xbda49622	-0.08036448
55	0x3df14f99	0.1178276
56	0x3dc5b24f	0.0965315
57	0x3d3fecc2	0.04685665
58	0xbd16f596	-0.036855303
59	0x3bf24da6	0.0073945103
60	0x3e157a46	0.14597425
61	0xbc365b8e	-0.011130227
62	0xbdf68c65	-0.12038497
63	0x3cdf2f30	0.02724418
64	0xbd7a67b6	-0.061134063
65	0xbd803739	-0.06260533
66	0x3c306b24	0.010767732
67	0xbdba9ede	-0.09112333
68	0x3c8329b9	0.016011106
69	0x3d985c4d	0.0743948
70	0xbdbed753	-0.093184136
71	0x3d701273	0.058611345
72	0xbda0055e	-0.07813524
73	0x3d902cd4	0.070398
74	0xbdf06d77	-0.11739629
75	0x3d949dce	0.07256661
76	0xbbd01d07	-0.0063511166
77	0xbd213256	-0.039354645
78	0x38c924a2	9.59125e-05
79	0xbdae8548	-0.08521515
80	0xbcd9cf0b	-0.026587984
81	0xbd1b7e7e	-0.03796243
82	0x3daee05d	0.08538888
83	0xbcb373c8	-0.021905795

fc3.weight f4 [10, 84]
0	0x3da6de6b	0.081478916
1	0x3d6728a4	0.056435242
2	0xbde87f17	-0.113523655
3	0xbd9720b8	-0.073792875
4	0xbd61533d	-0.055011023
5	0x3e127b2b	0.14304797
6	0xbe094e96	-0.13408884
7	0xbe465e67	-0.19371949
8	0x3e112c29	0.14177002
9	0x3d9003ea	0.070319965
10	0xbe55446d	-0.20826884
11	0xbda6b370	-0.08139694
12	0xbe761e9a	-0.24035111
13	0xbd5c45d8	-0.053777546
14	0x3da4b94e	0.080431566
15	0xbe208c51	-0.15678526
16	0xbe8be17f	-0.27320477
17	0x3e5830b6	0.21112332
18	0x3ceff8da	0.029293466
19	0x3e80ad52	0.25132233
20	0xbd00977e	-0.031394474
21	0xbe3c8124	-0.18408638
22	0xbe5f846a	-0.21827856
23	0x3e2bb40b	0.167679
24	0xbe1d97ba	-0.1538991
25	0x3e18360a	0.14864364
26	0x3d62ea25	0.05539908
27	0x3e1b70e2	0.1517978
28	0x3e45a218	0.19300115
29	0x3ec3a007	0.3820803
30	0x3e8221be	0.25416368
31	0x3d899177	0.06717198
32	0x3c9aaf8f	0.018882541
33	0x3e47ec92	0.19523838
34	0x3e1a7329	0.15082993
35	0xbc1089ed	-0.008821947
36	0xbe74c8b2	-0.23904684
37	0x3d108e84	0.035292163
38	0x3ddc158b	0.107462965
39	0xbe13726c	-0.14399117
40	0x3db12ec6	0.086514995
41	0x3e9604f8	0.29300666
42	0x3d6a8508	0.057255775
43	0x37e4c4f0	2.7271424e-05
44	0x3e033fcd	0.12817307
45	0x3d728e0c	0.059217498
46	0x3de93edb	0.11388942
47	0x3dc3468d	0.09534941
48	0xbdfa5867	-0.12223893
49	0xbddc878d	-0.10768042
50	0xbe1b2495	-0.15150674
51	0x3e021990	0.12705064
52	0xbe03bd65	-0.12865217
53	0x3e33a879	0.17544736
54	0x3e52c035	0.20581134
55	0xbd7dcee5	-0.061964888
56	0x3dff28d7	0.124589615
57	0xbe8f7bbd	-0.28024092
58	0xbd6c24a1	-0.05765212
59	0xbd366cdb	-0.044537406
60	0xbdbc253b	-0.09186789
61	0xbe79e10f	-0.2440226
62	0x3e43e710	0.19131112
63	0xbdd41080	-0.103547096
64	0x3e564f36	0.20928654
65	0xbe5c054c	-0.21486396
66	0xbdbd1630	-0.092327476
67	0xbe1f0d9d	-0.15532537
68	0xbe096c87	-0.13420306
69	0x3dd5a9bd	0.10432766
70	0x3e5f5a62	0.21811822
71	0x3d88806f	0.06665122
72	0xbd195792	-0.03743703
73	0x3e5c35e2	0.2150493
74	0x3c821e9f	0.015883742
75	0x3d9f2ffc	0.07772824
76	0x3dffa640	0.124828815
77	0xbe9ef54b	-0.3104652
78	0xbec9e45d	-0.3943204
79	0xbde68756	-0.11256282
80	0x3e44c7ad	0.19216795
81	0x3dc78ec9	0.09744031
82	0xbdab851b	-0.08374997
83	0xbe0d6e71	-0.13811661
84	0x3d8c7e59	0.068600364
85	0xbdd0eeb8	-0.10201782
86	0x3e8266f0	0.2546916
87	0x3de37d64	0.11107901
88	0x3e05db17	0.13071857
89	0x3c807a59	0.01568334
90	0x3da64b9b	0.08119889
91	0x3ec45ffc	0.3835448
92	0xbe8a0904	-0.26960003
93	0xbca4af60	-0.020103157
94	0x3dbb48f2	0.091447726
95	0x3e6590ff	0.22418593
96	0x3d8768ba	0.06611772
97	0x3e61a8dd	0.22037072
98	0x3e379361	0.17927314
99	0xbd58c43a	-0.05292151
100	0x3d7ab81c	0.061210737
101	0x3e613446	0.21992597
102	0xbd89a9cf	-0.067218415
103	0xbe888c12	-0.26669365
104	0x3eb29aff	0.34883878
105	0x3e4bfe58	0.19921243
106	0x3d1dfb78	0.038569897
107	0xbe09f531	-0.1347244
108	0xbd276368	-0.040866286
109	0x3ea60cbc	0.3243159
110	0x3e6e7f03	0.23290639
111	0x3d3d9ba0	0.046290994
112	0x3e99dc78	0.30051017
113	0x3e260910	0.16214395
114	0x3ccf1433	0.025278186
115	0xbd7d82b5	-0.06189223
116	0xbb59cc12	-0.0033233208
117	0xbd9748eb	-0.07386955
118	0xbe11be99	-0.14232863
119	0xbe809f53	-0.25121555
120	0xbe8df528	-0.27726102
121	0x3e8e556b	0.27799544
122	0x3d461e43	0.048368704
123	0x3e48c680	0.19606972
124	0x3da37e05	0.07983021
125	0x3d845447	0.06461387
126	0x3daa2024	0.083069116
127	0xbe700d83	-0.23442654
128	0xbe02f2de	-0.12787959
129	0x3e41e314	0.1893428
130	0xbe643dc9	-0.22289194
131	0xbded6132	-0.11590804
132	0x3e526a63	0.20548396
133	0x3ddb048c	0.106942266
134	0xbcf89580	-0.030344725
135	0xbe485a7d	-0.19565769
136	0xbe24c48a	-0.16090599
137	0x3b96ef34	0.004606152
138	0x3e35631b	0.17713587
139	0xbe6dd8aa	-0.23227182
140	0xba930913	-0.0011217914
141	0xbdfec2bd	-0.12439487
142	0xbcaa71d6	-0.020806234
143	0x3e147180	0.14496422
144	0x3e59bdde	0.21263835
145	0xbe0d1a7f	-0.13779639
146	0x3e7bc94e	0.2458851
147	0x3e979ad4	0.29610312
148	0xbb77644f	-0.0037748998
149	0x3d5a39df	0.053277846
150	0x3e660e6e	0.22466442
151	0x3e40ce7d	0.18828769
152	0x3d248953	0.040170025
153	0xbe2eeba8	-0.17082083
154	0xbe8ecb91	-0.27889684
155	0x3e4c4ec5	0.19951923
156	0x3dc79843	0.097458385
157	0x3e2e7595	0.17037041
158	0x3e44e1f3	0.19226818
159	0x3e18903d	0.14898773
160	0x3e59d31e	0.21271941
161	0xbddd225d	-0.1079757
162	0xbeb5dd1b	-0.35520253
163	0x3dbc1839	0.091843076
164	0xbe56746d	-0.2094285
165	0x3e72dffa	0.23718253
166	0x3e93c483	0.28860864
167	0xbd94dd58	-0.072687805
168	0xbde1356f	-0.1099652
169	0xbbbca095	-0.0057564476
170	0xbe8c31e1	-0.27381805
171	0xbe361e35	-0.1778496
172	0xbe5f2878	-0.21792781
173	0x3d083be3	0.033260237
174	0x3d8b9ece	0.06817399
175	0xbcdd7a08	-0.027035728
176	0xbddfcbb5	-0.10927526
177	0xbdb260ba	-0.087098554
178	0xbe4faf59	-0.20281734
179	0x3e44be10	0.19213128
180	0x3b8f0302	0.004364372
181	0xbe9006c5	-0.28130165
182	0xbd4b1814	-0.04958351
183	0x3d5eaf50	0.05436641
184	0xbe187513	-0.1488841
185	0x3e2b134e	0.16706583
186	0x3c36d63f	0.011159479
187	0xbd068956	-0.032845818
188	0xbeb02eba	-0.3441065
189	0xbd2c4b18	-0.042063802
190	0xbe2bff6e	-0.16796657
191	0x3d923854	0.0713965
192	0xbd1f63e5	-0.038913626
193	0x3d8634af	0.06553017
194	0x3d5e528a	0.054277934
195	0x3e1e99b5	0.15488322
196	0x3d555166	0.05207958
197	0x3e01ece3	0.12688021
198	0x3c2eb06a	0.010662178
199	0x3e924fdf	0.28576562
200	0xbd974731	-0.073866256
201	0x3c730178	0.014831893
202	0x3dc633ba	0.09677835
203	0x3e1fe668	0.15615237
204	0xbd237e81	-0.039915565
205	0xbdbec921	-0.09315706
206	0xbce1e84a	-0.027576584
207	0x3d7ca73e	0.061682932
208	0x3e509992	0.20371082
209	0xbe1483ca	-0.14503399
210	0xbe73185e	-0.23739764
211	0x3db025be	0.08600949
212	0x3ea415d6	0.3204791
213	0xbc7ddc90	-0.015494481
214	0xbc09a56b	-0.008401255
215	0xbdd67f95	-0.10473553
216	0xbcd3efd2	-0.025871191
217	0x3e1787b4	0.1479786
218	0x3e7b8ee8	0.24566233
219	0xbd5e0b8c	-0.05421023
220	0xbd537a46	-0.05163028
221	0x3e5eb5ba	0.2174901
222	0x3d338fe5	0.0438384
223	0x3c0657ce	0.008199645
224	0x3ea34f2e	0.31896347
225	0x3d24f084	0.040268436
226	0xbcb8e39e	-0.022569474
227	0xbd8a965e	-0.067669615
228	0x3e6a0b9e	0.22855994
229	0x3e832abe	0.25618547
230	0xbd9d87c8	-0.07691914
231	0x3dabc5ab	0.083873115
232	0xbe8ce99b	-0.27521977
233	0x3e37c816	0.1794742
234	0xbe0fd72a	-0.14046922
235	0xbdff6306	-0.12470059
236	0xbc53314f	-0.012890174
237	0x3dd3ca26	0.10341291
238	0x3d0e4508	0.034733802
239	0x3ddd2505	0.107980765
240	0x3da232e9	0.079198666
241	0x3d2b53f1	0.0418281
242	0x3d5f1e50	0.054472268
243	0xbe455b05	-0.19273002
244	0xbcb0b230	-0.021569341
245	0x3e8415f7	0.25798008
246	0xbe4505ef	-0.19240545
247	0x3db029e0	0.08601737
248	0x3e8a7dde	0.27049154
249	0xbebdae3e	-0.37047
250	0x3cc3563c	0.02384483
251	0xbe906f90	-0.28210115
252	0x3d5bef55	0.05369504
253	0xbe0f9ac6	-0.14023885
254	0x3a00d3a3	0.0004914349
255	0x3d159490	0.036518633

fc3.bias f4 [10]
0	0x3e65cade	0.22440669
1	0xbdb71189	-0.089388914
2	0x3d1761e3	0.036958586
3	0x3e889d5c	0.26682556
4	0xbd32be8d	-0.043638755
5	0xbdf2d4f8	-0.11857027
6	0x3c4366a0	0.011926323
7	0xbe6cbf4e	-0.23119852
8	0x3e4d90cc	0.20074767
9	0xbe96b38d	-0.2943386
