checkpoint/LeNet5_relu.ckpt (torch, 251952 bytes, 10 tensors)

conv1.0.weight f4 [6, 3, 5, 5]
00000000: 4a19 86bb 8033 ba3d f13e e4bb fca2 a1bd
00000010: 87af 5c3d 9bd5 7e3e bd07 a83d c5a0 c93e
00000020: 19bd 693e 1b45 bb3e cdb3 c63d 9d73 303e
00000030: 9454 0f3f b334 953e c6a0 1abd 92e6 14bd
00000040: 017f 4fbe f677 c5bd a08d ddbe 07be d9bb
00000050: 441f d9bd 28c4 a4be b0ff 9bbe a3b4 b9be
00000060: fd4b 09be cd5a 02be fc1a efbc cea5 a2bd
00000070: 8d08 69be 464d bfbc f2f7 f6bb 8138 a1bc
00000080: 8b5e 8a3e e1da b5bd a9b6 0b3d cc3a e0bd
00000090: 4a6a 52bd a0f1 063f 0e48 c4bd 92d8 57be
000000a0: ac73 88bc 1741 a4bd a2e2 dbbd 97f7 e3be
000000b0: 83e2 843d ddc0 afbc d201 6e3d ecf7 0dbe
000000c0: 5e3e 97be 44d0 993e c4f8 df3c 5d7c fabd
000000d0: 8119 88be afba c1bd 2189 503d 05b0 7b3c
000000e0: 576d 2fbe 377e e43c ba12 5dbe 8436 0a3e
000000f0: 85ed 323d 50ba 103c edda b73e a47e 16bd
00000100: e303 ec3c 1f39 bcbd 8e99 c03d f7d6 b53d
00000110: e67a b0be ea6d 6f3e 524f 2a3e cfdd bb3d
00000120: f707 053b 8b3e 0a3d bbb2 673e d2c3 883d
00000130: 441b 363c f968 9f3c 7250 d73d 7b07 a13d
00000140: 9160 85bd 97ff 6bbe 6b79 39be f22e 19be
00000150: a3f2 bfbd bcef 4dbe f653 c9be 4480 8bbe
00000160: 87e4 cbbe 3cfe 9fbe c77b 01be ae18 93be
00000170: b51d 6fbe 31e5 4fbe dbac eebd 0af1 17bb
00000180: 205d a23d 4e77 82bd afcc 24bd 8960 b83d
00000190: 2188 e6bc 46d0 f9bd 76b1 73bd 54be a33b
000001a0: a5a0 b7bc 8b3e bf3d 7f22 0bbb 3cf7 583e
000001b0: 848f d13d 971a 303e bece d93d 71e6 dc3d
000001c0: 1e41 bc3d 9f02 623d 1474 253e c8f7 c83c
000001d0: f68e debc 4067 8cbc d8ff ed3d 2e26 23bd
000001e0: d3af 9b3d a77f 243c 482c 5dbd b9df 843d
000001f0: b532 4ebd dfbc 1cbe 349f bbbd 2281 15be
00000200: 7feb e83b 5bc3 90be 139e 4f3d a3b2 da3d
00000210: 7173 803e e3bc 353e bfad b53c 23ee 293e
00000220: 2cae 273e 1972 833e 9a20 9c3e b167 d53d
00000230: 4e97 803c 8f1b 083e 46de 123e 44fa 8c3e
00000240: cb5e 8a3d e8f1 e83b 4c52 eb3d cbbb 9e3c
00000250: 369a dbbc a0ea 0ebe af65 92bd 0cd8 d7bd
00000260: 023d c5bd 64b7 b5bc 7196 a2bd cd69 313d
00000270: c3d0 b1bd 2fcc d1bd 8f6e 0e3d 97e0 8e3d
00000280: 03ed 363d a339 3abc 2d90 acbd 0cdb 14be
00000290: 5b8e c73a b1e4 563e e6a8 b33d 45c1 4f3d
000002a0: 8d6e 85bd 0c03 013e 3bcc 0c3e 9447 bd3d
000002b0: a8ab 163e 3366 c03d 8aed 5b3c 09b4 f4bc
000002c0: bf1d 10bd 6379 59bd 73ab 233d c562 e23c
000002d0: e0f8 7fbd 3ef8 4c3d 4949 463e 80ff 2bbc
000002e0: 10ad b7bd 1362 8ebd a21d 3a3c c34f 213b
000002f0: dc41 333d dffd 13be 3262 29bd 9d06 cabd
00000300: ec12 00be 9e70 3abe 8e8f 3abe abb2 23bc
00000310: 1e16 95bd 6b8d 55be 280c e8bd 885e f9bd
00000320: 9262 24bd f156 1cbc 9919 1a3e c556 643e
00000330: d532 783e d419 ffbc f4ac 563e 6d35 3e3e
00000340: 36e6 7c3e 8ffc 1e3e 6c0f 803d c74f 203e
00000350: 4cd0 603e fddb 7b3e 4799 303e 2685 d1bd
00000360: d028 1cbd fbe8 5e3d ef65 303e 03f9 593d
00000370: 8100 d5bd 8823 99bd a01a 783c 765e 30ba
00000380: 7335 793d 0ff3 a03c f86f 3bbd c61d ccbc
00000390: d5be c4bd f7a5 8c3e 8dd7 053e de5b 6d3e
000003a0: 693a ce3d b84f 98be bcca 6c3d 27e2 a3bc
000003b0: cf50 ee3c c393 533e 3209 61be 4bee 42be
000003c0: 0a91 9bbd c751 8b3d 5172 893e d8b0 f53c
000003d0: 7121 17be 864a 133d fc03 22bd 09cc de3c
000003e0: b2f7 2d3d d0cd c03d 31ba 3abd 367c adbd
000003f0: 7373 bcbe 96cd 9dbe 2ac4 943d 35cd 923c
-0.00409237 0.09091854 -0.006965511 -0.07892415 0.053878333 0.24886172 0.08204601 0.3938047
0.22826041 0.3657616 0.09702263 0.17231603 0.5598843 0.2914177 -0.03775098 -0.0363527
-0.20263292 -0.09642021 -0.43272114 -0.0066449675 -0.106016666 -0.32180905 -0.30468512 -0.36270627
-0.13407893 -0.1272995 -0.029187672 -0.07941781 -0.22757168 -0.023352277 -0.0075368816 -0.019680263
0.27025256 -0.088796385 0.034109745 -0.109487146 -0.051370896 0.5271244 -0.09584056 -0.21078709
-0.01665672 -0.080202274 -0.10736586 -0.44524834 0.06488516 -0.021454269 0.058107205 -0.13864106
-0.2953977 0.30041707 0.0273403 -0.12230752 -0.26581958 -0.09459435 0.050912026 0.015361791
-0.17131554 0.027892215 -0.21589175 0.13497359 0.043683548 0.008833483 0.35909215 -0.036741868
0.028810447 -0.091905825 0.09404288 0.08878892 -0.34468764 0.23381773 0.16631821 0.09173166
0.0020298937 0.033751052 0.22626774 0.06677975 0.011114899 0.019459235 0.105133906 0.07862755
-0.06512559 -0.23046719 -0.18112724 -0.14959314 -0.09372451 -0.20110983 -0.3932187 -0.27246296
-0.3982279 -0.31248653 -0.12644874 -0.28729767 -0.23351176 -0.20302273 -0.11654063 -0.0023184442
0.079279184 -0.06370412 -0.040234264 0.090027876 -0.028141083 -0.12197928 -0.05949541 0.004997054
-0.022415468 0.09338101 -0.0021230278 0.21188062 0.102324516 0.17197643 0.10635136 0.10786141
0.091921076 0.05517828 0.16157562 0.024532214 -0.027167778 -0.017139077 0.11621064 -0.039831333
0.07601895 0.0100402 -0.053997308 0.06487984 -0.050341327 -0.15306424 -0.09161225 -0.14600042
0.0071081514 -0.28274044 0.05068786 0.106786035 0.25088075 0.17747836 0.022177575 0.16594748
0.16375035 0.25672987 0.30493623 0.10420168 0.015697148 0.13291763 0.14342603 0.27534688
0.067563616 0.0071089156 0.11490306 0.019376656 -0.026806932 -0.1395669 -0.07148301 -0.105392545
-0.09630777 -0.022182174 -0.07938851 0.04331379 -0.08682396 -0.10244023 0.034773406 0.06976431
0.044659626 -0.011366281 -0.08425937 -0.14536685 0.001522492 0.20985676 0.08772449 0.050721426
-0.065152265 0.12598819 0.13749783 0.09242168 0.14713919 0.09394493 0.013423333 -0.029871004
-0.035184618 -0.05309428 0.03995843 0.027634988 -0.062493205 0.05004143 0.19363894 -0.010497928
-0.08968556 -0.069523 0.011359604 0.0024614192 0.04376398 -0.14452313 -0.041353412 -0.09864543
-0.12507218 -0.18207023 -0.18218824 -0.009991328 -0.07279609 -0.20854728 -0.113304436 -0.121762335
-0.040133066 -0.009542213 0.15048827 0.22298725 0.24238141 -0.031140245 0.20964414 0.18575068
0.24697194 0.15526031 0.062529415 0.15655433 0.21954459 0.24595638 0.1724597 -0.10230474
-0.03812486 0.054421406 0.17226385 0.05321599 -0.10400487 -0.0747748 0.015143067 -0.0006727943
0.06084199 0.01964715 -0.04576108 -0.02491654 -0.09606711 0.2747037 0.13070507 0.23179576
0.100697346 -0.2974832 0.05781053 -0.020005299 0.029091267 0.20661835 -0.21976164 -0.19036214
-0.075960234 0.06802707 0.2684503 0.029991552 -0.1475885 0.035959743 -0.03955458 0.0271969
0.04247255 0.094142556 -0.045587722 -0.08470957 -0.3680683 -0.30820912 0.07263978 0.017920116

conv1.0.bias f4 [6]
00000000: 8f0b 8fbe a9e4 f33e 8d50 0b3f 5594 1ebd
00000010: 7ec2 f33e d001 393d
-0.27938506 0.4763539 0.54419786 -0.03871568 0.47609323 0.045167744

conv2.0.weight f4 [16, 6, 5, 5]
00000000: d887 e9bc ef1d 0f3e 3f9d eb3d 5528 4c3c
00000010: 358a 1b3e 6b78 c63d ee29 553d 0eeb 4dbd
00000020: 001c 553e b8c8 873e 69c8 7fbd 15f4 aa3d
00000030: 3706 a03e 1015 833e 7c63 8dbd 9108 dc3d
00000040: bd62 053e f7c1 bc3b ef05 22be 6867 b23c
00000050: fda1 da3d 3bfa 86bd e801 ddbc e4ff 84bd
00000060: f2e1 623d 4a15 debd e9cf c83c a952 8bbd
00000070: 842b 433d 7bee 513d d1e1 673c a2d4 0dbd
00000080: 68b1 e33d 4d8d b5bb 1e63 97bd fe1a 5ebd
00000090: 9998 a03d eea3 9f3d 957d dfbc 2fc8 37be
000000a0: b6e9 2f3d 5797 d5bc 288a 47be b92d 64be
000000b0: 9ad8 313d aa83 29be 15bc 1abe cabd a1bd
000000c0: 7aa2 103e 569c a83d 8825 c1bd 1c76 d3bd
000000d0: c3e7 bd3c 573c 673d 6bc4 08bd 0978 02bd
000000e0: f80e 7b3d 35b0 0a3d 4de3 b43c 9dc5 16bc
000000f0: 9af0 59bc 489d 8fbc b853 6b3d b734 8cbd
00000100: 8208 01be 2bfa 0a3e e42c 723d 189c dbbd
00000110: 90f4 47bd 60ff 02bd 87eb 0f3e ec4b b83d
00000120: 1e83 e13d 9604 683c d8e6 193e 610d 6bb8
00000130: 9889 8bbd e814 d0bd 9666 c4bd e845 c2bd
00000140: c0c2 94bc 7206 e7bc 55c5 6ebd 652b d8bd
00000150: 7568 02bd 40a3 203b 3464 f3bd 29fa 0cbe
00000160: 7625 94bd f56c dc3c 08a5 26bd c322 2fbe
00000170: be96 64bd 3a1c 663d 91f8 74bd da67 03bd
00000180: b446 103d 07a3 503d 9e4b a03b 1921 96bd
00000190: 5cd8 bf3d 8f49 323e c7db 523e 1aaa 0f3e
000001a0: 8670 bb3c 0d7f 393d cd27 9f3d 3b8d f33c
000001b0: 1f74 053e aeb3 0f3e 2a31 9e3c ed7f 9cbb
000001c0: 2848 453e 2681 3d3e e90b 19bc f647 523b
000001d0: 5607 613e 7714 333e 9909 98bd c17d c0bd
000001e0: c043 fa3d 0d7b 5e3d 5464 18be 97ba 32be
000001f0: a407 e33d 822b 98bd 6f69 99bd bd6c debd
00000200: 030a 023d 7da3 f73c f337 7d3c 6be1 24bc
00000210: 425e 693d c0d7 50bd a7b8 6bbe dd61 753c
00000220: 0720 1c3c 05e0 1fbe 8238 94be 293e 7e3d
00000230: 2449 b9bc c20e 36be b39b 0cbe 0861 233e
00000240: 0338 693e 36ee 83bd f639 943d 6644 5c3e
00000250: 4ca9 e23d 5d0e 56bc 404f 48bc 9d98 89bd
00000260: e44b c83b 0be4 8fbd e7b8 763d 3e78 aabc
00000270: 9329 7cbd 330f f93a 0964 04bd b47d af3d
00000280: 13aa 4fba f746 2a3d ba4e 8d3d 20bd be3d
00000290: 1213 073d b741 6bbc b672 93bc 0eab 273d
000002a0: e81c 593d 52e1 623d d0b3 093b 8d98 44bc
000002b0: 4b67 1e3d b431 883c 434c 85bc 1f40 e73d
000002c0: ecc8 1e3d 006f 0ebd a857 953d 7076 173e
000002d0: 7eed 2fbd 9dcc 12bd d9c4 97bc ab4c 3e3c
000002e0: acd2 253d 7322 493d 0eca 9abc c932 c6bd
000002f0: 56dc 083d 06c1 033e 4ad1 b53d 0849 8a3d
00000300: 0dd7 533c 29c2 683b 985b a63d d10b 213e
00000310: 4ecd 353e 5daa 513e 2a3d 8f3e b7b8 853e
00000320: 0f1b 823e 74b1 913d 2233 85bc 9e01 32bc
00000330: af93 b93d a747 023e 805f 1ebc 9c6c 1abe
00000340: f59d e2bd c248 83bc a5e0 103e 4808 70bc
00000350: 8966 dabd d629 00bd 1bf6 8cbd 50f6 863d
00000360: e3f8 983b 83ce 87bd 4535 98bb 73e6 55bd
00000370: 7246 963d d2cc 023d b369 1c3c 7861 793d
00000380: d460 d23d bf7d 823d e39e 0c3d 22b1 0ebc
00000390: d208 75bc 799d adbc c225 a23d 9b4d d43c
000003a0: 5e88 07bd b429 36bd be8a 483d c139 063e
000003b0: 1e0a 043e 0fa3 aa3d 739d a83d 9d65 0e3d
000003c0: f8af 153e 91f3 c73d 5f1b 0b3e 6132 003e
000003d0: cde3 cb3d 8d4e 6e3d 97cd af3c 29d5 b23d
000003e0: a912 dc3d b2c0 613d c289 053e 0d54 823d
000003f0: 6f7f b9bd 1368 e0bd 72ac 22bc d670 4c3d
-0.028507158 0.13976263 0.11504602 0.012460788 0.1518944 0.09690937 0.05204194 -0.050272994
0.20811462 0.26520324 -0.062446985 0.08347336 0.31254742 0.25602007 -0.06903741 0.107438214
0.13025947 0.005760427 -0.15822576 0.021777824 0.10675428 -0.065906964 -0.026978448 -0.0649412
0.05539126 -0.10843904 0.024513202 -0.068028755 0.04764892 0.051252823 0.01415296 -0.03462661
0.11117822 -0.005540526 -0.07391952 -0.05422496 0.07841606 0.07794939 -0.027281562 -0.17947458
0.042947493 -0.026073141 -0.19486296 -0.22283067 0.043419458 -0.16554132 -0.1511081 -0.078975275
0.1412448 0.08232944 -0.09430987 -0.10325262 0.023181802 0.05645403 -0.033390444 -0.031852756
0.061293572 0.03385945 0.022081042 -0.009202388 -0.013301993 -0.017531052 0.057452887 -0.06845992
-0.12600902 0.13571994 0.059124842 -0.10723132 -0.048817217 -0.031981826 0.1405469 0.08998856
0.11011337 0.01416125 0.15029466 -5.6040826e-05 -0.06813353 -0.101602376 -0.09589879 -0.0948599
-0.01815927 -0.028201316 -0.05829366 -0.10555152 -0.0318379 0.0024511367 -0.118843466 -0.13767304
-0.072337076 0.026907424 -0.04068473 -0.17103104 -0.05580782 0.056179263 -0.059807364 -0.032081462
0.035223678 0.050936725 0.004891827 -0.073305316 0.09367439 0.17410873 0.20591651 0.14029732
0.022880804 0.04528718 0.07771263 0.02973043 0.13032578 0.14033386 0.019310553 -0.004775992
0.19265807 0.18506297 -0.0093412185 0.003208635 0.21975455 0.17488275 -0.074237056 -0.09398986
0.122199535 0.05431657 -0.14882022 -0.17453991 0.11085442 -0.074301735 -0.07490813 -0.10860584
0.03174783 0.030229324 0.015455234 -0.010063509 0.056974657 -0.050987005 -0.23019658 0.014976946
0.00952912 -0.156128 -0.28949362 0.062071 -0.022617884 -0.17779067 -0.1373127 0.15954983
0.22775273 -0.064419195 0.07237618 0.21510467 0.11067447 -0.013064948 -0.012225926 -0.06718562
0.0061125625 -0.070259176 0.06023493 -0.020809289 -0.061563086 0.0019001722 -0.032321963 0.08568898
-0.00079217664 0.041571584 0.068997815 0.093134165 0.03297717 -0.014358929 -0.017999034 0.040934615
0.053006083 0.055390663 0.0021011718 -0.011999262 0.038672727 0.016625263 -0.016271716 0.11291527
0.038765833 -0.034773827 0.0729211 0.14791274 -0.0429511 -0.035839666 -0.018526481 0.011614959
0.040484115 0.04910512 -0.018895175 -0.09677655 0.033413254 0.12866601 0.08877809 0.06752211
0.01292969 0.003551612 0.08122939 0.15727164 0.17754099 0.20475145 0.27976352 0.2611749
0.2541127 0.071139246 -0.016259734 -0.010864643 0.090613715 0.12722646 -0.009666324 -0.15080494
-0.11065284 -0.016025905 0.14148195 -0.014650412 -0.10664088 -0.031289898 -0.068828784 0.06589949
0.0046683415 -0.06631186 -0.004645022 -0.052221727 0.07337655 0.031933613 0.009546685 0.06088397
0.10272375 0.063716404 0.034331214 -0.008709224 -0.014955716 -0.021193253 0.07917358 0.025915911
-0.033089034 -0.044473365 0.04896044 0.13107969 0.12894484 0.08331882 0.08233156 0.034764875
0.14617908 0.097632535 0.1358466 0.12519218 0.09955559 0.05818038 0.021460338 0.08732063
0.10745747 0.05511541 0.13040832 0.06363688 -0.09057509 -0.109573506 -0.0099288095 0.049912296

conv2.0.bias f4 [16]
00000000: 3edf a7bd c016 cfbe aad2 a23e e797 573e
00000010: 7ca9 17bd 2233 9c3d 8760 973e 60c7 3a3d
00000020: 8d71 833e 0d69 ff3e e1fc 0f3c 8b51 79be
00000030: 1e75 b0be e2ab 17bf 9e90 013e b1c7 8c3c
-0.08196877 -0.40447044 0.3180135 0.2105404 -0.037026867 0.0762694 0.29565832 0.045600295
0.2567257 0.49884835 0.008788318 -0.24347512 -0.34464353 -0.5924665 0.12652823 0.017185064

fc1.0.weight f4 [120, 400]
00000000: 3a72 023d f4f3 12bd bad9 2c3d 43a2 62bc
00000010: 17cd 1c3d b0a7 bbbc c7e6 e9bb c07d 683a
00000020: 92e4 13bc 5e79 79bb a4f7 7e3c 9bc5 20bd
00000030: 0328 53bd d13e 93bc a039 47bb da3c 26bc
00000040: c198 52bd ced7 25bd fd83 20bc 9535 313d
00000050: c2f1 143c 677e 183d bf13 e0bc d752 cd3c
00000060: 9fa9 1f3c 575b 7b3c 8c49 2d3d fdf2 07bd
00000070: 8730 2a3c 7f91 073b 879e a83c e045 b53c
00000080: 09cd ac3c f051 ce3c 9b38 82bc a431 fdbc
00000090: a1ed 8ebc bcec a0bb 13cf 7cbc 708c 743d
000000a0: a136 a3ba 6583 cebb a195 85bc ffb3 99bc
000000b0: a7c7 13bc cc16 9eba 0587 23bd c1a2 ce3c
000000c0: 1afc 7bbd 19b0 f63c ae80 913d 8658 243c
000000d0: 9310 9b3c 20c4 e73c 5b7c 52bb 173f 1c3c
000000e0: fa75 cabc 2315 eb3c 1945 f0bc 60ea 47bc
000000f0: 0522 20bd 5445 49bd 5a7c d2bb 152c 173d
00000100: 0830 463d a8a6 943c 4bf8 913c fe25 d0bc
00000110: 1e7c f43c eb84 9bbc c268 a8b9 80ac b9bd
00000120: 5574 f7bb ca00 9cbd 9f33 92b8 be79 25bc
00000130: 4569 e63c a1cf 493d 63a5 86ba fb06 c4bb
00000140: 7b0e 2f3c 3036 903c fa0e 633c e3d6 22bd
00000150: f445 44bd 966d 0d3c 2348 3ebd dbb8 4dbd
00000160: bea1 6dbd 8352 73bc 015c a3bc ef19 33bc
00000170: 2e54 e0bc 4116 f43b 1e25 a63b ed9d 0dbd
00000180: 436b f53b f03f e1bc 58f8 20bd c05e 98bc
00000190: f6fc 2f3c edb0 903c 3657 053d e9c6 d13c
000001a0: 6fc6 0abd 3119 2abc 8a24 a0bc 905b 123d
000001b0: 75b3 3f3d 8a01 183d e8d3 183d 8bc7 313d
000001c0: fa24 613d a14b 253d 365a debc c9de 26bb
000001d0: 152c 973d 47a6 b8bc 136b ae3c a8a9 443d
000001e0: aceb 53bc e40c 0ebd 8cce bfbc 289e 18bd
000001f0: ab38 3dbd d568 0d3d 6441 27bc 496e 3f3c
00000200: 57b7 ca3c 0316 373d 48f2 613d b6d6 f9bc
00000210: 990e 1fbd 72ae 15bd 9e86 c13c c5fa c7bc
00000220: 3cf2 103d 51ed 98bd 3698 27bd 3b3e 88bc
00000230: 2089 833b 73fd 9dbd 279d 28bd e5f7 92bb
00000240: 74bf 3bbd f61c 1ebc 1d9e 56bd 0e63 a3bd
00000250: e076 90bd 8918 33bd b6aa 3ebc e5e5 283d
00000260: eac7 c53c b53d dd3c ad99 1b3d 0aaa ce3c
00000270: 7ac1 6b3d aae2 90bc e4ab febc 5e27 1c3d
00000280: 768f 3d3d 1bdf 113d 666b 9abc 36b9 2e3d
00000290: 6bc4 f7bc b114 31bd 8647 32bd 1514 08bd
000002a0: 6838 95bc 9bcb acbc 532e 003d 57d7 d9bc
000002b0: 73b5 2d3d 4599 3e3c 2a66 ebba ceb7 1f3d
000002c0: 83c7 52bc 8ea1 533c b16f a1bc c89b 323d
000002d0: c652 253c 80a8 febc 343c a0b9 c96f 11bd
000002e0: 1764 613c 7db2 f23c 5ff3 1a3d b164 e23c
000002f0: 273b 16bd be7f 393c ea64 98bc 1d56 64bb
00000300: 896e 38bd f457 af3c 5456 a5bd d51b c8bc
00000310: ea56 dbbc b32a e2bc cdeb abbc 8187 2bbd
00000320: 6fcd b43c 89e5 553c dc0c 64bc 2cd1 f73c
00000330: efbd 8f3d 0977 2b3d 451c bfbc 8da7 e6bc
00000340: 25ce 2ebd 81c7 823c e70d 723c 90fa b73a
00000350: bbd1 70bc 59ba f93c 51b1 2fbd 9da4 693b
00000360: 6bd9 bc3c aeb9 99bc ff6b 183d 8354 773c
00000370: 7a07 983c f8af 0fbc 4004 9b3d 4f2f 463c
00000380: 918d 893c 330a 99bd 7762 a4bb cc3a 3e3b
00000390: b54e 82bd 7014 35bd d4cd 97bc 5418 0abd
000003a0: 9d70 683c 649d 00bd 29f5 51bd 5b96 51bd
000003b0: b818 bfbc 9cae 17bd 8dfa d5bc 94b4 52bd
000003c0: b958 0c3c be59 dd3c 2a78 85bc 1b5f f83c
000003d0: e995 0cbd de57 b03c dc91 833d 0906 0e3d
000003e0: 886c b2bb d43b ff3c f909 d43d 68c7 c93c
000003f0: b1a6 4e3c a5ee 923d 967d 203d b555 413d
0.031847216 -0.035877183 0.042199828 -0.0138326315 0.038281526 -0.022907108 -0.0071381065 0.0008868836
-0.009026663 -0.0038066725 0.015561972 -0.03925095 -0.05155183 -0.01797429 -0.0030399337 -0.010146344
-0.05141521 -0.04048901 -0.009797093 0.04326399 0.009090843 0.03722992 -0.027353166 0.025063915
0.009745031 0.015341601 0.042306468 -0.033190716 0.010387546 0.0020686088 0.020583404 0.022128046
0.021093862 0.025185555 -0.015896132 -0.03090746 -0.017447295 -0.0049110334 -0.01543023 0.059704244
-0.0012452194 -0.0063022845 -0.0163067 -0.018762587 -0.009019769 -0.0012061237 -0.039923687 0.025224091
-0.06151972 0.030113267 0.07104622 0.010030871 0.018928802 0.028291762 -0.0032117579 0.009536526
-0.024714459 0.028696602 -0.029329823 -0.012201875 -0.039094944 -0.049138382 -0.0064235153 0.036907274
0.04838565 0.018145874 0.01781859 -0.025408741 0.02984434 -0.018984279 -0.00032121508 -0.09066105
-0.0075517097 -0.07617338 -6.971438e-05 -0.010099826 0.028126368 0.049270276 -0.0010272678 -0.0059822774
0.010684605 0.017603964 0.013858551 -0.039755713 -0.047918275 0.008632084 -0.046455514 -0.05022512
-0.058015577 -0.014851215 -0.019941332 -0.010931476 -0.02738389 0.007448942 0.0050703427 -0.034574438
0.0074895932 -0.027496308 -0.03929934 -0.018599868 0.010741463 0.01766249 0.032553874 0.025607543
-0.033880647 -0.010381983 -0.019548673 0.035731852 0.046802003 0.037110843 0.037311465 0.04340319
0.054966904 0.04035533 -0.027142625 -0.002546238 0.07381455 -0.022540225 0.021291291 0.04801336
-0.0129346065 -0.034680262 -0.023413919 -0.037260205 -0.04619662 0.034523804 -0.010208461 0.011684009
0.024745626 0.044698726 0.055162698 -0.03049789 -0.03883228 -0.036543317 0.02362376 -0.024411568
0.035387263 -0.074671395 -0.040916644 -0.016631236 0.0040141493 -0.07714357 -0.041165497 -0.0044851177
-0.04583688 -0.0096504595 -0.052396882 -0.079778776 -0.070539236 -0.04372457 -0.01163738 0.04123487
0.024143178 0.027006963 0.037988354 0.025227565 0.05755756 -0.017686207 -0.031087823 0.03812348
0.046279393 0.03561316 -0.01885004 0.0426571 -0.030245027 -0.043232623 -0.04352524 -0.033222277
-0.018215373 -0.02109318 0.03129418 -0.02659194 0.04240937 0.011633222 -0.0017959524 0.03899365
-0.01286495 0.012916936 -0.019706579 0.043605596 0.0100905355 -0.031086206 -0.00030562433 -0.035506997
0.013756773 0.029626125 0.037829753 0.027635904 -0.036677506 0.01132196 -0.018602807 -0.0034841367
-0.04502729 0.021404244 -0.080731064 -0.024427334 -0.026774842 -0.027608251 -0.020986462 -0.041877273
0.022070615 0.013055214 -0.013919082 0.030251108 0.07018649 0.041861568 -0.02332891 -0.028156066
-0.042677063 0.015964272 0.014773822 0.0014036465 -0.014698441 0.030484365 -0.04289371 0.0035651096
0.023052892 -0.018765297 0.037212368 0.015095833 0.018558253 -0.008769982 0.0756917 0.01209624
0.016791137 -0.074726485 -0.0050166207 0.0029026745 -0.063626684 -0.044208944 -0.018530764 -0.033714607
0.014187005 -0.0314001 -0.051259194 -0.05116878 -0.023327217 -0.037031755 -0.026120448 -0.051441744
0.008566075 0.027020331 -0.01629265 0.030318787 -0.034322653 0.021526273 0.06424305 0.034673724
-0.005445067 0.031156458 0.10353465 0.024631217 0.0126129845 0.07174424 0.039182268 0.047200877

fc1.0.bias f4 [120]
00000000: 178e a6bd 2ad7 74bc c24d b03d ffa1 603c
00000010: 7aa5 743d a890 683c de3e 6a3c 14e0 853d
00000020: 804e ea3c 76ae 2dbd cca1 c23c 1213 01bd
00000030: 21c0 443d c267 4d3c 23e2 8cbc e8d3 75bc
00000040: 2d4e 0fbd caf7 433d 2de1 6e3d 0eca 95bd
00000050: cc8d 95bd 4d35 1cbd 93ca 203d fe62 0dbd
00000060: 1f38 d8bc 8e2a 343d dac3 813c 086c 2dbd
00000070: 86e9 b03c ee38 7cbb 318f 363d 11d4 c03a
00000080: 207f 6ebd bfc8 5e3d 96de 7b3b c3ed 30bc
00000090: d8c8 95bd 771e 433d 86a0 523e 3ba5 d13d
000000a0: adc9 cc3c 9220 813d a375 5ebc 8c04 9bbc
000000b0: f029 7b3d d328 bc3d 5e6d 133d ef1e 86bd
000000c0: e585 3b3d 5eb9 be3d 0816 47bb fe88 10ba
000000d0: fa55 18bc ecf2 12bb b770 dc3c 4a9f debc
000000e0: 1545 a63c e9ff fabc 3c4a 803b ceb6 e8bc
000000f0: 340f db3c ab34 18bd 5c63 c1bd 3822 353d
00000100: 9074 6e3c 4fdb 42bd 49c3 803c ea0c 043d
00000110: 4bb6 08bd a29a 873d 5f1e 95bc 0d56 5b3d
00000120: b073 18bd 337c a9bc 3a95 67bd 4337 b23c
00000130: 9335 973c 2d2d ecbd a336 91ba e7e0 3ebd
00000140: 7adb 07bd 0f45 853b 5b4f 293b f2a2 5ebd
00000150: 2abb df3c 01ce c2bd c500 cd3b 4b85 9f3d
00000160: c319 adbc 1afb 55bc 80a5 3e3d da96 a13c
00000170: 8778 80bc 3f16 1f3d 29fb 30be 7dea 183e
00000180: 2969 123d 2f0c 743d a6bf 0f3c 8be8 c53d
00000190: 7399 37bd 8e15 51bd c008 333d e205 d13d
000001a0: 87bc 0f3d 037c 863d 6738 123b 286b a53c
000001b0: c78c 87bc 00d0 e0bc 9021 fd3c d086 a9bc
000001c0: 730f 963d 9112 8e3c 5b9f 1a3a 090f 01bd
000001d0: fca0 0ebd ea9f 003c 40a4 82bd e475 bbbc
-0.0813257 -0.014943877 0.08608581 0.013710498 0.059728123 0.014194645 0.014297215 0.0653688
0.028601885 -0.042402707 0.023758791 -0.031512327 0.04803479 0.012536945 -0.017197674 -0.015004136
-0.034986664 0.047843732 0.058320213 -0.073139295 -0.07302436 -0.03813677 0.03925569 -0.034518234
-0.026393948 0.043985896 0.01584046 -0.042339355 0.021595728 -0.0038486081 0.04457015 0.0014711638
-0.058226705 0.054390665 0.0038432232 -0.010798874 -0.073136985 0.047636475 0.20569047 0.10236593
0.02499851 0.063050404 -0.0135778515 -0.018923067 0.06131929 0.09187474 0.035992973 -0.06548869
0.04578199 0.093127 -0.0030378122 -0.00055135775 -0.009297842 -0.0022422625 0.026909215 -0.027175564
0.020296613 -0.030639606 0.0039150994 -0.02840748 0.026740648 -0.037159603 -0.094427794 0.044222087
0.014554158 -0.04757243 0.01571812 0.03223888 -0.033376973 0.06621291 -0.018202959 0.05354886
-0.037219703 -0.020689106 -0.056538798 0.021754866 0.018458163 -0.11532054 -0.0011078905 -0.046601202
-0.033168294 0.0040670703 0.0025834653 -0.054354616 0.027310926 -0.095119484 0.0062561953 0.077890955
-0.021130448 -0.013060356 0.04654455 0.019725252 -0.015682472 0.038839575 -0.1728331 0.149332
0.03574482 0.05958193 0.00877372 0.09663495 -0.044824075 -0.051045947 0.043709517 0.102062
0.035091903 0.06566622 0.002231145 0.020192698 -0.01654662 -0.027442932 0.030899793 -0.020694166
0.073271655 0.017342838 0.00058983796 -0.03150848 -0.034821495 0.0078506265 -0.063789845 -0.022883363

fc2.0.weight f4 [84, 120]
00000000: da0d 81bd 3fed 39bc 60df 8f3d 88dd 953c
00000010: 276c 81bc 3791 383d fc1c c0bc 6f47 a2bc
00000020: f4af babd 733b 8abc 148e 843d 30b1 d43d
00000030: 334b ca3c cdf5 033e 474f d63d 875b c33a
00000040: e909 e13d e831 cf3d 8bea aa3c 83b6 c3bd
00000050: 090b c4bc c437 77bc 2c76 13bd d304 d9bd
00000060: e91c 74bd ae75 013d ae91 293d d9ec 8fbd
00000070: a108 a4bd 48fe 7f3c 055a c13c 7a1c ba3d
00000080: 26e8 393d b524 93bc d99f f1bc ff47 0b3d
00000090: bfa9 9a3c 2396 75bc 852c 513d 6e8b cfbd
000000a0: 7c9a 7dbc 6b15 8d3d 5c9b e63d 4899 8bbd
000000b0: d645 233d 39c6 d9bc a657 7a3d 24c4 b6bc
000000c0: 883a efbc 28c0 17bd a572 c9bb 375e 0d3d
000000d0: 2876 af3d 177d aa3d 6b61 703d 7f67 40bd
000000e0: 3a08 7fbd 291e 3cbd 4610 3fbc 0346 a33c
000000f0: 53ea 0c3c 32aa 5e3d b060 a3bd 6f67 b4bd
00000100: 38e0 103c 7e14 3bba 229f 783d fb69 383d
00000110: feb3 b93d 1068 94bd 4d6b 363d 2792 8dbd
00000120: cca8 aebd fe0b 9bbd 5712 0d3d 0aed ddbd
00000130: c765 1ebe c1e0 d63d faea a83d 9065 d63a
00000140: 0646 7c3d ba78 b6bc 6dac f93c 2132 b63d
00000150: 53b4 243d 30c0 a9bc 23ef 5cbd 26a7 10bd
00000160: 9837 46bd f5ae 9fbd a945 c0bc b633 863d
00000170: b1e0 f7bc 0386 85bb 87fc a2bd 85d0 a53d
00000180: ca79 8dbc 0424 67bd 171e cc3c de36 f3b7
00000190: 2835 683c 1e33 b33c 4dfd 06bd 2d9d 173d
000001a0: c61d 4b3d ed76 8a3d 934d d1bd 2728 9fbd
000001b0: a245 82bd 7f81 043e da52 d53c f718 c1bd
000001c0: 861d a6bd fb44 49bd 6d8f a3bd d52b acbd
000001d0: 596c 8f3a 42eb d1bd 62ba 27bc 93ad b03d
000001e0: e65f 9b3d d5db ae3d b416 a0bd bf13 913c
000001f0: baa9 29bd 58f5 3cbd 2c9b 81bd e88c 60bd
00000200: c27e 7c3c a4b3 623d 6c68 10bd a22c afbd
00000210: bce8 893c af26 423d 406b 963c 269e 69bd
00000220: 2c61 93bc 1ba4 5a3c 6c8d 5bbd 41ea 9abb
00000230: 811b c03a f863 9ebd d8b4 8cbd c133 4ebc
00000240: ef13 fb3c 1eb5 ff3c bcab 7b3c bde8 87bd
00000250: 2199 1fbd f512 1f3d 9eda d4bd ab30 833b
00000260: b19b e3bd 65b0 1dbe acdf 7cbc 7670 abbd
00000270: 4d1f 6b3d c04b 933d 55e5 b6bd 4ee4 1b3d
00000280: ba6e 963d 81b2 7f3d 59ad b23d 0ba9 f1bc
00000290: 0a69 0cbc 86d3 1abd 1113 47bd a266 a03d
000002a0: 62e5 a23d bd14 243d b53a 333c 56d8 3abd
000002b0: 8599 5fbd 6a6f c73d c540 293d 51e9 30bd
000002c0: 8cf7 30bd 8c0d 333d 1eac 40bd 880f d33d
000002d0: 06f9 86bd 0003 e13d 05b1 ed3c e93e dc3b
000002e0: ea1f 25bd 679c 96bc 7272 b03d a091 a03d
000002f0: 70ab 05bd 0292 de3d 0165 8d3d 71ae a93d
00000300: 127e d33d d2ba eabc 0aee ad3c a232 52bd
00000310: c82c 24bd b5e7 7abd b2e2 2fbd 7980 7cbc
00000320: 6ad2 103d 2559 8cbd f9bc 8dbd ffd4 c4bd
00000330: 0a76 23ba b0e6 ea3d 893a 90bd 8a23 80bd
00000340: 4762 2c3c 08c9 633c 08fc 9cbc 2f80 103d
00000350: c926 ab3d 8fc4 c63d d57c 9d3d 7076 b03c
00000360: 52a8 80bd d2e9 2abd 3d4c 4f3c d6d2 03be
00000370: 9f59 973d aec3 183e b78d c73d a9a4 0b3d
00000380: bce2 153d 855d 273d cfeb 6bbd 2dad 21bd
00000390: b67f 17bd a9b2 a73d ef87 aebc 7293 9dbd
000003a0: a8b8 c23d 9219 8dbd 1595 88bc e637 43bd
000003b0: 0f7d 99bd 4c92 80bd f724 a03d dd5d 4fbd
000003c0: 4112 d2bd b1bd 213e 7d93 2abc 8fa3 563d
000003d0: 6d5b e2bc 9113 833d 58ef dcba afe9 713c
000003e0: c7ce 4abd e3b6 d8ba 1211 48bd fc92 253c
000003f0: 2e6d 0e3a 3cc3 d2bc 3eb5 883d d936 d63d
-0.0630147 -0.011348068 0.07025027 0.01829411 -0.015798641 0.045060363 -0.02345132 -0.019809453
-0.09115592 -0.01687405 0.06472412 0.10385358 0.02469406 0.12886734 0.1046434 0.0014904597
0.10988218 0.10116941 0.020863792 -0.09556296 -0.023931043 -0.015088979 -0.03600137 -0.10596623
-0.059597883 0.03160637 0.041398697 -0.07027597 -0.08009458 0.01562459 0.023602495 0.09087463
0.04538741 -0.01796184 -0.029495167 0.034004208 0.01887977 -0.014989409 0.051067848 -0.10134016
-0.0154787265 0.06888851 0.11260101 -0.068163455 0.039861523 -0.026583778 0.061118744 -0.022310324
-0.029202715 -0.03704849 -0.0061477 0.03451368 0.085674584 0.0832464 0.058686655 -0.0469737
-0.062263705 -0.0459272 -0.011661595 0.019930845 0.008600789 0.05436153 -0.07977426 -0.08808791
0.00884252 -0.00071365375 0.060698636 0.045022946 0.09067534 -0.07246411 0.044535924 -0.06912642
-0.08528289 -0.07570647 0.03444132 -0.10836227 -0.15468512 0.10492087 0.08247943 0.0016357172
0.061590217 -0.022274364 0.030477727 0.0889628 0.040211033 -0.020721525 -0.053938996 -0.035315655
-0.048392862 -0.07797042 -0.023470717 0.06552832 -0.030258508 -0.0040748133 -0.07958322 0.080964126
-0.017269988 -0.05643083 0.024916692 -2.8993407e-05 0.01417283 0.02187496 -0.03295641 0.03701513
0.04958894 0.067609645 -0.10219874 -0.0777133 -0.06360938 0.12940024 0.026040483 -0.0942859
-0.081111 -0.04913805 -0.07986341 -0.08406798 0.0010942324 -0.1024995 -0.010237308 0.08626857
0.075866506 0.085380234 -0.0781683 0.017709611 -0.04142163 -0.046132416 -0.06328425 -0.05482188
0.015411081 0.0553471 -0.035255834 -0.08553435 0.01683461 0.047400173 0.018361688 -0.057035588
-0.017990671 0.01334479 -0.053601667 -0.0047276323 0.0014656634 -0.07733911 -0.06870431 -0.012585581
0.030649154 0.031214293 0.015360769 -0.06636188 -0.038964394 0.03883644 -0.103932604 0.0040036044
-0.1111368 -0.1539932 -0.015434187 -0.083710596 0.057402898 0.071921825 -0.0893046 0.038059525
0.07345338 0.062426094 0.0872447 -0.029499551 -0.008569965 -0.03779938 -0.048602168 0.07832076
0.079539075 0.04005884 0.01093929 -0.04561647 -0.054589767 0.097380474 0.041321535 -0.043191258
-0.04320483 0.04371409 -0.047039144 0.10305697 -0.06590466 0.109869 0.029015074 0.0067213667
-0.04031364 -0.018385125 0.08615579 0.07840276 -0.0326342 0.108676925 0.069040306 0.08285225
0.103267804 -0.028653536 0.02123167 -0.05131782 -0.04008177 -0.06125613 -0.042940803 -0.01541149
0.035356916 -0.068529405 -0.06920809 -0.09610938 -0.0006235546 0.114697814 -0.07042415 -0.062567785
0.010521478 0.01390291 -0.019163147 0.035278495 0.08357007 0.09705459 0.076898254 0.02154085
-0.062821046 -0.041726895 0.012652454 -0.12873396 0.07390141 0.14918396 0.09743827 0.03409258
0.036593184 0.04086067 -0.05759793 -0.039471794 -0.03698703 0.081883736 -0.021305053 -0.076941386
0.09507877 -0.06889643 -0.01667265 -0.04766073 -0.07494556 -0.06277904 0.078195505 -0.050626624
-0.10257388 0.15795018 -0.0104111405 0.052402075 -0.027631486 0.06400216 -0.0016855998 0.014765187
-0.049513604 -0.0016533997 -0.048844405 0.010105845 0.0005433139 -0.02572786 0.06675194 0.1045968

fc2.0.bias f4 [84]
00000000: ff3a 0ebd e6dc 8cbd 75e5 ea3d 9d0d 25bd
00000010: 740b 583d 4930 8c3b e933 20bd 7068 05be
00000020: 4cc9 6eba bfa8 c43d f186 823c 0801 003e
00000030: 9ca6 313d d46f afbd a2b7 fa3d 4a8e e53d
00000040: 2161 a03d ff7d e83c 4d17 be3d 4d49 08be
00000050: 8a4a 013d a80c a13b 73cf 693d f3f1 cfbc
00000060: f82a 143e 0c87 01bd 1da2 5bbc b8d8 59ba
00000070: 1a6c dbbb aa32 873d 290d 9dbd 46dd 2bbc
00000080: d7c4 c5b9 e818 3a3c 633e 693e b8b7 7c3b
00000090: d815 3f3d 6327 23be 0adf 1c3e abdf 0e3d
000000a0: b42e 2bbe 60eb 2c3e 1966 fd3d 8c50 5abd
000000b0: bbd3 4c3e 21e1 a43c aa57 e83c 4efd 29bc
000000c0: 4569 2a3e 2d85 19be 3093 73bd 0694 bfbc
000000d0: abeb 16bd 5f1e 98bc 5506 263e 466e acbd
000000e0: b23b c3b9 8272 8d3c 651c 05bd 52c6 023e
000000f0: 16f7 a9bd 5012 79bd b3d1 3d3b 05c9 6dbc
00000100: 6587 fcba acbf fe3d 0f50 063d 1df3 acbc
00000110: d32c 1c3e 50c9 bdbd bccf 283e 3a00 ca3b
00000120: c97a e83c d4de 36bd a735 babc 47e3 24be
00000130: e79d 833e 9f7c 7a3c 5913 d73d abac 5ebd
00000140: 57b0 9dbd 7f8a abbd 7138 cc3d 7500 913e
-0.03472423 -0.068780705 0.11469547 -0.040296186 0.052745298 0.004278217 -0.039112005 -0.13028121
-0.0009108975 0.09602498 0.015933486 0.12500393 0.04337178 -0.085662514 0.122420564 0.1120878
0.07831026 0.028380392 0.09281788 -0.13309212 0.031565227 0.004914839 0.057082605 -0.025383925
0.14469516 -0.03162293 -0.01340535 -0.00083101867 -0.0066962363 0.0660146 -0.07668526 -0.010489767
-0.00037721425 0.011358477 0.22777705 0.0038561653 0.04665169 -0.15932994 0.15319458 0.034881275
-0.16717035 0.16886663 0.12372989 -0.05329947 0.20002644 0.020126881 0.028362114 -0.010375334
0.1664172 -0.14992209 -0.05946654 -0.023386013 -0.036845844 -0.01856917 0.16213353 -0.084194705
-0.00037237775 0.017266516 -0.032497782 0.12770966 -0.08299081 -0.06080848 0.0028964102 -0.014513259
-0.0019266425 0.12438902 0.032791194 -0.02111202 0.15251474 -0.09266913 0.16485494 0.006164578
0.028378861 -0.0446461 -0.022730662 -0.16102324 0.25706407 0.015288501 0.10501737 -0.054363888
-0.0769965 -0.083760254 0.09971703 0.2832066

fc3.weight f4 [10, 84]
00000000: 95fc e9bc 0185 083e f90b 0c3e 652e 143e
00000010: 1a4f aabd 75ab 0f3e ca85 2fbd a4b8 f43d
00000020: 9f56 de3b 3679 a63d 92be 57bd 7bfa 9e3c
00000030: 15a9 0f3e e8d9 be3c 5855 db3d 9226 2a3d
00000040: 3090 ec3d 0045 843d 5c3d 1d3e 6928 c0bd
00000050: 47a7 acbd 9d99 cebd 143c 3a3e 7c96 5b3e
00000060: ea40 73be d361 ee3d 8a99 743e a1c8 01be
00000070: 0976 8fbe 304a 8c3c 8081 3c3e 4bcd 8f3e
00000080: 698d 8a3d afa8 90be 0ba3 37bd 51dd a8bb
00000090: bb1a b8bd 2e2b 713e 53c7 4f3e 6109 253e
000000a0: b3d1 b5bd a005 fe3b 0d8f 75be 1e91 5abe
000000b0: e18b 363d 4514 03be 131d 2c3e 5009 6fbe
000000c0: 4756 253e 738f f33c fe70 b3bd 2b41 db3d
000000d0: 5435 213e 5c5c 11bd 2f14 443b 07b2 4c3e
000000e0: 9ca5 b5bc 9ee8 e73a 31c8 073d c93a 3d3d
000000f0: 74c8 dabd a1e7 953d 7c2e 17bd ca5e ccbc
00000100: bb55 a93d 2ee1 02be 0db3 ebbb 9212 e0bc
00000110: 9199 f2bd 2538 5ebd 3795 de3d 9056 2a3e
00000120: 7282 d8bd cf38 8dbc 6090 653e 5312 4bbe
00000130: e154 923d d34c e5bd 2f83 bdbd 6432 46be
00000140: 7b19 69bd 03e2 24bd db61 cdbd 1cf7 b8bc
00000150: 8249 243e 1748 55bb 7119 393e cf1e 0f3e
00000160: c9fc 2f3e 0f63 103e 084c 29be 9b45 2abe
00000170: c43f 373c f18a 7cbe 03e4 ac3b e013 163e
00000180: 361f c3bb 1afd 36bd 1b91 353d 7dd9 0e3c
00000190: 447a cbbd 8bf6 553c 54d8 e8bc a2b4 393e
000001a0: 4943 893d be35 273d 351e 633e 5398 ddbd
000001b0: 275b 563c ae2f ab3d bfd4 2d3d b06a 253a
000001c0: badd e83b 09c9 58be d50e a23d db99 8ebe
000001d0: aacc a8bd 944a ca3b 807b b4bd 0cf1 7e3d
000001e0: 7c2c 1cbc 126d ebbd 5b7b 22be 1cd3 23be
000001f0: f9ed 543e e50d 4e3e 587e dcbc fd89 0cbe
00000200: d035 54be 942d 943e 30a5 113d 11ec c4bd
00000210: 61df dfbd 5c7c 35bd d834 383d 2b2e 023c
00000220: f721 3b3d e710 4f3e 9895 1f3e edc8 ad3d
00000230: 4e6a f73c c3c8 403e a039 3fbd 038a 4abe
00000240: e847 153e ec54 1dbe aa7b 1cbd 3225 5e3e
00000250: a897 06be 46cc 4bbd 58e1 14be 43c1 adbd
00000260: 7f12 39be 0ac8 223c 5308 a2be 8c74 ab3e
00000270: 27b2 adbd b08d 56bd 5d63 7fbc 0ddb f3bd
00000280: 7985 a5be 4152 1dbd 678a a9bd 94c9 56bd
00000290: 4efb 4dbe 2d88 353e a4aa 2abe 5a4c e7bd
000002a0: 4595 9f3d 3cd5 d5bc 049e dc3d 9e61 9e3d
000002b0: 53f2 253e 0a2a 963d af1e be3d 319b 75be
000002c0: 0688 1d3e a16e c139 d36d 3b3e 5b58 2c3e
000002d0: e2cd d0bd d5c4 153d 2c4f 57bd 37a3 b3bd
000002e0: 86d3 113e 5cbd 8d3c 2f4c 2bbe 62b3 2639
000002f0: c805 fdbd b051 1b3e fb56 1abd 7a54 c33d
00000300: 8130 15be 9cf4 9fbd 83cf e83d 1583 6b3c
00000310: e8ab 12be 0e87 143e 9bd4 13bc e7d0 bd3a
00000320: 8d3c 033d a641 ad3d ca4b c83d f19c bebd
00000330: a616 073d 07ec e8bc 2d82 7ebd fbbf 02be
00000340: 5c20 6abd 83c3 993d 5a3a 5c3c e4cd d6bc
00000350: 0036 61bd b644 5ebe 9aed 053e 24ae efbd
00000360: 35e3 6b3e ba7a 9e3d 4a2a 1b3d 9247 68bd
00000370: 1f64 403d 0179 1b3d 3e61 fcba 5c7b 55be
00000380: 76ba f73b 3880 adbd 36e8 9abd 19b4 9e3e
00000390: 5b2b b73d 6489 acbc b213 81bd 6d51 2dbe
000003a0: b035 353e d6ce e13d 6440 1d3e 161e 3e38
000003b0: fedb 1f3e 03c8 21be 57e1 433e 84c6 0fbd
000003c0: 4a7c 803d 8947 afbd f98b 753e f8b5 73be
000003d0: 181b a63d abc5 89bd c662 863e 9036 5bbe
000003e0: 237e 373e b652 7bbd 1ec5 4d3d 650e e03e
000003f0: 6849 77be f80b c1bd 8122 1cbd 02ea bcbc
-0.028562823 0.13331987 0.13676442 0.14470823 -0.08315869 0.1403025 -0.0428522 0.1194928
0.0067852284 0.08128588 -0.052671976 0.019406548 0.14029343 0.023297265 0.107096374 0.04154069
0.11550939 0.06458473 0.15355438 -0.093827076 -0.08430343 -0.10087893 0.1818698 0.21444124
-0.23755231 0.11639752 0.23886696 -0.1267419 -0.2801974 0.01712522 0.18408775 0.28086314
0.06765253 -0.28253695 -0.044833224 -0.005153336 -0.089894734 0.23551628 0.2029088 0.16116859
-0.088778876 0.0077521354 -0.23980351 -0.2134442 0.044566993 -0.12800701 0.16807966 -0.23343396
0.16146193 0.029731488 -0.08761786 0.10705789 0.15743 -0.03548847 0.0029919257 0.19989787
-0.022173695 0.0017693227 0.0331499 0.04619864 -0.10682765 0.0731957 -0.036909565 -0.024947543
0.08268305 -0.12781212 -0.0071929754 -0.027352605 -0.11845697 -0.054252762 0.10868304 0.16634583
-0.105717555 -0.017239003 0.22418356 -0.19831209 0.071450956 -0.11196294 -0.09253537 -0.1935516
-0.056909066 -0.040254604 -0.1002843 -0.022578768 0.16043666 -0.003254419 0.18076111 0.13976596
0.17186274 0.14100288 -0.1653291 -0.16628115 0.0111846365 -0.24662377 0.0052762046 0.14656019
-0.0059546484 -0.04467497 0.044327836 0.008718845 -0.0993543 0.013059269 -0.028423466 0.18135312
0.06702287 0.040822737 0.22179492 -0.10820069 0.013083256 0.083587036 0.04243922 0.0006310148
0.00710651 -0.21170439 0.07912985 -0.27851757 -0.082421616 0.006173441 -0.08812618 0.0622416
-0.00953209 -0.11495413 -0.15867369 -0.159985 0.20793904 0.20122488 -0.026915714 -0.13724513
-0.20723653 0.28941023 0.035557926 -0.096153386 -0.10931278 -0.04430805 0.04497227 0.007945578
0.04568669 0.20221291 0.15584409 0.08485589 0.030202057 0.18826585 -0.046685815 -0.1977921
0.14578211 -0.15364426 -0.038203873 0.21693876 -0.1314379 -0.049755357 -0.14539087 -0.08484127
-0.18073462 0.009935388 -0.31646976 0.33487356 -0.084812455 -0.052381217 -0.015587655 -0.11907015
-0.32328394 -0.03840852 -0.08278351 -0.052438334 -0.20115396 0.17727728 -0.16666657 -0.1129386
0.07792143 -0.026102655 0.107723266 0.07733463 0.1620572 0.07332237 0.09283196 -0.23984982
0.1538392 0.00036894254 0.18303613 0.1683058 -0.10195519 0.036564667 -0.05256574 -0.08771365
0.14240846 0.017302208 -0.1672828 0.00015897819 -0.12354618 0.1516788 -0.037680607 0.09537597
-0.14569284 -0.078103274 0.11367705 0.014374514 -0.1432339 0.14504644 -0.009022857 0.0014481813
0.032040168 0.08459787 0.097800806 -0.09307278 0.032980584 -0.02843286 -0.062135864 -0.12768547
-0.057159767 0.07507994 0.0134416465 -0.026221223 -0.05498314 -0.21705899 0.13078919 -0.117031366
0.23035891 0.07738252 0.037882127 -0.05670888 0.046970483 0.037957195 -0.0019255055 -0.20847839
0.0075600697 -0.084717214 -0.07563822 0.3099678 0.08943816 -0.021061607 -0.06302585 -0.16925593
0.17696261 0.11025779 0.15356594 4.532755e-05 0.15611264 -0.15798955 0.19128929 -0.03510143
0.06273706 -0.08558566 0.23979177 -0.23799884 0.081106365 -0.06727155 0.26247233 -0.21407533
0.17919211 -0.061358176 0.050236814 0.43760982 -0.24149096 -0.09426111 -0.038118843 -0.023060802

fc3.bias f4 [10]
00000000: 3c37 7ebd 9b86 a6be 8351 8d3e af58 703e
00000010: dba0 ec3e 4ce8 d0bd 3ffc d3bc 9354 9ebe
00000020: ff2e 9b3e 3446 c6be
-0.062064394 -0.3252457 0.2760125 0.2347133 0.46216473 -0.10200557 -0.025877116 -0.309239
0.30309293 -0.38725436
