checkpoint/LeNet5_relu6.ckpt (torch, 252501 bytes, 10 tensors)

conv1.0.weight f4 [6, 3, 5, 5]
0	0x3e4fc934	0.20291597
1	0x3e14b991	0.14523913
2	0x3e6a408a	0.22876182
3	0x3e989dee	0.2980799
4	0x3e7cfe49	0.24706377
5	0x3dc432e3	0.09580018
6	0x3eee69e2	0.46565157
7	0x3ebc055e	0.36722845
8	0x3e8ffbc0	0.28121758
9	0xbd88ad69	-0.066737
10	0xbdacbe50	-0.08434737
11	0x3c85a30b	0.016313097
12	0xbcd73818	-0.026271865
13	0xbe0c87de	-0.13723704
14	0xbdddfbae	-0.1083902
15	0xbd42019f	-0.047364827
16	0xbebd32b8	-0.36952758
17	0xbea002ef	-0.31252238
18	0xbd24fdf8	-0.040281266
19	0x3e34157d	0.17586322
20	0xbd26b3e0	-0.040698886
21	0xbc3731eb	-0.011181335
22	0x3cfe97a6	0.031078171
23	0xbd2cee4c	-0.042219445
24	0xbde5cca9	-0.112206765
25	0x3d83df8d	0.06439123
26	0xbd883b33	-0.06651916
27	0xbd5e75ec	-0.054311678
28	0xbcb89879	-0.022533642
29	0xbdb5efc8	-0.08883625
30	0xbd344da1	-0.044019345
31	0x3ebf1526	0.37320822
32	0x3e409a6e	0.1880891
33	0x3da5caff	0.08095359
34	0xbe9047fd	-0.28179923
35	0xbe8ba8db	-0.27277264
36	0xbea5e146	-0.32398432
37	0xbec9096d	-0.39265004
38	0xbd973de6	-0.07384853
39	0x3c683821	0.014173538
40	0xbe3f7426	-0.18696651
41	0xbeee660c	-0.4656223
42	0xbea4a65e	-0.32158178
43	0xbd0217fa	-0.031761147
44	0x3e536c3f	0.20646761
45	0x3daea8fe	0.085283265
46	0xbd2daaf9	-0.04239938
47	0x3c88c80c	0.016696952
48	0xbe51bf4e	-0.20483133
49	0xbd609ff3	-0.05484004
50	0xbd3cbf9b	-0.046081167
51	0xbdcd7653	-0.10032334
52	0xbd6f5880	-0.05843401
53	0xbd9c06da	-0.07618494
54	0xbcde649b	-0.027147582
55	0xbda92c6a	-0.082604244
56	0x3ebcef5b	0.36901364
57	0x3e57c9de	0.210731
58	0x3e13db84	0.14439207
59	0xbe5e44fd	-0.21706004
60	0x3cda62b2	0.02665839
61	0xbe134106	-0.14380273
62	0xbda80d3e	-0.08205651
63	0xbd2ce6e9	-0.0422124
64	0x3e250af0	0.16117454
65	0x3e109797	0.14120327
66	0xbe78d5ec	-0.24300355
67	0xbe83d176	-0.25745744
68	0x3d315847	0.04329708
69	0x3e3792bc	0.17927068
70	0x3e1bbb12	0.1520808
71	0x3ead2f2b	0.3382505
72	0x3e48d74c	0.19613379
73	0xbcd64f93	-0.02616099
74	0xbe1c44a0	-0.15260553
75	0x3d949e6b	0.07256778
76	0x3d8a4a07	0.06752401
77	0x3e7ce6ae	0.24697372
78	0x3e268465	0.16261442
79	0xbd15235a	-0.036410667
80	0x3e28b1bf	0.16474055
81	0xbe03a31d	-0.12855192
82	0x3e5582e5	0.20850714
83	0x3eb41165	0.3516952
84	0xbd45bbcd	-0.048274804
85	0x3e47af9b	0.19500582
86	0xbeb02eb9	-0.34410647
87	0x3d8d905b	0.06912299
88	0x3ec33029	0.3812268
89	0xbd3705af	-0.044683155
90	0x3e31e83f	0.17373751
91	0xbe6ace51	-0.22930266
92	0x3d9f90ca	0.07791288
93	0x3e67a523	0.22621588
94	0x3d2a4e52	0.0415786
95	0x3dd05bf5	0.101737894
96	0xbe510fa9	-0.2041613
97	0xbe075652	-0.13216522
98	0x3da7ebe6	0.08199291
99	0xbd582f43	-0.052779447
100	0xbc062194	-0.008186717
101	0xbe5efd60	-0.21776342
102	0xbdbfc34e	-0.09363423
103	0xbd716203	-0.058931362
104	0x3d80e2c4	0.06293252
105	0xbdf00094	-0.1171886
106	0xbee2d853	-0.44305667
107	0xbe498b54	-0.19682056
108	0x3e4d4ff6	0.20050034
109	0xbb74f7df	-0.0037379188
110	0x3d459cb5	0.04824515
111	0xbf117144	-0.56813455
112	0xbe29257a	-0.16518202
113	0x3e4d0499	0.20021285
114	0xbc86f8cc	-0.016476057
115	0x3c270faa	0.010196606
116	0xbf0daabc	-0.55338645
117	0xbe8108d1	-0.2520204
118	0x3e6fec91	0.23430087
119	0xbd7d127d	-0.06178521
120	0x3d8e9b3c	0.06963202
121	0xbe87f2a1	-0.265523
122	0xbea8c462	-0.32962328
123	0x3da945d6	0.08265273
124	0x3debcd7f	0.11513805
125	0xbdcf91b3	-0.10135212
126	0xbdfa8c75	-0.12233821
127	0x3d565eed	0.052336622
128	0x3e2fdd31	0.17174222
129	0xbb8be607	-0.0042693648
130	0x3e005516	0.12532458
131	0xbe9c68c2	-0.30548674
132	0x3d9508c6	0.07277064
133	0x3e69b582	0.22823146
134	0xbd07debd	-0.033171404
135	0x3e19ab2d	0.15006705
136	0xbeaf0284	-0.34181607
137	0xbd5dcd4e	-0.054150872
138	0x3ed1a9c2	0.40949827
139	0x3c359e92	0.011085169
140	0x3e855033	0.2603775
141	0xbed13345	-0.40859428
142	0xbe3e8e8e	-0.18609068
143	0x3eb05684	0.34441006
144	0x3cfe983d	0.031078452
145	0x3e606cbf	0.21916483
146	0xbe1021fa	-0.14075461
147	0xbb94f3de	-0.004545673
148	0x3e3787d9	0.17922916
149	0x3d0757a3	0.03304256
150	0x3e09da86	0.13462266
151	0x3e378e31	0.17925335
152	0xbeb89f2b	-0.36058936
153	0x3e1827e7	0.14858972
154	0xbdc9de51	-0.098568566
155	0x3ec44da8	0.38340497
156	0x3d1ffad2	0.03905756
157	0xbf3dde7a	-0.741676
158	0x3c968e12	0.018378291
159	0x3e84b3f0	0.2591853
160	0x3d27ec22	0.04099668
161	0xbe49bb7b	-0.19700424
162	0x3ce1e5fd	0.027575487
163	0x3d90e739	0.07075352
164	0xbda2c42e	-0.079475746
165	0xbd7937a2	-0.06084407
166	0xbe81597e	-0.2526359
167	0x3e892ed0	0.26793528
168	0x3d779c45	0.060451765
169	0xbe3d813a	-0.18506327
170	0xbd07c972	-0.033151098
171	0x3e3080ab	0.17236583
172	0xbd5d6ad3	-0.054056954
173	0xbd8022ce	-0.062566385
174	0x3d87a7b0	0.06623781
175	0x3d85c557	0.0653178
176	0x3e109c69	0.14122166
177	0xbecac372	-0.39602238
178	0x3e59ed2f	0.21281885
179	0xbaed5ed4	-0.0018109926
180	0x3ee8ed21	0.45493415
181	0x3e1245fd	0.14284511
182	0xbf238338	-0.638721
183	0x3d467807	0.04845431
184	0x3ec997d4	0.39373648
185	0x3dd74093	0.105103634
186	0xbeac9b53	-0.33712253
187	0xbc1da5e2	-0.009622069
188	0x3e30c146	0.17261228
189	0xbd4c30c5	-0.049851198
190	0xbe145f3c	-0.14489454
191	0xbe1c3d72	-0.15257815
192	0x3ec479de	0.38374227
193	0x3dc5e33c	0.09662482
194	0xbe4ae484	-0.19813734
195	0xbda1a04a	-0.07891901
196	0x3e019cd4	0.12657481
197	0xbdf6c46f	-0.120491855
198	0xbe124f30	-0.1428802
199	0x3d984028	0.07434112
200	0x3e1de58c	0.15419596
201	0x3e2c766b	0.16842048
202	0xbe9503d5	-0.29104486
203	0x3e010313	0.12598829
204	0xbdd311ed	-0.103061534
205	0x3e7eceb4	0.24883538
206	0x3e456f5d	0.19280763
207	0xbf305c2e	-0.68890655
208	0x3c25cbfc	0.010119434
209	0x3ddfbc54	0.109245926
210	0xbd343a9b	-0.044001203
211	0xbdc24fcf	-0.094878785
212	0x3e55a7d2	0.208648
213	0x3d3fd11b	0.046830278
214	0xbd4a98fa	-0.049462296
215	0xbd830f9f	-0.06399464
216	0xbe3bbb0c	-0.18333071
217	0x3eec3102	0.4613114
218	0x3d2ab243	0.04167391
219	0xbeb4718e	-0.35242885
220	0xbdccf8b9	-0.100083776
221	0x3e0d7a77	0.13816248
222	0x3d002acc	0.031290814
223	0xbd7b3bbe	-0.06133627
224	0x3db264fe	0.08710669
225	0x3e000b1d	0.1250424
226	0xbd8422ae	-0.06451927
227	0xbd425781	-0.04744673
228	0xbd6b8fd9	-0.05751023
229	0xbac4f087	-0.0015025296
230	0xbe10054a	-0.14064518
231	0xbe2438da	-0.16037312
232	0x3dd756a6	0.10514574
233	0x3e7dd752	0.2478917
234	0xbbe31a00	-0.0069305897
235	0xbddf64b0	-0.109078765
236	0x3d3982a5	0.045290608
237	0x3dfc866b	0.12330326
238	0x3e27a880	0.16372871
239	0x3e21bb4d	0.15794106
240	0x3dca8967	0.09889489
241	0x3ca23d84	0.019804724
242	0x3d848c88	0.06472117
243	0x3d4281d7	0.047487106
244	0xb9207c19	-0.00015305019
245	0x3d10779c	0.03527032
246	0xbcba84ad	-0.022768343
247	0xbda6a369	-0.08136637
248	0xbd4e4aa4	-0.05036415
249	0x3e16a296	0.14710459
250	0x3e71b2ac	0.23603314
251	0xbd963b62	-0.07335545
252	0xbe1c2a02	-0.152504
253	0xbda2f43a	-0.07956739
254	0x3b117af5	0.0022198532
255	0xbe00cd04	-0.12578207

conv1.0.bias f4 [6]
0	0x3de794c6	0.11307673
1	0x3e614a18	0.22000921
2	0x3ce26c7b	0.027639618
3	0x3f7ef405	0.99591094
4	0x3f0d83fa	0.55279505
5	0x3e874ae6	0.2642433

conv2.0.weight f4 [16, 6, 5, 5]
0	0x3dade2ab	0.08490499
1	0x3daa172f	0.08305203
2	0x3d60f412	0.054920264
3	0x3d4321f5	0.047639806
4	0x3dcb100c	0.0991517
5	0x3e13bf87	0.1442853
6	0x3ded3ec9	0.11584241
7	0x3e04bff0	0.12963843
8	0x3da1e428	0.079048455
9	0x3de7f556	0.11326091
10	0x3e8debdd	0.27719012
11	0x3e383097	0.17987286
12	0x3e4ea651	0.20180632
13	0x3dc010f1	0.09378231
14	0x3de855a3	0.11344459
15	0x3d59f2d7	0.053210106
16	0x3e249c6b	0.16075294
17	0x3e86de0e	0.2634129
18	0x3dbf18bf	0.09330892
19	0x3de6a2d4	0.11261526
20	0xbd4886a3	-0.048956525
21	0x3dc938c2	0.09825279
22	0x3d7a4773	0.061103296
23	0x3de96a91	0.11397279
24	0x3d6985f8	0.05701253
25	0xbd5ceca6	-0.053936623
26	0xbc25ef23	-0.010127815
27	0x3a458848	0.0007535261
28	0x3d768fd9	0.060195778
29	0x3dcde71c	0.10053846
30	0xbd605568	-0.05476895
31	0xbd92733a	-0.07150884
32	0xbc323f2e	-0.010879321
33	0xbc13128c	-0.00897659
34	0xbd123d7b	-0.035703164
35	0x3d69482a	0.056953587
36	0x3c762b4c	0.015024971
37	0xbb62b132	-0.003459048
38	0xbdc5ae8c	-0.09652433
39	0xbd242ef3	-0.040083837
40	0xbd80d0b5	-0.06289808
41	0xbd552add	-0.05204283
42	0xbd96789d	-0.07347224
43	0xbdcbf53a	-0.09958883
44	0xbdae2136	-0.08502428
45	0xbc557173	-0.013027537
46	0xbdc13ced	-0.09435449
47	0xbdc3de6c	-0.09563908
48	0xbdbd5a7c	-0.09245774
49	0xbd7d39c2	-0.06182266
50	0x3d1008fc	0.03516482
51	0xbd53f0e8	-0.051743418
52	0xbd96732a	-0.073461846
53	0xbd79fd3c	-0.06103252
54	0xbd6be4dd	-0.057591308
55	0xbcf4aaed	-0.02986666
56	0xbe187d99	-0.14891662
57	0xbdb4c893	-0.08827319
58	0xbd989b11	-0.074514516
59	0xbd5018fc	-0.050805077
60	0xbddd8c84	-0.10817817
61	0xbe7945ad	-0.24342985
62	0xbe4004d1	-0.18751837
63	0xbde04375	-0.109503664
64	0xbde465b2	-0.11152209
65	0xbc8e8fae	-0.017402496
66	0xbddbdba3	-0.10735252
67	0xbe473f78	-0.19457805
68	0xbe3680be	-0.17822549
69	0xbe0fff54	-0.14062244
70	0xbd72b053	-0.059250187
71	0xbe016e75	-0.12639792
72	0xbe3e670e	-0.18594
73	0xbe4a07bd	-0.19729514
74	0xbe40ca41	-0.18827154
75	0xbe38ce0e	-0.18047354
76	0xbe4c6cb9	-0.1996335
77	0xbe215c8a	-0.15757957
78	0xbd92be04	-0.07165149
79	0xbda9550b	-0.08268174
80	0xbc61f1bf	-0.013790547
81	0xbde6cfdf	-0.11270117
82	0xbd898965	-0.06715659
83	0xbdc489ca	-0.09596594
84	0xb9314228	-0.0001690468
85	0x3d1a24ac	0.03763263
86	0xbca5c170	-0.02023384
87	0xbd1d1d8f	-0.038358267
88	0x3cfab475	0.030603627
89	0x3c8a2a3e	0.016865846
90	0x3df88ff3	0.12136831
91	0x3d078a4a	0.033090867
92	0x3d79e6b7	0.061011042
93	0x3b8a0ee7	0.0042132023
94	0x3df88161	0.12134052
95	0xbd18cb91	-0.03730351
96	0x3b86d7fb	0.0041151023
97	0x3d49ddf5	0.04928394
98	0x3d5124d0	0.051060498
99	0x3e4b5f7e	0.19860646
100	0x3d40a3cb	0.047031205
101	0xbd20241a	-0.03909693
102	0x3d8ca793	0.068679
103	0x39ce19c8	0.0003931059
104	0xbd4bffa8	-0.04980436
105	0xbbebfc0b	-0.0072016767
106	0x3ba2599c	0.00495453
107	0xbdfd3eff	-0.12365531
108	0xbc1c18dc	-0.009527411
109	0xbddd1127	-0.10794287
110	0xbc0257e8	-0.007955529
111	0x3e14fee6	0.14550361
112	0x3e1319ae	0.14365265
113	0x3e333c02	0.1750336
114	0x3cdea987	0.027180446
115	0xbd457002	-0.048202522
116	0x3d0399fe	0.03212928
117	0x3ad4140e	0.0016180293
118	0x3cff749d	0.031183535
119	0xbde730b9	-0.1128859
120	0xbbb58734	-0.005539799
121	0xbc83df24	-0.016097613
122	0x3be64011	0.0070266803
123	0xbd592957	-0.05301794
124	0xbccdc29d	-0.025117213
125	0x3e06a545	0.13148983
126	0x3e3de7b2	0.18545416
127	0x3e2c031d	0.16798063
128	0x3e249799	0.16073455
129	0x3cf0607c	0.029342882
130	0x3dc1ddbb	0.0946612
131	0x3dcf972a	0.10136254
132	0x3e139842	0.1441355
133	0x3e0160f4	0.12634641
134	0x3df384d6	0.11890571
135	0x3e023252	0.12714508
136	0x3da181ad	0.07886062
137	0x3e0265b6	0.12734112
138	0x3de55ad8	0.11198968
139	0x3da52ce6	0.08065204
140	0x3e1e0dbe	0.1543493
141	0x3d8e0fe3	0.06936624
142	0x3df8e86f	0.12153708
143	0x3df87437	0.12131541
144	0x3dab1cde	0.08355115
145	0x3bfc6052	0.007701912
146	0x3cfac0ac	0.030609451
147	0xbd95a049	-0.073059626
148	0xbd755c34	-0.059902385
149	0xbd3e254d	-0.04642229
150	0x3dcf7113	0.10128989
151	0x3d207d60	0.039182067
152	0xbce5e40f	-0.028062848
153	0x3c847c72	0.016172621
154	0x3ce45a6a	0.027875144
155	0x3de906c7	0.11378246
156	0x3d03c882	0.03217364
157	0x3aee4bcf	0.0018180552
158	0xbc54b584	-0.01298273
159	0x3c78b62f	0.015180155
160	0x3dc41213	0.0957376
161	0x3d169d41	0.036771063
162	0x3c5f4feb	0.013629894
163	0xbd552076	-0.05203291
164	0x3d97bc4e	0.07408963
165	0x3d896813	0.06709304
166	0x3c11fd08	0.008910425
167	0x3d9dfaf0	0.07713878
168	0xbdbdc852	-0.09266724
169	0x3cb0e96e	0.021595683
170	0x3ddd09a7	0.10792857
171	0x3d304786	0.04303696
172	0xbc0e0076	-0.008667102
173	0xbcc1f066	-0.023674201
174	0xbcd4f625	-0.025996277
175	0xbdf5476e	-0.11976515
176	0xbdec9e6c	-0.11553654
177	0x3d905ee3	0.07049348
178	0x3c1f1ce9	0.009711483
179	0x3ddd8e32	0.10818137
180	0xbe60546c	-0.21907204
181	0xbe3fbff3	-0.18725567
182	0xbd809584	-0.06278518
183	0x3dacf7af	0.084456794
184	0x3d83ee41	0.06441928
185	0xbe52e959	-0.20596828
186	0xbe4ffb94	-0.20310813
187	0x3b641085	0.0034799885
188	0x3dbf6bf3	0.093467616
189	0x3d526dd0	0.051374257
190	0xbe1fcf57	-0.15606438
191	0xbe5310ec	-0.20611924
192	0xbddf5a3c	-0.10905883
193	0x3d4c6f1b	0.049910646
194	0x3d81b7f3	0.06333914
195	0xbe147868	-0.14499056
196	0xbe2ab145	-0.16669185
197	0x3c4d72ae	0.012539549
198	0x3dc4cc74	0.09609309
199	0x3d828305	0.06372646
200	0xbe0f95b9	-0.14021958
201	0xbd7ab471	-0.06120724
202	0x3d043a08	0.032281905
203	0x3d59d634	0.053182796
204	0x3d6a9b7f	0.0572772
205	0xbe7a3872	-0.24435595
206	0xbe224b7e	-0.1584911
207	0x3d8fe7cd	0.07026634
208	0x3df576af	0.11985528
209	0x3e0403e2	0.12892106
210	0xbe784e61	-0.24248649
211	0xbe922c96	-0.2854964
212	0x3e22e915	0.15909226
213	0x3e553797	0.20821987
214	0x3e401764	0.18758923
215	0xbe9c062c	-0.3047346
216	0xbe9eafec	-0.30993593
217	0x3c408da1	0.011752517
218	0x3e48047a	0.19532958
219	0x3e016793	0.12637167
220	0xbe3b6c3a	-0.18303004
221	0xbe38491e	-0.17996642
222	0x3d97dc17	0.07415026
223	0x3e52a493	0.20570593
224	0x3e288680	0.16457558
225	0xbdc83341	-0.09775401
226	0xbd037cc2	-0.0321014
227	0x3dba4cd3	0.09096684
228	0x3b329de7	0.0027254762
229	0x3bd05b04	0.006358506
230	0xbdef5b24	-0.116873056
231	0xbd8edb63	-0.069754384
232	0x3d667fd4	0.05627425
233	0xbd0db862	-0.03459967
234	0xbd2c573a	-0.042075373
235	0xbd931fc6	-0.07183795
236	0x3db7b626	0.08970289
237	0x3dded237	0.10879939
238	0xbce43494	-0.027857102
239	0xbd8076a3	-0.06272628
240	0xbe02101a	-0.12701455
241	0x3b8bdc7d	0.0042682276
242	0x3d8fbc90	0.07018387
243	0x3deb0ade	0.11476682
244	0x394ecc5b	0.00019721819
245	0xbe5067d5	-0.20352109
246	0x3d0747bb	0.033027392
247	0x3dffc6a3	0.12489059
248	0xbbec70fb	-0.0072156168
249	0xbc8b8cf1	-0.01703498
250	0xbcabcf80	-0.020972967
251	0xbd04dc87	-0.032436874
252	0x3d412560	0.047154784
253	0x3e24c241	0.16089727
254	0x3d97b03d	0.07406662
255	0xbd4db030	-0.050216854

conv2.0.bias f4 [16]
0	0xbe181ec2	-0.14855483
1	0x3e16f7f2	0.14743021
2	0x3d468c98	0.048473924
3	0x3d3506f6	0.04419609
4	0xbd499f91	-0.04922444
5	0x3d37fb36	0.044917308
6	0x3c90d078	0.01767753
7	0xbe0a8c39	-0.13530053
8	0x3d0892c3	0.033343088
9	0xbc941042	-0.018074159
10	0x3d01f050	0.03172332
11	0xbe862aaa	-0.26204425
12	0xbe68f06f	-0.22747968
13	0x3ddba529	0.10724861
14	0x3dbab39a	0.091162875
15	0x3e3b6d7c	0.18303484

fc1.0.weight f4 [120, 400]
0	0x3c1651a3	0.009174737
1	0xbc6063e3	-0.01369569
2	0xbba8f0ea	-0.0051556723
3	0xba9e85ff	-0.0012094377
4	0x3d07bdd8	0.033140033
5	0xbb823c02	-0.0039744386
6	0xbd10463c	-0.03522323
7	0xbb3d26f7	-0.0028862336
8	0x3d8db5c0	0.06919432
9	0x3ca7106a	0.020393569
10	0x3d540945	0.051766653
11	0x3d51024c	0.05102758
12	0x3c83753a	0.016047109
13	0x3d77c033	0.06048603
14	0x3dbfc3e5	0.09363536
15	0x3d89ad4d	0.067225076
16	0x3cfb5a6d	0.030682767
17	0xbba3059a	-0.004975033
18	0x3caa7080	0.020805597
19	0x3dd5cc4f	0.104393594
20	0xbc948190	-0.018128186
21	0x3cd1998d	0.025585914
22	0xba6b968c	-0.0008986972
23	0xbcc5e4fc	-0.02415704
24	0x3dc19f11	0.09454168
25	0x3d553424	0.05205168
26	0x3d8eae86	0.069668815
27	0x3cdfd704	0.027324207
28	0x3c49b7d0	0.012311891
29	0x3d3a5f25	0.045500893
30	0xbd1ed663	-0.038778674
31	0xbc95977c	-0.01826071
32	0x3d1f888d	0.038948584
33	0xbc951c06	-0.01820184
34	0xbd3663bf	-0.04452872
35	0xbd622fe9	-0.055221472
36	0x3b08052a	0.002075503
37	0x3d7384c2	0.05945278
38	0x3d483147	0.04887512
39	0xbcb8ce19	-0.022559213
40	0xbd7c42b5	-0.061587054
41	0xbc0d4285	-0.0086218165
42	0x3ba22e25	0.0049493485
43	0xbcd296ef	-0.025706736
44	0xbc105bae	-0.008810921
45	0xba9777b6	-0.0011556062
46	0x3d1bb8ed	0.038018156
47	0x3ca2877a	0.01983999
48	0x3d32c02f	0.04364031
49	0xbcab27b1	-0.02089295
50	0xbd4f0502	-0.050541885
51	0xbc824a47	-0.015904559
52	0xbd09eaf9	-0.033671353
53	0xbd1e332d	-0.038623024
54	0xba0f20ba	-0.0005459894
55	0xbd2cb9cb	-0.042169373
56	0xbbb23133	-0.005437994
57	0xbd3cf862	-0.046135314
58	0xbcb5d852	-0.022197876
59	0xba33538a	-0.00068407564
60	0x3c042c9a	0.0080672745
61	0x3c91a68e	0.017779615
62	0xba6c6bdf	-0.00090187596
63	0xbc9c0eae	-0.019049969
64	0xbd7fd38f	-0.062457617
65	0x3cc7dd39	0.02439748
66	0x3c81c7c0	0.015842319
67	0xbcecae06	-0.028891575
68	0xbcbabef6	-0.022796135
69	0x3caacfb4	0.020850994
70	0xbd9a2409	-0.075264044
71	0xbd1f3b8e	-0.038875155
72	0xbd858c4e	-0.065209016
73	0xbcfa1ecd	-0.030532265
74	0xbdcc1017	-0.099640064
75	0x3c01d6b6	0.007924726
76	0xbc951271	-0.01819727
77	0xbd85cda4	-0.065333635
78	0xbb976f84	-0.004621448
79	0xbbd53ec9	-0.0065077287
80	0xbc8a0a42	-0.016850594
81	0x3d005dca	0.031339444
82	0x3c82c502	0.015963081
83	0x3c76ebea	0.015070895
84	0xbc0b7c64	-0.008513544
85	0x3d317af4	0.043330148
86	0x3aa74a74	0.0012763278
87	0x3d088042	0.03332544
88	0xbd5ed0a1	-0.054398183
89	0x3d056266	0.032564543
90	0x3c8120a4	0.015762635
91	0x3d1c8c26	0.038219593
92	0x3c2dd014	0.010608692
93	0xbbf99f6b	-0.007617881
94	0x3cb8f11e	0.022575911
95	0x3daf9004	0.08572391
96	0x3d2ec38f	0.042666968
97	0x3d4e8826	0.05042281
98	0x3dae23ac	0.085028976
99	0xbb9f90db	-0.004869563
100	0x3d2bdbac	0.041957542
101	0x3d3e2613	0.04642303
102	0xbce3ab2d	-0.027791584
103	0x3d0970fb	0.033555012
104	0x3dbbdbec	0.09172806
105	0x3db517de	0.08842443
106	0x3d260d60	0.0405401
107	0x3c89a5f7	0.016802771
108	0x3d13354c	0.0359395
109	0x3cf00f03	0.029304033
110	0x3d91dc20	0.07122064
111	0x3c9497d2	0.0181388
112	0x3dabd99f	0.08391117
113	0x3cd7a377	0.026323063
114	0x3dc43ea9	0.09582264
115	0x3c2e3f0e	0.010635151
116	0x3d097711	0.033560816
117	0x3d580c91	0.05274636
118	0xbc9ae5fa	-0.01890849
119	0x3d909311	0.07059301
120	0xbd009264	-0.03138961
121	0xbd06506e	-0.032791547
122	0x3cda7fd1	0.026672276
123	0x3d1014cd	0.035176087
124	0x3ba43c23	0.0050120517
125	0xbc000ade	-0.007815091
126	0x3d0c4811	0.034248415
127	0x3c83f923	0.016110009
128	0x3c65d00a	0.014026651
129	0x3c9e55f9	0.019328104
130	0x3c92ebb1	0.017934652
131	0xbc2c5153	-0.010517436
132	0x3c078c60	0.008273214
133	0x3ccfe80f	0.025379209
134	0xbd2b7fb6	-0.04186984
135	0x3cdb3f9f	0.026763735
136	0x3d27e5d9	0.040990684
137	0x3d75703b	0.059921484
138	0x3d97cbf2	0.07411946
139	0x3c244778	0.010026805
140	0x3d77dc77	0.060512986
141	0x3d09a6dd	0.0336064
142	0x3b17544f	0.0023091023
143	0x3d934b2c	0.07192072
144	0x3d3e395b	0.046441417
145	0x3c5b05b3	0.013368058
146	0x3d8726ff	0.06599235
147	0x3d0694d8	0.032856792
148	0xbcca3b84	-0.024686582
149	0xbd0e6d77	-0.034772363
150	0xbcba4d3a	-0.022741903
151	0xbd388d00	-0.045056343
152	0x3bc234eb	0.0059267185
153	0x3d456941	0.04819608
154	0x3d3b7677	0.045767274
155	0xbd815dad	-0.06316695
156	0xbd825549	-0.06363923
157	0xbc9f1aca	-0.019421954
158	0x3b0dc490	0.0021632053
159	0xbce922b6	-0.028458934
160	0x3c79fbfb	0.015257831
161	0x3bd646d6	0.006539206
162	0xbd3b385e	-0.045708053
163	0xba5542cd	-0.0008135259
164	0xbce9ec3b	-0.028555026
165	0xbc18deee	-0.009330494
166	0x3c92d900	0.01792574
167	0xbbcc0710	-0.006226428
168	0xbbad45c1	-0.0052878563
169	0x3d50b50a	0.050953902
170	0xbc3e183c	-0.011602458
171	0xbd89bdd4	-0.0672566
172	0xbd61f98b	-0.055169623
173	0xbc8845d5	-0.016634861
174	0x3cc02178	0.02345346
175	0xbc5582ce	-0.013031675
176	0xbc5425fb	-0.012948508
177	0xbca75ae4	-0.020429082
178	0x3bc63444	0.006048711
179	0x3c64233d	0.013924417
180	0xba46abbc	-0.0007578691
181	0xbd8b0318	-0.067876995
182	0xbcd37622	-0.025813166
183	0xbc8dfc60	-0.017332256
184	0x3c617299	0.013760232
185	0xbad3689e	-0.0016129201
186	0xbd1e8cb1	-0.038708393
187	0x39dc100f	0.00041973635
188	0x3c6e2ec5	0.014537518
189	0xbc3e4ed1	-0.011615471
190	0x3c918cb2	0.017767284
191	0xbcbdd694	-0.023173608
192	0x3bc79a9e	0.00609143
193	0x3cd010c6	0.025398623
194	0xb8e222c0	-0.000107829925
195	0x3d42cef3	0.047560643
196	0xbc0a74f1	-0.008450733
197	0x3d8acd4d	0.06777439
198	0xbae9e87f	-0.0017845778
199	0x3dabd7bc	0.083907574
200	0x3b617c2f	0.0034406295
201	0xbcab9779	-0.020946251
202	0xbd044b60	-0.032298446
203	0xbd9a008e	-0.07519637
204	0xbd0c3ef5	-0.034239728
205	0x3d8b33e4	0.06797007
206	0x3b8679ac	0.00410386
207	0xbb7f7718	-0.0038980898
208	0xbbb031ad	-0.0053770156
209	0x3d616c46	0.0550349
210	0x3d9c71b0	0.07638872
211	0xbbe01740	-0.006838709
212	0x3c19146b	0.009343247
213	0xbc963959	-0.018337892
214	0x3e02b80d	0.12765522
215	0x3d8f3df7	0.06994241
216	0xbc0b2a9c	-0.008494046
217	0xbc9fb61d	-0.019496018
218	0xbc4102e3	-0.011780473
219	0x3de7db71	0.11321152
220	0x3db1ecff	0.086877815
221	0x3cfdfc10	0.031003982
222	0x3ca41e7b	0.020034065
223	0xbc21e18f	-0.0098804375
224	0x3c88b03e	0.016685601
225	0xbb97678f	-0.0046204994
226	0x3cd18153	0.025574362
227	0xbc1b3892	-0.009473937
228	0xbc8c2db9	-0.017111646
229	0xbc428b12	-0.011873977
230	0xbb3004e4	-0.0026858384
231	0xbb464ac1	-0.003025696
232	0xbd225937	-0.039635863
233	0x3c7e0abb	0.015505488
234	0x3cf4b76c	0.029872619
235	0xbcbab767	-0.022792531
236	0xbc9b3007	-0.0189438
237	0x3c2598c1	0.01010722
238	0xbca71347	-0.020394934
239	0xbd2da966	-0.04239788
240	0xbc87e8ec	-0.016590558
241	0x3b45e8e3	0.0030198626
242	0xbcb4abd7	-0.022054596
243	0x3d410c07	0.04713061
244	0xbc328597	-0.010896108
245	0xbd9c9c48	-0.07646996
246	0xbda55cdb	-0.080743514
247	0xbd970dd5	-0.07375685
248	0xbd97dc6f	-0.07415091
249	0xbdf83129	-0.121187516
250	0xbd0a0f61	-0.033706073
251	0x3c6b2eac	0.014354389
252	0xbb4e8437	-0.0031511912
253	0x3cf2fd2a	0.029661734
254	0x3caee4a9	0.021349268
255	0x3b072019	0.0020618497

fc1.0.bias f4 [120]
0	0xbd8d736f	-0.06906783
1	0x3d3f1f29	0.046660576
2	0x3b78cc4d	0.003796357
3	0x3d15b5f1	0.036550466
4	0xbb68d3f7	-0.0035526732
5	0xbcbf5691	-0.023356708
6	0x3cf06168	0.029343322
7	0x3b9881da	0.0046541514
8	0x3d094fc5	0.03352334
9	0x3d2dcb72	0.04243035
10	0xbc9642ae	-0.018342342
11	0xbac8ba13	-0.0015314244
12	0x3c8d6935	0.01726208
13	0x3d245d37	0.04012796
14	0xbcf3244d	-0.029680395
15	0x3d39924c	0.045305535
16	0xbd1fcacb	-0.039011758
17	0xbc7c54ed	-0.015401107
18	0xbce94670	-0.02847597
19	0xbd2676ff	-0.040640827
20	0xbc1d06d7	-0.00958415
21	0x3b6f31ea	0.0036498257
22	0x3d0d485c	0.034492835
23	0x3d28d471	0.041218225
24	0x3c06d283	0.008228901
25	0x3d06bfbf	0.032897707
26	0xbd1033cd	-0.03520565
27	0x3b9f8644	0.0048683006
28	0xbcbdc6a8	-0.023166016
29	0x3c1b2cc3	0.009471121
30	0xbd3cae5b	-0.046064716
31	0xbd6ac785	-0.057319183
32	0xbd0346ea	-0.03205005
33	0xbcbf6283	-0.023362404
34	0xbc3ae4ed	-0.011407119
35	0x3b8f6497	0.004376005
36	0x3c11d6d2	0.008901315
37	0xbd1d15ad	-0.03835075
38	0x3c2553d5	0.010090788
39	0xbbd5b077	-0.0065212804
40	0x3d8a19f6	0.06743233
41	0x3d64edfc	0.055891022
42	0xbc3d8fec	-0.011569958
43	0x3d1398fa	0.03603456
44	0xbcd502a1	-0.02600223
45	0xbca32fba	-0.019920219
46	0xbc889405	-0.016672144
47	0xbd1cf1c5	-0.038316507
48	0x3c165b20	0.009176999
49	0x3c5c6037	0.013450674
50	0x3d77a226	0.06045737
51	0x3c2025e6	0.009774661
52	0xbc6a3500	-0.014294863
53	0xbcd5568b	-0.026042243
54	0x3c0b1db1	0.008490966
55	0x3cdcee52	0.026969109
56	0xbc3b9515	-0.011449118
57	0xbc33aec1	-0.010966958
58	0xbb450b58	-0.0030066576
59	0x3cf0311f	0.029320298
60	0x3d39417a	0.04522846
61	0xbd2ff297	-0.04295596
62	0x3c6de567	0.014520026
63	0x3b4d16cd	0.0031294108
64	0x3d197e7d	0.037474144
65	0x3cf6a931	0.030109974
66	0x3d2b875b	0.041877132
67	0x3be8b733	0.007101917
68	0x3d6b60d3	0.057465386
69	0x3ce8fd92	0.028441224
70	0x3d8eaa36	0.06966059
71	0xbbaefa2c	-0.0053398814
72	0xbcc49b5d	-0.023999864
73	0xbc53cbfb	-0.012927051
74	0xbda88a4f	-0.08229505
75	0xbd51f64c	-0.051260278
76	0x3bdf8ba7	0.006822068
77	0xbd10ed3d	-0.035382498
78	0xbd183e9e	-0.03716909
79	0xbd5b6048	-0.053558618
80	0x3d4a1db5	0.049344737
81	0x3c95e8a8	0.018299416
82	0x3ccd2ea0	0.025046647
83	0x3d0ab34b	0.033862393
84	0xbb99b964	-0.0046912897
85	0x3c882a57	0.016621752
86	0x3cd33b5c	0.02578514
87	0xbce7bfd7	-0.028289719
88	0x3bb08e4f	0.0053880583
89	0xbc8597a6	-0.016307663
90	0xbcf7615b	-0.03019779
91	0x3ccda25b	0.025101831
92	0x3d039db6	0.032132827
93	0x3d884ac0	0.066548824
94	0xbd576287	-0.052584197
95	0x3d4dc4d8	0.050236553
96	0xbce75099	-0.028236674
97	0x3c1bb425	0.009503399
98	0xbc99cf49	-0.0187756
99	0x3cd3eabb	0.025868764
100	0x3d28759b	0.041127782
101	0xbcdb9d92	-0.026808534
102	0x3cccdb5f	0.025006948
103	0xbd165af6	-0.03670784
104	0x3d1f1fd5	0.038848717
105	0xbbcc4b38	-0.0062345527
106	0xbd3ee4c2	-0.04660488
107	0xbcb4b8a5	-0.022060702
108	0x3d11f746	0.03563621
109	0x3d119908	0.035546333
110	0x3be14fe4	0.006875979
111	0x3bcec266	0.006309795
112	0x3d86724a	0.06564768
113	0x3ada4491	0.0016652514
114	0x3d13cd9f	0.036084767
115	0x3bebfb4e	0.0072015887
116	0xbd4d0ea9	-0.05006281
117	0xbc63c3a2	-0.013901623
118	0x3d29ec6f	0.041485246
119	0x3c623e12	0.013808744

fc2.0.weight f4 [84, 120]
0	0x3dda60a9	0.10662968
1	0xbcc97e25	-0.024596283
2	0xbd8335eb	-0.064067684
3	0x3c95184e	0.018200066
4	0x3da21f63	0.07916143
5	0x3dfb7330	0.1227783
6	0x3cab2786	0.02089287
7	0x3d79b7ec	0.060966417
8	0x3d7b7b43	0.06139685
9	0xbe1c86c6	-0.15285787
10	0x3c7c4b52	0.015398817
11	0x3d3f62cd	0.046725083
12	0xbd8e266a	-0.06940921
13	0xbd1e60eb	-0.038666647
14	0xbdd0b15f	-0.10190081
15	0xbe08fada	-0.13376942
16	0x3e2e00e7	0.16992532
17	0x3ce85b3c	0.028363816
18	0x3d3207e9	0.043464575
19	0xbc4e9250	-0.012608126
20	0xbd3cba29	-0.046075974
21	0xbdcde7c5	-0.10053972
22	0x3cb31ec2	0.021865252
23	0x3db788aa	0.089616135
24	0xbd40d5a2	-0.047078736
25	0xbe03b1ba	-0.12860766
26	0xbdc24aa9	-0.094868965
27	0x3ca4f72c	0.020137392
28	0x3c88978b	0.016673824
29	0xbdda9240	-0.10672426
30	0xbc359878	-0.011083715
31	0xbc022125	-0.007942473
32	0x3d5a7d54	0.05334218
33	0xbd06ef56	-0.032943092
34	0x3ca97ccc	0.02068939
35	0x3d50e895	0.051003058
36	0xbd36fdeb	-0.04467575
37	0x3d9b6c60	0.0758903
38	0x3da6ddca	0.08147772
39	0xbd1e9856	-0.038719498
40	0xbd3232be	-0.043505423
41	0xbdee1e20	-0.1162684
42	0x3d291ce8	0.041287333
43	0xbda9ab50	-0.082846284
44	0x3dc51cd9	0.09624643
45	0xbdd591be	-0.10428189
46	0xbda31746	-0.079634234
47	0xbcff7952	-0.03118578
48	0x3c00b10d	0.007854712
49	0xbc4d58b7	-0.012533358
50	0xbd86f8c6	-0.065904185
51	0xbd3a65a0	-0.045507073
52	0xbd9cc61b	-0.07654973
53	0xbdd1354f	-0.10215246
54	0xbd6a65a7	-0.05722585
55	0x3d2dea4d	0.042459775
56	0x3d84a84c	0.064774126
57	0x3e2c6275	0.16834433
58	0xbd7da6ec	-0.061926767
59	0xbc6ecf4d	-0.014575792
60	0x3df04c6d	0.11733327
61	0x3bc031b6	0.005865301
62	0xbd012b5e	-0.0315355
63	0x3d9411f3	0.07229986
64	0xbd56bb2f	-0.052424606
65	0x3cde9b66	0.02717371
66	0xbc341452	-0.010991173
67	0x3cad1f21	0.021133007
68	0xbcfb269d	-0.03065806
69	0xbd13d549	-0.036092076
70	0xbdf2aa9e	-0.11848949
71	0xbdc20e55	-0.0947539
72	0xbd00902e	-0.0313875
73	0x3e346c68	0.17619479
74	0x3cb4e234	0.022080518
75	0x3d686bff	0.056743618
76	0x3d6253d4	0.055255726
77	0x3d3af7f3	0.04564662
78	0x3d96d120	0.07364106
79	0x3d58180b	0.052757304
80	0xbd4c4f6f	-0.04988044
81	0xbd041ad0	-0.032252133
82	0x3e166609	0.14687361
83	0x3ddec200	0.10876846
84	0xbde3a8f5	-0.1111621
85	0x3e127d75	0.1430567
86	0xbe1541fb	-0.14575951
87	0xbd8431f5	-0.06454841
88	0xbc928f61	-0.017890634
89	0xbd40b4b2	-0.047047324
90	0xbd711168	-0.05885449
91	0xbd70b772	-0.058768697
92	0xbd9de119	-0.077089496
93	0xbd02b48b	-0.03191046
94	0xbdd62180	-0.10455608
95	0x3e16a5d1	0.14711691
96	0x3df0e7e5	0.1176298
97	0x3da13fcb	0.07873496
98	0xbe0e9d9a	-0.13927308
99	0x3cf9c84d	0.030491019
100	0xbda83768	-0.08213693
101	0xbdc845c6	-0.09778933
102	0x3d9c68f9	0.076372094
103	0x3d935538	0.071939886
104	0x3d6baaa3	0.05753578
105	0xbd96aaaa	-0.0735677
106	0x3d966304	0.073431045
107	0xbd84de0d	-0.06487665
108	0xbd924f0b	-0.071439825
109	0x3db3ab9f	0.087729685
110	0x3d651e7a	0.055937268
111	0x3e216e36	0.15764698
112	0x3d277c27	0.040889885
113	0xbdf30e92	-0.118680134
114	0xbd17cf5d	-0.03706299
115	0x3d832c9f	0.06404995
116	0x3d9de8ea	0.077104405
117	0x3c1effae	0.0097045135
118	0x3ba1d5c4	0.004938813
119	0x3cb6903b	0.022285571
120	0xbe0e24da	-0.13881245
121	0xbcb353f5	-0.02189062
122	0x3d21bec4	0.03948857
123	0x3aa47892	0.001254814
124	0x3db956f6	0.090497896
125	0xbdb7a378	-0.08966726
126	0x3dc5c834	0.09657326
127	0x3d1beedf	0.038069602
128	0xbda5b74f	-0.08091604
129	0x3b119912	0.002221648
130	0x3b3a7115	0.002844875
131	0xbd6140ea	-0.054993547
132	0xbe15c73d	-0.14626785
133	0x3d90b83d	0.07066391
134	0xbdad5427	-0.084633164
135	0x3ca84a74	0.020543315
136	0xbdd2e8df	-0.10298323
137	0x3d9b0e17	0.07571047
138	0x3d59135c	0.05299698
139	0xbd358e17	-0.04432496
140	0x3d03f76a	0.032218374
141	0xbca5cad0	-0.02023831
142	0xbe1fec5f	-0.15617512
143	0x3d880a4f	0.06642591
144	0xbce22d5f	-0.027609525
145	0xbc86b248	-0.016442433
146	0x3b723fca	0.003696429
147	0xbdb220e7	-0.08697682
148	0xbd7aa28a	-0.061190166
149	0x3dfbe370	0.1229924
150	0xbd7141d6	-0.058900677
151	0xbe086264	-0.13318783
152	0xbca14746	-0.019687306
153	0xbda6f9a0	-0.08153081
154	0x3d15d6cf	0.03658181
155	0x3d8924c0	0.06696463
156	0x3cbd427d	0.023102993
157	0xbcc4ce9d	-0.024024302
158	0x3cdd4ac3	0.027013188
159	0x3c38bc95	0.01127543
160	0xb9a84099	-0.00032091586
161	0x3de0ba3f	0.109730236
162	0xbda2efe7	-0.07955914
163	0x3d98012a	0.07422097
164	0xbde44e97	-0.11147802
165	0xbdf8fe8a	-0.121579245
166	0x3d602e20	0.05473149
167	0x3ca3092f	0.01990184
168	0xbe146e63	-0.14495234
169	0x3d5a708f	0.05333
170	0xbcb32c7b	-0.021871796
171	0x3cb60edb	0.02222388
172	0xbcaeb9f2	-0.0213289
173	0x3ded0e1d	0.115749575
174	0x3d800c94	0.06252399
175	0x3dadbdda	0.08483477
176	0xbbe1ed65	-0.0068947547
177	0x3d2f9d0e	0.04287439
178	0xbd9c733c	-0.07639167
179	0xbd8125a5	-0.06306008
180	0xbd3ca3c3	-0.046054613
181	0x3d27d434	0.040973857
182	0x3d0ee658	0.03488764
183	0xbcb79644	-0.02241052
184	0xbd51f86f	-0.051262315
185	0x3cfcf150	0.030876786
186	0x3c411c3b	0.011786516
187	0x3d8e05b0	0.069346786
188	0x3d42e4aa	0.047581352
189	0xbda7dc0a	-0.08196266
190	0xbd520002	-0.05126954
191	0xbdf1985a	-0.11796637
192	0x3cfd93e0	0.030954301
193	0xbd741669	-0.059591684
194	0xbdf5d957	-0.12004345
195	0xbd21db26	-0.039515637
196	0x3de4ec90	0.11177933
197	0xbb3f6d17	-0.002920931
198	0x3ce10bfa	0.027471531
199	0xbb205daf	-0.0024469902
200	0x3e042dbb	0.1290807
201	0x3d282f0c	0.041060492
202	0xbd212955	-0.039346058
203	0x3c22f186	0.009945279
204	0xbd02a22b	-0.031892937
205	0xba10320d	-0.0005500622
206	0x3cf3be77	0.029753907
207	0xbd7eb7ba	-0.062186934
208	0x3dd48b22	0.103781
209	0x3c87b614	0.016566314
210	0x3dd0f766	0.102034375
211	0x3d7196f5	0.058981854
212	0xbd4251cd	-0.047441293
213	0xbcabb648	-0.020960942
214	0xbdafc05c	-0.085816115
215	0xbc74382b	-0.01490597
216	0xbc125409	-0.008931168
217	0xba1254a8	-0.0005582073
218	0xbd92b137	-0.07162707
219	0x3cb553e8	0.022134736
220	0x3dc570f6	0.09640686
221	0xbb17b622	-0.002314933
222	0x3d8f272d	0.06989894
223	0xbd3bfe4d	-0.045896817
224	0x3d62cd91	0.055371825
225	0xbd3bd7cb	-0.045860093
226	0x3c5ec501	0.013596774
227	0x3cd5e9cb	0.026112458
228	0xbd02fab5	-0.031977374
229	0xbd265d26	-0.040616177
230	0xbd1e09f0	-0.038583696
231	0xbd7c6c0d	-0.061626483
232	0xbd62c6d7	-0.05536541
233	0xbd209a54	-0.03920968
234	0xbc7a1bbf	-0.015265404
235	0x3d10f144	0.03538634
236	0xbd0c41a7	-0.0342423
237	0xbc99d1f8	-0.018776879
238	0x3e54252c	0.20717305
239	0xbda6e39d	-0.081488825
240	0xbdcd15ee	-0.100139484
241	0x3d1b12c3	0.03785969
242	0xbbf32eb5	-0.0074213394
243	0x3d70d80d	0.058799792
244	0xbda1a91d	-0.07893584
245	0xbd47626a	-0.04867784
246	0xbdb416a1	-0.087933786
247	0x3d9c755e	0.076395735
248	0x3d43fa31	0.047846023
249	0xbc83757e	-0.016047236
250	0xbd2d81a1	-0.042359952
251	0x3ca4123d	0.020028228
252	0x3cadcae2	0.021214906
253	0x3d9d9b45	0.07695631
254	0x3d90f72a	0.07078393
255	0xbd40733c	-0.046984896

fc2.0.bias f4 [84]
0	0x3d74c770	0.05976051
1	0x3de93b41	0.11388255
2	0xba89121e	-0.001045767
3	0x3d458873	0.04822583
4	0xbdb80871	-0.08985985
5	0xbd2330d2	-0.03984148
6	0x3df37578	0.1188764
7	0x3d87db5a	0.06633635
8	0xbd79db06	-0.060999893
9	0x3d17160f	0.03688627
10	0x3e1f6035	0.15564044
11	0x3cacb3e3	0.02108187
12	0x3d7af18a	0.061265506
13	0x3b8f73f0	0.0043778345
14	0xbbd4e2bf	-0.006496757
15	0x3d4428e4	0.04789056
16	0xbd6d0789	-0.057868514
17	0x3d320d49	0.0434697
18	0xbcad0997	-0.021122737
19	0xbd5c6f5e	-0.053817146
20	0x3de8aa2a	0.11360581
21	0x3dec2724	0.11530903
22	0x3d8e6142	0.06952144
23	0x3d8a9158	0.06766003
24	0xbd918fec	-0.07107529
25	0x3dd3449f	0.10315823
26	0x3dc65c91	0.096856244
27	0x3d49612f	0.049164947
28	0xbd4eaa41	-0.050455336
29	0x3d0a00c6	0.033692144
30	0x3d95b5dc	0.073100775
31	0x3d4e3929	0.05034748
32	0xbdc3f29c	-0.095677584
33	0x3d9a12f7	0.075231485
34	0x3cd7bceb	0.0263352
35	0x3d98dfde	0.07464574
36	0x3d2eec8c	0.042706057
37	0x3d6a0103	0.05712987
38	0x3d67b637	0.056570258
39	0x3dacf3e4	0.08444956
40	0x3dfb9fc7	0.122863345
41	0x3dad3477	0.084572725
42	0x3d90884b	0.07057246
43	0xbc0b7820	-0.008512527
44	0x3dbb8127	0.09155493
45	0xbdc3eb0a	-0.095663145
46	0x3d747c0a	0.059688605
47	0xbdadde3f	-0.08489656
48	0xbd92dd12	-0.07171072
49	0x3db64365	0.08899573
50	0x3da89111	0.08230794
51	0x3dae4cd5	0.08510748
52	0xbd9f2e56	-0.0777251
53	0x3d88d4d2	0.06681217
54	0xbd5655b7	-0.052327838
55	0x3d40764a	0.04698781
56	0xbbe1b07c	-0.0068874937
57	0xbd391dc9	-0.04519442
58	0xbbfd25e0	-0.0077254623
59	0xbc24dd48	-0.010062523
60	0xbd759e54	-0.059965447
61	0xbd9872e8	-0.07443792
62	0xbd76db84	-0.06026794
63	0xbd7cb5fb	-0.061696988
64	0x3d15f587	0.036611106
65	0x3bc6d264	0.006067561
66	0xbc5a8407	-0.013337142
67	0x3df6d720	0.120527506
68	0x3c421f97	0.011848352
69	0xbd52d6c6	-0.051474355
70	0x3d5e306c	0.054245397
71	0xbcf19d6b	-0.029494008
72	0x3d29a456	0.04141649
73	0xbda2887d	-0.07936189
74	0xbd361e9b	-0.04446278
75	0x3bee82be	0.0072787693
76	0x3cd150ee	0.025551286
77	0x3dcfab20	0.101400614
78	0x3d59052c	0.052983448
79	0xbd057f3b	-0.03259204
80	0x3d58d1c2	0.052934416
81	0xbd58dd06	-0.05294516
82	0xbcdfe1a1	-0.027329268
83	0xbbdae231	-0.006679796

fc3.weight f4 [10, 84]
0	0xbe539a28	-0.20664275
1	0x3dbe96ad	0.09306083
2	0xbd6c45e9	-0.05768386
3	0xbe874c95	-0.26425615
4	0x3d4a349f	0.04936659
5	0x3a688ea4	0.0008871353
6	0xbc9c4b70	-0.01907894
7	0x3cb6b8c7	0.022304906
8	0x3d2af12a	0.0417339
9	0x3cffe7c6	0.031238448
10	0xbd8d83e2	-0.0690992
11	0x3e299eb4	0.16564447
12	0x3a1f2f4b	0.0006072416
13	0x3e1997d1	0.1499932
14	0xbd55059f	-0.052007314
15	0xbdc425db	-0.09577533
16	0xbe486569	-0.19569935
17	0x3da6a0e5	0.08136157
18	0xbccaccf8	-0.02475594
19	0x3e764229	0.24048676
20	0x3d2aae87	0.04167035
21	0xbe6ad19c	-0.22931522
22	0x3e96a929	0.29425934
23	0xbd34ad65	-0.044110674
24	0x3c879750	0.016551644
25	0x3e234981	0.15946008
26	0x3d840760	0.06446719
27	0x3d57923b	0.05262969
28	0xbd20e941	-0.03928495
29	0xbde370a0	-0.11105466
30	0xbe734bcb	-0.23759381
31	0xbdf07a73	-0.11742105
32	0x3d92cad4	0.07167593
33	0xbe8295fd	-0.25505057
34	0x3e440658	0.19143045
35	0xbd71145d	-0.05885731
36	0x3e4699cc	0.19394606
37	0x3e27c1a6	0.16382465
38	0xbd5d56a5	-0.05403771
39	0xbe15f6ba	-0.146449
40	0xbda6140c	-0.081092924
41	0xbdc2d03d	-0.095123746
42	0xbbb5c3b9	-0.0055470136
43	0x3da5dddd	0.08098958
44	0x3df4a77d	0.11946008
45	0x3dc1f8dd	0.09471295
46	0xbe97bad8	-0.29634738
47	0xbdd48189	-0.10376269
48	0xbdbfaa7c	-0.09358689
49	0x3d9ef26d	0.07761083
50	0xbd9c067e	-0.07618426
51	0x3e2ea7ed	0.17056246
52	0xbd747369	-0.059680376
53	0x3c3e7ae4	0.011625979
54	0xbdb6fdb9	-0.089351125
55	0x3dcc0426	0.09961729
56	0xbc3a3001	-0.011363984
57	0x3ca5cf46	0.020240437
58	0x3e024f51	0.1272557
59	0x3ea4da00	0.3219757
60	0x3e2b29e6	0.16715202
61	0xbcd027b5	-0.025409559
62	0x3cb56e0e	0.022147205
63	0x3e007452	0.12544373
64	0xbe35d34f	-0.17756389
65	0xbdae99cc	-0.08525428
66	0x3dccaa55	0.09993426
67	0x3db23ac1	0.08702613
68	0xbdb8e6b0	-0.09028375
69	0xbdd4aa57	-0.10384052
70	0xbd112198	-0.035432428
71	0xbe057d59	-0.13036098
72	0x3e7e487b	0.24832337
73	0x3d50d329	0.050982628
74	0x3ce5563d	0.027995223
75	0x3d721504	0.059102073
76	0xbcadf726	-0.021236014
77	0xbe273112	-0.16327313
78	0xbc2d4030	-0.0105743855
79	0x3e0dc271	0.13843705
80	0x3e6a8bee	0.22904941
81	0x3d4b8df7	0.049695935
82	0x3da0b287	0.078465514
83	0xbe2f4f4c	-0.17120093
84	0x3e752458	0.23939645
85	0x3ddaf47b	0.10691162
86	0x3d94b3a1	0.07260824
87	0x3da8a98d	0.08235464
88	0xbc93844a	-0.018007416
89	0x3dc79a18	0.09746188
90	0xbd1cceea	-0.038283266
91	0xbe5e96ef	-0.21737264
92	0x3d6882da	0.056765415
93	0xbe764df2	-0.24053171
94	0xbe8b70b2	-0.27234417
95	0xbda78cb2	-0.081811324
96	0xbe2275ac	-0.15865201
97	0xbc154787	-0.009111292
98	0x3df49fc9	0.11944539
99	0xbd7bbf94	-0.061462
100	0x3d13f901	0.03612614
101	0xbe6a4127	-0.22876416
102	0xbe85eb0b	-0.26155886
103	0x3e17a15a	0.14807644
104	0xbe25cdcc	-0.16191787
105	0xbe0f6a19	-0.14005317
106	0xbea5fc27	-0.3241894
107	0xbd5b640c	-0.05356221
108	0x3d888355	0.066656746
109	0xbe4eab0f	-0.20182441
110	0x3e324883	0.17410474
111	0x3ddb16bd	0.10697696
112	0xbe46a145	-0.19397457
113	0x3e679473	0.22615223
114	0x3dedca4a	0.11610849
115	0xbd93bcb3	-0.07213726
116	0x3e37d48c	0.17952174
117	0xbe045ea3	-0.12926726
118	0x3e4ed946	0.2020007
119	0x3e035fe0	0.12829542
120	0x3e6fb468	0.23408663
121	0xbd0cc075	-0.03436323
122	0xbd87e064	-0.06634596
123	0xbe2cf1b0	-0.16889071
124	0xbe709178	-0.23492992
125	0x3d956008	0.07293707
126	0x3e1ad681	0.15120889
127	0xbb68e600	-0.0035537481
128	0xbe7651f8	-0.24054706
129	0xbe5a6333	-0.21326904
130	0x3dc8d7f1	0.098068126
131	0x3aa68c15	0.0012706543
132	0xbcf2f968	-0.029659942
133	0xbdb12b54	-0.08650842
134	0xbd56ec6a	-0.052471556
135	0xbe05690e	-0.13028356
136	0x3d34a453	0.044102024
137	0xbca6b450	-0.020349652
138	0xbd426bcf	-0.047466096
139	0x3d83240b	0.06403359
140	0xbdbc26b3	-0.09187069
141	0x3e30d314	0.1726802
142	0x3e556b5d	0.20841737
143	0xbe088e59	-0.13335551
144	0xbd0a5649	-0.033773694
145	0xbd00f98f	-0.031487998
146	0xbe267230	-0.16254497
147	0xbe238d4d	-0.1597187
148	0x3ea2bc05	0.31784073
149	0xbe2e69ba	-0.17032519
150	0x3c44704d	0.011989665
151	0xbc5e71c7	-0.013576931
152	0xbd8067cc	-0.06269798
153	0x3d3ac6a6	0.045599602
154	0xbcb328ce	-0.021870043
155	0xbc994748	-0.018710747
156	0x3e12f470	0.14351058
157	0xbe21b396	-0.15791163
158	0x3dc9ee7d	0.09859941
159	0x3d1e66b8	0.03867218
160	0xbce1da6f	-0.027569978
161	0xbd58e706	-0.052954696
162	0x3dc4ac51	0.09603179
163	0x3e2880ca	0.16455379
164	0xbde15dcd	-0.11004219
165	0x3e8095be	0.25114244
166	0xbd9ca5e7	-0.07648831
167	0x3e71a10d	0.23596592
168	0xbde2146f	-0.11039054
169	0x3e18cddd	0.1492228
170	0x3de964a9	0.113961525
171	0xbe29e90f	-0.16592811
172	0xbd90780b	-0.070541464
173	0x3c582183	0.013191584
174	0x3eb66d6c	0.35630357
175	0xbdbe3a58	-0.09288472
176	0x3dbbba56	0.091664
177	0xbcb91a21	-0.022595467
178	0x3ec002e6	0.3750221
179	0x3dc95117	0.0982992
180	0x3c9b20d2	0.018936548
181	0x3da9f994	0.082995564
182	0xbc42d0a8	-0.011890568
183	0xbd5d8723	-0.054083955
184	0xbdc424f7	-0.09577363
185	0x3e126876	0.14297661
186	0xbd0ac1b2	-0.03387613
187	0x3e58fecd	0.21190949
188	0x3e8ef6f3	0.27922782
189	0x3d7c537f	0.061603066
190	0x3e35f32b	0.17768542
191	0xbdea9d82	-0.114558235
192	0x3c69619d	0.014244464
193	0xbd270750	-0.040778458
194	0xbdf5bc30	-0.119987845
195	0x3ddf95b4	0.109172255
196	0x3e0af210	0.13568902
197	0xbe7d52a9	-0.24738564
198	0x3cbfd025	0.02341468
199	0x3d684e99	0.05671558
200	0xbdb8ce8d	-0.090237714
201	0x3e378ac2	0.17924026
202	0xbe56a4fd	-0.20961376
203	0xbbe7da84	-0.0070756096
204	0x3d6728aa	0.056435265
205	0x3c9bf797	0.019038958
206	0x3db16d2d	0.08663402
207	0xbdc7ad8c	-0.09749898
208	0xbe27de14	-0.1639331
209	0xbdbe2b13	-0.092855595
210	0x3ba0c082	0.004905761
211	0x3cbf8f90	0.023383886
212	0x3e86264e	0.262011
213	0x3d5c7c5f	0.053829547
214	0xbd4fff95	-0.05078085
215	0xbbe7c596	-0.0070731146
216	0xbcc12b2b	-0.023580154
217	0xbdb12105	-0.08648876
218	0x3db29aba	0.08720918
219	0xbe0433fc	-0.12910455
220	0xbddb2a04	-0.10701373
221	0x3de6cc3f	0.112694256
222	0x3d281d34	0.041043475
223	0x3da4faaf	0.080556266
224	0x3d2ac370	0.04169029
225	0xbe0449cc	-0.12918776
226	0xbe93f6eb	-0.2889932
227	0xbcb9fb1e	-0.02270275
228	0x3e7d1a01	0.24716951
229	0xbc1752f6	-0.009236088
230	0x3e0772f4	0.13227445
231	0xbde290da	-0.110627845
232	0x3d963307	0.073339514
233	0xbb59e55e	-0.0033248286
234	0x3e21698d	0.1576292
235	0x3a29f307	0.0006483052
236	0xbdc50b5a	-0.09621306
237	0x3dc96159	0.09833021
238	0x3e98353c	0.29728115
239	0x3e121cd5	0.14268811
240	0xbbe36182	-0.006939114
241	0xbd1706c8	-0.0368717
242	0xbdcbb366	-0.09946327
243	0x3de9f638	0.114239156
244	0x3cf71d43	0.03016532
245	0x3e4a080d	0.19729634
246	0x3e33924d	0.17536278
247	0xbc7edaa5	-0.015555059
248	0xbd2fb7e7	-0.042899992
249	0xbd7d9012	-0.061904974
250	0xbb313f71	-0.002704587
251	0xbcf8bedc	-0.030364446
252	0x3d8b9323	0.068151735
253	0xbe051c70	-0.1299913
254	0xbd7ae32e	-0.06125181
255	0xbd391f0e	-0.04519563

fc3.bias f4 [10]
0	0xbd9fc783	-0.07801726
1	0xbdeb96f7	-0.11503404
2	0x3e303f89	0.17211737
3	0xbc51dd45	-0.012809102
4	0x3e11ff67	0.14257585
5	0xbd005064	-0.031326666
6	0x3dc802c8	0.097661555
7	0x3c1ef214	0.009701271
8	0xbc201bfd	-0.009772298
9	0xbe33bf89	-0.17553534
