raw_np/ResNet20_hardtanh_quantized_3_bits/activations/initial_layer.act_epoch_40.npz (npz, 415940 bytes, 1 tensors)

activations f4 [8, 16, 32, 32]
000000 00 00 80 bf 2e fb d3 be 57 23 c5 be 7e f2 e4 be
       -1.0 -0.41402572 -0.38503525 -0.44716257
000010 5c 01 06 bf a2 b9 01 bf 94 c9 fd be 6f 8b f7 be
       -0.52345824 -0.5067388 -0.49567854 -0.48348567
000020 dc e1 01 bf 36 7d d5 be 90 d5 b9 be 0c e5 ab be
       -0.5073526 -0.4169709 -0.36295748 -0.33573186
000030 aa 70 18 bf 34 25 2e bf 2e 4e 01 bf fd f0 06 bf
       -0.5954691 -0.6802552 -0.5050992 -0.5271147
000040 d7 75 ea be d6 2b 9f be d1 d1 79 be b2 30 7e be
       -0.4579303 -0.31088132 -0.24396445 -0.24823263
000050 af db 67 be a3 6f 84 be 40 9b c2 be 71 ee d2 be
       -0.22642396 -0.25866422 -0.3800907 -0.4119754
000060 fc 8c 05 bf f4 b2 07 bf 48 f7 0c bf bf e0 19 bf
       -0.5216825 -0.53007436 -0.5506482 -0.6010856
000070 08 45 15 bf a9 27 e5 be 30 2e ce be 3a 59 fe 3d
       -0.5830846 -0.4475682 -0.40269613 0.12419362
000080 00 00 80 bf b8 23 5d be be 98 06 be c1 75 d6 bd
       -1.0 -0.21595657 -0.13144204 -0.104716785
000090 6c 1a d3 bd 88 a3 0a be 6b e8 2d be 06 93 f0 bd
       -0.10307774 -0.13538945 -0.16983192 -0.117467925
0000a0 34 32 1a be ba 71 19 be d9 37 19 bd 2a 67 33 3c
       -0.15058213 -0.1498479 -0.037406776 0.010949889
0000b0 9e 43 84 be a1 42 9c be 05 ef e3 bd 5b 18 1b be
       -0.25832838 -0.30519584 -0.11129574 -0.1514601
0000c0 b6 5b c1 bc bb f6 68 3e a9 96 c1 3e 4f be 09 3f
       -0.023603301 0.2275037 0.37810257 0.5380601
0000d0 79 e6 0f 3f e3 32 00 3f 1a 8a 6d 3e 57 35 fb 3d
       0.5621105 0.50077647 0.23197213 0.12266033
0000e0 2d 61 22 3d c0 62 45 bd 46 42 80 be 3c d8 98 be
       0.039643455 -0.04818988 -0.25050563 -0.29852474
0000f0 62 4e 8f be 46 c9 24 be f2 c1 fe bd 30 5f 2a 3f
       -0.2798949 -0.16092405 -0.12439336 0.66551495
000100 00 00 80 bf df 77 bc be 3d 74 7f be fd ac 70 be
       -1.0 -0.36810204 -0.24946685 -0.2350349
000110 a4 8e 23 be 51 8c 2b be ca 39 3a be 53 e5 06 be
       -0.15972382 -0.16752745 -0.18186107 -0.13173418
000120 4e 6a 17 be 5b 58 1e bd ba 7f 05 bd f5 d8 be be
       -0.14786646 -0.03865848 -0.032592513 -0.372749
000130 cd b1 03 bf 64 82 88 be 4e 37 03 bd 90 73 7d 3d
       -0.5144318 -0.2666198 -0.032035165 0.061877787
000140 20 dd 84 3e 27 4e 02 3f 28 11 33 3f e9 3e db 3e
       0.25949955 0.509005 0.69948053 0.42821434
000150 fc aa 68 3e 6a b4 7c 3c 85 bd 53 bd 2b 46 f7 3d
       0.22721475 0.015423873 -0.05169441 0.1207393
000160 c5 81 ef 3d 61 bc 90 3e e8 54 a4 bd d2 56 65 be
       0.116946734 0.28268722 -0.08024007 -0.223964
000170 77 4e 8a be 9c ed 2d be ce 86 2a be 12 4f 1a 3f
       -0.2701299 -0.16985172 -0.16652986 0.602769
000180 00 00 80 bf 6f de 82 be 2b d6 64 be 5f 5e 35 be
       -1.0 -0.25560328 -0.22347324 -0.17711781
000190 d2 89 be bc 4c 51 5e bd d2 57 b9 bd bb 8b b2 bd
       -0.023259077 -0.05427675 -0.090499535 -0.08718058
0001a0 8e 52 4f bd c2 4f 07 3d 19 4c c2 3e dc a4 dc be
       -0.05061584 0.033035047 0.37948683 -0.43094528
0001b0 25 5a f9 be 60 85 c7 bd 39 69 86 3e c6 72 d3 3e
       -0.48701587 -0.09742236 0.26252154 0.41298503
0001c0 9e 39 3f 3f e2 ac 6b 3f 55 14 05 3f 2e 08 03 3e
       0.7469729 0.92060673 0.5198415 0.12796089
0001d0 92 a6 38 bd cd 8e 8c be 0d d5 1c bf 80 39 2a bf
       -0.04508073 -0.27452698 -0.6126259 -0.6649399
0001e0 66 96 bf be 40 4d d7 be a5 12 a0 be 73 03 07 be
       -0.37419432 -0.42051125 -0.31264225 -0.1318491
0001f0 5d d7 56 be 52 a2 5e be 39 ab 09 be 91 0d 2b 3f
       -0.20980592 -0.21741608 -0.13444223 0.66817576
000200 77 75 7e bf 98 5c 96 3e ab 4f 6c 3e 83 ca 53 bd
       -0.9939799 0.29367518 0.23077266 -0.051706802
000210 4d 4c 86 bd 1a 66 94 bd 82 3a cd bd 3e 5b f8 bd
       -0.06557522 -0.07246037 -0.10020925 -0.12126778
000220 1d a4 54 bd 10 b0 72 3d 00 00 80 3f a9 35 75 3f
       -0.051914323 0.059249938 1.0 0.95785004
000230 6d ac 05 3f b7 ec f2 3e 48 ee 45 3f 98 e5 6b 3f
       0.52216226 0.47446224 0.77316713 0.9214721
000240 b3 3c ce 3e 64 ae fc 3d 2e 30 a9 3e 25 e0 99 bc
       0.40280685 0.1233795 0.3304457 -0.018783638
000250 f1 ec 37 bd f2 33 a0 be 24 0e eb be 17 c9 ea be
       -0.0449037 -0.3128963 -0.45909226 -0.45856544
000260 d5 c3 35 bf df 08 fc be 15 40 cb be 8d 79 56 be
       -0.7100194 -0.49225518 -0.39697328 -0.20944805
000270 06 07 a2 be d8 26 e5 be 31 c6 b4 be 55 96 17 3f
       -0.31645983 -0.44756198 -0.35307458 0.59213763
000280 2d 63 07 bf a1 a1 0e 3f f5 da 3e 3f 46 ae 47 3e
       -0.52885705 0.55715376 0.7455285 0.19500074
000290 2d ef 9d be c6 58 44 be 2c 59 28 be 0b f7 1e be
       -0.3084654 -0.1917449 -0.16440266 -0.15523927
0002a0 9d a4 0d be ee 14 fe bc 80 66 0b 3f 89 f6 cc 3d
       -0.13832326 -0.03101584 0.5445328 0.1000796
0002b0 b2 40 0e 3f df 4b 5a 3e 92 96 b1 bc a2 2d d4 bd
       0.5556747 0.21318005 -0.021678243 -0.10360266
0002c0 0f d7 90 be 02 a7 dd 3c 0c 73 c1 3d 3c 69 b3 be
       -0.28289077 0.027057175 0.094457716 -0.35041225
0002d0 04 7c bc be 2e fd 9b be a0 a3 8f be e6 32 ec be
       -0.36813366 -0.30466598 -0.28054523 -0.46132582
0002e0 6f 16 df be bf 3f 0a bf c4 ed 0f bf 3e b9 fd be
       -0.43571803 -0.5400352 -0.56222177 -0.4955539
0002f0 4f 92 e3 be 8c f5 11 bf 81 39 c2 be 18 73 19 3f
       -0.44447562 -0.570153 -0.37934497 0.59941244
000300 46 72 04 bf da 33 55 3d 3c cf 56 be 8b 77 0e bf
       -0.5173687 0.052051403 -0.20977491 -0.5565116
000310 8a ff 39 bf 4f bf a4 be 6f 84 92 bd d9 1b 1a bd
       -0.72655547 -0.32177207 -0.07154166 -0.037624214
000320 7c cb 9b 3c d1 c7 40 3e fc 39 fe 3e 30 f2 f2 3e
       0.019017927 0.18826224 0.49653614 0.474504
000330 d7 07 a3 3e e9 2c df bd d5 52 e0 bd 83 dc fd bc
       0.3184192 -0.10897238 -0.10953299 -0.030988937
000340 87 4b f1 be 72 51 a4 be e0 29 15 bd 20 68 23 be
       -0.47127935 -0.32093388 -0.03641689 -0.1595769
000350 4c 2d ec be a2 4f f0 be 70 98 98 be 0d d3 ed bd
       -0.4612831 -0.46935755 -0.298038 -0.1161252
000360 69 7b af be 4c c3 c3 be 3f 68 8c be 3d 6a 33 bf
       -0.34273842 -0.38234937 -0.27423283 -0.7008398
000370 23 55 27 bf e5 e3 29 bf aa f7 fc be 27 a9 0b 3f
       -0.65364283 -0.66363364 -0.49407703 0.5455498
000380 41 32 12 bf 39 03 b4 be e5 e4 54 be 00 00 80 bf
       -0.5710793 -0.3515871 -0.20790441 -1.0
000390 00 00 80 bf 0d dd 0b bf 13 6f 54 bc 79 2c 8d 3d
       -1.0 -0.5463417 -0.012965935 0.06893248
0003a0 33 8b 46 3e 8c 61 0d 3e 6c b4 e8 3e 6d 4d bd 3e
       0.19389038 0.13806742 0.4545015 0.36973134
0003b0 7c 18 24 3e 84 5f 21 be 08 01 4d bd a6 f5 fd 3d
       0.16024965 -0.15759093 -0.05004981 0.12400369
0003c0 96 ae 98 be 06 48 be be 0a 9d 34 be 58 71 c1 3d
       -0.29820698 -0.37164325 -0.1763803 0.09445447
0003d0 66 ec fd bd c9 db ac be 83 21 5c be 7a 46 c5 bd
       -0.12398605 -0.33761433 -0.21497159 -0.09632583
0003e0 58 08 97 be 99 13 a1 be 8f 84 23 bf e3 b2 3a bf
       -0.29498553 -0.31460264 -0.63874143 -0.7292921
0003f0 13 14 12 bf 0a 63 21 bf e9 ed 1e bf f3 10 00 3f
       -0.5706188 -0.63041747 -0.6208177 0.5002586
